_models_trained/vaca/loan_non-linear/epoch=44-step=900.ckpt (torch, 32121 bytes, 31 tensors)

model.encoder_gnn.pre_nn.fc_layers.0.0.weight f4 [16, 1]
00000000: cda6 dcbe 1a45 2e3e c672 b839 2458 19bf
00000010: 6cc1 2bbf 5e8c 153f c278 a4bd 79c5 08bf
00000020: 6704 ffbe 40e9 013f 3c9a 7ebe 3c6b 23bc
00000030: e04f 0abd 5774 49bf 7ab5 203f ea2c 76bf
-0.4309601 0.17018548 0.00035180728 -0.59900117 -0.67092013 0.5841731 -0.08030845 -0.5342632
-0.49808046 0.50746536 -0.24863523 -0.009974297 -0.03376758 -0.78693146 0.6277691 -0.96162283

model.encoder_gnn.pre_nn.fc_layers.0.0.bias f4 [16]
00000000: c5d9 3a3e e995 76bf f806 01be d9fa 1cbf
00000010: ecd8 d4be 71c7 f7bb 8f40 60bf 32d7 0cbd
00000020: bcfd 023d a19e 56bd 59d0 843e d0d4 3dbe
00000030: c1e0 d2be 546b 283e f822 833d 9761 bcbd
0.18247135 -0.96322495 -0.12600315 -0.61320263 -0.41571748 -0.007561617 -0.8759851 -0.034384914
0.03198026 -0.052397374 0.25940207 -0.18538213 -0.411871 0.16447192 0.06403154 -0.09198301

model.encoder_gnn.lin_skipsum.0.0.weight f4 [16, 16]
00000000: 1eeb 023e cbe9 3c3e b0f1 7d3e 2eb5 5b3e
00000010: 6d92 0bbd 923c 15be c9a2 fbbd fffc b33d
00000020: ded0 303e 5100 acbe 7fd9 ca3d 0684 1a3e
00000030: b042 773e 8260 4e3d b870 9ebb a039 c8bb
00000040: e6e7 47bc 1d34 bebc 3eae 0e3e d397 5f3d
00000050: b3a2 cb3d 9c5b 703e ec6b eabd 1498 1cbe
00000060: 062c 90be 06df 9b3e 9203 57bb d459 203e
00000070: 79c3 2ebd d2ca 83bd b95e 9c3d c4d3 50be
00000080: 945b 1d3e 069c cabc bf64 dabd 5f72 e53c
00000090: 4906 233e 4b64 bebd e82d 2abe fc53 68bd
000000a0: bbf8 6e3d 8ea2 34be 6d9f 933e 116f 3e3e
000000b0: 4934 ddbd 2b4b 133d 2e3f 12be f24e a03d
000000c0: 302b 4f3e 77e4 5bbe f91b 2b3e 8b37 2c3e
000000d0: 404f fdbd dab7 55be 8d6d 2bbe 21f0 ae3d
000000e0: c754 9a3e be1f 82be 692f 8cbc 54bd 6cbe
000000f0: 0ccc 1bbe 3acf 24bb 232f 4cbd af07 95bd
00000100: ec15 8bbd 4430 243e caa4 50be f6c7 2f3e
00000110: e4fa 85be 537e 453e 838a 29bc d6c1 abbc
00000120: 6c1e e0bd 2a02 a63d 87a9 3dbe 3ad2 c2bc
00000130: 88e8 8dbe b332 6abd 646a 003e 37ed 29bd
00000140: 478b 363d a8ae 213e 9dd4 4dbe 6cd7 3fbd
00000150: 5de1 1fbd 9c94 893e dd01 6dbd fc51 cdbd
00000160: 71e5 d4bd 1f56 153e 6a2e 9e3d ac3f 11be
00000170: e078 4bbe 066c 05bd 9627 703e 1e60 1fbe
00000180: e13b 5bbe 5cdf 343d f751 13be ca58 88bd
00000190: 7c51 07bd 5346 6d3d 49af 903d 18f2 9bbd
000001a0: 02af 213d 99f5 8e3d ca61 e8bd 98c9 423e
000001b0: a76b 6a3e 3d37 48be cf53 333e 8d17 5e3c
000001c0: 12e2 8dbd 8274 2d3e 182f 1b3c 223c f8bd
000001d0: 3f5f 20be c9ed 153e ecbf 693c d9c9 5cbe
000001e0: 661f 25be 024b e83d 75dc b2bd eb7a 8e3d
000001f0: 1296 99bd 3c76 7dbd efee 3f3e 0073 24be
00000200: 63af 80be 9db5 5bbe a19a aebd 081b c8be
00000210: d1de af3c e249 393e fc0a 61be 38ff 7bbe
00000220: 471b 89bd 09ab 6b3e ea0f 40be 0630 4e3e
00000230: 6845 82be 35c7 17bd bb1c 763d fde3 b0bd
00000240: 7651 98bc aa96 f5bd 34c3 443d 3342 25be
00000250: a7cb 27be 4738 763e bb3d 7f3e 1a2e 5cbe
00000260: 53e3 63be 2998 423e b980 67bd b0f8 95bd
00000270: bbf3 063e 03d5 bcbc eeb7 ba3d 5a1d 033e
00000280: 099b 03be abf6 14bd 4eaa 0a3d e68f 283c
00000290: 37a3 56bc bedf 673e d9d9 5dbb 97c6 80be
000002a0: 25cb 46be 490d 143e 1f01 b03d c370 1fbe
000002b0: e553 713c c878 9abd 16f8 5a3e 841b cc3c
000002c0: f312 40bd 3c14 9fbd d242 10be 6ede 03be
000002d0: f873 e1bd 7437 143e fe4f c5bd 13f4 e53c
000002e0: 40b6 41be 11c7 633e ada7 84bd 8e6f bcbc
000002f0: 4432 523d 3fc3 34bd 9e2c b13d 085c 04bc
00000300: 02ef 893e 297d a33b f71d 68bd be44 213d
00000310: 155d 5b3e 6c5f 37be 6dba 3bbe 0723 c43d
00000320: 8f71 873e 46d2 d4bd 294d 8f3e 20f3 02be
00000330: 38f1 9cbd 068f ea3c 1679 77be 203c 78bd
00000340: c0a5 163d b198 c6bd a324 383e bbdb a3bd
00000350: 48c0 32be ca18 87be 1256 013e 162d 473e
00000360: 7eac fe3d bb7c 40be d60e 34bd a09f 09be
00000370: 9ecf 3abd e5be 823d 543b b0bd 0e9b 5a3e
00000380: 7530 6c3d 6cc3 c63d dd5d a83d 9c37 9cbc
00000390: f115 77be 851c 7f3e bbaf cbbd aab3 44be
000003a0: 0309 0d3e 93da a03d 5fc8 653d 730c a2be
000003b0: 1052 29bb 4e0c 24bd 0153 9a3e cffb fcbd
000003c0: 06f9 483e 8d1f 463e e146 663d c3e7 903d
000003d0: fd7f 83bd 952d 3bbd 56d3 213e 7b87 fd3d
000003e0: cb93 54bd 651b f9be 27da 0e3e 71b9 1f3d
000003f0: cffe 103d 5430 333e f8ea a43c 307a 423e
0.12785003 0.1844856 0.24799228 0.21455833 -0.03407519 -0.14573887 -0.12286908 0.087884896
0.17267177 -0.3359399 0.09904765 0.15089425 0.24146533 0.050385006 -0.0048352145 -0.006110385
-0.012201285 -0.023218209 0.13933656 0.05458815 0.09943142 0.23472446 -0.11446366 -0.15292388
-0.28158587 0.3044359 -0.0032808525 0.15659267 -0.042666886 -0.06435169 0.076352544 -0.20393282
0.15366966 -0.0247326 -0.10663747 0.028008638 0.15920366 -0.09296473 -0.16619074 -0.05672072
0.058342677 -0.17640135 0.2883257 0.18597056 -0.10800988 0.035960358 -0.14281914 0.078275576
0.20231318 -0.21473871 0.1670989 0.16818063 -0.12368631 -0.20870915 -0.16741009 0.08541895
0.30142805 -0.25414842 -0.01711245 -0.23119098 -0.15214556 -0.002514793 -0.04984964 -0.07276856
-0.06791291 0.16034037 -0.20375362 0.17166123 -0.26167977 0.1928647 -0.010347965 -0.020966452
-0.109433025 0.081058815 -0.18521701 -0.023781884 -0.2771647 -0.057177257 0.12540585 -0.04148599
0.04456642 0.15789282 -0.20100637 -0.0468363 -0.039033283 0.26871192 -0.057863105 -0.10025403
-0.10395325 0.14583634 0.077236965 -0.14184445 -0.19870329 -0.032573722 0.23452601 -0.1556401
-0.2140956 0.044158325 -0.14386736 -0.0665756 -0.033036694 0.057928395 0.07064683 -0.07614535
0.03947354 0.06980438 -0.11346777 0.19022214 0.22892629 -0.19552322 0.17512439 0.01355542
-0.06927885 0.16938975 0.009471677 -0.121208444 -0.15661334 0.14641489 0.014266949 -0.21561374
-0.16125259 0.113424316 -0.08733455 0.069570385 -0.07499327 -0.061880335 0.1874349 -0.16059494
-0.2513381 -0.21455999 -0.08525587 -0.39083123 0.021468552 0.1809459 -0.21976846 -0.24609077
-0.06694656 0.23014463 -0.1875607 0.20135507 -0.25443578 -0.037055213 0.060085993 -0.08637235
-0.018593531 -0.119916275 0.048037723 -0.16138534 -0.16386281 0.24044906 0.24925892 -0.21501961
-0.22254686 0.19003357 -0.056519244 -0.07322824 0.13178913 -0.02305079 0.09117113 0.12804165
-0.1285211 -0.036368053 0.03385382 0.010288214 -0.013100437 0.22643945 -0.003385177 -0.25151512
-0.19413431 0.14458193 0.08593964 -0.15570359 0.014729475 -0.075425684 0.213837 0.024915464
-0.04689307 -0.07767531 -0.1408799 -0.12877819 -0.110084474 0.14474279 -0.09634398 0.028070485
-0.18917179 0.22243907 -0.06477294 -0.023002412 0.05131747 -0.044131514 0.08651088 -0.008078583
0.2694016 0.0049892855 -0.0566692 0.0393722 0.21422227 -0.17907494 -0.18332835 0.095769934
0.26453826 -0.10391669 0.27988556 -0.12788057 -0.07663196 0.028632652 -0.24167284 -0.060604215
0.036779165 -0.09697092 0.17982726 -0.08000895 -0.17456162 -0.263861 0.1263049 0.19450793
0.12435244 -0.18797581 -0.04395946 -0.13439798 -0.045608155 0.063840665 -0.08605066 0.21348211
0.0576634 0.097052425 0.08221028 -0.019069485 -0.24129464 0.24913223 -0.09945627 -0.19209161
0.13772969 0.0785419 0.056099292 -0.31650123 -0.0025836267 -0.040050797 0.30141452 -0.12352716
0.19626245 0.19347973 0.05621994 0.07075455 -0.06420896 -0.045697767 0.15803275 0.123793565
-0.05189876 -0.48653713 0.13950406 0.03899521 0.035399254 0.17498904 0.020131573 0.18991923

model.encoder_gnn.lin_skipsum.0.0.bias f4 [16]
00000000: d000 8fbc 8085 293d 7ce1 5ebd 12cd 383e
00000010: 07ad bb3d e574 debd 739a e83d c0e8 3b3e
00000020: 902f 723e 14aa 05bc 9363 5ebc 6e12 9d3b
00000030: b1a8 d7bd 1d3c 4abc da5c 18be c9d8 0abe
-0.017456442 0.04138708 -0.054414257 0.18046978 0.09163862 -0.108621396 0.11357584 0.18350506
0.23650956 -0.008158226 -0.013573545 0.0047934568 -0.10530222 -0.012343434 -0.1487917 -0.1355926

model.encoder_gnn.gnn.0.0.nn.0.weight f4 [16, 16]
00000000: 1463 01be f029 14be 40c6 fabd 8f21 3ebe
00000010: fbe6 213a 5fc4 0fbe bdcf 1a3e 112a 3c3d
00000020: ce51 493d 1168 06bf 17d7 8bbd 159a cb3d
00000030: ec11 40bc 6422 6f3b e78b c03e 4755 0abd
00000040: d3c2 173c 2526 4d3e 2e7a 8a3e d670 663d
00000050: b954 c1be 7379 ed3b 25f6 6ebe 7de5 d2be
00000060: 723b babe 0b08 333e 5f29 2d3e b509 f93d
00000070: 9a1e 1cbd 5843 cfbd de90 083e 0d1a 72bd
00000080: 11b8 4abe f0b0 25be 1623 e43d a183 7fbe
00000090: ea0a 2d3d 876b 953e 7ab0 b33d c29c 0cbe
000000a0: fe39 f93d d4bb f3be d430 3bbe cc95 c2bd
000000b0: 987e 163e c19e 18bd a122 ad3d 50fd a53d
000000c0: 60bb 113d 3713 2c3d e24d 093e 1924 aa3c
000000d0: e4e9 f53d 5177 9a3e c392 43be 5ff3 353d
000000e0: 694c c8bd 8194 5cbe 0a0c 3cbd 1042 60be
000000f0: 7920 51be 6943 123e a053 05be 2a6d ed3d
00000100: 075b 393d 71bd ca3d fd0e 6d3d 2b0b 94be
00000110: 0a2e 20bf b70b a63e 8415 bc3d 7833 29be
00000120: b1e2 443e 4e54 803e b419 ba3d ad71 b1bd
00000130: 0e4b 0ebd 60a6 f53a 2413 b0bc 4e17 d43d
00000140: b3aa 283d 9890 eb3d a95c aabd 21ba 203d
00000150: 3eef f5bd 6504 42be 36e1 543e 727b 6cbe
00000160: bffa 483e c3bd 463a 4a68 a13c fc9a 93be
00000170: f90a 3d3d 0b3b 1fbe fb6f 683e f263 843c
00000180: 3dd8 1f3d f162 3a3e 8748 8d3d 6af5 26bd
00000190: 66bb 92be fc52 1cbc 9f73 323e 01fa 47be
000001a0: a1b1 a6be 0225 993e 371a 653e 9e6e 5a3e
000001b0: 8a7c d1bd ef86 a6bd 80ba 49bd 3311 573e
000001c0: 4b7c 81bd 9814 2e3e 8aa2 febd 1ed7 dfbd
000001d0: b981 aa3c e773 22be 5413 5dbe 3df3 fabd
000001e0: 2570 7dbd 6eee fa3e b35c 873d e000 1b3d
000001f0: fb4a f7bd 8bfc 223d 5023 a3be 0c13 f5bb
00000200: 1918 14be 2cb1 78bd 0037 27bc 4bd1 8fbd
00000210: 4c06 8f3d a201 06bf db7b 38be 1b68 fabb
00000220: 4c16 9ebc 45a2 c73e bec5 91bd d349 4e3e
00000230: 3816 9bbd 1e4b 36bd ca25 993e 5b8f a13c
00000240: 6f3e 9ebd 6c9b 53bd fdf9 493d b8a5 db3d
00000250: 2c12 553e 4217 a4bd 73f4 2fbe 10bf b73d
00000260: b3bd a2bd bbc6 30bd dbf6 9e3c 2b9e 6dbd
00000270: 72c9 03be 848a ca3d ae56 6c3e be67 f53d
00000280: 066a a13d f11f b5bc 1eb5 663e ee98 333c
00000290: 0578 de3c aa6d 0cbe c9f7 12be aa5b ce3d
000002a0: 9e05 b7be 536e 7bbd 50f5 743e c1fc 503e
000002b0: e24b ae3d da6a 6c3e 68aa 3b3e 3b73 81bc
000002c0: 62b9 fabd 0ea4 1bbe 29b8 983d 1397 4b3c
000002d0: e9fb 4fbd b06b 37bb 1e23 0ebe 2c94 4ebe
000002e0: 9cfe 82be b68d a23b 27ac 05be 2f49 473e
000002f0: 7ec0 ecbd d1fc df3e 85f7 a9bc eb28 16bd
00000300: ecde cbbe daf4 043d 9d8a 22bd eead e43c
00000310: 8e2b b2bc 172c e7bc 5279 c53d ced1 9dbb
00000320: 62fd 013f 8212 6bbd 080b 7b3d f273 af3d
00000330: 280d 0abd 7f67 bebd b26b 97bc 98d6 7e3a
00000340: cb09 923c 5ae7 993d a31a edbc 35b3 34be
00000350: e43d 233c 41c6 a5ba 3f56 693d 6938 78be
00000360: 276b 60be 3386 f5bc 2647 b4bd e086 1fbe
00000370: 5650 9a3e f018 0dbe 5c51 0dbd 744c e93e
00000380: 7c69 19be b059 463e a866 403e 898b ff3c
00000390: 8d3f 423d abad cdbd e1ac a23d ec4a 19bc
000003a0: 640d f73e 027b 853e fab2 23be bf80 7abe
000003b0: 7ead 2ebe 1320 ee3d 673c 4f3d d9d9 8abe
000003c0: 5540 7f3e 399f f8bd 635d b3bc 2010 0f3d
000003d0: e782 febd 5392 01bc ba65 cdbb 1404 ccbd
000003e0: 729d 0f3f 5ec3 6ebe 4a61 753e 360e 25be
000003f0: 3f66 003c 6f1d 3f3d 4a5b 763e 65ce b93d
-0.12635452 -0.14469123 -0.122448444 -0.18567489 0.00061760814 -0.14039753 0.15118308 0.045938555
0.04915028 -0.5250254 -0.068281345 0.09941498 -0.011723023 0.0036489004 0.37606737 -0.033772733
0.009262758 0.20034082 0.2704634 0.056259952 -0.3775995 0.007247144 -0.23336084 -0.4119071
-0.36373478 0.17483537 0.16910313 0.121600546 -0.03811512 -0.10120267 0.13336512 -0.059106875
-0.19796778 -0.16180778 0.111395046 -0.24952556 0.042246737 0.291836 0.087738946 -0.13731673
0.12169264 -0.4760424 -0.18280345 -0.09501228 0.14696729 -0.037260775 0.084538706 0.08104956
0.035579085 0.042010512 0.13408616 0.020769166 0.12007502 0.30169156 -0.19098954 0.04442155
-0.09780199 -0.21541025 -0.04590992 -0.21900201 -0.20422544 0.14283527 -0.13020182 0.11593087
0.045252826 0.09899414 0.057875622 -0.2891477 -0.6257025 0.32430813 0.09183791 -0.1652354
0.19227101 0.2506432 0.09086934 -0.0866426 -0.034739546 0.00187416 -0.021493502 0.103560075
0.041178416 0.115021884 -0.08318455 0.039240006 -0.120085225 -0.18946989 0.20789036 -0.23093966
0.19626902 0.0007581377 0.01970305 -0.2882918 0.046153042 -0.15549867 0.22698967 0.016160939
0.03902458 0.18201806 0.06898599 -0.04076139 -0.286586 -0.009541269 0.17426918 -0.19528963
-0.32557395 0.29911047 0.22373281 0.2133126 -0.10228832 -0.08131205 -0.049250126 0.21002655
-0.06322535 0.17000043 -0.124333456 -0.10929702 0.02081381 -0.15864526 -0.21589404 -0.12253425
-0.061874527 0.49010032 0.06609478 0.03784263 -0.12074848 0.039791625 -0.3186288 -0.007479077
-0.14462318 -0.06071584 -0.010205984 -0.07022341 0.06983623 -0.5234624 -0.18015997 -0.007641805
-0.019297741 0.3899099 -0.071177945 0.20145349 -0.07572597 -0.04450523 0.29911643 0.019721678
-0.07726752 -0.051661894 0.049310673 0.10724968 0.20807713 -0.080122486 -0.17183094 0.08971989
-0.079463385 -0.043158274 0.01940482 -0.05801217 -0.12869814 0.09889701 0.2307994 0.11982678
0.078815505 -0.022109957 0.22530028 0.010961754 0.02715684 -0.13713709 -0.14352335 0.10076077
-0.35746473 -0.06138451 0.23921704 0.20408918 0.08510567 0.23087636 0.18326724 -0.015802016
-0.1224239 -0.151993 0.07457001 0.012426156 -0.05077735 -0.002798777 -0.13880584 -0.2017371
-0.25584877 0.004960741 -0.13053952 0.19461511 -0.115601525 0.4374757 -0.02074791 -0.036660116
-0.39818513 0.03246007 -0.039682973 0.027914967 -0.021749284 -0.028219266 0.09642281 -0.0048162704
0.50777256 -0.057390697 0.061289817 0.08567037 -0.033703953 -0.09297084 -0.01848397 0.0009721308
0.017826935 0.0751483 -0.028943365 -0.17646487 0.009963486 -0.0012647585 0.056967016 -0.24240269
-0.21915875 -0.029971218 -0.08802633 -0.15578794 0.30139416 -0.13779044 -0.03450142 0.45566142
-0.14981645 0.1937015 0.1878916 0.031194465 0.047423888 -0.1004289 0.0794313 -0.009356242
0.48252404 0.2607041 -0.15986243 -0.24463175 -0.1705837 0.116272114 0.050594714 -0.2711933
0.24926884 -0.12139744 -0.021895116 0.034927487 -0.124273114 -0.007908422 -0.0062682303 -0.09961715
0.5609962 -0.23316714 0.23962894 -0.16118702 0.007836877 0.04665893 0.24058262 0.0907257

model.encoder_gnn.gnn.0.0.nn.0.bias f4 [16]
00000000: a8e0 8abd b1d4 823d ee4e e33d fa35 c93d
00000010: f925 cdbc e9d5 023f 9eb2 0d3e 02cd ba3e
00000020: 4536 dbbc 3640 03bd f8a4 453e f076 46bd
00000030: 5885 57bd 1817 bcbd 21dc 773e ed96 1fbe
-0.06781131 0.06388224 0.11099039 0.09824748 -0.02504252 0.5110765 0.13837668 0.36484534
-0.026759276 -0.03204366 0.19301212 -0.04845327 -0.0526174 -0.09184092 0.24205066 -0.15584917

model.encoder_gnn.gnn.0.0.nn.2.weight f4 [16, 16]
00000000: e9b3 8cbe c528 4c3d 4999 b03d 0b92 d9be
00000010: afb3 febb ae3f 2f3e 7219 893d bcbe a5be
00000020: cc68 aabe 78bc 94bd c5cc d2be 1d29 0d3f
00000030: eb76 753e 0076 623f fc2e cd3e 8b4b 353e
00000040: 7f4d 873e 90c2 ebbd 794b 313e 5b10 c33d
00000050: e605 c23c fe24 8fbd a019 a6be 9649 053f
00000060: 410b 273f ed45 7b3e 5f46 863c 00e6 12bf
00000070: 1e36 3ebe fbaf bcbe f8ed 56be 050f c93d
00000080: 434f 1dbd f986 c93d ad47 24bd 9c19 8e3d
00000090: 46e5 2fbe b48f 5cbd 5579 853e 5928 8ebe
000000a0: 9d25 10be a082 363e 1bd1 1c3d f5a7 263e
000000b0: 71ab bf3e 4e05 da3e c3ab 2f3e 7cc2 89be
000000c0: 783e 6cbe a839 473c 3bba 543d ccdf 61bc
000000d0: fa2a 57bd d0dc 6d3e 95df 6c3e 4d27 5d3d
000000e0: 917c e1be 5745 7e3d 9ae0 e23d 3244 a03e
000000f0: a9d4 9e3e 3ee6 1f3e eb2a 243e 1908 20be
00000100: d364 833e 2811 07bd d0f1 a63e 4826 debd
00000110: 1267 68be 735d cd3d 9281 6bbe bbf7 bf3e
00000120: 07a5 e33e e7d1 fe3d 21a7 063d 1a43 28be
00000130: 768a 48be 2789 83be c163 82be d446 933d
00000140: d5a3 a23d a28d 0a3e 69fe 1f3d 9e62 103e
00000150: ff34 0abd 1b1b 62be 2f06 fcbd b052 0b3d
00000160: 4684 bd3d fa43 58be fcd2 ca3d 5234 2a3e
00000170: 8b29 7d3e 72d8 173e 872e 42be 6eb4 56bd
00000180: 117d 7dbc 4611 17be 5f8c 813d 36c3 9dbf
00000190: efcd 1bbd 5c47 3abe d597 883d 0ef1 913f
000001a0: f961 05bd 47c6 fcbd a0af 603c 5595 24be
000001b0: 0268 61bf 3d57 e63e f9f4 e93e 6844 803d
000001c0: c2f5 febe 0a4e b9ba 7cfb bcbe 5d9f b2bd
000001d0: 6f03 b93c 94c5 a3be e768 d0bd af8b 4dbf
000001e0: 8945 9fbd 8bf4 8c3e daf9 e2bb f7f4 72be
000001f0: d6d4 0e3d 1dc7 aebd dbb8 203d 3b2d 263e
00000200: bc12 15bf 4bfd 00bf 7478 ee3d b12e 013f
00000210: 3b46 82be 7e21 7b3d 8f34 933d d525 8e3e
00000220: 4c5f 92be 99d8 3ebe 92d4 37bd 556d 79bf
00000230: d6b4 b7be 3fe9 3cbf d652 783a 57ad abbd
00000240: 072f e43e ee7c c3bd 8dbd cd3e 2c93 623e
00000250: 909e b6bd 335c 8d3d 4359 96be 2e18 bf3e
00000260: e6c8 dd3e f984 f43d fdf6 6f3d 1b86 1cbf
00000270: 3566 58be 5d0c 1dbf 1a8c f5bd e019 85bc
00000280: dcaf 253f d72a 2bbf adc6 a2bd 364d fd3d
00000290: 3be3 b6bd 49a8 143d a283 96be 3d00 ab3e
000002a0: 803e 6a3f a54e 9abc 06b9 96bc b3a0 63bf
000002b0: 499e 65bf 6075 46bf d418 a4be 0e68 0fbe
000002c0: 7e25 4cbe 3c28 b4be 9484 e93e 9c6c e73e
000002d0: 393e 4d3e c7d2 c5be 39e4 153e b492 af3e
000002e0: 3877 fb3e d04b f83c e00b ffbe ed82 e8be
000002f0: e878 00be 6da5 babe bc7f 8fbe 762d 7bbe
00000300: 4818 aabd 5e91 b73c 8cf3 4d3e f39c ce3d
00000310: 673a afbd 9867 55be 81d1 3abe 3051 5b3d
00000320: 1825 503e 2605 35be a05e 34bd 2c15 1b3e
00000330: 00a0 6c3b b413 03be b06f 4bbd 1a50 76be
00000340: 6238 b8be cf52 273e add2 9bbc 2111 43be
00000350: c9e7 363d d495 65be 7221 17be 5916 3cbe
00000360: d9fa 2b3e e42f 1a3e ce2c 8f3d 772e 2f3f
00000370: a8da 85be cd7a aabe b21a 0d3d e613 30be
00000380: 5bc4 2b3e 4203 813d 23d9 993e 4be4 863e
00000390: 1333 cf3d 1b42 e7be 8add 263b c2d2 583e
000003a0: 2ab1 ea3e 78de 1abd b80a 96be 872c a5be
000003b0: 06b9 d4bd f764 59be a6b6 a6be e48a 7bbd
000003c0: 2104 353e ef2c 3fbe ba46 c03d bdcb 603d
000003d0: 79eb 91be 9bf3 35be 5aa5 9ebd 988c 53be
000003e0: 9b29 4d3e c9d8 dfbc 04e1 85be 09aa 58bd
000003f0: 4869 213d c711 94bd 6732 7cbe d695 3fbe
-0.2748101 0.04984357 0.08622987 -0.42494234 -0.007772885 0.17114136 0.066943064 -0.3237208
-0.3328308 -0.0726251 -0.41171852 0.5514086 0.23971145 0.88461304 0.4007491 0.17704599
0.26426312 -0.11511719 0.17313947 0.09524604 0.023684453 -0.069894776 -0.32441425 0.5206541
0.6525155 0.24538393 0.016390977 -0.573822 -0.18575332 -0.36853012 -0.20989215 0.09817318
-0.038405668 0.09840197 -0.040107418 0.06938478 -0.17177305 -0.053847983 0.26069131 -0.27765158
-0.14076848 0.17823267 0.038285356 0.16275008 0.37435487 0.42582172 0.17155366 -0.26906192
-0.23070705 0.012159742 0.051935416 -0.0137862675 -0.05253122 0.23228765 0.23132165 0.05399256
-0.4404035 0.062077846 0.110779956 0.3130203 0.31021622 0.15615174 0.16031997 -0.15628089
0.2566286 -0.032975346 0.32606363 -0.10847145 -0.22695568 0.1002759 -0.22998646 0.3749369
0.44461843 0.124423794 0.03287423 -0.16431847 -0.19584069 -0.25690576 -0.2546673 0.07191244
0.07941405 0.13530591 0.039060984 0.1410012 -0.033741947 -0.22080652 -0.12305867 0.034014404
0.09253745 -0.21119681 0.09903523 0.16621521 0.24722879 0.14828661 -0.18963061 -0.052418165
-0.015471713 -0.14752683 0.06325602 -1.2325199 -0.03803819 -0.18191284 0.06669585 1.1401689
-0.032564137 -0.12342506 0.013713747 -0.1607259 -0.8804933 0.44988433 0.45694712 0.062630475
-0.49796873 -0.0014137637 -0.36910617 -0.087218024 0.022584645 -0.31986678 -0.101762585 -0.80291265
-0.07776935 0.2753032 -0.0069267573 -0.23726259 0.034870945 -0.085340716 0.039238792 0.16228192
-0.5823171 -0.50386494 0.11644068 0.5046187 -0.25444207 0.061311238 0.07187759 0.2776324
-0.2858833 -0.18637313 -0.044880457 -0.9743245 -0.35880154 -0.73793405 0.0009472793 -0.08382671
0.4456713 -0.09545313 0.40183678 0.22126454 -0.08916962 0.06902351 -0.29364976 0.37323135
0.43317336 0.11939425 0.058585156 -0.6114213 -0.21132739 -0.6134699 -0.11989613 -0.01624769
0.64721465 -0.66862243 -0.07948051 0.123682424 -0.089300595 0.0362933 -0.29397303 0.3339862
0.9150162 -0.018836329 -0.018398773 -0.8891708 -0.8969465 -0.7752285 -0.32050192 -0.14004537
-0.19936177 -0.35186946 0.45608962 0.4520005 0.20043267 -0.38637373 0.14637841 0.34291613
0.49114394 0.030309588 -0.49813747 -0.45412388 -0.12546122 -0.36454335 -0.2802714 -0.2452906
-0.083054125 0.022408184 0.20112437 0.100885294 -0.08556061 -0.20840299 -0.18243982 0.053544223
0.2032665 -0.17677745 -0.044035554 0.15144795 0.003610611 -0.12800485 -0.04966706 -0.24053994
-0.35980517 0.16340183 -0.019021356 -0.19049503 0.04465464 -0.22420436 -0.14758852 -0.183679
0.1679491 0.15057331 0.06990968 0.68430275 -0.26143384 -0.33296815 0.034449287 -0.1719509
0.16774122 0.062994495 0.30048475 0.2634605 0.101171635 -0.45167622 0.0025461637 0.21174148
0.4583829 -0.03780982 -0.29305053 -0.32260534 -0.10386853 -0.21229921 -0.32561225 -0.061411753
0.17677356 -0.18669485 0.0938849 0.0548818 -0.28499964 -0.1776871 -0.07746382 -0.20659101
0.20035402 -0.02732505 -0.26148236 -0.052896533 0.039407045 -0.07229953 -0.24628602 -0.18709502

model.encoder_gnn.gnn.0.0.nn.2.bias f4 [16]
00000000: e295 0f3e 767b 0ebe a193 f73d 5ad6 a83d
00000010: 05ec b33d 0a5d b5be b55b c4be 219d c3be
00000020: e368 903e 9ae9 a6bd 7dbc 2e3e 55be db3d
00000030: ca77 3dbe 0628 323e 8d1f 193e 7f3c 723c
0.1402202 -0.13914284 0.12088705 0.08244009 0.087852515 -0.35422546 -0.38351217 -0.38205817
0.28205022 -0.08150025 0.1706409 0.10729662 -0.18502727 0.1739808 0.14953442 0.014784931

model.encoder_gnn.post_nn.fc_layers.0.0.weight f4 [8, 16]
00000000: 861a f5bb 9290 013c 528a 133d 2570 ccbc
00000010: 10bb 0b3b b765 33bd 85e6 c83c 1db8 6abc
00000020: 0292 a9bb 904d 0abd 5553 81bc e2c0 0abd
00000030: c39e 48bc 3243 75bc 2e8d aa3d ea0c 8c3c
00000040: e990 a43b 3071 ecbb 105e c13c e810 823b
00000050: 7e38 483c 9deb d4bb b841 7f3b c3cf 74bb
00000060: 8aff 283b 53e8 27bc 7be0 26bc 10b7 9fbb
00000070: 430d de3b 57da 683b 7fbb 0ebc 739a 943b
00000080: 6a13 a3bc 31bf d5bc 5ce5 fbbc 88b6 67bd
00000090: feaa 2a3d d149 b3bb 445f 8a3d 4558 8cbd
000000a0: bcd2 12bd 20da 0cbc c284 54bc 9935 85bc
000000b0: 64b1 79bc d54b aebd 8c76 5abd 0e35 a83c
000000c0: c7b0 993e bfa0 65be aaf0 8c3e c33b 073e
000000d0: 0ac0 8ebe efa9 8bbe ca21 9abe 2831 4fbe
000000e0: 139f 30be e0f5 97be 25bf 84be 4876 c0be
000000f0: 36da 593e 615e 8a3e b14d 97be 2683 693e
00000100: 9fa1 b4bb 583f 703c 8d57 f9bc c3e4 a73c
00000110: df00 02bd 1f3e 94bb 943a 143b d938 193a
00000120: 7679 dabb efe6 c33c 06c1 303c 5f09 173b
00000130: 166c c4bb 78a1 8ebb 8acc 553b 1bcd 5dbc
00000140: 4767 cfb8 581b 643a 11fe 043a e200 85ba
00000150: 899b 723a 26e4 86ba 043f 973a 07e4 8c3a
00000160: d32d 0cba e12c 19ba 55b5 b8ba d0e6 d239
00000170: 896c 8aba 6f1a 97ba 7e51 81b9 030e 23ba
00000180: 61c2 2b3d 70f8 db3b 9dcf bfbc 4a96 883d
00000190: 2e87 debc 0eb6 793b 5b66 a6bc 3597 6abc
000001a0: 2b90 c63c a0a6 703d 7d92 d33b 0ee1 9f3c
000001b0: bc66 2d3b 7b60 d83c 0c9b c03b a700 d1bb
000001c0: dae6 38be cc11 35bd 7307 69be 0a0e f2be
000001d0: 2a80 6dbe f05a ae3d 04fc b2bb 9514 20be
000001e0: 0b25 aabe f407 47bd e5cf 02be 7216 8abd
000001f0: c867 adbc 461c 213d 0736 123e 56db 4bbd
-0.0074799685 0.007908003 0.036020584 -0.024955818 0.0021321215 -0.043798175 0.024523983 -0.014326123
-0.005174876 -0.033765376 -0.015786806 -0.033875354 -0.012244883 -0.014969634 0.08327709 0.017096002
0.0050221574 -0.0072156414 0.023604423 0.0039693005 0.0122205 -0.006497814 0.0038949084 -0.003735528
0.0025787079 -0.0102482615 -0.010185356 -0.0048741177 0.0067764833 0.0035530531 -0.008711695 0.0045350133
-0.019906718 -0.026092144 -0.030749016 -0.05657056 0.041666977 -0.005471446 0.06756452 -0.068527736
-0.035845503 -0.008596927 -0.012971105 -0.016260909 -0.015240047 -0.085105576 -0.05333571 0.020533111
0.30017683 -0.22424601 0.27527362 0.13206391 -0.2788089 -0.27278087 -0.30103904 -0.20233595
-0.17248182 -0.29679775 -0.25927082 -0.3759024 0.21274647 0.2702513 -0.2955146 0.22803935
-0.005512431 0.01466354 -0.030437255 0.020494824 -0.031739112 -0.004524007 0.0022617923 0.0005844958
-0.0066673113 0.023913829 0.010788208 0.0023046357 -0.00599433 -0.0043527447 0.0032623135 -0.0135376705
-9.889766e-05 0.00087015843 0.0005073259 -0.0010147358 0.0009254744 -0.0010291382 0.0011539166 0.001074911
-0.00053474045 -0.00058431743 -0.0014092127 0.0004022629 -0.001056091 -0.0011528264 -0.00024665514 -0.00062200445
0.04193342 0.0067129657 -0.023414427 0.0666929 -0.027164068 0.0038102898 -0.020312479 -0.014318277
0.024238667 0.058752656 0.0064566717 0.019516494 0.002645894 0.026413193 0.005877858 -0.0063782516
-0.18056813 -0.044206426 -0.22756748 -0.47276336 -0.23193422 0.08513439 -0.0054621715 -0.15632851
-0.33231387 -0.04859157 -0.12774618 -0.06742562 -0.02116765 0.039333604 0.14278422 -0.049769722

model.encoder_gnn.post_nn.fc_layers.0.0.bias f4 [8]
00000000: 2499 713c 46d1 b8bb 71e9 393d 2c15 f73c
00000010: 448b 39bb 3d3b 5cba 41b8 2cbd 794b c4bf
0.014745984 -0.0056401817 0.045388643 0.030161463 -0.0028311769 -0.0008401161 -0.042167906 -1.5335532

model.decoder_gnn.pre_nn.fc_layers.0.0.weight f4 [16, 4]
00000000: ab16 7a3a 89e4 f43a cba5 37be 7fac 883e
00000010: ae92 9ebb 3468 5cbc 1490 0e3c 515e 91be
00000020: d629 94bc 2592 f7bb 6af9 9cba 20b3 47bf
00000030: 76d3 d7ba 103e 813c bc6f 1b3d becb 403f
00000040: 3245 deba 26cf 44bb a871 42bd 0945 203f
00000050: 0d4d 72bc e87f 83ba 884f 243c ed69 04bf
00000060: 017d 42be 36a7 0fbc a239 7e3d 21be 29be
00000070: d85e 5bbb 2c67 a83c 71db 35bc c72a e6be
00000080: d9ef 513d ff6c 9abc d272 8abd a866 a5be
00000090: 9ed0 1b3c 8751 35bc 1d95 b43d 66c5 0f3f
000000a0: 05ef 2bbb a1ae c63b 6570 823b fac5 2a3f
000000b0: ccdc 693b 6db5 72bc f740 04ba 27d7 9cbe
000000c0: c69a 03bc 7ea1 633b 8d48 9b3b 742d 0ebf
000000d0: ba8c 133d c3f2 1d3c 6a38 c53c 036a fbbe
000000e0: d315 923c 3302 a6bc c8dd 2cbc ad70 1bbf
000000f0: fb22 1e3c e749 8c3b c32b 8dbb 1d7a e2be
0.0009540121 0.0018683831 -0.17934339 0.26694104 -0.004839263 -0.013452578 0.008701343 -0.2839227
-0.018086355 -0.0075552636 -0.0011976187 -0.780077 -0.0016466219 0.015776664 0.037948355 0.75310886
-0.0016957878 -0.0030030697 -0.047471672 0.6260534 -0.014788878 -0.0010032626 0.010028727 -0.5172413
-0.18992998 -0.008767894 0.06206668 -0.16576435 -0.003347328 0.020557009 -0.011099682 -0.44954512
0.051254127 -0.018850802 -0.067601815 -0.32304883 0.009510187 -0.011066801 0.088175036 0.5616058
-0.0026234996 0.006063298 0.0039806836 0.6670834 0.0035684584 -0.014813763 -0.0005045081 -0.30632898
-0.008032506 0.0034733708 0.0047388733 -0.55538106 0.03602288 0.009640398 0.024074752 -0.49104318
0.017832672 -0.02026472 -0.010550924 -0.60718805 0.009651895 0.004281271 -0.0043081953 -0.4423379

model.decoder_gnn.pre_nn.fc_layers.0.0.bias f4 [16]
00000000: 9af1 28be fc95 883e 1a60 8c3e dc16 29be
00000010: e8df 043e 1820 ebbd 9fbe 7fbc 4288 c03e
00000020: 0e73 443e f970 72be 0c3e 17be fcf9 893e
00000030: 0fbf f43c ff30 d6bd e083 263e 2691 debd
-0.16498414 0.2667693 0.2741707 -0.16512626 0.12976038 -0.11480731 -0.015609412 0.37603956
0.19184515 -0.23675908 -0.14769763 0.26948535 0.02987626 -0.10458564 0.16261244 -0.108675286

model.decoder_gnn.lin_skipsum.0.0.weight f4 [16, 16]
00000000: f680 49be f7cf 77be c22a 0fbd cffa 0c3e
00000010: 1c64 693e f308 4cbe cb9b a5be 732c f23d
00000020: d30d 2dbd bc17 f13d 5fc8 2c3e 2284 53be
00000030: c466 a1bd 7842 94bd 6c66 dabd 6ac3 95be
00000040: 9315 673d abc8 9dbd 91ef 6b3d 963f c4bd
00000050: ec5b b3bd ffd4 6a3e 068c 463e 46f1 933d
00000060: 7873 033e 2ba7 54be 1b69 a3be 4772 f73d
00000070: 4051 c1bc b0b5 9a3d 28fa fc3d cf88 063e
00000080: f319 143e b34c 86bd a1e5 f8bd 544d 4e3e
00000090: b843 6c3e 00bd 0bbe f38a 24be 24b9 5abe
000000a0: ac63 71be aa8d c53d 790b a23c d21c c9bd
000000b0: f532 943d 1bc9 583d f68f 8ebd 03bb 8bbe
000000c0: d1e5 153e bd52 85bd 864a f1bd 2004 da3d
000000d0: fed4 773e 9a74 04be c474 edbd fa11 433d
000000e0: 22c8 a3be 9441 333e 6110 f53d 793a a7bc
000000f0: 3f27 e9bd d209 20be fc3d 1dbe 8334 3fbe
00000100: cd15 31bd 7208 97bd 0894 2b3e 8fd4 1ebe
00000110: b070 1ebe 878c 6a3d a4d4 b73d 06f7 153e
00000120: cf1f 093e e59c 48be bafb 83be b7bc 353e
00000130: 0fbd 5e3e eff3 123e c5f3 49bc fcf9 66be
00000140: 4448 79bd 3b9d 79be bb0d 64be f022 b33d
00000150: 2307 1c3e b711 3bbe b392 013e 7946 233e
00000160: 8905 94be 24bb be3b 358f c83e c03e 073d
00000170: 38fc a6be 136d 413d 3258 0b3e 669b b93a
00000180: 26d3 483c e8bb 443d ad07 3dbe b4d4 333e
00000190: 6a5d 303e 25b8 1a3e 184c 243d 2823 1c3d
000001a0: 2bf8 123e 1ee2 91bb bf21 223d 7f3b febd
000001b0: d5be 97be d503 4abd 3ec8 51be d186 3ebe
000001c0: 8c34 45be 711f 163e 1cf2 e93d 8992 6bbd
000001d0: d457 25bd 8047 c03d 11be eb3c a5e5 3f3e
000001e0: 46d7 4f3e e9d4 cebd a9ee 49be 6c44 c63d
000001f0: 5fc5 573e be35 a53c 1b2d eabd ff96 263e
00000200: 65f0 8fbd c610 13be 33dd febd 8d76 893d
00000210: 2223 743e 0fd6 3bbe 2f23 56bd 9e2d 2dbe
00000220: e228 d3bd 295a c73d 47dc e23b 58ea 953d
00000230: 9527 aebd cbd9 103d 7b55 3fbe 7964 d4ba
00000240: 1a46 e13d 838a 273b 1bbf aa3c 8293 7d3e
00000250: 0a64 463e 41c7 e3bc 5715 b43c 3152 aabe
00000260: b4bf 65be c833 563e 7c65 9a3c ff61 a7be
00000270: f0e3 29be da91 4abe d8ce ef3c 4748 5bbe
00000280: 330b 49bd 7a90 a03e b726 0b3d 9521 1dbe
00000290: 86fa 69bb 0c89 c53c 965e 423e a449 c03d
000002a0: e57d 153d 715d 2dbd 4c6a 14be a106 833e
000002b0: 1866 2e3d 4877 2e3e 6bcf f2bb dadf 153c
000002c0: d9bc 923d ad36 993e 980a c5bd e98d 38be
000002d0: e645 c4bd 05b3 ccbc 694b 8abd 0c7b 4c3e
000002e0: 1373 403e a269 07be 8d1b 83be e9bf 9a3d
000002f0: 0787 7d3e d078 2e3e 3f65 153d d548 ac3e
00000300: 961a 3bbe c4ea 083e 695c 2a3d 754d 8ebe
00000310: 8f7b 55be b450 823d cef2 7fbc a546 7e3e
00000320: 9891 49bd 5d81 f4bd 7cea 753b 5d6f 0fbd
00000330: f073 d13d ab73 a23c 0b6f 8b3e e0fb 1a3e
00000340: 901b 5bbc 0373 52be 4e16 60be 23dc 853d
00000350: cd7b a83d a3ef e0bd f14a b43d 5678 18bd
00000360: a757 1dbd 05b5 5b3e e1f9 a43e 69d1 54be
00000370: b216 e9bd 1b0e 37bd 7697 b0bd dd09 fe3c
00000380: 55f7 e7bd 2f83 cb3d 0278 6c3b 4fe6 26bd
00000390: 2c46 85be 9209 803e 9e7b f7bc 8cd8 ba3d
000003a0: e400 6bbd 90e0 77be f0df 3cbd 08e3 a6bc
000003b0: 9e38 483d d40b 453e f4c4 573d fadf 283e
000003c0: 1039 e33d f401 913e e868 bbbc 25f3 23be
000003d0: 7d1a 83be 5172 9f3e 0622 ef3d 9635 b0bd
000003e0: 8dfe 713e 7a91 8dbe 258f 5bbe 14d3 973c
000003f0: f1ba 0c3b 6fe7 2e3c b43e 873e 010c b63d
-0.19678101 -0.24200426 -0.034952886 0.13767551 0.22792095 -0.19925289 -0.32345423 0.11824884
-0.042249512 0.11772105 0.1687331 -0.20655873 -0.07880929 -0.072392404 -0.10664067 -0.29250652
0.05641706 -0.0770429 0.057601515 -0.095824406 -0.08757767 0.22932814 0.19389352 0.07223754
0.12837017 -0.20766895 -0.31916127 0.120823435 -0.023598313 0.075541854 0.12352401 0.13138126
0.14463024 -0.06557598 -0.12153173 0.20146686 0.23072708 -0.13646317 -0.1606863 -0.21359688
-0.23573178 0.09646161 0.019780861 -0.0981995 0.07236282 0.052926164 -0.06961052 -0.27291116
0.14638449 -0.06509922 -0.11781792 0.10645318 0.24202344 -0.12935105 -0.11594537 0.047624566
-0.31988627 0.17505485 0.11966015 -0.020413624 -0.11384439 -0.15628746 -0.15355676 -0.18672375
-0.04323368 -0.07374658 0.16755688 -0.15510772 -0.15472674 0.057262924 0.08976105 0.14645013
0.1339104 -0.195911 -0.2577799 0.1774777 0.21751808 0.14350866 -0.012326186 -0.22556299
-0.060859933 -0.24376385 -0.22270863 0.08746898 0.15237097 -0.18268476 0.12653618 0.15944852
-0.28910473 0.0058206487 0.39171758 0.033018827 -0.32614303 0.047223162 0.13607863 0.0014160692
0.012257373 0.048030764 -0.1845996 0.17561609 0.17223135 0.15109308 0.04011163 0.038119465
0.14352481 -0.004452004 0.039582964 -0.12413692 -0.2963778 -0.04932006 -0.20486543 -0.18606116
-0.19258326 0.14660431 0.11423132 -0.057512794 -0.040366963 0.093886375 0.028777154 0.18739946
0.20296964 -0.10099203 -0.19719948 0.09681019 0.21071385 0.020167228 -0.114343844 0.16268538
-0.070282735 -0.14361867 -0.12444534 0.06712065 0.23841527 -0.18343376 -0.052279647 -0.16911933
-0.10310532 0.097339936 0.0069232318 0.07320088 -0.085036434 0.035363954 -0.18684952 -0.001620426
0.10999699 0.0025564737 0.02084308 0.24763301 0.193741 -0.027804973 0.021982832 -0.33265832
-0.2243641 0.2091819 0.01884722 -0.32691953 -0.16590858 -0.197822 0.029273435 -0.2141429
-0.049082946 0.31360227 0.03397247 -0.15344842 -0.0035702302 0.0241132 0.18981394 0.09389046
0.036497016 -0.04232544 -0.14493674 0.25590995 0.042577833 0.1703769 -0.00740998 0.009147609
0.07164926 0.29924527 -0.09621161 -0.18022884 -0.095836446 -0.024987707 -0.067526646 0.19968814
0.18793897 -0.1322389 -0.25606957 0.07556135 0.2475854 0.17038274 0.03647351 0.33649316
-0.1827186 0.13370806 0.041592035 -0.2779347 -0.20847915 0.06363049 -0.015621854 0.24831636
-0.049211115 -0.119387366 0.0037523797 -0.035018314 0.102271914 0.019830545 0.27233157 0.15135145
-0.013373271 -0.20551686 -0.21883509 0.06536128 0.08226738 -0.10983207 0.088033564 -0.037224136
-0.03841367 0.21455772 0.32221892 -0.20783009 -0.11381282 -0.044691186 -0.08622639 0.031010563
-0.11326472 0.09937131 0.0036082272 -0.040746983 -0.260301 0.25007302 -0.030210312 0.09123334
-0.057373896 -0.24206758 -0.046112 -0.020371929 0.04888212 0.19242793 0.052678064 0.1649169
0.11094868 0.28321803 -0.022877172 -0.16010721 -0.25606146 0.31141904 0.11676411 -0.08603971
0.2363226 -0.27650052 -0.21441324 0.018533267 0.002147373 0.010675295 0.26415026 0.08889008

model.decoder_gnn.lin_skipsum.0.0.bias f4 [16]
00000000: 3379 fa3d edf7 e5bc faeb 443e 386b 003e
00000010: 6fd7 4bbd ee13 f03a 2c07 d53d c3a7 81be
00000020: 8c23 723e eeb8 533e fab0 5dbe bbbc 18be
00000030: 0725 a6bd 0e75 eb3d 0c9e b13b 235b 5ebc
0.12230148 -0.028072322 0.19230643 0.125409 -0.049766 0.0018316486 0.104017586 -0.25323305
0.23646373 0.20676014 -0.21649542 -0.14915745 -0.08112531 0.11496936 0.005420452 -0.013571533

model.decoder_gnn.lin_skipsum.1.0.weight f4 [16, 16]
00000000: dba1 8ebe 8f69 15be c4bf 0bbd 8049 803d
00000010: ddf8 2e3d 9ad5 c03e d30a 143f 8e68 58be
00000020: 44ac cbbe 56cf 523e 97ea 1a3e 6314 743e
00000030: 11da 6abe ff46 3fbe 42c6 923d 0147 653e
00000040: d9c9 743e fafb d13d 2990 77be 8cef 0ebe
00000050: 1652 153d d8df 7dbe 68eb b8be b349 db3d
00000060: b6b3 6e3e 0a0f 95be 5a53 f3bd ac60 26bd
00000070: 6b91 6cbd f375 963e a608 393d bee2 4dbe
00000080: 2688 ae3d e808 db3c cd73 6e3d c4a1 dd3d
00000090: b808 95bd f482 653e 64bc 9e3e ecc6 b0bd
000000a0: 1d82 91be f3e5 303e f89c 553e 58d8 8e3e
000000b0: 6ca7 20be 1416 8fbe 0a2a 7dbd 8381 183e
000000c0: d246 b13d 9835 263e 30dd acbd 0851 653e
000000d0: feeb 0f3c 27af 623e 157e a13e a702 93bd
000000e0: 307f 17be f33b e43e b9ab 9e3d cb43 983e
000000f0: 0e92 4e3e 792a 84be 7814 3dbc 2b4d 5abd
00000100: c4b7 40be 7a7a 013d 786b 86be c747 38be
00000110: c008 60be cf46 aabd ba4c 1d3c b877 a53d
00000120: 05e2 0b3e 13c6 b7be fd45 1abe 9421 1d3e
00000130: 9ca4 2cbe d2c3 813e c25b c33d 1c22 9bbd
00000140: d183 103e de7f 643e e951 2d3d 1705 d2bd
00000150: 556d 853e 8403 4ebd 1563 33bd fd41 17be
00000160: 9407 3abe 90c2 ee3e 9831 d93d ac57 823e
00000170: d5e1 8fbe a790 04bb 1548 7e3d 6779 2cbc
00000180: 39c4 0c3d 9336 17bd cc94 843d d899 a6bc
00000190: 0658 a63d a388 9e3d beac 823c 7ca1 78be
000001a0: 540a c0be fde2 e13e e077 12be a7c8 3e3e
000001b0: f21c 1e3d 246e 98be e61f cd3d 9dfe 453d
000001c0: 91d1 b4bd d939 943c 80a3 1f3e e5d3 84be
000001d0: 3f3a 67be 1589 443d 57b8 abbe c3ee 153e
000001e0: da85 ef3e 368f 6fbe e358 15be 82c5 41be
000001f0: 6ada 8f3e 1ff7 cb3e 0b01 30bd 9f42 053e
00000200: 7785 ce3c 91d1 c0bd 3fca 293e bb5f 7a3e
00000210: ba72 093e a0b3 773d 2dcd 9b3e 5c6a 0c3e
00000220: 0a3c 80bd 9077 a53e fdc2 283d 2b3e 883c
00000230: 0691 af3d 7959 17be 0db6 29be bc18 5b3e
00000240: 3415 cd3d 3740 d63d e20a 133d ba04 b93e
00000250: 62b7 6b3d 99a4 c43e 1857 a93e c128 7c3c
00000260: 9d1e 4dbe 4d4d ba3e 5fc6 a03e d72a 5a3d
00000270: 0c5a 0dbe 95d1 67be bc80 a6bd 26bc 52bd
00000280: 171b 7ebd bd3f 1c3e f6bc eebd ce44 5bbe
00000290: 9be4 213e 87a4 bfbd 3dda 2bbe 978a 413e
000002a0: f2d9 fb3d d41e 4bbe 3bbc 2fbd ce43 7dbe
000002b0: 3fdb b33d bdb7 723e 0bcc 2fbd 8c90 1cbe
000002c0: 3200 08be dbc0 acbd b4cd 86bb 225d 0fbe
000002d0: df2e 7abd 0b7b 04be 4359 e4bd 8e44 2b3c
000002e0: f854 3d3e fc80 23bf c12a d8bd 38ec abbd
000002f0: 46bf 43be 2879 7c3e ce24 323e b08a b0bd
00000300: dd23 c53d c6ee 12be 36f5 1cbe 87bd 253e
00000310: 8ea3 84bd 7f27 30be fe84 c1be 4c20 9e3b
00000320: ff45 bd3e f4d8 0bbf a57a 3dbe 2840 8fbe
00000330: d4c2 613d 5c61 f13e b969 7d3d c97c 593d
00000340: d8d3 c3bd bed3 223d 21c0 c53d 9e4a b13c
00000350: 974f 6b3e 092b 233e dad7 943e 3c46 17be
00000360: 76db abbd c4c8 913e 103e 503e 2bae 2c3a
00000370: 127d 203e f696 b2be 78d2 e1bc b36c 063e
00000380: 264b 043e 6cca 19be d264 fdbc 1c1b c43c
00000390: f74c dbbd eeb8 15be 574f 94be 7253 b63c
000003a0: 79f4 c43e 8d04 d5be 904f f6bd bd43 0abc
000003b0: 12c5 36be f476 cd3e 4522 b83d 24e0 263d
000003c0: 2052 d0bc 19b1 9d3d 1d42 0fbe 0383 49bd
000003d0: fb39 7bbe 6313 e7bd 0872 99be 4821 143e
000003e0: ceac 803e c761 1cbf f815 a93c 39a2 d0bd
000003f0: 88c3 083e 14c3 9a3e b76d ca3d cd61 cfbd
-0.2785786 -0.14591049 -0.03411843 0.06264019 0.042717803 0.37662965 0.57829016 -0.21133634
-0.39779866 0.20586905 0.15128551 0.23835902 -0.22934748 -0.18679427 0.07166721 0.22390367
0.23905124 0.10253139 -0.24176086 -0.13958567 0.036455236 -0.24792421 -0.361171 0.107074164
0.23310742 -0.29113036 -0.118811324 -0.040619537 -0.05775587 0.29386863 0.045174263 -0.20106027
0.08522062 0.026737645 0.058215905 0.1082187 -0.072770536 0.22413236 0.31003106 -0.08631691
-0.2841958 0.17275219 0.2086066 0.27899432 -0.15688866 -0.27946532 -0.06180767 0.14893155
0.08656086 0.16231382 -0.08440626 0.22394192 0.008784292 0.22137128 0.31541505 -0.0717824
-0.14794612 0.44576988 0.07747597 0.29739222 0.20172903 -0.25813654 -0.011540525 -0.05329625
-0.18820101 0.031610943 -0.26253867 -0.17996131 -0.21878338 -0.08314287 0.009600813 0.08079475
0.13660438 -0.35893306 -0.15065761 0.1534484 -0.16859668 0.25344712 0.09538986 -0.07574865
0.14112784 0.22314402 0.042314444 -0.10254877 0.26059976 -0.05029632 -0.043795664 -0.14771266
-0.18166953 0.46632814 0.106051624 0.25457513 -0.28101984 -0.002022782 0.06208046 -0.010526991
0.03436682 -0.03691728 0.06473693 -0.02033703 0.08122258 0.07740905 0.01595151 -0.24280351
-0.3750788 0.4411849 -0.14303541 0.1863123 0.038601823 -0.2977153 0.1001585 0.04833852
-0.08829034 0.01809399 0.15589714 -0.25942913 -0.22580813 0.047982294 -0.33539078 0.14641862
0.46781808 -0.23394474 -0.14584689 -0.18923 0.28096324 0.39836976 -0.042969745 0.13013695
0.025210125 -0.094149716 0.16581057 0.24450581 0.13422671 0.060474038 0.30429974 0.13712448
-0.062614515 0.3231778 0.04120158 0.016631206 0.08572583 -0.14780225 -0.16573353 0.21396154
0.1001381 0.10461467 0.03589905 0.3613642 0.057547934 0.38406828 0.3307426 0.015390576
-0.2003121 0.363871 0.31401345 0.05326351 -0.13803881 -0.22638543 -0.08130023 -0.051448964
-0.062037554 0.15258689 -0.11657135 -0.21412966 0.15809862 -0.09357553 -0.1678247 0.18900524
0.12297429 -0.19835979 -0.04290412 -0.24732897 0.08782052 0.23702903 -0.0429192 -0.15289515
-0.13281325 -0.08435222 -0.004113877 -0.14000371 -0.061079856 -0.12937562 -0.11149838 0.010453356
0.18489444 -0.6386869 -0.1055503 -0.083946645 -0.19115934 0.24655592 0.17396852 -0.086202025
0.09625981 -0.14348897 -0.15327916 0.1618558 -0.06476508 -0.17202567 -0.37796777 0.0048256274
0.36967465 -0.5462792 -0.18503816 -0.27978635 0.055117443 0.47144592 0.061868403 0.05309752
-0.0956189 0.039752714 0.09655786 0.021642026 0.2297958 0.15934385 0.29070932 -0.14772886
-0.08391468 0.28473485 0.20336175 0.00065872323 0.1567271 -0.348808 -0.02756618 0.13127403
0.12919292 -0.15018624 -0.030931864 0.023938708 -0.10708039 -0.14621326 -0.28966781 0.022256587
0.38467768 -0.41605034 -0.12026894 -0.008439002 -0.17848614 0.40129817 0.089909114 0.0407411
-0.025429785 0.07699794 -0.13990064 -0.049197208 -0.24533837 -0.112829946 -0.2996981 0.14465821
0.2513184 -0.61086696 0.020640358 -0.101871915 0.13355839 0.30226958 0.09884208 -0.10126076

model.decoder_gnn.lin_skipsum.1.0.bias f4 [16]
00000000: cc3a 8bbb a4fe b6bc d807 93bd 8584 bbbd
00000010: a342 3bbc 8061 f2bd c931 9f3d 25a6 8f3b
00000020: 7bea d6bd f905 e1bd ce89 3cbc 7087 4d3c
00000030: 6ebe a33d 8b83 bcbb 1ba7 bfbc 483c 5ebd
-0.0042489525 -0.022338219 -0.071792305 -0.091561355 -0.011429462 -0.11835003 0.07773168 0.0043838196
-0.10493942 -0.10987467 -0.011507465 0.012544498 0.07995306 -0.005752986 -0.023395112 -0.054256707

model.decoder_gnn.lin_skipsum.2.0.weight f4 [16, 16]
00000000: b730 27bd 715c 71be 8b33 3e3e 3ca0 4dbc
00000010: 0a53 adbb a18d a0be 3446 d1bd c66b 423e
00000020: 7db0 72be 9cd8 d7be f1f9 94bd 93da 9e3d
00000030: d913 543e 295f 9cbe e1cb 73be efdc 3dbe
00000040: d4c6 23be 3a33 82bd 03c5 38be 33cb 133e
00000050: 6622 463e 54b0 223e fc28 49be b0fb 96be
00000060: de1b 60be 165d 223e e1bc 7abe fa67 99bb
00000070: a420 7abe 75c0 a9bd e6a6 e33d e5e2 c33d
00000080: ee7d 803e e06b 59be 13e9 5b3e 5df7 c63c
00000090: 876c 9fbb c16c 99be 9957 113e 79e9 863e
000000a0: 99eb 913d 9c43 a1bd f91d fc3d 0b70 713e
000000b0: 2b3d 963d ba77 e9bd 56e2 113e 000c 073d
000000c0: 62c6 723d fd6d 423e 8c0b 803e c20c e8bd
000000d0: 9a3e 533d 3332 18be e6f6 60be b8d6 043d
000000e0: 469f 42bc b2fb 1dbd e1fc 863e 4c9b 833e
000000f0: 0241 eebd 5323 88be 26fc 86bd a3f2 49be
00000100: c6bb b0bd 9080 8ebd 02ab 193e 6225 2a3d
00000110: 64d5 b93e 426d b93d db3a 69be 5a3a 523c
00000120: a8d0 053e ab2c c2bc 516f 493e 8eb0 4dbe
00000130: eeee 25be ca54 c63d a0a6 943e f1ca 2d3e
00000140: 9e43 c33d 33a2 cebc e6f7 953e d598 ebbd
00000150: 53be b1be dcb5 24bc a5d6 923c a2f4 3fbc
00000160: 66aa 0c3e df37 a8bd c5cd 39bd ce49 fdbd
00000170: fe33 c93d 2ac3 16bd 41ad 3e3e 7df1 d63c
00000180: 9e2d 953d ced8 8abe c696 2bbe bfb0 08bd
00000190: e42c 1b3e d3af b2bd 83c6 3e3e d67f f5bd
000001a0: 3431 1e3e a9eb 76be 139e 273d 6bf4 ac3d
000001b0: 4232 0a3e 8c7e 4dbe 417e 56be bdcf 1cbd
000001c0: 8fe0 9abe 6776 da3d 11e2 a13d ee18 67bd
000001d0: 42d9 133a 9798 c43d 8414 8c3d a7b0 4fbb
000001e0: 3277 6b3e 9050 e63e 48ba e3bd ded9 acbd
000001f0: 7390 5a3e 8e37 0bbe 1b7b 08be c49e 8f3e
00000200: 602b 2138 16e2 0a3e 935b cb3c 5741 a1bd
00000210: 97fa d8bd 3554 7ebd 92ef 043e a9c2 e83d
00000220: 3ca7 543c b9b5 94be 30ec e33d 6f5c 853e
00000230: f052 2c3e b085 6cbd 8ad5 42be 5d77 113c
00000240: 155b 723d df21 563d 38cb 15be 5399 47be
00000250: ba30 9cbe 0989 8cbb 0169 90be 4124 573e
00000260: b8a8 5bbd 7115 c5be 5ca5 3e3e ab32 41be
00000270: 8e23 34bd ca73 07be 9ca9 26be 5646 4dbe
00000280: e211 48be b9ad 893e 30e4 f63d 97ac 403d
00000290: 5e66 413d bf5e 9a3c 8825 713e 8c27 c13c
000002a0: f887 893e 23ab df3e 07a7 13be a9c4 2b3e
000002b0: fcf7 35be e076 cfbd 80f0 953d 5f55 603e
000002c0: da0a e3bd 3eab 9dbc 0db6 86be 002a 093e
000002d0: 050c 193e c384 1e3e b32a 193e ca6f 17be
000002e0: f617 2e3e c5a1 123d c3d1 103e bccf 6ebe
000002f0: 343f fd3d 0258 19be 0ea1 a33d 4f19 8b3d
00000300: 34eb 8cbd 2fa3 56bd 2182 84bd 7ec5 233d
00000310: 0b0d a03d befd 263e 86cb 4b3e bac9 dc3c
00000320: 1a45 ef3d f5b3 943e 5a28 cabd 19ce 24bc
00000330: 78bd 0cbe 4a2a c6bd dd02 693e 86d3 ac3d
00000340: 079d ac3e 2bac 0b3d a9d0 6b3d 4ce0 05be
00000350: e13e acbe 22c2 48be f6a6 b6bc d7ce f9bc
00000360: 0304 ddbd 733a c73b c781 783e 6ecd 44bd
00000370: db27 2fbd 2be9 5ebe 5802 eabd 595b 74bd
00000380: 3ffd 5cbe 9ad9 11be f977 243d 26d5 29be
00000390: 5acf 8c3e 60df 0a3e 1bc2 213d f0d0 c73d
000003a0: ad7b d6bd 97ee 823e 5b3d 8cbe ef18 41be
000003b0: 5068 c33d 82b6 653d 097e 30be a11a f93d
000003c0: f032 c4bc 84b8 863b 5221 11bd b72e df3d
000003d0: d7c3 a43e eeae 103e 01d8 563e ff31 88be
000003e0: ff73 47be ab44 693d 06b3 af3d 0b48 bc3d
000003f0: c71f c3bd 04cc 2ebd d5b7 9f3d c0d1 4a3e
-0.040817942 -0.2357042 0.1857435 -0.01255041 -0.00528944 -0.31358054 -0.10218468 0.18986425
-0.23700137 -0.42157447 -0.07274235 0.077565335 0.20710696 -0.3054135 -0.23808242 -0.1854131
-0.15993816 -0.06357427 -0.18043904 0.14432983 0.1934906 0.15887576 -0.1964454 -0.29488897
-0.2188563 0.15855822 -0.24486114 -0.0046815844 -0.24426514 -0.082886614 0.11115818 0.09564761
0.25096077 -0.21232557 0.2147563 0.024287874 -0.0048652324 -0.29965785 0.14193572 0.2635
0.07125015 -0.078742236 0.12310404 0.23577897 0.073358856 -0.11399789 0.14246497 0.03297043
0.059271224 0.1898727 0.2500881 -0.11330558 0.051573373 -0.148629 -0.21969184 0.032431334
-0.011878794 -0.038570113 0.26364806 0.2570442 -0.11633493 -0.2658945 -0.06591062 -0.19721465
-0.08629565 -0.06958115 0.1500664 0.041539557 0.36295617 0.090540424 -0.22776358 0.012831295
0.13067877 -0.02370294 0.1967137 -0.20086882 -0.16204426 0.09684141 0.29033375 0.16971947
0.09534381 -0.025223827 0.29290694 -0.1150376 -0.34715518 -0.010053124 0.017924616 -0.01171604
0.13736877 -0.082137816 -0.045362253 -0.12367593 0.0982437 -0.036807217 0.18620779 0.026238197
0.072840914 -0.27118534 -0.16756734 -0.033371683 0.15153843 -0.08724942 0.18630414 -0.119872734
0.15448457 -0.24113335 0.040922236 0.084450565 0.13495734 -0.20067805 -0.209466 -0.038284052
-0.3024945 0.10667115 0.07904447 -0.05642026 0.0005639979 0.09599417 0.068398505 -0.0031690986
0.22994688 0.4498334 -0.11119515 -0.08439992 0.21344166 -0.13595411 -0.13328211 0.28050816
3.8425787e-05 0.13562807 0.02482394 -0.07873791 -0.10594671 -0.062092025 0.12982014 0.113652535
0.012979325 -0.29044893 0.111290336 0.26047084 0.16828513 -0.05774468 -0.19026771 0.008878556
0.059168894 0.052278396 -0.14628303 -0.19492082 -0.30505925 -0.004288797 -0.28205112 0.21009924
-0.0536277 -0.3849292 0.18617767 -0.18866985 -0.04397922 -0.13227764 -0.16275638 -0.20046362
-0.19538072 0.26890352 0.12055242 0.047039595 0.047216766 0.018844007 0.23549473 0.023578428
0.26861548 0.43685254 -0.14419185 0.16774239 -0.1777038 -0.101300955 0.07321262 0.21907566
-0.11086054 -0.019246694 -0.2631077 0.13394928 0.14945991 0.15480332 0.14957695 -0.14788738
0.17001328 0.035798807 0.14142518 -0.23321432 0.12365571 -0.14974979 0.07989703 0.067919366
-0.06880799 -0.052401718 -0.064701326 0.039983265 0.07814988 0.16307732 0.19901857 0.02695166
0.11683102 0.29043546 -0.09870978 -0.010058903 -0.13744152 -0.09676035 0.22754999 0.084387824
0.33713552 0.03409974 0.05757204 -0.13073844 -0.33641723 -0.19605306 -0.02229641 -0.030494137
-0.10791781 0.0060799657 0.24268256 -0.048047476 -0.04276262 -0.21768634 -0.11426228 -0.05965743
-0.2158098 -0.14243165 0.040153477 -0.16585216 0.27501947 0.13561773 0.039491754 0.097566485
-0.10472808 0.25572655 -0.2739056 -0.18857168 0.095413804 0.056082256 -0.17235579 0.12163282
-0.02395007 0.0041113514 -0.035432167 0.10897582 0.32180664 0.1412923 0.20980836 -0.26600644
-0.19477843 0.056950253 0.08579068 0.091934286 -0.095275454 -0.042675033 0.07798735 0.19806576

model.decoder_gnn.lin_skipsum.2.0.bias f4 [16]
00000000: 739d c33d 1389 7d3d cfe4 73bd 7676 c3bd
00000010: 6c0a 9dbd c500 aebd eb5d fb3d a057 46bc
00000020: ef11 54bd 5292 db3d 3910 d0bd ae52 213d
00000030: 937c 55bd 8f50 bd3c 0304 8a3d af4e f6bc
0.095515154 0.061898302 -0.05954438 -0.09544079 -0.076680034 -0.084962405 0.12273773 -0.012105852
-0.051774915 0.10721268 -0.10159344 0.03938549 -0.052120756 0.023109702 0.067390464 -0.030066816
