_models_trained/vaca/loan_non-linear/last.ckpt (torch, 32121 bytes, 31 tensors)

model.encoder_gnn.pre_nn.fc_layers.0.0.weight f4 [16, 1]
00000000: bb8a d9be 1a45 2e3e c672 b839 d3e4 15bf
00000010: ff4c 17bf 9d29 173f c278 a4bd 9408 d9be
00000020: dd17 d1be 1b4c 0d3f 06ae 9dbe 3c6b 23bc
00000030: e04f 0abd 5121 3fbf c2d4 343f e948 4bbf
-0.42488655 0.17018548 0.00035180728 -0.58552283 -0.5910186 0.5904787 -0.08030845 -0.42389357
-0.4083852 0.5519425 -0.30796832 -0.009974297 -0.03376758 -0.7466021 0.7063714 -0.7940813

model.encoder_gnn.pre_nn.fc_layers.0.0.bias f4 [16]
00000000: 7799 123e e995 76bf f806 01be 7e70 2fbe
00000010: 206b 20bc 294c f9bd 8f40 60bf 03c6 a13d
00000020: f5d7 1e3e 56ac e5bd 48cc 5a3e d0d4 3dbe
00000030: c1e0 d2be 62d6 6d3e ad1d f8bd 11a5 323e
0.14316355 -0.96322495 -0.12600315 -0.17132756 -0.009791166 -0.121727295 -0.8759851 0.07899096
0.15512069 -0.11214511 0.2136699 -0.18538213 -0.411871 0.23226312 -0.12115035 0.1744578

model.encoder_gnn.lin_skipsum.0.0.weight f4 [16, 16]
00000000: 4988 0b3e cbe9 3c3e b0f1 7d3e f528 183e
00000010: 4d65 a53d 4402 35be c9a2 fbbd 6d04 f83d
00000020: d71c 173e c725 81be f607 d33d 0684 1a3e
00000030: b042 773e e6fe 853d 8c2c f9bd b266 3f3d
00000040: b57c 08be 1d34 bebc 3eae 0e3e ab63 a5bd
00000050: 9951 f9bc 99bb 913e ec6b eabd 5fb4 1dbe
00000060: f4a4 70be 8ec4 c33e b72e e4bd d459 203e
00000070: 79c3 2ebd 0147 b4bd 5193 5a3e 6b9e fbbd
00000080: d0d6 193e 069c cabc bf64 dabd 594f 093e
00000090: 96e2 183e 8474 29be e82d 2abe 831a 553d
000000a0: 3ba1 e33d a8df 4dbe 6846 4b3e 116f 3e3e
000000b0: 4934 ddbd 81b7 823d fc35 22be a50e 853d
000000c0: e59d 483e 77e4 5bbe f91b 2b3e 2753 603e
000000d0: e7b2 0f3d 6502 5cbe 8d6d 2bbe 5424 e43d
000000e0: ec4b 4f3e 2d21 7dbe 91bb 7b3d 54bd 6cbe
000000f0: 0ccc 1bbe 0385 623d e953 06be 74bc 1f3d
00000100: 7bd2 17be 4430 243e caa4 50be 7a61 46bc
00000110: 8d0c 32be c1b1 6c3e 838a 29bc eed6 b0bd
00000120: a6ad 02be 23cd 6e3e fe37 3bbe 3ad2 c2bc
00000130: 88e8 8dbe e040 8cbd 8fea 533e 5894 56bd
00000140: 6e5b 9fbd a8ae 213e 9dd4 4dbe c1b0 01be
00000150: 497c 11be fdf8 563e dd01 6dbd d1ab e9bd
00000160: f4a1 f0bd e5d5 383e 6364 acbc ac3f 11be
00000170: e078 4bbe 9f6d 7cbd 0dfa 3b3e 70f3 b3bd
00000180: c957 3cbe 5cdf 343d f751 13be fa95 97bd
00000190: 3f46 98bd afce 103e 49af 903d 8b9a b2bd
000001a0: 20e4 62bd 2f18 5d3e 32cd 07be 98c9 423e
000001b0: a76b 6a3e 6b12 9ebd 5208 483e c212 5dbd
000001c0: 3881 ffbd 8274 2d3e 182f 1b3c e51d babd
000001d0: 5f70 e6bd 45f6 3c3e ecbf 693c 28a3 17be
000001e0: 8698 eabd 0b59 483e d73b f9bd eb7a 8e3d
000001f0: 1296 99bd 7686 66bd 3124 283e 5c83 72bd
00000200: cf0d 7bbe 9db5 5bbe a19a aebd 8601 47be
00000210: c969 d8bd 3f97 953e fc0a 61be 119c 71be
00000220: 8f40 01be dfcf b53e a3e6 5ebe 0630 4e3e
00000230: 6845 82be 9433 a1bd 8e1b 6a3e 02b5 a7bd
00000240: de19 0abe aa96 f5bd 34c3 443d 91f9 02be
00000250: ea56 0dbe 0e85 893e bb3d 7f3e d0c5 44be
00000260: 9b6d 40be 797e 9c3e b762 08be b0f8 95bd
00000270: bbf3 063e 25da 91bd 4e05 593e c6f0 c1bc
00000280: a8d3 edbd abf6 14bd 4eaa 0a3d 031d 1ebe
00000290: 11c5 16be b2c4 4b3e d9d9 5dbb 3b25 41be
000002a0: cca6 14be f2c4 de3d 8fb7 083c c370 1fbe
000002b0: e553 713c 6fd1 88bd bf24 103e 62e5 36bd
000002c0: e1e0 c7bd 3c14 9fbd d242 10be cde3 a6bd
000002d0: 7780 b5bd 0ec6 123e fe4f c5bd 3c6f 37bd
000002e0: 8b76 e7bd 980d 433e 263d acbd 8e6f bcbc
000002f0: 4432 523d a961 45bd bff8 083e 9104 1cbd
00000300: 484b 613e 297d a33b f71d 68bd 3e1e 993d
00000310: 118d 403e 62fe 60be 6dba 3bbe 5015 dd3d
00000320: 1e7b 543e 1f7a 6dbe 9445 583e 20f3 02be
00000330: 38f1 9cbd b8d5 5a3d fb42 77be bcf0 ce3c
00000340: f9e0 ba3d b198 c6bd a324 383e 1875 a83d
00000350: 0655 1a3d 947f 24be 1256 013e 49c9 023e
00000360: 6848 b73d ee29 20be c5ec 2d3d a09f 09be
00000370: 9ecf 3abd dd95 423d 2a39 efbd 681f 8a3d
00000380: fa58 8abd 6cc3 c63d dd5d a83d 85c6 cbbd
00000390: 7371 29be 1a33 4a3e bbaf cbbd 3eac 2fbe
000003a0: 0363 dfbc d95b 2c3e 5380 22bd 730c a2be
000003b0: 1052 29bb 4303 7ebd 85dd 5d3e 7740 93bd
000003c0: 0439 523e 8d1f 463e e146 663d d15f ad3d
000003d0: 35e1 6b3d 2b68 1bbe 56d3 213e 0787 063e
000003e0: bbf0 323d f13f e0be 8ea0 313e 71b9 1f3d
000003f0: cffe 103d 0688 fe3d 7ff8 08be d029 e63d
0.13626207 0.1844856 0.24799228 0.14859374 0.08075962 -0.17676646 -0.12286908 0.12110219
0.14757095 -0.25224134 0.10304253 0.15089425 0.24146533 0.06542759 -0.121667 0.046728797
-0.13328822 -0.023218209 0.13933656 -0.08075651 -0.030434417 0.28463438 -0.11446366 -0.15400837
-0.23500425 0.38235897 -0.11141723 0.15659267 -0.042666886 -0.088026054 0.21345259 -0.12286075
0.1502335 -0.0247326 -0.10663747 0.13409175 0.14930186 -0.16548353 -0.16619074 0.052027237
0.11114737 -0.2010485 0.19851077 0.18597056 -0.10800988 0.06382657 -0.15840906 0.06496934
0.19591482 -0.21473871 0.1670989 0.2190672 0.035082724 -0.21485288 -0.16741009 0.111397415
0.20243806 -0.24719687 0.061458174 -0.23119098 -0.15214556 0.05530263 -0.13117947 0.038998082
-0.14826386 0.16034037 -0.20375362 -0.012108201 -0.173876 0.23114683 -0.010347965 -0.086347446
-0.12761554 0.23320441 -0.18283078 -0.023781884 -0.2771647 -0.068483114 0.20694946 -0.052387565
-0.07781111 0.15789282 -0.20100637 -0.12665083 -0.14207567 0.20993419 -0.057863105 -0.114097245
-0.1174964 0.18050344 -0.021043962 -0.14184445 -0.19870329 -0.06162798 0.18357106 -0.087866664
-0.18392862 0.044158325 -0.14386736 -0.07401653 -0.074352734 0.14141344 0.07064683 -0.08720883
-0.05539334 0.21591257 -0.1326187 0.19022214 0.22892629 -0.07718357 0.19534424 -0.053972967
-0.124758184 0.16938975 0.009471677 -0.09087733 -0.11251902 0.1845332 0.014266949 -0.14808333
-0.11454873 0.19565217 -0.12169617 0.069570385 -0.07499327 -0.056280576 0.16420056 -0.059207305
-0.24516986 -0.21455999 -0.08525587 -0.19434175 -0.10567052 0.29216954 -0.21976846 -0.23594691
-0.12622283 0.35510156 -0.21767668 0.20135507 -0.25443578 -0.07871166 0.22862074 -0.081888214
-0.1348643 -0.119916275 0.048037723 -0.12790515 -0.13802686 0.26859325 0.24925892 -0.19216084
-0.18791811 0.3056524 -0.13318907 -0.07322824 0.13178913 -0.07121686 0.2119343 -0.02367438
-0.11612636 -0.036368053 0.03385382 -0.15440755 -0.14723612 0.19899252 -0.003385177 -0.18861859
-0.14516753 0.10877408 0.008344545 -0.15570359 0.014729475 -0.06680571 0.14076518 -0.04465235
-0.09759689 -0.07767531 -0.1408799 -0.08148918 -0.08862393 0.14333364 -0.09634398 -0.044783816
-0.11301907 0.19048154 -0.08410101 -0.023002412 0.05131747 -0.04818884 0.13376139 -0.038090292
0.22001374 0.0049892855 -0.0566692 0.07476471 0.18803813 -0.2197204 -0.18332835 0.10795081
0.2075009 -0.23191117 0.21120292 -0.12788057 -0.07663196 0.053426474 -0.24146645 0.025261275
0.091249414 -0.09697092 0.17982726 0.08225459 0.03767874 -0.16064292 0.1263049 0.12772097
0.08949357 -0.15640995 0.04246213 -0.13439798 -0.045608155 0.047506202 -0.11680825 0.067442715
-0.06755252 0.097052425 0.08221028 -0.09949974 -0.16547184 0.19746056 -0.09945627 -0.17155549
-0.027268892 0.16831912 -0.03967316 -0.31650123 -0.0025836267 -0.06201483 0.21666534 -0.0719003
0.20529562 0.19347973 0.05621994 0.08465541 0.05758782 -0.15176456 0.15803275 0.13137446
0.04368661 -0.43798783 0.17346403 0.03899521 0.035399254 0.12428288 -0.13376044 0.11238444

model.encoder_gnn.lin_skipsum.0.0.bias f4 [16]
00000000: 63a5 bbbd 8fea b33d b799 fcbd 299e babd
00000010: 96a2 b83d f905 823d c65d ad3d 6012 cb3d
00000020: c59f 153e 3533 b03d 70fe c23d b5d9 843d
00000030: ae68 03be f9bd 87bd e794 703d 10ec debd
-0.091624044 0.08784973 -0.12334006 -0.09112198 0.09015386 0.063487954 0.084651515 0.09915614
0.14611728 0.08603517 0.09521186 0.06486837 -0.12832901 -0.06628031 0.058735754 -0.10884869

model.encoder_gnn.gnn.0.0.nn.0.weight f4 [16, 16]
00000000: 17c5 a0bd f029 14be 40c6 fabd 8e32 413d
00000010: 02d6 193d e7de 44be bdcf 1a3e fd17 5bbd
00000020: 5c43 12bd ef69 6fbf 1f14 36be 159a cb3d
00000030: ec11 40bc f6e4 0dbc b344 233f 0a29 f23b
00000040: 6dcf 0ebe 2526 4d3e 2e7a 8a3e 346a e1bf
00000050: a3b8 3cbf 9f50 353c 25f6 6ebe 08ef 83be
00000060: a0b4 a8be c564 2cbd b2af 903e b509 f93d
00000070: 9a1e 1cbd 3a72 a8bd fc3c bc3d 7c93 073c
00000080: 892e 41be f0b0 25be 1623 e43d ec8e a53d
00000090: 916b 22bd 2ca4 0d3f 7ab0 b33d fbef 53ba
000000a0: 9000 313d 2478 41bf 8c93 45be cc95 c2bd
000000b0: 987e 163e 0d75 89bd 2bad 9f3d ecc0 d1bd
000000c0: 147a 01be 3713 2c3d e24d 093e 4d4e 363e
000000d0: 9622 73bd cc32 db3e c392 43be 29ce adbd
000000e0: c5cf bcbc 9319 98be f3b4 6a3c 1042 60be
000000f0: 7920 51be 5f07 3c3e 6ab7 61be 68ed 223e
00000100: 8657 5c3e 71bd ca3d fd0e 6d3d 5c76 a2bc
00000110: 2261 12bf 9d7b 053f 8415 bc3d e6c6 883d
00000120: ca22 6e3e fd52 c93e 46f9 e2bc ad71 b1bd
00000130: 0e4b 0ebd 1c11 503b b56b b7bd 810d 843d
00000140: 75a6 353e 9890 eb3d a95c aabd 2563 a5bc
00000150: 742e 8ebf 19ec 25bd 36e1 543e 329b 323e
00000160: 2434 803e 4b33 1cbe b6e6 f33c fc9a 93be
00000170: f90a 3d3d 5298 083d aead 793e da31 9c3d
00000180: 387c 68bd f162 3a3e 8748 8d3d d465 0ebf
00000190: 02b4 c23d 4ec4 7cbd 9f73 323e b39f 5abd
000001a0: b1eb b2be 89ef be3e bb1d d73e 9e6e 5a3e
000001b0: 8a7c d1bd 438a af3c aaab 47bd 5d9d 313e
000001c0: d618 4dbd 9814 2e3e 8aa2 febd 5e02 2bbe
000001d0: 71d1 aabd a651 83be 5413 5dbe 2276 39bd
000001e0: dc26 0dbc 8287 e03e db89 843d e000 1b3d
000001f0: fb4a f7bd 8fee 403d 722c d6be 6d17 2a3d
00000200: 7c9a ecbd 2cb1 78bd 0037 27bc 187a 0e3e
00000210: 521a 59bd a953 ffbe db7b 38be e12b b4bc
00000220: cc0b b33b 1311 0b3f 694c c1bd d349 4e3e
00000230: 3816 9bbd 2e1e c8bc 62b7 8f3e eff5 37bd
00000240: 331d cebd 6c9b 53bd fdf9 493d 3f7b 623d
00000250: 6250 a63c 8474 b7bd 73f4 2fbe 3ca8 923e
00000260: e16d 59bd ad12 923d 6e3e 363e 2b9e 6dbd
00000270: 72c9 03be 11f6 373e 7d46 b43e 866a 923d
00000280: 1c52 9ebc f11f b5bc 1eb5 663e 92f5 90be
00000290: 5a37 253e be8c c8bd c9f7 12be da11 de3e
000002a0: 4b29 ebbe c854 fabd 6759 093f c1fc 503e
000002b0: e24b ae3d ed61 98bd 5be2 ca3e d69b 3abe
000002c0: 95a6 2abe 0ea4 1bbe 29b8 983d 0601 b4bd
000002d0: 32a1 15be cd6d 363c 1e23 0ebe 9731 9fbe
000002e0: b1d5 11be 59b6 04bd 3413 77be 2f49 473e
000002f0: 7ec0 ecbd fd66 143f aca5 63bc d96e edbb
00000300: 0c99 66bf daf4 043d 9d8a 22bd 58d0 94bd
00000310: 368a 1ebd 4252 28bc 5279 c53d 1600 b13d
00000320: a3cc 2c3f 0c07 66bc 0dee bf3d f273 af3d
00000330: 280d 0abd 9f8f 8ebc 33ee bdbc 97fd e0bb
00000340: d23c d1bd 5ae7 993d a31a edbc 7520 d2bd
00000350: 4fc2 efbd 805e dabc 3f56 693d d53b a2be
00000360: 55f3 20be 589a cebd b644 3cbe e086 1fbe
00000370: 5650 9a3e bd1f 18be 7349 30bc 7b46 1f3f
00000380: 32a7 b43d b059 463e a866 403e d316 9dbe
00000390: 81e1 9d3e ca89 06bb e1ac a23d 30f1 45be
000003a0: c0b0 2c3f 4c0d 063e 5e09 86be bf80 7abe
000003b0: 7ead 2ebe d689 85bd d3fe ba3d 3e02 83be
000003c0: 80f5 8d3e 399f f8bd 635d b3bc ab41 a9bd
000003d0: 70f5 3abe 1203 ddbd ba65 cdbb 75ef a2be
000003e0: 46c3 113f a08e 5cbe 352c bc3d 360e 25be
000003f0: 3f66 003c fe68 e93d ac42 dd3e 0421 363e
-0.07850092 -0.14469123 -0.122448444 0.047167353 0.03755761 -0.19225655 0.15118308 -0.053489674
-0.03570877 -0.93521017 -0.17781113 0.09941498 -0.011723023 -0.008660546 0.637767 0.007390146
-0.13946314 0.20034082 0.2704634 -1.7610536 -0.73719233 0.011066585 -0.23336084 -0.25768304
-0.32950306 -0.04208829 0.28259045 0.121600546 -0.03811512 -0.08224912 0.09191319 0.008274909
-0.18865408 -0.16180778 0.111395046 0.08083901 -0.039653365 0.5532863 0.087738946 -0.0008084771
0.043213427 -0.75573945 -0.19294566 -0.09501228 0.14696729 -0.06711779 0.07796701 -0.10241875
-0.12644225 0.042010512 0.13408616 0.17803307 -0.059359156 0.42812192 -0.19098954 -0.084865876
-0.023048291 -0.29707012 0.014325368 -0.21900201 -0.20422544 0.18362187 -0.22042623 0.15910876
0.21517763 0.09899414 0.057875622 -0.019831829 -0.5717946 0.52141744 0.09183791 0.06678562
0.23255458 0.39321128 -0.027706753 -0.0866426 -0.034739546 0.003174848 -0.0895609 0.06447888
0.1773928 0.115021884 -0.08318455 -0.020188877 -1.1107926 -0.040508363 0.20789036 0.17442015
0.2503978 -0.15253942 0.029773097 -0.2882918 0.046153042 0.03334839 0.2438266 0.07626696
-0.05675909 0.18201806 0.06898599 -0.5562413 0.0950699 -0.06171065 0.17426918 -0.053374957
-0.34945443 0.37292126 0.4201487 0.2133126 -0.10228832 0.021428233 -0.048747696 0.17345186
-0.050072514 0.17000043 -0.124333456 -0.16700122 -0.08340729 -0.2564823 -0.21589404 -0.045278676
-0.008615222 0.43853384 0.06471606 0.03784263 -0.12074848 0.047102507 -0.41830784 0.041526247
-0.11552903 -0.06071584 -0.010205984 0.13913763 -0.053003617 -0.49868515 -0.18015997 -0.02199358
0.005464053 0.5432293 -0.09438402 0.20145349 -0.07572597 -0.024428453 0.28069597 -0.044912275
-0.10064163 -0.051661894 0.049310673 0.055293318 0.020302001 -0.089577705 -0.17183094 0.28643978
-0.053083304 0.071324684 0.17797253 -0.05801217 -0.12869814 0.1796496 0.35210028 0.07149224
-0.019326262 -0.022109957 0.22530028 -0.28312355 0.16134396 -0.097924694 -0.14352335 0.43372995
-0.45929942 -0.12223202 0.5365204 0.20408918 0.08510567 -0.07440553 0.3962582 -0.18223509
-0.16665109 -0.151993 0.07457001 -0.08789258 -0.14612272 0.011134577 -0.13880584 -0.31092522
-0.14241673 -0.032400463 -0.24128419 0.19461511 -0.115601525 0.5796965 -0.01389448 -0.00724588
-0.9007728 0.03246007 -0.039682973 -0.07266301 -0.038706027 -0.010273518 0.09642281 0.086425945
0.6749975 -0.014039766 0.093715765 0.08567037 -0.033703953 -0.017402468 -0.023184871 -0.0068661678
-0.10216679 0.0751483 -0.028943365 -0.10260097 -0.11706983 -0.02665639 0.056967016 -0.31686273
-0.15717824 -0.100880325 -0.18385586 -0.15578794 0.30139416 -0.14855857 -0.010759699 0.6221692
0.088209525 0.1937015 0.1878916 -0.30681476 0.30836108 -0.0020528906 0.0794313 -0.19330287
0.674572 0.1309101 -0.26179022 -0.24463175 -0.1705837 -0.06520431 0.09130635 -0.25587648
0.27726364 -0.12139744 -0.021895116 -0.08264478 -0.1825769 -0.10791601 -0.0062682303 -0.31823316
0.5693859 -0.21538782 0.09188119 -0.16118702 0.007836877 0.11396979 0.4321493 0.17786032

model.encoder_gnn.gnn.0.0.nn.0.bias f4 [16]
00000000: 36fd 66bb b716 d43e b137 0e3e 6658 123e
00000010: 3d5d 853d 5ebc ea3e 4177 343d 9799 f53e
00000020: 7ca2 18be 6458 54be 594c 5a3c 1084 c3bc
00000030: 5fcb 0bbe 2be8 cbbd 7c02 f93d e0f6 b8bd
-0.003524614 0.4142358 0.13888432 0.14291534 0.065119244 0.45846838 0.044059042 0.47968742
-0.14905733 -0.20736843 0.013323867 -0.023866683 -0.13651799 -0.09956392 0.12158677 -0.09031463

model.encoder_gnn.gnn.0.0.nn.2.weight f4 [16, 16]
00000000: 6e2c 48bf 94fa 793d e78d 843e 7f0e 13bf
00000010: c70e 7a3d 4a87 6e3e 120c 933d 7a46 9ebe
00000020: 7870 13be d9cf 53be 161d cbbe 3033 543e
00000030: 51f6 353f 37a3 0d3f 5c00 0e3f 3b25 643e
00000040: f7f9 3c3f 86c7 26be 78a4 103e 8d16 593d
00000050: 742c 63be 3cee fbbd 25fa 7abe 23b8 ff3e
00000060: fe05 203f c3ea 193e de1e 47bd 0d54 d0be
00000070: e6b5 bebe 1e32 9abe d94a 65be c24f e63d
00000080: 2907 81be 90d8 f63d 5707 f8bd 740c 023b
00000090: 6aac a4bc a9e7 0a3e 03e6 573e db14 a6be
000000a0: ac84 01be ff20 673e d91a 543e d513 973e
000000b0: 6a1c 833e 4955 5d3f 3ba2 3e3d 2615 a9be
000000c0: 182c f5be 3e69 7cbd 31c4 1a3c 1cfa a5be
000000d0: 28ab 653d 2fc5 743e 63af 823e 107b 43be
000000e0: 9ecc 99be ac86 db3b 1dc1 143e 599e 1c3f
000000f0: c3ce c63e a481 8c3f e0e8 913e 319e 23be
00000100: 4eef 223f e3bf 43be dce6 f33d 3c3f bcbd
00000110: de2e 30be 1881 9fbd b1de 26be 9595 943e
00000120: c8ef e53e 75df 273e 509f 97bd 47ea 83be
00000130: e84d 27bf b77d 56be f6ac 5ebe 7d33 143e
00000140: e8b6 c3be 91b1 babe 207d 373f 4f97 dc3e
00000150: 0c19 0e3f 32ea 8ebe 6155 f1be c23a 0abd
00000160: 4251 7ebf c7d2 83be f777 303d d715 09bd
00000170: c5de 1bbe 04e0 d5bc fbe8 87be da50 0ebe
00000180: 4654 bebb 67e1 7dbe f727 5d3e bc51 adbf
00000190: 7da9 563e dbee 0dbf 546d 243e 71b9 983f
000001a0: 9e09 b9be 2dfd 203f b831 88bf b102 013f
000001b0: 3551 dfbe e972 983e 0d08 903e d9f8 39bf
000001c0: bcc2 b0bf ea51 3e3d 61ac dabf e7a0 2ebe
000001d0: c3fd d53e b7d1 33bf 9203 36be 8ee4 a0be
000001e0: b6b5 88bf 42dd ef3e 022b a7bd c1b7 70be
000001f0: 5875 80be 6bfd 8f3c 04f8 7bbe d405 3f3e
00000200: d559 28bf 15f8 f9be 0c03 693f e27a da3e
00000210: c4cb afbe 6c97 56bd 33a1 52be cd6d 963d
00000220: 2122 7b3e eae2 34bd ef8c 14be 8e78 64bf
00000230: dd73 56bf 6341 b3bf 568b 39be 8886 af3c
00000240: 13ec 0c3f af0d a7be e71e 943e 37c6 5a3e
00000250: 8a72 05be b9ce 8cbd 64af 60be e45b be3e
00000260: 87c4 f13e a1ea c73d 7519 02bd 885e 0fbf
00000270: 43f9 87be 6dc7 0bbf afe7 05be c8df 6d3d
00000280: 6f67 b23f cdc7 cebe ccdf a4bf 651f dc3c
00000290: 8671 92be a21a 3e3e 2d87 b3be bede e83e
000002a0: 83f3 5e3f 56a3 2fbe 3634 1ebe f2c0 30bf
000002b0: 9dd7 2b3d 6227 febe b986 b1be 2bce 1dbe
000002c0: fa3e 0abf 9129 ecbe 4301 093f 1f44 013f
000002d0: 88d7 3a3e 5d45 91be cd18 a2bd b2a7 113d
000002e0: 2547 143f b89d 1abe bb1f 86bf ac29 c5be
000002f0: 8561 69be db07 e8be a501 30be 1402 0bbf
00000300: 4818 aabd 49d3 103d b864 a33d e45c acbc
00000310: e949 3abe 9e65 c5be 0267 a4be 9c46 c5bd
00000320: 1825 503e 2605 35be a05e 34bd 2c15 1b3e
00000330: 00a0 6c3b b413 03be 2347 243b 3159 f4bd
00000340: f94b 47be 99e5 ca3e bff4 38bd 51b0 cfbe
00000350: d890 b93d 5660 71bd 00de 82be f1c0 bdbd
00000360: ce4d c23c f11c 2e3e 194a 873e 9565 f13f
00000370: ef10 bfbd fe4c 4dbf 053c 51be 31dc c1be
00000380: 1814 00be c0a6 46be 6553 fd3e f446 c63e
00000390: 413a 463d eb8f 4ebf 3489 1ebe 6301 2a3e
000003a0: db80 483f 7657 1fbe 1f0f 89be 6c1c eabe
000003b0: c5f0 62be 8d76 25bf 1908 c9bd b612 8abe
000003c0: 2104 353e ef2c 3fbe 71da c03d b583 4e3d
000003d0: a3ea 91be 9bf3 35be 5aa5 9ebd 2033 70be
000003e0: 9b29 4d3e 2871 fabc f4ad 85be fcee bebd
000003f0: c38d a8bd 91b7 ddbd 6732 7cbe 3b99 3fbe
-0.78192794 0.061029986 0.25889513 -0.57443994 0.06104925 0.23293796 0.071800366 -0.30913144
-0.14398372 -0.20684756 -0.39670628 0.20722651 0.71078974 0.5532717 0.554693 0.22279827
0.73818916 -0.1628705 0.1412524 0.05300002 -0.22184926 -0.12301299 -0.24509485 0.49945173
0.62509143 0.1503096 -0.04861342 -0.40689126 -0.37248152 -0.3011636 -0.22391833 0.11245681
-0.25200775 0.12053025 -0.12110775 0.0019843848 -0.020101745 0.13564934 0.21083836 -0.32437786
-0.12648267 0.22571181 0.20713367 0.29507318 0.25607616 0.8645826 0.046541434 -0.33023947
-0.47885203 -0.061623804 0.00944619 -0.3241738 0.05607143 0.23903345 0.25524434 -0.19089913
-0.30038923 0.0066994037 0.14526792 0.6117912 0.38829622 1.0977063 0.28497982 -0.15978314
0.636464 -0.19116168 0.11909267 -0.091917485 -0.17205378 -0.077882946 -0.16295888 0.29020372
0.449095 0.16393836 -0.07403433 -0.25764677 -0.6535325 -0.20946394 -0.21745667 0.14472766
-0.38225484 -0.36463597 0.716753 0.4308419 0.5550697 -0.27913052 -0.4713545 -0.033747442
-0.9934274 -0.25746748 0.043083157 -0.033468094 -0.15221699 -0.026107796 -0.26544937 -0.1389803
-0.005808386 -0.24793015 0.21597277 -1.3540568 0.20963092 -0.5544259 0.1605733 1.1931592
-0.3614015 0.62886316 -1.0640173 0.5039473 -0.43616644 0.2977517 0.28131142 -0.72645336
-1.3809428 0.046464838 -1.7083856 -0.17053567 0.41795167 -0.70241874 -0.177748 -0.31424373
-1.0680454 0.46848494 -0.081625 -0.23507597 -0.25089526 0.017576894 -0.24606329 0.18654567
-0.6576207 -0.48822084 0.91020274 0.42671877 -0.34335148 -0.0523905 -0.20569305 0.073451616
0.24524738 -0.044161715 -0.14506887 -0.8924645 -0.83770543 -1.400433 -0.18119559 0.021426454
0.5504772 -0.32627627 0.28929827 0.21364675 -0.13031974 -0.06875367 -0.21941906 0.37179482
0.4722025 0.09761549 -0.03176256 -0.5600362 -0.2655736 -0.54601175 -0.13076662 0.058074743
1.3937815 -0.4038681 -1.2880797 0.026870439 -0.28602237 0.18564847 -0.35064068 0.4548244
0.8709032 -0.17152151 -0.15449604 -0.6904441 0.04195367 -0.49639422 -0.34673098 -0.15410678
-0.54002345 -0.46125463 0.5351755 0.5049457 0.18246281 -0.28373232 -0.079148866 0.035560317
0.5792106 -0.15099227 -1.0478433 -0.38508356 -0.22791107 -0.45318493 -0.17188127 -0.54300046
-0.083054125 0.035357747 0.07978195 -0.021040387 -0.18192257 -0.3855409 -0.3210984 -0.09632608
0.2032665 -0.17677745 -0.044035554 0.15144795 0.003610611 -0.12800485 0.0025066815 -0.119310744
-0.19462575 0.39628294 -0.045155283 -0.40564206 0.0906083 -0.058929764 -0.25559998 -0.09265316
0.02371874 0.17003228 0.2642372 1.8859125 -0.09329402 -0.80195606 -0.20433052 -0.37863305
-0.12507665 -0.19399548 0.49477687 0.38726008 0.0483954 -0.8068835 -0.15482026 0.16602091
0.7832162 -0.15560707 -0.2676935 -0.4572481 -0.22162159 -0.6463402 -0.09815998 -0.269674
0.17677356 -0.18669485 0.094166644 0.050418574 -0.28499326 -0.1776871 -0.07746382 -0.23457003
0.20035402 -0.030571535 -0.26109278 -0.093229264 -0.08230164 -0.10826028 -0.24628602 -0.18710797

model.encoder_gnn.gnn.0.0.nn.2.bias f4 [16]
00000000: 56b7 f4bc 5e80 32bd 4fca f83c 527e a0bc
00000010: 8476 b63c 25eb 9cbe 013b 9fbe 187c 30bf
00000020: 88ba 4a3e 59a1 69bd fbe8 683e f3d2 073e
00000030: 2988 bfbe a75e 223d a991 863e 5fa9 613c
-0.029872578 -0.04357945 0.030369906 -0.019591484 0.02227331 -0.3064815 -0.31099704 -0.6893935
0.19797719 -0.05703864 0.22745125 0.13264064 -0.3740857 0.03964105 0.26283005 0.013773291

model.encoder_gnn.post_nn.fc_layers.0.0.weight f4 [8, 16]
00000000: 08d8 793a 4efb 3f3b 0e4f 263b 757a 463b
00000010: 18b1 ec3a e2a0 023a e6b3 bc39 e7bb f3b9
00000020: 8be0 b6b9 9c40 423b cd44 f6ba 49d8 9c39
00000030: 1349 a83a 7ee3 80ba 7b85 8f3a bfcb 9139
00000040: 4a70 3a3b d49c 073b 1a1a 203b 34cb 8c3a
00000050: 725a 6d3b a03f 2c38 6a8e 813b 6e25 143c
00000060: ba15 34bb 385e 4539 b794 8abb 1fad a73b
00000070: d15d 4dba a0f7 803a 54b0 e43a d55e 703a
00000080: b8a1 6239 2cac b7ba 9447 e3b9 ce4c 93ba
00000090: 4640 7eba 3cb4 c5ba d6dd acba 71e9 653b
000000a0: d649 cdba 06da 5abb 1069 b53a 94b0 d4ba
000000b0: ed76 3b3a a872 173a 2ee8 0abb 7ad8 ab3a
000000c0: 9c60 603e be74 1abe f8a9 453e c6d7 4b3e
000000d0: 7dd9 3fbe 0c01 64be 7ae7 5cbe 0320 62be
000000e0: ae5b 11be 5ca3 2ebe fdb0 5bbe 2bd3 90be
000000f0: 9ddf 323e 08da 8f3e d17d 61be f336 313e
00000100: d0d3 a2b8 9fb0 2e3a fe9f 183b 4632 0d3a
00000110: b611 523a be11 b03a ee17 0a3a 041b cab9
00000120: f831 6aba 34dd 873a f0a5 96b8 79e2 3b3a
00000130: 2aa6 e0b8 06ae a73a 5b25 66ba 88bc e63a
00000140: 5ca7 d538 fc19 043b cca5 fd39 2cd1 823a
00000150: 901a 093b a0fa 03bb ec2a 4a3b d4ec 88b8
00000160: ebeb 123a 6022 bf3a a255 b23a b1eb e0ba
00000170: 808e d53a 1843 4eb8 fbd0 e739 2b3c 80bb
00000180: 7e92 0dba a168 73ba 1628 28ba dc3c c839
00000190: 0447 b139 5e79 60bb 794c d13a 4b12 cc39
000001a0: 45f9 43ba b2d5 fe3a 36f4 1bbb 5b49 f63a
000001b0: c4ec 06b9 5c78 9739 4094 2739 f4c7 3139
000001c0: ae5f 823d 7c7b ae3d 1758 d63d 88af ab3d
000001d0: 2bb1 cc3d ab01 9a3c bda3 083d 3090 3ebd
000001e0: 840b 4e3b 1d34 733d 05e0 50be 2be6 383d
000001f0: 0e20 703c 4976 2dbc 5879 163d 8234 e6bc
0.00095307874 0.0029294076 0.002537671 0.0030285392 0.0018058149 0.000498308 0.0003599219 -0.0004648857
-0.00034881043 0.002964056 -0.0018788815 0.00029915784 0.0012839161 -0.0009833423 0.0010949814 0.00027808358
0.0028448277 0.0020692842 0.002442962 0.0010741712 0.003621724 4.106725e-05 0.0039537447 0.009042127
-0.002747877 0.00018822483 -0.004229154 0.005117073 -0.0007834109 0.0009839423 0.0017447569 0.00091694045
0.00021613284 -0.0014013103 -0.00043350144 -0.00112381 -0.00096989085 -0.0015083621 -0.0013188671 0.003508177
-0.0015662264 -0.0033394112 0.0013840515 -0.0016226941 0.0007151205 0.0005777278 -0.0021195519 0.001311078
0.21911854 -0.15083596 0.19303119 0.1990653 -0.18735309 -0.22266024 -0.21572676 -0.22082524
-0.1419513 -0.17054504 -0.21454234 -0.28286108 0.17468114 0.28096032 -0.22020651 0.17306118
-7.764215e-05 0.0006663892 0.0023288722 0.00053862145 0.00080135034 0.0013433022 0.0005267848 -0.0003854857
-0.00089338375 0.0010365606 -7.183466e-05 0.0007167231 -0.00010712103 0.0012792952 -0.000877937 0.0017603794
0.000101878046 0.002015709 0.0004837945 0.0009980551 0.0020920373 -0.0020138398 0.0030848337 -6.529098e-05
0.00056046125 0.0014582388 0.0013605843 -0.0017160085 0.0016293079 -4.9176713e-05 0.00044215456 -0.0039134226
-0.0005400552 -0.0009285305 -0.00064146647 0.00038192316 0.00033812982 -0.0034252028 0.0015968225 0.0003892354
-0.0007475804 0.0019442348 -0.0023796684 0.0018790172 -0.00012867438 0.0002889064 0.00015981589 0.00016954524
0.06365906 0.085196465 0.104660206 0.08383089 0.099947296 0.018799623 0.033359278 -0.046524227
0.003143997 0.05937587 -0.20397957 0.04514138 0.01465608 -0.010587283 0.036736816 -0.02810121

model.encoder_gnn.post_nn.fc_layers.0.0.bias f4 [8]
00000000: 3fb0 e1ba a6ce 0abb 4044 9736 791e 8c3b
00000010: d459 a1b9 c401 13ba 62c6 89ba 5391 ffbf
-0.0017218663 -0.00211803 4.508096e-06 0.0042760936 -0.0003077524 -0.0005607868 -0.0010511393 -1.9966224

model.decoder_gnn.pre_nn.fc_layers.0.0.weight f4 [16, 4]
00000000: 70e0 023d dfc4 883b a3c0 0abd c2ae d83e
00000010: 586e 893b 62db 1d3c 2c68 29bb 3e9e 77be
00000020: 7efe 02bb 433f 003c 684f 813c 3265 5dbf
00000030: 6182 4c3b 9662 593a fcf4 7d3a 3876 513f
00000040: 2374 a3bc ea38 92bc 32ee 413c d29c 403f
00000050: e605 e8bb dd53 01bb 7098 52bc dca5 3abf
00000060: 9107 233c 78b9 84bb 6be0 333c 6bec b2be
00000070: a273 88bc c0d1 f03b a4fd 883b dbe0 babe
00000080: 69c1 01bb 0ab1 74bc 0b29 a1bb f3d9 67be
00000090: 6787 34bc 6a9d 573c fd62 593c 88bc f83e
000000a0: 1fa7 523c da71 f2bb 4791 dabb f200 3f3f
000000b0: 3109 823c 6824 4fbc 1279 4c3b 4299 52be
000000c0: 9a31 0b3c 3f83 7b3c 148e a5bc 74af dabe
000000d0: 4096 f33b 774d c3bc c1a3 23bc d8d8 eebe
000000e0: c428 453c 56a1 2b3c ade1 0ebc 1bbf 08bf
000000f0: 4c85 ca3b e755 d03b 2053 bbba ac50 e4be
0.03195232 0.0041738595 -0.03387512 0.4232083 0.004194062 0.0096348245 -0.0025849445 -0.24181458
-0.0019988115 0.007827583 0.015784934 -0.86482537 0.0031205642 0.00082925835 0.00096876896 0.8182101
-0.01995284 -0.017849404 0.011836575 0.7523929 -0.0070807813 -0.0019733824 -0.012853727 -0.7290933
0.009950534 -0.00405043 0.010978798 -0.34945998 -0.0166567 0.007349223 0.004180627 -0.36499676
-0.001979912 -0.0149347875 -0.004918223 -0.22641735 -0.011018611 0.013160089 0.01326823 0.48581338
0.012857228 -0.007398826 -0.0066701504 0.7461082 0.015873523 -0.012642957 0.0031200093 -0.20566276
0.008495713 0.015351116 -0.02020935 -0.42711985 0.0074336827 -0.023840649 -0.009987772 -0.46649814
0.012033645 0.010475477 -0.0087207975 -0.53416604 0.006180441 0.0063578966 -0.0014291741 -0.44592798

model.decoder_gnn.pre_nn.fc_layers.0.0.bias f4 [16]
00000000: c9b8 d5bc cea7 493e f2a3 d63d 0fb7 8bbd
00000010: 77c0 ae3b e0aa 643d 8fb0 f5bb 6d1a af3e
00000020: 9850 5a3e 68c6 03be ae27 cebd cbe5 583e
00000030: c1a8 28bd 98ef 94bd 2ab3 63bd dfdd fbbc
-0.026089089 0.19692919 0.10480489 -0.06822025 0.005333002 0.05582702 -0.007497854 0.3419985
0.21319807 -0.12868655 -0.10066162 0.21181409 -0.04117656 -0.072722614 -0.055590786 -0.030745445

model.decoder_gnn.lin_skipsum.0.0.weight f4 [16, 16]
00000000: 7c95 093d 37eb 5cbe bac5 d1bc 790a 093e
00000010: b70c 593e 02bc d8bd 57db bfbe 2cee 2c3c
00000020: 0584 aebd b2a5 393e 46e5 4c3e bb8e 62be
00000030: f07f e9bd 9138 07be c34b 21be e54d 85be
00000040: 4d42 d5bd 1254 c5bc b3e3 3a3d 6135 afbd
00000050: f809 e6bd 1530 033e 99ac 873e 304c c63d
00000060: 1095 203e fb32 52be 568f 75be e4f1 0d3e
00000070: 4c40 733d 8ced 2d3e 52a1 233e 5a49 213e
00000080: 38b7 813e ea9a b5bd 323a 8ebd aad8 013e
00000090: ceb4 223e d25c 82bd 7b43 82be 4e6d 38be
000000a0: f5c2 64be 02d7 ea3d f30e 7a3d a6fb 1bbe
000000b0: 5c4f b7bb ad04 70bd c935 06be ace7 88be
000000c0: 0737 833e ce4f a9bd feab aebd 330a d23d
000000d0: a506 4a3e 3679 94bd 3b94 57be 618a 18bd
000000e0: 041c 9bbe d494 463e c230 df3d 9574 bfbd
000000f0: 7768 0bbe a2ee 4cbe 0315 32be da7f 46be
00000100: c91d 1dbe ac8f b1bc 30f1 fe3d 2a04 c2bd
00000110: 0ecc 0ebe 2ab0 7a3d f67f 5a3e c96e 0b3e
00000120: 5c69 1b3e 5d64 3bbe 909e 42be 343f 3d3e
00000130: 7642 693e 8d73 803e bc45 e63d 7478 7dbd
00000140: b046 a53d b5e4 6bbe 9970 33be 1bc4 e63d
00000150: 9027 393e c38b 25be 526f 79bd 8f90 303d
00000160: ba30 95be d2c6 c33d 0dc2 9f3e 0568 28bd
00000170: 33a5 a3be e641 f6bd dba2 7dbc 93fc e0bd
00000180: 3256 293e cb1c 50bd b74d 13be 6306 333e
00000190: 0635 4d3e c03e 463d 1367 02be aca4 6abd
000001a0: bd8e 653c 41d6 083e 93d5 f73d b8d0 4dbe
000001b0: 8bab 88be 34a5 0ebe 1be8 7bbe da23 3fbe
000001c0: 890d 93be d4e0 293e a9d1 c03d 19e3 83bd
000001d0: 072b b9bd 590b 873d 64bc 323e cf67 473e
000001e0: a0c7 5d3e 20a1 19be d269 36be 83d0 243e
000001f0: 3576 4a3e 2f45 033e 18ac 193d ea70 303e
00000200: a34b ce3d 99f9 2cbe 9abd a5bd 982f c73d
00000210: 2d6f 3f3e 57f9 adbd 4890 28be c14f 3abe
00000220: 7dfd 0cbe 6984 3e3e 9f61 c43d 646b f4bc
00000230: b9d2 d9bd 4d83 8cbd baa3 4abe 1724 82bd
00000240: 2c7b 453e 201b d1bc 7385 06bd 74ec 093e
00000250: 898e 1f3e 7603 f1bc d283 0abe 3e0f 86be
00000260: 9c52 55be 362f 613e 54f1 6c3d 0059 99be
00000270: 0f9f 35be 2fed 85be 16bd a5bd 48df 6abe
00000280: 4925 39be 30fc 8c3e ec7a 253d 995a eebd
00000290: cf25 65bd 77ce c43b b4f0 893e 5656 f33d
000002a0: 749b b23d fae5 fcbd 4ce1 10be 8715 8a3e
000002b0: 9322 a03d 98c4 673e 460c 993d 6879 8a3d
000002c0: 1f9b f8bd 6c1c 873e a5c8 093a 7b20 f6bd
000002d0: 48f3 d7bd 5d01 adbc e0e0 d43d 949a 373e
000002e0: c215 553e c2b0 15be b5d7 5abe dd99 063e
000002f0: b158 583e 8bb0 763e 1411 d43d 7a7d 9d3e
00000300: 9c3e 80be f276 fd3d 2426 183d b441 08be
00000310: 3c39 10be 7973 fa3c a83d d33d 75d0 393e
00000320: 52f8 1a3c 14f5 e3bd 8cc9 eebc 11b7 a73c
00000330: 2113 e23d e1d1 e63d 150b 823e d180 2b3e
00000340: 8707 f63d 7e78 34be 33d5 13be 427a 8d3d
00000350: 2693 e13d 0bda bbbd 4e8f abbd d2aa a4bd
00000360: fa39 a7bd 2c72 5a3e e14f 813e dc19 68be
00000370: 92d3 19be d56e 11be 3f4f 26be ac2e 9dbd
00000380: 3ffe 56be 472e ca3d e4b3 443d 60ad 70bd
00000390: 23c6 59be fb92 0e3e 5110 f63d 0c59 d23d
000003a0: 229c 343c 9827 65be 515d b6bd 7b00 2f3d
000003b0: c803 c43d 38a5 813e a296 f03d cf39 483e
000003c0: dd4e 76bd dcdd 673e 6922 e73c 1f50 e9bd
000003d0: c461 4ebe 5e3f 303e 181d 623e 3b53 4bbc
000003e0: 7ef0 573e 70bb 83be e582 3dbe c25e 8a3d
000003f0: 5ab5 403d 1021 eb3d 59b2 823e 2d3e 0e3e
0.033589825 -0.21574102 -0.025606979 0.13382901 0.21196257 -0.10582735 -0.3747203 0.0105548315
-0.085212745 0.18129614 0.20009336 -0.2212476 -0.11401355 -0.13205172 -0.15751557 -0.2603599
-0.104130365 -0.02408794 0.045627307 -0.08555103 -0.1123237 0.1281131 0.2649887 0.096825
0.15681863 -0.2052726 -0.2398046 0.13861805 0.05938749 0.16985148 0.15979508 0.15750638
0.25335097 -0.08867438 -0.069446936 0.12680307 0.15889284 -0.0636536 -0.2544211 -0.18010446
-0.22339995 0.11466791 0.061049413 -0.15232715 -0.005594177 -0.05859821 -0.13106455 -0.26739252
0.2562792 -0.08267175 -0.08528899 0.102558516 0.19729097 -0.07249682 -0.21052639 -0.037241343
-0.30294812 0.19392711 0.10897972 -0.09348408 -0.13614069 -0.20012906 -0.17390828 -0.19384709
-0.15343393 -0.021674953 0.124483466 -0.094734505 -0.13945028 0.06120316 0.21337876 0.1361648
0.1517691 -0.18300004 -0.190058 0.18481141 0.22779259 0.25088158 0.112437695 -0.06188245
0.08070123 -0.23036464 -0.17523421 0.11267873 0.18081498 -0.16166596 -0.06089718 0.04310661
-0.29138738 0.09559406 0.31202736 -0.041114826 -0.31961975 -0.12024288 -0.015480722 -0.10985675
0.16536787 -0.05080871 -0.14385115 0.17482905 0.20039758 0.048399687 -0.12734632 -0.05728595
0.014011082 0.13362981 0.12101283 -0.20099151 -0.26693377 -0.13930207 -0.2460026 -0.1866602
-0.28721264 0.16589671 0.094149895 -0.064398 -0.0904141 0.06593961 0.17454678 0.19473194
0.21658182 -0.1500287 -0.17813805 0.16095166 0.19771655 0.1281936 0.037517637 0.17230573
0.1007302 -0.16892089 -0.08092804 0.09725875 0.18694754 -0.084948234 -0.16461289 -0.18194486
-0.13768573 0.18605198 0.09588932 -0.029836364 -0.10635895 -0.06860981 -0.19789019 -0.0635454
0.19285268 -0.02552563 -0.03284211 0.13469106 0.15581717 -0.029420596 -0.13526848 -0.26183504
-0.20832294 0.21990666 0.057847336 -0.29950714 -0.17736457 -0.2615752 -0.08092706 -0.22936738
-0.1808063 0.27536154 0.04040043 -0.11638374 -0.05594426 0.006006058 0.26941454 0.11881702
0.087210566 -0.12348552 -0.14148444 0.2696955 0.078190945 0.22633588 0.07473044 0.06761438
-0.12138962 0.26388872 0.00052560336 -0.12017914 -0.10544449 -0.021118814 0.10394454 0.1793006
0.20809081 -0.14618209 -0.21371348 0.13144632 0.21127583 0.24090783 0.1035482 0.30759794
-0.25047767 0.12376203 0.03714575 -0.13306314 -0.14084333 0.03057264 0.10314494 0.18145926
0.009458618 -0.11130729 -0.02914884 0.020473035 0.11038805 0.112705 0.2539908 0.16748358
0.120131545 -0.17624089 -0.14436798 0.069080845 0.110143945 -0.09172448 -0.083769426 -0.08040394
-0.08165355 0.21332616 0.25256255 -0.22666115 -0.15022114 -0.14202435 -0.16241167 -0.076749176
-0.20995425 0.09872108 0.04802312 -0.058759093 -0.2126699 0.13923256 0.12014831 0.102708906
0.011023553 -0.22378385 -0.089045174 0.042725068 0.09571034 0.25321364 0.11747481 0.19553302
-0.060133804 0.22643226 0.02821465 -0.11392235 -0.20154482 0.17211673 0.22081411 -0.01240998
0.21087834 -0.2572894 -0.18506964 0.06756355 0.04704795 0.114809155 0.25526693 0.13890906

model.decoder_gnn.lin_skipsum.0.0.bias f4 [16]
00000000: 3e9e 213e 5d5e fbbd 2fe4 3a3e 103c 1a3e
00000010: d50e 23be 1282 0c3e 9ac8 ad3d cd36 62be
00000020: d0b9 323e cd5f 5d3e 9085 47be fef8 44be
00000030: 12f9 edbd 01e8 343e 0121 ccbd 4bbe edbd
0.15783021 -0.12273858 0.18251108 0.15061975 -0.15923627 0.13721493 0.08485527 -0.22091217
0.17453694 0.21618576 -0.19484544 -0.19235608 -0.11619772 0.17666627 -0.099672325 -0.11608561

model.decoder_gnn.lin_skipsum.1.0.weight f4 [16, 16]
00000000: dba1 8ebe 339b 88bd 7bb7 023d 2a1c 923d
00000010: 715f 083e 018b f53e 4b32 4c3f fcef 65be
00000020: 000f 56be 1b64 b03e 176a 823e fdfe 543e
00000030: fd93 70be 7246 80be 2516 d13c e892 043e
00000040: d9c9 743e 21dc ea3c e469 0dbe 22e7 42be
00000050: 1995 85bd 2faf c7be b66d f4be 173f 193e
00000060: 8d2f 2e3e b91c d8be 8fa2 43be f718 b5bd
00000070: 159c 59bd 6e7b 9b3e 61a3 bc3c 909d 0bbe
00000080: 2688 ae3d 9473 ce3c ee49 a83d 7cb1 193e
00000090: 5dd6 a33d 712a f33e 5341 ef3e 67f6 0bbe
000000a0: 7054 34be bb32 c73e 8050 833e 8da7 5f3e
000000b0: 4a66 25be 726d 81be 5673 c9bc 5b39 993d
000000c0: d246 b13d eced 143e 7572 913c cd03 453e
000000d0: e784 183e cc4c e23e e286 e53e b5d4 0cbe
000000e0: a32c 3bbe d87c da3e f23d 4a3e 4172 773e
000000f0: 265e 4b3e 7513 82be 55d8 93bc 4e7e 69bc
00000100: c4b7 40be aede 88bd dc87 20be 4122 3abe
00000110: ce18 55be f0da 9fbe 87db 9dbe b262 263e
00000120: d833 413e c24f 1ebf 3223 7cbe 6ece 813c
00000130: 5bcb 1abe 0f37 943e 6f68 813d 258c a0bd
00000140: d183 103e 419c 093e 9e79 01bb dde2 7e3d
00000150: b801 8a3e ad9a 603e ee46 cc3d 41a8 49be
00000160: 5bfa 1dbe 3bae 273f cee8 483e 3e9b 673e
00000170: 6160 91be b5f6 3abe d7c4 be3b b57c 59bd
00000180: 39c4 0c3d 5863 86bc 6ade 743d a9d2 973d
00000190: 670f 453e 6180 873e 1c4b 173e da96 79be
000001a0: 88f3 50be ad2b 053f 8b69 b73c 08cf 383e
000001b0: 9b2f 173d 14e3 87be 7f65 9e3c aa6e 4a3d
000001c0: 91d1 b4bd 4007 76bd 9b87 0b3d 9522 4abe
000001d0: 8f08 7ebe fe02 97be 9c0c c7be b1b5 213e
000001e0: 3157 893e f042 ccbe 0565 34be 952b 47be
000001f0: d4b9 913e f676 983e 4c4a 88bc a739 1c3d
00000200: 7785 ce3c 3b83 75bc 5d66 0e3e 6221 443e
00000210: c23b f73d 24c8 763e 28e2 cd3e 3bb3 38bd
00000220: 9bb9 63be 2f3a f63e 5244 473e 5d50 9c3d
00000230: 90a4 aa3d a2db 70be 5c7a e1bd 7dc1 cd3d
00000240: 3415 cd3d 0607 1a3e c5d3 ab3d 531c 883e
00000250: f8c1 193e 3638 073f 0f6f fb3e f33f bbbd
00000260: e341 41be 80f8 fd3e d45d 983e 29f6 003e
00000270: 4675 11be 9446 66be 8432 5abc 4261 343d
00000280: 171b 7ebd 893b 2a3d 6088 a4bd 3a94 45be
00000290: cbf9 c5bc 7772 77be 394a b4be c88f 3a3e
000002a0: 3e78 f83d d72e a4be decf 1ebe c11d 2fbe
000002b0: a36c be3d 2c0b 793e 7b11 8cbc 8cbe 0dbe
000002c0: 3200 08be d5c3 76bd d457 68bd fb3c 2ebe
000002d0: 3333 24be 2673 b3be 9b66 aabe c955 e23d
000002e0: df84 5b3e eb0e 29bf aee0 53be 9b53 0abe
000002f0: e53d 3bbe 1fed 873e 2d93 9b3d cd8e 80bd
00000300: dd23 c53d f217 a7bd 62ff 9ebd ae85 943c
00000310: eafc 1bbe 9d17 cbbe 7c53 19bf 6648 903d
00000320: 79a8 6b3e 2d53 1ebf 019d 64be 7a22 40be
00000330: 22fe 873d 01f9 843e 73dd 823b 0c68 783c
00000340: d8d3 c3bd af4e 7f3d 8e64 8f3d c614 bb3d
00000350: 0117 623e ac76 a83e b139 e73e 78a2 2dbe
00000360: c30c 14be 200a f83e e398 8a3e 84ae 863d
00000370: c703 1c3e 83f3 6fbe ee99 47bc 04e4 863d
00000380: 264b 043e a65b d9bd 9c08 6dbd 4ee4 a8bd
00000390: 58b8 6cbe 8fca aebe 50f2 d2be 00ab c33d
000003a0: 2861 663e 15fa f7be f5a5 3bbe cbf1 a9bd
000003b0: ca2b 33be b404 a33e 342d 3c3d ea0f 99bc
000003c0: 2052 d0bc bb8a e13c 2cd7 a8bd ee95 2fbd
000003d0: 1e3e 80be b11c 93be 9a05 12bf 6aac 2a3e
000003e0: 3adc 283e 044d 30bf b872 ddbd 1380 ffbd
000003f0: 3f36 253e e7ae 7f3e 8c9f 293d 7b0c d0bd
-0.2785786 -0.06670227 0.03191326 0.07134278 0.13317658 0.47957614 0.7976424 -0.22454828
-0.2090416 0.34451374 0.25471565 0.20800395 -0.23493953 -0.25053746 0.025523255 0.12946665
0.23905124 0.028669419 -0.13809925 -0.19033483 -0.06522579 -0.39000842 -0.47739953 0.14965473
0.17010327 -0.42209414 -0.1910498 -0.08842652 -0.053127367 0.30367607 0.023027124 -0.13634324
0.08522062 0.025201596 0.08217226 0.15009111 0.07999871 0.47493318 0.46729526 -0.13668214
-0.17610335 0.38905892 0.25647354 0.2184126 -0.16152301 -0.25278813 -0.02459113 0.07481643
0.08656086 0.14543885 0.017754773 0.19239731 0.14894448 0.44199216 0.4482947 -0.13753016
-0.18278746 0.42673373 0.19750193 0.24164678 0.19860134 -0.2540547 -0.018047491 -0.014251305
-0.18820101 -0.06683098 -0.15676826 -0.1817713 -0.20810243 -0.31221724 -0.3083155 0.16248587
0.18867433 -0.6184045 -0.24622801 0.015845504 -0.15116636 0.28948256 0.06318747 -0.078392304
0.14112784 0.13438512 -0.0019756327 0.062228072 0.26954436 0.21934004 0.09974466 -0.1969309
-0.15427534 0.6550023 0.19620058 0.22617814 -0.28393844 -0.18258174 0.005821805 -0.053097446
0.03436682 -0.016404793 0.059782423 0.07413227 0.19244157 0.26465133 0.14774746 -0.24373952
-0.204054 0.5201977 0.022389194 0.18047726 0.036910634 -0.26540434 0.019335506 0.049421944
-0.08829034 -0.060065508 0.03406487 -0.19739754 -0.24807952 -0.2949447 -0.38876808 0.15791966
0.26824334 -0.3989482 -0.17616661 -0.19450219 0.28462088 0.2977826 -0.01663699 0.03814092
0.025210125 -0.014984901 0.13906236 0.1915336 0.12071945 0.24099785 0.40211606 -0.045092802
-0.22238772 0.48091266 0.19459656 0.076325156 0.08332169 -0.23521283 -0.11009666 0.100466706
0.1001381 0.15041742 0.08390001 0.2658411 0.150154 0.52820146 0.49108168 -0.09143057
-0.1887279 0.49603653 0.29759085 0.12593903 -0.14204893 -0.22487861 -0.013317708 0.044038065
-0.062037554 0.041560683 -0.08033824 -0.19294825 -0.024166962 -0.24164759 -0.35212877 0.1821891
0.121323094 -0.32066986 -0.15508983 -0.17101194 0.092980646 0.24320668 -0.01709818 -0.13842219
-0.13281325 -0.060245354 -0.056724384 -0.1701545 -0.16035156 -0.3504879 -0.33281407 0.110515185
0.21437405 -0.6603839 -0.20691177 -0.13508455 -0.1828533 0.26548097 0.07596431 -0.06277237
0.09625981 -0.08158864 -0.07763554 0.01813015 -0.15233198 -0.39666453 -0.5989301 0.07045059
0.23013486 -0.61845666 -0.22325517 -0.18763152 0.06640269 0.25971225 0.003993684 0.015161525
-0.0956189 0.062330898 0.07001601 0.091348216 0.22079088 0.3290304 0.45161203 -0.16956508
-0.14457993 0.48445225 0.27069768 0.06576255 0.15235816 -0.23432736 -0.012182696 0.06586459
0.12919292 -0.10613184 -0.05786954 -0.08246671 -0.23117197 -0.34138915 -0.41200495 0.095541
0.22498 -0.48432985 -0.18325026 -0.082980715 -0.17497173 0.31839526 0.045941547 -0.018684346
-0.025429785 0.027531972 -0.08244166 -0.042867593 -0.25047392 -0.28732827 -0.570398 0.16667333
0.1649026 -0.68867517 -0.108128965 -0.124756 0.16133974 0.24969064 0.04141192 -0.101586305

model.decoder_gnn.lin_skipsum.1.0.bias f4 [16]
00000000: 6739 a4bd ddc6 5e3d ac78 c7bd 2301 f0bd
00000010: 49e2 583d ab03 03be c14c 10bd 4a41 7b3d
00000020: 211f a3bd 927b fabd 570e 6d3d 1021 a03d
00000030: 9943 cb3d 48ae a4bd dab0 8a3d fb4c ff3c
-0.08018761 0.05438887 -0.09739813 -0.11718967 0.052950177 -0.12794368 -0.03522945 0.06134156
-0.07964922 -0.122306004 0.057875004 0.07818806 0.099250026 -0.08041054 0.06772013 0.031164637

model.decoder_gnn.lin_skipsum.2.0.weight f4 [16, 16]
00000000: ba18 c83d 3b2b 0dbe 829b e23d 6562 3cbd
00000010: 9dac f3bc cb59 44be 8475 243d a656 2d3d
00000020: eeba e0bd 9c3a 18be d089 c2bd 0cdb 933d
00000030: 7659 1c3e 9281 91bc 9c21 48be 1356 e6bd
00000040: 46db 45be 9078 8b39 e5ba 81bd f013 fa3d
00000050: 956f 7f3e 63e8 3c3e 976c 86be d5b0 2cbe
00000060: 5245 b1be fb21 453d ea98 d5bd 6528 eebd
00000070: 3d2f 35be 6df9 24bd 6bc6 2a3e ad05 25bd
00000080: 75b0 2f3e 35aa a4bd ae55 c03d bd73 af3d
00000090: d53f 343c 30fe 83be 067f 563e 1945 f33d
000000a0: 1726 4b3e 2823 8e3d 9ee8 4d3c 5cb0 3c3e
000000b0: fb54 e93d b38f 8ebd 9118 853d dbb0 7a3d
000000c0: 1de8 e53d 60fa c03c c420 da3d ce4e 9cbd
000000d0: b47c 03bd 60b7 4fbe 545b 1dbe 4d20 9c3d
000000e0: 37fa eb3d f89d 123e e30a 183e 211e 8b3e
000000f0: 483e 0e3b c7a6 25bd 4fa4 17be 2ea2 2ebd
00000100: fc80 04be 251a 5e3b f836 c4bc da0d 523d
00000110: 4be9 563e 503d bc3d 865d 5abe 7d1d 4ebd
00000120: 557b 673b 9e07 513d 7f09 af3d 173d eabd
00000130: 9889 25bd 63df 993d 3b99 983e 0251 a1bd
00000140: c138 5f3e 9de9 a4bd ef2e 083e f411 61bd
00000150: dd32 6bbe c7a6 77be 7c11 553d a956 073e
00000160: 2f70 873e 022d ffbc 5e9c 7f3d 681d f03d
00000170: 805b 413e 8b89 8d3c c51c 92bb 6c1c eabd
00000180: d828 2a3e e91e 19be b4fe ff38 f3d4 203d
00000190: 159e be3d 712c 13be 8428 643e 9e09 243d
000001a0: c970 903e dd89 19be 4889 07bd 2c90 bc3d
000001b0: 586f 053e ede4 6dbd 9ed5 98be 54d8 ecb9
000001c0: 7fee 8dbe bdd0 4c3d 7bcb 58bd ced2 18be
000001d0: 7152 ba3d 8ac4 683e 61bb 97bc 25fb c5bd
000001e0: 947c d13d b483 bd3e 290a 5fbd 5183 b7bd
000001f0: a50d 4c3d 2059 cebd f1ae 853d b5b6 fb3d
00000200: bbe6 0b3d d805 2c3d bf52 f63c c01b bdbb
00000210: 5ac2 1abe 8f8f 07be def5 1e3e 2402 c93d
00000220: 2efe 0f3e 37bc 86bd 080a 4939 8a61 553e
00000230: 20ce e33d cac2 1bbd 6d22 3abe 9c06 fe3d
00000240: f948 783e b208 21bd b54c dfbc 405e e0bd
00000250: 2f9d 36be b981 f2bd 8c8a 5dbe 5d02 ff3d
00000260: d158 963d 4102 80be 367f 413c ee81 e4bc
00000270: 8ed1 383d 2f05 40bd a9c1 91be 2ba8 6bbb
00000280: dfef 65be c452 0d3e d578 f0ba bfd2 13bd
00000290: f564 e43d 17e6 e93d d88b 1f3e 6e79 eabc
000002a0: 8619 103e cd7f 873e 1af7 e93c 4559 8a3d
000002b0: 1cd8 00be 8464 9abd c67a 0f3e 928b 693d
000002c0: d632 b6bd 5b6f a3ba 0110 07be 2549 ae3d
000002d0: be4f 5f3e 95cd 423e d9de 073e 9b23 7fbd
000002e0: 85a5 2f3d d60d 193d f341 9b3d 45f0 4bbe
000002f0: 0fef c3bb 8d43 03bd 6a78 fb3d 35aa 37bd
00000300: 3e94 39be 2541 dfbc 2640 cabc 889a 4e3d
00000310: 1de3 203d e8f8 473e 0335 143e fe1c b7bc
00000320: 253d 2ebc e460 343e b1ca a6bc 6017 d8bd
00000330: 440e fabd 265e 03be 64b0 613e f83d 6cbd
00000340: 8781 863e 9f9c 19bc cb7d 663d 4a47 5abd
00000350: 5fb7 9bbe 62b0 69be 64da 7d3d 9249 163d
00000360: 8976 9d3c 3460 8a3d ae9b 003e 8047 b23d
00000370: 085a 2e3d b715 cabd a6f9 3cbe c257 9e3d
00000380: 2a00 30be f9ca 1ebc 9552 a7bd ace8 7cbe
00000390: 8eb4 bf3d 0858 813e 18e9 e4bc f788 1bbd
000003a0: 74dd 6dbe 48c4 be3d c35d 2dbe b3de 25be
000003b0: 626d 433d 0f50 7cbd 95a2 cfbb a37d 6abc
000003c0: aa0b 50be 04e3 d93c 905b 3dbd 7b2c a4bc
000003d0: c0bf 993e d996 733e 7bbf 263e 4a0a 48be
000003e0: ff73 47be 1ac4 833d fdbb 4c3d 054d 53bd
000003f0: 5195 65be 2eea af3c 9520 2f3e 50e7 3a3d
0.09770341 -0.13786022 0.11064817 -0.045992274 -0.029745394 -0.19174878 0.040151134 0.042318963
-0.10973154 -0.14866108 -0.09498942 0.07219514 0.15268502 -0.01776198 -0.19544071 -0.11246886
-0.19321927 0.00026601972 -0.063344754 0.12210834 0.24944909 0.18448023 -0.26254722 -0.16864331
-0.346232 0.04812811 -0.10429557 -0.116287984 -0.17693801 -0.040276933 0.16677253 -0.040288616
0.17157157 -0.08040277 0.09391342 0.08566997 0.011001547 -0.25779867 0.20946893 0.11878414
0.19838749 0.06940299 0.012567667 0.18426651 0.11393162 -0.06961002 0.06498826 0.06120382
0.11225913 0.023556888 0.10650781 -0.07632218 -0.032101348 -0.20284796 -0.1536687 0.076233484
0.11522334 0.14318073 0.14847903 0.27171424 0.0021704603 -0.040442254 -0.14808773 -0.042635135
-0.12939829 0.0033890095 -0.023951992 0.05128274 0.20987432 0.09191382 -0.21324739 -0.05032109
0.0035321314 0.051032655 0.08546733 -0.11437433 -0.040414423 0.07513311 0.29804406 -0.07876779
0.21798994 -0.08052371 0.13299154 -0.054948762 -0.22968622 -0.24184714 0.052018628 0.13216652
0.26452777 -0.031149391 0.062404983 0.11724359 0.1888256 0.0172775 -0.004458996 -0.11431202
0.16617143 -0.14953198 0.0001220679 0.039265584 0.093074955 -0.14372422 0.2228108 0.040048234
0.28211048 -0.14993997 -0.033089906 0.09207186 0.13030756 -0.05807965 -0.29850477 -0.00045174605
-0.2772102 0.050003756 -0.05292843 -0.14924166 0.09097756 0.22731224 -0.018521966 -0.09667043
0.102288395 0.37014544 -0.05445305 -0.089605935 0.0498177 -0.10075593 0.06527508 0.12290708
0.03415559 0.04199776 0.030068753 -0.0057711303 -0.15113202 -0.13238357 0.15523478 0.098148614
0.14061806 -0.06578868 0.0001917259 0.2083799 0.111232996 -0.038027562 -0.18177195 0.124036044
0.24246587 -0.039314933 -0.027258256 -0.10955477 -0.17833398 -0.11841149 -0.21634883 0.12451623
0.07341159 -0.2500172 0.011810115 -0.027893987 0.045121722 -0.046879943 -0.28468063 -0.003595839
-0.22454785 0.13801104 -0.0018346558 -0.036089655 0.111520685 0.11420839 0.1558069 -0.028622355
0.14072236 0.26464692 0.02856021 0.06755308 -0.12582439 -0.07538703 0.14011678 0.05701787
-0.08896415 -0.00124691 -0.13189699 0.08510045 0.21807763 0.19023736 0.13268603 -0.062289815
0.04288246 0.03736671 0.07580938 -0.19915874 -0.0059794257 -0.032046843 0.122788265 -0.044840056
-0.18122956 -0.027252743 -0.024688791 0.05044034 0.039279092 0.19528544 0.14473347 -0.022352692
-0.010634695 0.17615086 -0.020360323 -0.105513334 -0.12209752 -0.12828884 0.22039944 -0.057676286
0.26270697 -0.00937572 0.05627231 -0.053290643 -0.3041334 -0.22821191 0.06197585 0.036691256
0.019221561 0.067566305 0.12559387 0.08705044 0.04256633 -0.09867423 -0.18454608 0.07731582
-0.17187563 -0.009691947 -0.08170048 -0.24698132 0.0936061 0.25262475 -0.027943179 -0.037972417
-0.23229009 0.093147814 -0.16930299 -0.16198234 0.047711737 -0.061599787 -0.00633652 -0.014312181
-0.2031695 0.026597507 -0.0462299 -0.020040741 0.30029106 0.23788013 0.16283982 -0.19535175
-0.19477843 0.06433888 0.049983967 -0.051587123 -0.22420241 0.02147397 0.17102273 0.045630753

model.decoder_gnn.lin_skipsum.2.0.bias f4 [16]
00000000: fd22 4e3d 037a 753d 5a33 82bd 0463 97bd
00000010: d7b5 ecbc ac91 81bd abc5 983d cfb9 6e3c
00000020: 1ad4 33bd d659 b53c 83ac 7bbd bd49 653d
00000030: 792e 46bc 827f 663a e41f 703d 8b9c 1f3c
0.050326336 0.059930813 -0.06357451 -0.073919326 -0.028895302 -0.06326613 0.07459577 0.014570667
-0.043903448 0.022137564 -0.061443817 0.055978525 -0.012096041 0.0008792804 0.058624163 0.009741913
