_models_trained/vaca/chainsens_linear/epoch=243-step=4880.ckpt (torch, 25614 bytes, 25 tensors)

model.encoder_gnn.pre_nn.fc_layers.0.0.weight f4 [16, 1]
000000 51 e0 e7 be b8 92 68 3e 67 6f c9 be 5d 38 fb be
       -0.45288327 0.22712219 -0.39342806 -0.4906644
000010 ab 0e 0b bf bd d4 29 3f 40 aa f1 bd 43 5e e0 be
       -0.54319257 0.6634024 -0.11800051 -0.43821916
000020 22 ab fb be 09 00 12 3f 4d 3f 8d be f1 97 cf bc
       -0.49154 0.57031304 -0.27587357 -0.025341006
000030 07 6b a3 bd bf c4 47 bf 1c 1d 1e 3f 57 eb 60 bf
       -0.07979398 -0.78034586 0.6176317 -0.878591

model.encoder_gnn.pre_nn.fc_layers.0.0.bias f4 [16]
000000 79 a7 0d 3e 88 ca 67 bf a1 90 47 be 8c 36 52 bf
       0.13833417 -0.90543413 -0.19488765 -0.8211448
000010 0b 5c 0c bf f4 f8 3c be ae 08 5b bf e4 c9 e9 be
       -0.54827946 -0.18454343 -0.8556012 -0.45661843
000020 10 01 96 3d e1 fa 98 bd 51 fc 40 3e 65 45 2b be
       0.073244214 -0.07469726 0.18846251 -0.1672569
000030 b7 30 c3 be 6b 5e 08 3e 6d 32 ac 3d c3 da 81 be
       -0.38123104 0.13317268 0.084080555 -0.25362214

model.encoder_gnn.lin_skipsum.0.0.weight f4 [16, 16]
000000 93 c9 1e 3e e8 51 75 3e 09 bb 8e 3e c1 66 b9 bd
       0.15506582 0.23957026 0.27877071 -0.09052802
000010 68 3a c2 3d 2e e0 f4 bd 8c 44 99 bd 1e f4 00 3e
       0.09483796 -0.119568214 -0.074837774 0.12593123
000020 3a 59 1a 3e 36 20 32 be 9f 35 17 3e fd 45 6c 3e
       0.150731 -0.173951 0.14766549 0.23073573
000030 ef 73 85 3e 04 39 a6 3d 14 2c 9c bd de 74 62 3d
       0.26065013 0.081163436 -0.07625595 0.055287234
000040 5b b3 2a be 30 21 80 bd a4 af 4b 3d e7 03 a2 3d
       -0.16669981 -0.0625633 0.04972805 0.079109006
000050 11 95 82 3d 02 c0 8f 3e e4 ef f8 bd 74 1b 85 be
       0.063760884 0.28076178 -0.121551305 -0.25997508
000060 cc b6 91 be 48 c9 8e 3e 50 0f 09 be 76 a9 09 3e
       -0.28459775 0.2788794 -0.13384748 0.1344355
000070 46 a5 02 bd d8 2f 0a be 27 bc 01 3e 68 c7 3c be
       -0.0318959 -0.13494813 0.1266943 -0.18435442
000080 b6 07 43 3e e0 89 e2 3c 0a 3c b9 3d 0f 30 c0 3d
       0.1904591 0.027653635 0.09044655 0.093841664
000090 ea 36 2a 3e bd 8d fe bd a4 7a 3f be 42 cb 19 3d
       0.1662251 -0.12429378 -0.18699127 0.037547357
0000a0 cb 8a fa 3d f9 a8 5a be e8 48 96 3e c8 17 0d 3e
       0.12233504 -0.2135352 0.29352498 0.13778603
0000b0 f0 0c 13 be 42 ec db 3d d0 d1 16 be 78 f0 0d 3e
       -0.14360404 0.10738422 -0.14728475 0.13861263
0000c0 4a 18 2b 3e f6 0f 33 be 35 e4 2c 3e 8b f5 0f 3f
       0.16708484 -0.17486557 0.16883929 0.56234044
0000d0 d0 a2 67 be 2e fb 88 be dc b4 04 be 2c 28 05 be
       -0.22620702 -0.26754135 -0.12959617 -0.13003606
0000e0 e0 09 12 3e 1e c8 a3 be 28 3d d5 3c f3 f5 98 be
       0.1426158 -0.31988615 0.026030138 -0.29875144
0000f0 c7 67 29 be 7b 08 24 3d 0c a4 18 be fe bb 73 bc
       -0.16543494 0.04004715 -0.14906329 -0.014876364
000100 a1 05 ee bd d4 06 fe 3d 73 b5 e4 bd 9a 09 ae 3e
       -0.116221674 0.12403646 -0.11167421 0.339917
000110 62 91 f8 bd dd 04 34 3e 00 b1 27 bd 2e 85 a3 3d
       -0.121371046 0.1757998 -0.040940285 0.079843864
000120 b2 06 ed bd 74 64 08 3e 0b 1e 2d be 44 c4 a3 bd
       -0.11573543 0.1331957 -0.16905992 -0.07996419
000130 89 f9 98 be b4 be 83 bd a8 e9 d8 3d 7a 10 01 bd
       -0.2987788 -0.06432858 0.105914414 -0.031509854
000140 80 8d a5 bd 26 91 1a 3e 60 c3 90 be 1b 3b 1e bd
       -0.080836296 0.15094432 -0.2827406 -0.038630586
000150 59 17 38 bc 4a 62 7d 3e f4 ad 36 be 53 41 c3 bd
       -0.011236035 0.24744526 -0.17839795 -0.09533944
000160 16 10 18 be 1d e4 41 3e 66 e9 61 bd 69 86 2b be
       -0.14849886 0.18934675 -0.055154227 -0.16750492
000170 0c 99 94 be 97 aa e1 bd 65 03 84 3e ce a3 24 be
       -0.29023015 -0.110188656 0.2578384 -0.16078112
000180 5d 0a 7f be 40 69 8e bb f6 d8 1b be fa 4d 10 3e
       -0.24906297 -0.004346043 -0.15219483 0.14092246
000190 be 05 e2 bd 3f d7 1a 3e 80 34 69 3c 01 8d e4 bc
       -0.110362515 0.15121172 0.014233708 -0.027899267
0001a0 f1 ee 12 bd b1 50 2c 3e 3c 08 4f be d6 a5 58 3e
       -0.035872404 0.16827656 -0.20217985 0.21157011
0001b0 1a 02 3a 3e 40 e8 18 be 8a 88 12 3e b9 62 12 bd
       0.18164864 -0.14932346 0.14309898 -0.03573868
0001c0 d6 a5 22 3e 24 11 4e 3e 9e cb a3 3e 2b df fd 3e
       0.15883574 0.20123726 0.31991285 0.49584326
0001d0 69 0e 92 bd bb 14 60 be a0 d2 51 3d ae 3d 54 bd
       -0.07131655 -0.21882908 0.05122626 -0.051816635
0001e0 0a ff 38 3d 56 16 bc be 96 e9 fa 3d 71 e5 c0 3d
       0.0451651 -0.3673579 0.12251584 0.094187625
0001f0 e6 a3 d0 bd e8 69 05 3e ca 67 4a be 21 76 e3 3d
       -0.10187511 0.13028681 -0.19766155 0.11106516
000200 25 d6 35 3d b8 cc 3e be d5 93 9d 3e 62 2b da 3d
       0.044393677 -0.18632782 0.3077685 0.10652806
000210 87 a0 39 3e 5f cf 61 be 4e 0c 52 be 0f d5 48 bd
       0.18127643 -0.22051762 -0.20512506 -0.049031314
000220 97 ce 45 3e dd 14 b0 be 81 11 1d 3e c5 d7 18 3e
       0.19317089 -0.34390917 0.15338708 0.1492606
000230 16 c5 23 be 69 2c e0 3d de 05 89 be d1 54 12 3e
       -0.15993151 0.109459706 -0.2676229 0.14290167
000240 62 95 e0 bd c0 6e 20 be aa b7 e9 bc 47 77 78 bd
       -0.109659925 -0.15667248 -0.02852996 -0.060660627
000250 46 98 f1 3d dc 98 a5 3e 46 ce 67 3e e1 09 7e 3d
       0.11796622 0.32343185 0.22637281 0.06202114
000260 74 2b 1e be f8 77 81 3e a0 a3 1a be a4 87 28 be
       -0.15446264 0.2528684 -0.1510148 -0.16457993
000270 77 0f cc 3d 31 ba c4 bd 29 3e 3c 3e 5d 08 27 3c
       0.09963887 -0.09605826 0.18383087 0.010194865
000280 9b ae 3a be 14 ee a7 bd 74 95 ff bd c7 bb 40 3e
       -0.18230669 -0.08199707 -0.12479678 0.18821631
000290 4c a2 95 bd 6c 55 39 3e c0 78 ad 3c 59 02 96 be
       -0.07306346 0.18098992 0.021175742 -0.29298666
0002a0 89 8b 58 be eb 6e f8 3d 96 ab 14 bc 08 b2 0e be
       -0.21146978 0.12130531 -0.009074112 -0.13935101
0002b0 46 21 16 3d 8f 9f f0 bd 43 ae 33 3e 98 9d 96 bd
       0.036652826 -0.117491834 0.17546944 -0.07354277
0002c0 59 ab e3 bd 58 9e 2b bd 4f 76 4a be 6f d3 50 3e
       -0.11116666 -0.041899055 -0.19771694 0.20393156
0002d0 c1 e8 13 be ce 49 bb 3d 44 15 ee bd e2 4f 50 bd
       -0.14444257 0.091449365 -0.1162515 -0.050857432
0002e0 3e 89 25 be b1 2d 03 3e 6a 68 ea bd 13 bb 88 bd
       -0.16165635 0.12810399 -0.11445697 -0.066763066
0002f0 2e 5b 27 3d c6 22 b8 bd ff 98 9b 3d a7 e1 42 bd
       0.04085844 -0.089910075 0.07597541 -0.04757848
000300 ff 51 6e 3e a0 26 5e 3d fc d3 f2 3c 30 ea 5f be
       0.23273467 0.054236054 0.029642098 -0.21866679
000310 a7 e4 1d 3e 0d 01 0b be 70 33 08 be b5 eb 15 bc
       0.15419255 -0.1357462 -0.13300872 -0.009150435
000320 f5 5d 32 3e 56 77 90 bd 88 48 79 3e e0 a5 ef bd
       0.17418654 -0.070540115 0.24344075 -0.1170156
000330 48 b1 2a bd 2c ff 84 3d 5b 61 e7 bd f3 9a 35 3c
       -0.041672975 0.06493983 -0.11297866 0.011084306
000340 32 66 b0 3d 98 89 2c bd be 5f 41 3e d4 c9 8e be
       0.08613242 -0.042123407 0.18884179 -0.27888358
000350 b3 3e 56 bd d4 7a 44 be 58 2b 24 3e 22 a0 2e 3e
       -0.05230589 -0.1918748 0.1603216 0.17053273
000360 af df ef 3d 6d b0 19 be 1a 08 3a 3d 89 ef cf bd
       0.11712586 -0.15008707 0.045417883 -0.101531096
000370 52 da e6 bc 03 93 a7 3d 5a a6 d8 bd 7c 8a 03 3e
       -0.028180275 0.08182337 -0.10578604 0.12845796
000380 9a 66 af bd c0 91 03 3e d8 5d 1c bd 24 71 0c 3d
       -0.085644916 0.12848568 -0.038175434 0.034287587
000390 df 6e 0a bd 14 b6 19 3e 68 9f c0 bd 5e 57 cc ba
       -0.03379714 0.15010864 -0.09405404 -0.0015590002
0003a0 34 f0 ab bc cc f6 9e 3d 2d 41 54 bd c2 c8 93 be
       -0.020988561 0.077619165 -0.05181997 -0.28864104
0003b0 80 a7 15 3c bb 26 af bd c1 69 10 3e c2 b4 6d bd
       0.009134173 -0.08552309 0.14102842 -0.058033712
0003c0 92 88 36 3e 2e d6 7f 3e b9 ee df 3d 20 3b b6 3d
       0.17825535 0.24984047 0.109342046 0.08897996
0003d0 98 4e 1c bd 60 2d c3 bd 16 cf 14 3e c5 67 7e 3d
       -0.03816089 -0.09530139 0.14532122 0.06211068
0003e0 56 d6 5e 3d 9e 05 a0 be 7e 7d 10 3e fe 2a 8b bc
       0.054403625 -0.31254286 0.14110371 -0.016988274
0003f0 91 2d c5 3b 27 71 08 3e 82 32 3c bd b2 3e 01 3e
       0.006017395 0.13324414 -0.045946606 0.12621573

model.encoder_gnn.lin_skipsum.0.0.bias f4 [16]
000000 55 c1 b8 bd d0 db 90 3d 1e 7a dc bd 20 a2 0d 3c
       -0.0902125 0.07073176 -0.107654795 0.008644611
000010 71 23 76 3d 0d b5 8f bc e9 ed aa 3d 97 9b 5a 3b
       0.060092393 -0.017542386 0.08346159 0.00333569
000020 c0 23 01 bc 00 3d 9c 3b 87 ed 62 3d 53 7e 89 3d
       -0.007882059 0.004768014 0.055402305 0.067135476
000030 a8 12 cc bd 1e be 2d bd 4b 1b 0f ba 5c 0a a9 bd
       -0.09964496 -0.042417638 -0.0005459084 -0.08253929

model.encoder_gnn.gnn.0.0.nn.0.weight f4 [16, 16]
000000 ea 35 13 bd b6 6a 35 be 4d 29 a2 3e a6 58 51 bf
       -0.03594009 -0.17716488 0.31672135 -0.8177589
000010 61 7f 3e bf dc a4 a5 bd f6 23 37 3e c4 17 61 bf
       -0.74413115 -0.08088085 0.17884812 -0.8792689
000020 e9 70 80 ba 1a 76 6c bf 74 17 6d be 3e ec 16 3e
       -0.0009799275 -0.9236771 -0.23153478 0.14738557
000030 20 b9 48 3d 05 d7 a2 3c 4c 58 1f 3f 07 4a 6a 3d
       0.049004674 0.01987792 0.62244105 0.057199504
000040 0d 45 2c 3e 9e 70 5e 3e 0c 1f 2b c0 40 a7 42 3f
       0.16823216 0.21722648 -2.67377 0.76036453
000050 af 11 2c 3f 24 aa 28 3e 36 08 60 be 43 6c c4 3e
       0.67214483 0.16471153 -0.21878132 0.38363847
000060 80 65 8f be 52 81 01 3e c0 17 1f 3f d8 8b 01 3e
       -0.28007126 0.12646988 0.62145615 0.12651002
000070 48 fd b8 bd 12 fd 10 be 7b b5 b4 3d 90 33 6e bf
       -0.090326846 -0.14159039 0.08823677 -0.9304743
000080 57 b2 47 be 80 41 2e be d8 77 a3 be f7 8b df 3e
       -0.19501625 -0.17017174 -0.3192737 0.43661472
000090 38 c9 6a be 21 74 af 3e cc 3e 5b 3e be 80 9a be
       -0.22928321 0.34268287 0.21410674 -0.30176347
0000a0 4a 48 10 3d d5 2c 06 be a5 13 97 be ea ca a6 bc
       0.03522519 -0.1310304 -0.29507175 -0.020360429
0000b0 ae 8e ff 3d 47 bf 3a bd 59 3c 00 3e fd c4 07 3f
       0.12478386 -0.045592573 0.12523021 0.53034955
0000c0 f0 ae 93 3d 48 35 9c 3d b4 70 4c 3e 03 55 9e bd
       0.07211101 0.0762735 0.19964868 -0.077310584
0000d0 c1 e3 fc bd 1e 82 ae 3e d4 17 5e be af aa 3a 3d
       -0.12348128 0.34083647 -0.21688777 0.045572933
0000e0 dc 4c 27 3b 98 0f 4f be e8 2a 86 3d d3 e5 4d be
       0.002552799 -0.20220792 0.065511525 -0.20107202
0000f0 34 44 8b be 3d be c0 3d 65 a6 38 be 71 39 42 3e
       -0.27200472 0.09411285 -0.18032224 0.18967225
000100 54 b2 10 be 44 f9 ea 3d 18 0c b8 3e 42 0f 81 bd
       -0.14130527 0.11473325 0.35946727 -0.06301738
000110 d3 46 3e be 3e 56 2b 3f e4 7c c6 3d bf 00 c0 be
       -0.18581705 0.6692847 0.0969179 -0.3750057
000120 d6 d9 26 be a6 06 4c 3e 51 34 34 be 8a 7a 87 bd
       -0.16294035 0.19924411 -0.17598082 -0.06615169
000130 8b c0 22 bb 5f 69 97 bd 86 3f be 3d 8f 4b 53 3d
       -0.0024834003 -0.07393145 0.0928946 0.05158573
000140 de 7e 15 3e 24 7a 20 3e ee de a8 be 40 e3 7b be
       0.14599177 0.15671593 -0.32982582 -0.24598408
000150 f9 b1 2b 3f 10 9d 1c be 08 53 7f 3e 1c bd 8a 3f
       0.6706844 -0.1529429 0.24934018 1.0838962
000160 c4 b1 c1 bd da 98 6d 3e 49 47 01 be a1 66 79 be
       -0.09457734 0.2320284 -0.1262485 -0.24355556
000170 fc b3 82 3d d1 9e a3 bd fb 07 d7 3e 3c 85 50 be
       0.063819855 -0.07989276 0.41998276 -0.20363325
000180 1a 4d 43 bf 0c b0 45 3e 64 27 3b 3e ec 21 61 be
       -0.7628952 0.19305438 0.18276745 -0.21985596
000190 d8 04 0a 3d bc 99 68 3d 0e 7e 38 3e d1 a2 92 bd
       0.033696026 0.056787238 0.18016836 -0.07159961
0001a0 45 d4 70 3c a0 35 7b 3d ed a4 e2 3e 93 ad 54 3e
       0.0146990465 0.061330438 0.44266453 0.20769338
0001b0 9d 81 fb bd f5 14 1d bc c4 c8 31 be 7a b4 ca 3d
       -0.12280581 -0.009587516 -0.17361742 0.098977044
0001c0 a2 2b 2e be 98 14 2e 3e 6c 87 ef 3e f9 41 1c bf
       -0.17008832 0.17000043 0.46783006 -0.61038166
0001d0 77 03 ab be 8e f0 08 be 54 13 5d be e5 1a 27 bf
       -0.3340108 -0.13373014 -0.21589404 -0.6527541
0001e0 77 97 88 bd 8b a9 3e 3f cf 69 3f bb e0 00 1b 3d
       -0.066695146 0.7447745 -0.0029207354 0.03784263
0001f0 05 6a 30 be 65 37 88 bd fd 6e 27 bf 2c ed 6d 3c
       -0.17227943 -0.06651191 -0.6540373 0.014521878
000200 a1 8b 76 bd 28 02 70 bd c7 57 c7 3e 11 39 1c be
       -0.060191754 -0.058595806 0.38934156 -0.15256144
000210 e6 bc 6c be c8 2e 0a bf ac 88 3e be d2 0a b0 be
       -0.23118934 -0.5397763 -0.18606824 -0.34383255
000220 da 33 50 3b 6e 7c c3 3e b8 b7 71 be 24 b9 46 3e
       0.0031769187 0.3818087 -0.2360524 0.19406563
000230 ba 68 c1 bd a0 b7 91 3c ea 90 9f 3e 2c fc 65 bd
       -0.09443803 0.017787755 0.31165248 -0.056148693
000240 02 45 1f 3e 00 1e ce bd 23 3d 33 bc c9 ba 12 be
       0.15553668 -0.10064316 -0.010939869 -0.14329065
000250 7e 7b 8f 3d 82 d7 a1 3d 6c 1c 44 be 13 c4 dc 3d
       0.07005976 0.07902433 -0.19151467 0.10779586
000260 15 d7 6d bb 7a d6 6b 3f e4 05 7d 3d 00 9f ab 3a
       -0.003629153 0.9212414 0.061773196 0.001309365
000270 e9 38 df bd 8d ce 68 3d b0 f1 9c 3e 96 48 48 be
       -0.108995266 0.056837607 0.30653143 -0.1955894
000280 44 c5 97 3d 20 aa 28 3c 6a 4c a7 3e 6b 7a 71 3e
       0.07410672 0.010294467 0.32675487 0.23581855
000290 5f f6 a8 3d 9f 1c 3d be 68 b1 2d be 0d cd a8 3c
       0.082501166 -0.1846795 -0.16962206 0.020605588
0002a0 73 06 55 3d f0 e1 86 bc cb 1c df 3d c8 eb 58 3e
       0.052008104 -0.016465157 0.10894164 0.21183693
0002b0 2d 88 35 3c f4 9f 5d 3e e1 76 a0 3d f0 85 7d 3e
       0.01107983 0.21643049 0.07835174 0.24758124
0002c0 f2 b7 56 be 68 c7 44 be 54 d1 95 bd a8 2c ca 3c
       -0.20968607 -0.19216692 -0.07315317 0.024679497
0002d0 b0 fc 66 bc be 98 f8 39 2c 7a 19 be c4 8f 71 3d
       -0.014098331 0.00047416048 -0.14988011 0.058974996
0002e0 0f 41 55 be 04 b8 93 bc 69 28 a2 be 1b d7 40 3e
       -0.20825599 -0.018032081 -0.31671456 0.18832056
0002f0 a2 76 48 be 05 99 05 3f 63 3e 23 3c df f0 2e be
       -0.19576505 0.52186614 0.009963605 -0.17084073
000300 d2 63 b4 bd 80 01 a4 bb 8a b4 b9 bd d8 33 f5 bc
       -0.08808102 -0.0050050616 -0.09067638 -0.029931948
000310 4e b0 bb bd af 0b 06 3d e0 89 20 3d 72 39 63 bd
       -0.09164487 0.032725986 0.039193988 -0.055474706
000320 55 f0 5a 3f e3 7f 78 bc 0b 84 43 be 8c 39 e9 3d
       0.8552297 -0.015167209 -0.19093339 0.11387929
000330 92 23 ca bd c4 9d b2 be 96 ef 30 bc 26 53 e5 bd
       -0.09870066 -0.3488599 -0.010799309 -0.111975
000340 06 75 87 3e f0 7c fb 3c 04 07 ba 3e 36 2e 3c be
       0.2645647 0.030699223 0.36333477 -0.18377003
000350 41 79 05 be 6b 64 3f 3d e0 d2 52 3d a1 71 f6 bd
       -0.13034536 0.046726625 0.051470637 -0.12033392
000360 5e 6e 29 bf d1 63 88 bd ab 62 26 3e 31 70 19 be
       -0.6618403 -0.066596635 0.16248576 -0.14984204
000370 24 62 99 3e 22 9e 9a be 3b ac 8f be 8c 07 bd 3e
       0.29957688 -0.3019877 -0.2806109 0.3691982
000380 13 57 21 be 32 9c 70 3e 30 e2 a0 3e 84 79 49 be
       -0.15755872 0.23497084 0.31422567 -0.19675261
000390 c0 97 7d 3e b1 93 50 bf 8c 51 bc 3d 60 57 74 3e
       0.2476492 -0.8147536 0.09195241 0.23861456
0003a0 60 63 96 bb 9f bf b3 3e bf 08 93 3d 97 83 82 be
       -0.004589483 0.35107133 0.071794026 -0.2549102
0003b0 fd e4 1d be 73 f5 cc 3b 09 37 fd 3d 57 df 15 bd
       -0.15419383 0.0062548458 0.12364013 -0.036589947
0003c0 d6 30 90 3e ce c9 2e be d2 c4 0a bb 38 05 91 be
       0.2816226 -0.1706917 -0.0021174443 -0.28324294
0003d0 5b 80 ea be 51 10 e4 bc 00 ae 39 3c 4d 73 96 be
       -0.45801052 -0.027839812 0.011332989 -0.29384843
0003e0 b4 b0 01 3f c5 d2 d9 be b5 c9 25 3e 30 a5 68 be
       0.5066025 -0.42543617 0.16190226 -0.22719264
0003f0 74 dc 1e 3d d1 23 eb 3d 26 12 d5 3e 34 c9 a5 3d
       0.03878446 0.11481441 0.4161541 0.08095017

model.encoder_gnn.gnn.0.0.nn.0.bias f4 [16]
000000 36 17 c9 be 6f e5 16 3e e0 72 92 3e 3a 47 bf 3e
       -0.3927552 0.1473596 0.28603268 0.3735903
000010 ef c6 6b be dc 32 79 3e dd f4 fe 3c 95 43 48 bd
       -0.23025106 0.24335808 0.03112262 -0.048892576
000020 73 10 c6 be 1b 59 23 bd 51 54 6f 3e 30 c2 35 bd
       -0.38684425 -0.0398799 0.23372008 -0.044374645
000030 56 7c 88 be 6f 74 e2 bb 21 3d de 3e 62 ad b0 be
       -0.2665736 -0.0069108526 0.43406013 -0.3450728

model.encoder_gnn.gnn.0.0.nn.2.weight f4 [16, 16]
000000 52 1f 6d bf 4a 25 a8 3e 13 a6 00 be 7e f8 2d bf
       -0.92625916 0.3284095 -0.12563352 -0.67957294
000010 48 96 f4 3d e4 1b 76 3e 15 1a 98 3f 70 e1 1f bf
       0.119427264 0.24034077 1.188296 -0.62453365
000020 3f 1f 9f be 1d 14 73 bc e3 34 85 be c0 cf 05 bf
       -0.31078526 -0.014836338 -0.26016912 -0.52270126
000030 04 b5 dd be 04 1b ba 3f 97 0c 6b be 3e 34 93 3e
       -0.43302166 1.4539495 -0.22954021 0.28750795
000040 2f 87 05 3f 1c 38 72 be 56 02 fa bd f2 de 8c 3e
       0.521594 -0.23654217 -0.12207477 0.27513844
000050 96 87 b4 3e 6b db 1c be fa db bd be 80 7b e4 3e
       0.35259694 -0.15318076 -0.3708189 0.44625473
000060 da 7d 12 3f de 1c 3a be 0d 6b 04 3d a1 56 47 bf
       0.57223284 -0.18175074 0.032328654 -0.7786656
000070 25 55 72 bf 28 77 47 bf 65 d2 8d 3e c1 29 2a bd
       -0.9466117 -0.77916193 0.2769958 -0.041543726
000080 e8 9c d5 be 7e ae e5 3d a6 0a 5c 3d b6 78 18 be
       -0.41721272 0.11214922 0.053721093 -0.14889798
000090 2d 0c e3 bd a3 e5 2e 3e 04 d7 f5 3e cb 74 4e bf
       -0.11086307 0.17079787 0.48015606 -0.8064696
0000a0 dd 78 56 bd 3c b9 35 3e d8 64 b4 3c 78 b8 6e 3f
       -0.052361358 0.17746443 0.022020742 0.93250227
0000b0 4f 5d 5a 3f 5d a6 b4 3e d4 37 6a be e7 0a 4c be
       0.8529863 0.35283175 -0.22872859 -0.19926034
0000c0 d6 c1 f9 be 46 bf c9 3e 2f 16 2f 3e 77 11 a2 be
       -0.48780698 0.39403743 0.17098306 -0.3165395
0000d0 ba 3a 61 be 46 e8 dc 3e 22 00 1b 3f 73 52 e3 be
       -0.21995059 0.4314596 0.6054708 -0.4439884
0000e0 e7 a1 9e be 6b 56 0f be 65 0e 96 bd 2d 52 2b 3f
       -0.30982897 -0.1399781 -0.07326964 0.66922265
0000f0 ca 1d 0d 3f 27 a9 16 3f 4e 7a 82 be db 58 ec be
       0.5512358 0.58851856 -0.25483936 -0.4616154
000100 c9 06 20 3f 32 ab 3e bf b0 01 c1 3e a9 ae 64 be
       0.62510353 -0.74479973 0.376966 -0.22332253
000110 57 7f 13 bf 2d 33 5c 3d 0f 26 0c be 54 1d 66 3f
       -0.5761618 0.053759743 -0.13686393 0.898885
000120 38 d7 ce 3d 0a ac d9 3d 6c 1b 3f bc d1 dc 45 bf
       0.100996435 0.10628517 -0.011664253 -0.77290064
000130 c0 ed 4a bf 47 12 89 be 8a 01 71 bb 85 e5 be bd
       -0.7926903 -0.26771757 -0.00367746 -0.09321121
000140 6e 04 8f bf 62 0b 40 3e 84 56 30 bf 22 72 55 3e
       -1.1173227 0.18754342 -0.6888201 0.2084432
000150 ed d7 f2 3d 35 92 c8 be 6e c2 33 be d5 46 d8 3d
       0.11857591 -0.39174047 -0.17554638 0.10560385
000160 53 aa 47 bd 72 c4 ea be 94 e1 72 3e 03 82 61 3c
       -0.04874642 -0.45853 0.23718864 0.013763907
000170 dc 0e a3 3e cf f7 27 3d bd 1a b4 bd f3 34 c5 3d
       0.31847274 0.041007813 -0.087941624 0.0962924
000180 f3 52 d5 3e ca c4 6c be 42 1f 81 be d5 46 a0 bd
       0.41664848 -0.23121944 -0.2521916 -0.0782601
000190 3e d5 a0 3d 4e 95 81 3d d8 51 62 bf 02 3b 29 3f
       0.07853173 0.06327306 -0.88406134 0.66105664
0001a0 cb 2e 73 3f 9d 97 56 be de fb 35 3e 45 d6 dc be
       0.94993275 -0.20956273 0.17771861 -0.43132225
0001b0 38 ef 88 bf cf f9 06 bf ba cd a2 3d c5 55 1d 3e
       -1.0698004 -0.5272493 0.079493955 0.1536475
0001c0 66 31 dc bd 52 50 5c bd 68 d6 01 be 00 a5 2f be
       -0.107516095 -0.053787537 -0.12679446 -0.17152786
0001d0 4c 07 2e be 85 f1 69 be fc 55 be bd 32 e8 35 be
       -0.16994971 -0.22846039 -0.09293744 -0.17764357
0001e0 02 c1 22 3e 7d c1 17 3e f9 fe ce bd 2e 08 58 be
       0.15893939 0.14819904 -0.10107226 -0.2109687
0001f0 5c 91 09 3e 14 bb ee 3d 95 b4 aa bc 4c 5e 80 bb
       0.13434356 0.11656776 -0.020838061 -0.003917491
000200 59 44 9e be 4e 1d 84 be 76 98 95 3d 43 8e 10 be
       -0.3091152 -0.25803608 0.0730447 -0.14116769
000210 91 fe ba bc 47 9d 80 3d 12 03 8e ba 09 74 02 3e
       -0.022826465 0.06279998 -0.0010834655 0.12739576
000220 d8 35 f1 bd 67 c2 0b be fb 07 48 be ba 38 65 be
       -0.11777848 -0.13648377 -0.19534294 -0.2238492
000230 b1 7f 82 be c5 56 2d be 3c 0a 3e be a4 f1 17 be
       -0.25488046 -0.16927631 -0.18558592 -0.14838272
000240 a3 6e 62 3f ea e9 09 be e9 c7 bd bc 73 be 4e 3e
       0.8845007 -0.13468137 -0.023166614 0.20189838
000250 04 17 6b bd 0c f7 9b bd 87 f4 8e be c5 db 5b 3f
       -0.057394996 -0.0761548 -0.27920935 0.85882217
000260 9a 1e f7 3e 99 b4 ff 3d 44 43 21 3c c0 e0 73 be
       0.48265535 0.12485618 0.0098426975 -0.23816204
000270 ce 49 0e bf db d8 29 be 40 4d 58 3e b8 ea 67 3e
       -0.55581367 -0.1658663 0.21123219 0.22648132
000280 2e bd 29 3f bd 82 65 bf 66 ef 98 be 1a ff 39 bd
       0.6630429 -0.89652616 -0.29870147 -0.0454093
000290 70 23 2d 3e cd 27 05 3e 2f be cf be 3d 91 5b 3f
       0.1690805 0.13003464 -0.40574786 0.8576849
0002a0 60 0e 28 3f 50 dd c7 be eb 86 00 3e ca 72 00 bf
       0.65646935 -0.39036036 0.12551467 -0.50175154
0002b0 c7 32 3a bf b9 c8 db be 8a e6 f0 3d 4e 35 d5 3c
       -0.7273373 -0.42926577 0.11762722 0.026026394
0002c0 17 71 71 3c ca f0 26 bf 4f 9e bb 3e b5 ff 6b 3e
       0.014736435 -0.65211165 0.36644217 0.23046763
0002d0 41 b8 a4 3e 8e 5c 7c be c9 92 0a bf 03 90 91 3d
       0.32171825 -0.24644682 -0.54130226 0.07107546
0002e0 38 5a c6 3e 06 c6 b4 be 49 01 11 be fe 98 a3 bf
       0.38740706 -0.3530733 -0.14160646 -1.2781065
0002f0 20 14 a2 bf b8 a4 f0 be 2e 6c eb 3e 3d 99 cc be
       -1.2662392 -0.4700067 0.45980972 -0.39960662
000300 b8 a9 96 bd 60 df 8c 3d 83 56 27 3f 2c e0 1e 3e
       -0.0735659 0.06878543 0.6536638 0.15515202
000310 56 76 af bf e3 09 83 be 2e aa 18 3f eb 44 64 bf
       -1.3707988 -0.2559348 0.59634674 -0.8916766
000320 f0 1a db bb c4 50 19 3f 8a ce 04 be c0 fb 5e 3f
       -0.006686561 0.59888864 -0.12969413 0.8710289
000330 fa b9 5b 3f e5 94 1c 3f 4c c3 39 bf 6d eb 9b be
       0.8583065 0.61164695 -0.72563624 -0.30453053
000340 44 73 bc 3d 1c 12 bc 3c fa b3 ea 3d 1e ad 99 be
       0.09201673 0.022957854 0.11460109 -0.3001489
000350 4c c1 2a bf fe 60 d8 be ef 18 91 3d 5b ba 2c bf
       -0.667012 -0.422615 0.07084834 -0.67471856
000360 fb cc bd bf 67 cd 02 3f 51 40 00 be 9f bd 82 3f
       -1.482818 0.5109467 -0.12524535 1.0214118
000370 3a 71 99 3f 92 91 8e bf 8b 1e c6 3e 21 c6 40 3d
       1.1987679 -1.1138175 0.38695177 0.04706395
000380 f9 c1 73 be d2 6e ca be e7 48 f8 3e 0b 37 0b 3f
       -0.23804463 -0.39537674 0.4849312 0.54380864
000390 33 ab 00 3f 5c ff 6c bf d8 12 86 be 6c fd 69 bf
       0.5026123 -0.9257715 -0.26186252 -0.91402316
0003a0 d0 1e 2b 3d dd 2d da be 74 97 ed be cd f0 6d bf
       0.041777432 -0.42613116 -0.46404612 -0.9294556
0003b0 8b ca 6a bf ec b2 91 bf 7e c2 b5 3e 27 06 34 bf
       -0.91715306 -1.1382728 0.35499948 -0.7032189
0003c0 bf 45 0b bf 97 eb 14 3e 2d 2e ce 3d 6a b5 ff 3d
       -0.544033 0.14542995 0.10067401 0.12485774
0003d0 80 0f 26 bf ec 25 97 3d ad c0 23 3f 00 cb 44 bf
       -0.648674 0.0738028 0.63965875 -0.76872253
0003e0 98 c8 3a 3f 22 f1 1a 3e 9a e3 a8 be 2a 31 68 3f
       0.7296233 0.15131047 -0.32986146 0.9070002
0003f0 a2 bb 75 3f 7e 1e 55 bf 06 d7 9f bf dc 38 66 3c
       0.9598943 -0.8324965 -1.2487495 0.014051642

model.encoder_gnn.gnn.0.0.nn.2.bias f4 [16]
000000 ab 2b 29 3d 01 b5 82 3d d9 ce a0 bd 0e 53 20 3e
       0.04130141 0.0638218 -0.07851953 0.15656683
000010 44 31 9f 3d 3e 90 93 be a5 dd 7a bc 7e e0 8a be
       0.077730685 -0.28820986 -0.015311633 -0.271244
000020 df e3 b0 bd 72 54 d9 be 8a 92 88 3e e7 6c c5 3e
       -0.08637213 -0.4244724 0.266743 0.38559648
000030 ef 3c 4e be a4 0c 5f be 75 3e 93 3e cc 4c 91 3e
       -0.20140432 -0.21782166 0.28758588 0.28378904

model.encoder_gnn.post_nn.fc_layers.0.0.weight f4 [8, 16]
000000 58 5f 9f bb fc 3a 03 ba 61 18 a9 bb c6 e0 8b 3c
       -0.004863661 -0.0005006043 -0.005160377 0.017074954
000010 d3 68 80 bb 1d 90 bf 3a 56 1e 08 3b 0c 21 b4 3b
       -0.003918746 0.0014615093 0.0020770035 0.0054971036
000020 bc 9d d6 3a 6c 55 be bc 96 93 19 3c 8a 16 41 3c
       0.0016373913 -0.023234092 0.009373566 0.011785159
000030 9e 9a a5 bb a9 03 5c bb ca 55 e4 bb c2 66 0c bb
       -0.005053832 -0.0033571518 -0.0069682347 -0.0021423553
000040 98 43 7e bb 91 44 a0 3a be f5 1b ba 8a bd 8d bc
       -0.0038797613 0.0012227466 -0.0005949399 -0.017302293
000050 44 f7 1e 3b 9b c4 e5 bb 6c 55 fe ba 08 55 af bb
       0.0024256269 -0.0070119626 -0.001940412 -0.0053507127
000060 ba 72 96 bb a6 5e 8f 3b 97 d2 f7 3a 02 87 37 3b
       -0.004591313 0.0043752966 0.0018907365 0.0028004055
000070 11 71 98 3a a1 d9 67 ba 92 10 ac 3b 44 27 ba 39
       0.0011630376 -0.000884438 0.005250999 0.0003550594
000080 43 a4 53 be 11 2a 1e 3e af ff 36 be 12 17 4a be
       -0.2066813 0.15445735 -0.17870973 -0.19735363
000090 c5 ff 7e 3e 46 31 32 3e 14 50 40 3e e3 d5 16 be
       0.24902256 0.17401609 0.18780547 -0.14730029
0000a0 a5 9c 1d be 58 35 3c 3e 11 b1 50 3e 0b b8 84 3e
       -0.15391786 0.18379724 0.20380045 0.25921664
0000b0 9c ba 72 be 7e 77 71 be bc 27 a7 3e 39 d1 47 be
       -0.23703998 -0.23580739 0.32647502 -0.19513406
0000c0 e4 fa 62 3e c4 1f 10 be ac 07 21 3e 48 51 4c 3e
       0.2216602 -0.14074618 0.15725583 0.19952881
0000d0 d1 4e 79 be ea f3 33 be 01 70 3e be af c3 2c 3e
       -0.24346472 -0.17573515 -0.18597414 0.16871522
0000e0 b2 4c 0b 3e 37 a1 2a be ed 48 48 be f7 f5 83 be
       0.13603476 -0.16663061 -0.19559069 -0.25773594
0000f0 e6 3e 6c 3e 4d 6d 72 3e 26 87 a4 be af 21 51 3e
       0.23070869 0.23674507 -0.3213436 0.20423006
000100 7c bf 1b 3b 8d fb 5b ba 40 d2 20 ba 14 c8 a2 39
       0.0023765257 -0.0008391671 -0.00061348453 0.00031048118
000110 b8 55 29 bb d5 06 54 ba e0 37 40 3b c2 c4 86 3b
       -0.0025838446 -0.0008088176 0.002933018 0.004112811
000120 3c af 8a ba b2 e7 2a ba f6 30 a7 3a d8 3a 0a 3a
       -0.0010580788 -0.00065195106 0.001275568 0.00052730506
000130 3c cd b0 37 4c 30 90 bb 02 85 f9 3a 18 d7 2b 3a
       2.1076405e-05 -0.0044002887 0.0019036832 0.0006555184
000140 ca dc da b9 6e 16 05 3b 00 08 dc 3a 20 aa b7 36
       -0.000417447 0.0020307559 0.0016787052 5.47363e-06
000150 2e 4d 10 bb 69 68 bd ba 61 7b a6 ba 9b 00 83 3a
       -0.002201866 -0.0014450672 -0.0012701565 0.0009994687
000160 9e 62 37 bb 72 4d b7 3a 56 cf 84 3a 72 80 68 bb
       -0.0027982364 0.0013984872 0.0010132592 -0.003547695
000170 30 b9 b2 b8 4b 4c d1 b9 c0 ef d3 3a 98 2f 2d 3a
       -8.522195e-05 -0.0003992043 0.0016169474 0.0006606518
000180 46 7e 03 3e 42 5d 05 bc 27 21 6f 3d 6b 4c 2f be
       0.12841138 -0.00813991 0.058381226 -0.17118995
000190 56 19 50 3c 36 9e 0e 3d 79 32 2b 3c be d8 73 bc
       0.012701353 0.03481885 0.010449045 -0.014883218
0001a0 e2 15 71 bc f5 2e 32 3e 48 39 9e bd 36 60 04 be
       -0.01471469 0.17400725 -0.07725769 -0.12927327
0001b0 15 c2 08 3d a4 8a 5d 3d 01 00 dc 3d a5 c4 8b 3c
       0.033388216 0.054087296 0.10742188 0.01706154
0001c0 0d ea fb 3d dd 46 93 bc 5c b2 98 3d bc 04 28 be
       0.12300501 -0.017978126 0.07455894 -0.16408056
0001d0 19 fb 38 3d 78 6c 21 3d 0c 20 ef bb cd bd 06 bd
       0.04516134 0.039410084 -0.0072975215 -0.032895852
0001e0 c7 96 10 bc 56 4c 3f 3e d7 c2 45 bd 14 35 f5 bd
       -0.008825011 0.18681464 -0.048281517 -0.119730145
0001f0 76 83 4b 3d b8 b7 b7 3c 37 44 c8 3d 6b 01 16 3d
       0.049685918 0.022426471 0.09778636 0.036622446

model.encoder_gnn.post_nn.fc_layers.0.0.bias f4 [8]
000000 52 8f da 3a 48 40 11 3a 6a b3 49 bd 8c 1e 4d 3d
       0.0016674793 0.00055408897 -0.04924337 0.05007796
000010 67 01 57 ba 85 aa 84 3a e9 b7 9f bf d0 88 9d bf
       -0.0008201808 0.001012162 -1.2478 -1.2307377

model.decoder_gnn.pre_nn.fc_layers.0.0.weight f4 [16, 4]
000000 64 35 c3 bb 0e b7 8d bc f2 af b0 be 41 9b ad 3e
       -0.0059572924 -0.017299201 -0.34509236 0.33907512
000010 e0 21 67 3b c0 6d 49 3c e4 08 69 3e d1 39 67 be
       0.0035267994 0.012294233 0.22757298 -0.22580649
000020 28 4c 86 3c fa ba 7b ba 14 ff 48 3e ec 74 38 be
       0.016393736 -0.0009602752 0.19628555 -0.18013352
000030 4a 01 23 bc 52 ae 96 bc cb 83 07 3f 0d 92 d0 3e
       -0.009949038 -0.01839367 0.52935475 0.40736428
000040 2d 0b 3f bc 86 b9 0d 3c aa e1 d5 be bf 5a d9 3e
       -0.011660379 0.008650189 -0.4177373 0.42452046
000050 41 ac 37 3c ba e9 3e bc 97 65 82 3e a1 96 87 be
       0.011210502 -0.011652404 0.25468132 -0.26482108
000060 90 d8 ed bb 54 57 45 ba 1d f0 e7 3d 56 df d1 bd
       -0.0072584823 -0.00075279665 0.11325095 -0.10247676
000070 67 b7 26 bc aa fb 09 3c eb 6e 2a 3e 99 73 0f be
       -0.010175562 0.008421818 0.16643874 -0.14008941
000080 bf e9 7a bb a1 6a c2 bc 73 34 21 3e f1 87 1e be
       -0.0038286296 -0.023732485 0.15742664 -0.15481545
000090 36 a7 01 bc a6 e4 93 3b e8 3a 65 3e b8 9e 76 be
       -0.007913401 0.004513341 0.22385752 -0.24083984
0000a0 ed 2c 3b bb e6 83 51 bc ec 33 ca be 48 ca c8 3e
       -0.0028560713 -0.012787795 -0.39492738 0.39216828
0000b0 6a b6 5b ba 66 6d a2 3b e2 6f 90 3e 27 9d 8a be
       -0.0008381369 0.004956889 0.2821036 -0.27073023
0000c0 0a d9 9b bb 90 6a e9 b9 02 f0 c5 3e db 2b c1 be
       -0.0047560977 -0.00044520618 0.38659674 -0.37728772
0000d0 b3 22 40 3d bb aa 1e 3c 49 a8 ac 3e 9f f9 89 3c
       0.04690809 0.00968426 0.3372214 0.016842661
0000e0 37 ec 33 bc 9e de 98 3b ad 76 e5 3e 92 95 dc be
       -0.010981611 0.00466521 0.44817105 -0.43082863
0000f0 b3 ad 62 3b 8f 8a 3d bc 98 50 a6 be af 86 cc be
       0.0034588396 -0.0115686795 -0.32483363 -0.39946505

model.decoder_gnn.pre_nn.fc_layers.0.0.bias f4 [16]
000000 6e bb 8b 3e 79 7e 16 be ec f1 41 3e 53 20 05 bf
       0.27291435 -0.14696683 0.18939942 -0.5200245
000010 1b f3 cf 3e 62 e5 ca be 70 d2 42 3e e4 e0 ae 3e
       0.40615162 -0.3962813 0.19025588 0.34155953
000020 25 0f 13 3e 9d e2 20 bf 80 68 93 3d a9 00 b4 3e
       0.14361246 -0.62845784 0.07197666 0.35156754
000030 38 7a 93 be 7e 68 3a bf c3 7a 93 3e 8b 5d d4 be
       -0.28804183 -0.7281569 0.28804597 -0.41477618

model.decoder_gnn.lin_skipsum.0.0.weight f4 [16, 16]
000000 37 4c ce ba 4c c8 65 be eb f7 fd 3c d6 07 fb 3b
       -0.0015739267 -0.22439688 0.031002006 0.007660846
000010 b4 8c 43 3e f0 a0 23 be 3d c2 99 be c0 1e a2 3d
       0.19096643 -0.15979362 -0.30031005 0.07916021
000020 fa 3f b7 bb 85 da 96 3d fd 20 06 3e 12 ad c5 bd
       -0.0055923434 0.07365898 0.13098522 -0.09652151
000030 87 c9 9c bc 6d 9d 37 3d 8a 6d d9 bd 12 eb a1 bd
       -0.019139064 0.044827867 -0.10616596 -0.07906164
000040 cf 81 74 3e 56 c7 60 be 15 6e c0 bd 59 86 8d bd
       0.23877643 -0.2195104 -0.093959965 -0.069103904
000050 82 e1 fd 3d 2d b9 27 3e d1 95 9c bd 9e 7a c7 bd
       0.12396528 0.16379233 -0.07645763 -0.09740184
000060 b0 c8 58 bd c9 af be 3c 31 0b 03 3d 3a 42 e6 bd
       -0.052925766 0.02327718 0.031993095 -0.112431005
000070 a1 8f 50 be c3 73 c6 3d f6 9d 88 bd 8b 07 8e bc
       -0.2036729 0.096900485 -0.06670754 -0.017337581
000080 61 16 c9 3d 56 7b 08 be 86 2c 90 bd 49 3c ec bd
       0.098187216 -0.13328299 -0.07039742 -0.11534936
000090 d6 fa 1f 3e 67 75 3e be e3 78 dc bd c6 55 51 be
       0.1562303 -0.18599473 -0.10765245 -0.20442876
0000a0 46 95 29 be 2c 31 a5 3c e3 c3 cd 3d 3a 1b 9b bd
       -0.1656085 0.020165049 0.10047128 -0.075735524
0000b0 93 46 22 bc bf 0f 46 3e 20 30 ac bd d9 ce 20 bd
       -0.0099045215 0.19341944 -0.084076166 -0.039259765
0000c0 f7 4e c9 3d 24 05 e5 bd 6f cb 57 bd 81 fc 1b 3d
       0.098295145 -0.11182621 -0.052684244 0.038082603
0000d0 25 60 2a 3e 27 54 f1 bd 46 18 13 bd cb 80 1a bc
       0.16638239 -0.11783629 -0.03591182 -0.009430121
0000e0 2e 47 60 be 48 81 dd 3d 5c 99 e9 3d c2 f6 36 bd
       -0.21902153 0.10815674 0.11406204 -0.04466892
0000f0 7f c8 e2 bd 7a 2b 88 bd 83 b4 fe bd a0 29 66 bd
       -0.11073398 -0.066489175 -0.12436774 -0.05619204
000100 8a 38 19 be b8 95 6f bc 0e a5 02 3e 2f 5d 05 bd
       -0.14962974 -0.014623098 0.12758276 -0.03255957
000110 43 ad 0e be 0d 6a b0 3d 1b bd 1f 3e 19 e2 b9 3d
       -0.13933282 0.086139776 0.15599482 0.09076328
000120 91 15 0f 3e 7d 70 dc bd 0c 5d ae bd 55 48 e7 3d
       0.1397307 -0.10763643 -0.08513841 0.11293093
000130 d1 80 05 3e 28 54 e8 3d 45 92 20 3d 8e da c0 bd
       0.13037421 0.113441765 0.039201993 -0.09416686
000140 73 d8 81 3d 21 1f 82 be d9 b4 27 be fd 32 4b bd
       0.063401125 -0.25414374 -0.16377582 -0.049609173
000150 a1 c7 30 3e 72 21 f0 bd 30 e8 cf 3c 1d ab a8 3d
       0.17263652 -0.11725129 0.02537927 0.08235762
000160 d2 15 6b be bc d7 00 3d 14 c1 8c 3e 59 fd 3f bc
       -0.22957543 0.03145574 0.27491057 -0.011718118
000170 de 7e 53 be 1f 90 0a 3e 7b 66 bf 3b 99 4f 9c 3d
       -0.20653865 0.1353154 0.005841074 0.076323695
000180 b6 a0 05 3e fc 45 25 bc f3 e3 13 be db 98 1a be
       0.13049588 -0.010087486 -0.14442424 -0.15097372
000190 a9 45 63 3e bc d4 b2 3d 0c db 9d bd 0f 65 77 bd
       0.22194542 0.08731982 -0.077077955 -0.06039911
0001a0 54 6e d0 3d 98 90 06 3c 42 83 f2 3d d5 9d fa bd
       0.101772934 0.008213185 0.11841442 -0.12237135
0001b0 7b c6 8c be 09 4c 2f 3e 53 7b 4b be 6d 8c 32 bd
       -0.2749518 0.17118849 -0.19871263 -0.04359095
0001c0 e6 b3 21 be a0 68 09 3e d1 30 98 3d 06 60 87 3d
       -0.15791282 0.13418818 0.07431186 0.06610112
0001d0 21 d5 7e bd 8c e8 bd 3d 12 33 f1 3d de 58 38 3e
       -0.062214974 0.092728704 0.11777319 0.1800265
0001e0 30 98 02 3e 37 99 a6 bd 6e fb d2 bd 2b 98 ca 3d
       0.12753367 -0.08134692 -0.10301863 0.09892305
0001f0 44 8c e2 3d f1 36 3b bd 72 e0 c8 3c 1d 88 63 3d
       0.1106191 -0.045706693 0.024521086 0.05554973
000200 40 3d 31 3d 20 9c de bd 4f b9 a2 bd d0 8b 7c bd
       0.043271303 -0.10869622 -0.07945501 -0.061656773
000210 b4 5c 42 3e 6c bc 1e be 41 d4 bc bd 9d 91 33 be
       0.18980676 -0.15501565 -0.09220172 -0.17536016
000220 d8 38 8b bd 38 67 db 3c dc c7 9f 3d 1f d9 29 bb
       -0.067979515 0.026782617 0.07801792 -0.0025916768
000230 74 72 6d bc 6b ff 11 3e 67 fd 48 be c9 73 46 3d
       -0.01449262 0.1425759 -0.19627915 0.048450265
000240 fb 58 10 3e 49 ff 62 bd 6a cd 89 3d d9 8a 5c 3d
       0.14096443 -0.05541924 0.06728633 0.053843353
000250 85 cd 40 3e 4d 17 4d bd f9 3b 03 bb cf 8b 80 be
       0.188284 -0.05007105 -0.002002476 -0.25106665
000260 1a b4 30 be 47 c3 28 3d fd bb fc 3c da f1 5d be
       -0.17256203 0.041201856 0.030851359 -0.2167429
000270 0c 36 db bd 4f 54 4b be c0 ca 5c bd 75 76 19 3d
       -0.10703668 -0.1985638 -0.053904295 0.037466485
000280 ad ab 07 3e 87 e6 83 3d 8c c3 c8 bd 82 f5 da bd
       0.13249083 0.06440454 -0.098029226 -0.10691358
000290 e5 f2 0f 3e f0 6f 28 be a6 3f 87 bd 6f 67 04 bd
       0.140575 -0.16448951 -0.06603937 -0.032325204
0002a0 94 e8 a6 bd 4d 99 e1 3d c1 76 ab 3d f4 92 b4 3c
       -0.081498295 0.11015568 0.0837226 0.022042729
0002b0 b2 c4 35 be 7b 17 37 3e 30 15 0f be 35 53 13 be
       -0.17750815 0.17880051 -0.13972926 -0.1438721
0002c0 18 ed 80 bd 5b 93 7b 3e c4 26 b8 bd a2 c2 03 3d
       -0.06295222 0.2456793 -0.08991769 0.03216804
0002d0 46 e8 d2 bd 22 9e 80 bd 6c d9 7c 3c 5e e0 0e 3e
       -0.10298209 -0.062801614 0.015432697 0.13952777
0002e0 d2 46 f6 3d 02 d6 6b bd e1 08 23 be 42 de 65 3d
       0.12025227 -0.05757714 -0.15921356 0.056120165
0002f0 fa fe 08 3e ee 5a fd 3d 04 49 8b 3d 71 f0 28 3c
       0.13378516 0.12370859 0.06801036 0.010311232
000300 59 f3 13 be ee 06 f9 3d 09 47 c6 bc 07 f0 8b bb
       -0.14448299 0.12159525 -0.024203794 -0.004270557
000310 dd 62 06 be 24 40 28 3d 0a ac 69 3d f9 7e 12 3e
       -0.13123651 0.041076794 0.057048835 0.14306249
000320 eb 43 43 bd 79 73 41 3d f2 07 f3 bc e5 47 80 bc
       -0.047672193 0.047229264 -0.029666875 -0.015659282
000330 35 52 79 3d b0 53 8c bd 8e e4 17 3e 02 c0 66 3d
       0.060869414 -0.068518996 0.1483328 0.056335457
000340 9d 3f 5f 3d 20 b8 54 be d9 a1 26 be a5 ff a2 bc
       0.054504026 -0.20773363 -0.16272677 -0.019897291
000350 29 c9 d0 3d c8 5c f1 bd e6 e3 65 3d b5 50 4e bd
       0.10194618 -0.11785275 0.056125544 -0.050369937
000360 b4 db 36 3c b0 fb 23 3e 0c e4 83 3e db 56 28 be
       0.01116078 0.1601398 0.25759923 -0.16439383
000370 dd 81 cc bc a2 ea 91 bc 76 af ae bd a2 d4 ea 3b
       -0.024964267 -0.017812077 -0.0852956 0.007166461
000380 34 ab c9 3d 7e 23 7f bd d7 c3 c2 bd 92 85 80 bc
       0.098471075 -0.062289707 -0.0951001 -0.015688691
000390 a3 70 55 3c f6 e1 cb 3d 95 5a 6b be 7d 8c 1c bd
       0.013027343 0.09955208 -0.22983773 -0.038219918
0003a0 26 7e 12 be 1d d3 5a 3d 56 28 2e 3e df cf 11 be
       -0.14305934 0.05342399 0.17007574 -0.14239453
0003b0 cf 48 cb bd 0d 4d 82 3e 0c 90 bf bd bf 48 92 bd
       -0.099259965 0.2544941 -0.09353647 -0.071427815
0003c0 21 bd 4f 3e f2 5c 87 3c 45 5a 1c be 47 77 19 bd
       0.2028699 0.016523812 -0.1526881 -0.037467267
0003d0 89 bb 5b 3d d0 cd c6 3d 99 53 d0 bd 34 a7 4b be
       0.053645644 0.09707224 -0.10172195 -0.19888002
0003e0 2a 00 0f 3d 78 ba d4 3c d7 b8 57 3d f9 54 31 be
       0.034912266 0.025967821 0.05266651 -0.17317571
0003f0 02 1d 3f be 41 98 c5 bd d4 ae 0e bd d6 5d 48 be
       -0.1866341 -0.09648181 -0.034834698 -0.19567046

model.decoder_gnn.lin_skipsum.0.0.bias f4 [16]
000000 67 8f a1 bc 3e 08 39 3d be ab 42 3d a8 86 f3 bb
       -0.0197217 0.045173876 0.047527067 -0.0074318238
000010 5f e7 73 bc 22 1d c4 bd 2d cc 6b 3c d9 da 95 bd
       -0.014886706 -0.09575869 0.014391941 -0.073171325
000020 46 51 9b 3d 76 b5 78 3d 64 44 78 bc 33 5f 00 bc
       0.07583861 0.06071993 -0.015153024 -0.007835197
000030 f7 9e 33 3c ee d6 83 3c c7 00 e7 3d af 41 dc 3d
       0.010963193 0.016093697 0.11279445 0.10754716

model.decoder_gnn.lin_skipsum.1.0.weight f4 [16, 16]
000000 5e a0 53 be 0d a7 be bd 54 9d b1 3d 6c 5f 64 3d
       -0.20666644 -0.09309206 0.08672586 0.055755064
000010 72 b2 d2 bb 7d f4 a4 ba 4e b8 2a 3e 27 06 27 be
       -0.0064299637 -0.001258507 0.16671869 -0.1631094
000020 6b b8 a5 be ea 51 74 3e 52 5a a1 3d e5 cb 7d 3e
       -0.32367262 0.23859373 0.07878555 0.24784811
000030 0c d3 26 be 21 a1 81 3e 9c 77 e2 3d 8f c3 99 3e
       -0.16291445 0.25318244 0.1105797 0.30032012
000040 22 1b 18 3e a8 ef 39 3c 7d 11 fd 3c 4b 34 aa 3d
       0.148541 0.011348642 0.030892128 0.08310755
000050 96 a0 50 3e f4 91 e8 bd cc b6 fc 3c 14 33 09 be
       0.20373759 -0.11355963 0.030848883 -0.13398391
000060 c3 74 90 be b1 5c cc 3e 35 c2 96 3d ec 96 63 3e
       -0.28214082 0.39914468 0.07361261 0.22225541
000070 55 3a 3e be c6 df b4 3e 5c 59 af bc ec 06 72 3d
       -0.1857694 0.35326976 -0.021404915 0.059088632
000080 3d 89 eb 3d ca 70 c3 3c 93 31 5d 3e 6f b0 d5 3d
       0.115007855 0.023857493 0.21600942 0.10434043
000090 79 5d af bc a1 c6 0e bd 37 2b 3f 3e 0e f1 3d be
       -0.021406876 -0.034857396 0.18668829 -0.18548986
0000a0 21 39 90 be d2 74 57 3e c5 9b c5 3d 61 bb ed 3e
       -0.28168586 0.21040657 0.09648851 0.4643202
0000b0 fc 99 33 be 40 8b 80 3e 42 e5 94 bd 78 7c 0e 3f
       -0.17539209 0.2510624 -0.0727029 0.55658674
0000c0 fd 6f ec 3d a5 fc 92 3c 21 9f f6 3d cb d7 ee 3d
       0.115447976 0.017942736 0.1204207 0.11662253
0000d0 a4 6a 72 3d 2a d1 a8 bd 99 0e 5c 3e 21 47 45 be
       0.05918373 -0.0824302 0.21489944 -0.19265415
0000e0 91 7d 58 be c8 83 f2 3e 6f d9 08 3d 81 18 83 3e
       -0.2114165 0.47366166 0.033410486 0.25604632
0000f0 d1 d6 2c be 92 3e 90 3e 68 5e 34 bd e3 e8 b9 3e
       -0.16878821 0.28172737 -0.044035345 0.3631049
000100 c7 b3 d5 bd 92 42 9d 3d 20 da 15 be de 2e 35 be
       -0.104346804 0.07678713 -0.1463399 -0.1769366
000110 5d d3 b2 bd ca ba ce 3d dd ae c3 3c 6d 03 02 3e
       -0.087317206 0.10094221 0.023887092 0.1269662
000120 f4 69 52 3e 9f 41 19 bf fd 50 d9 bd 59 72 64 bd
       0.2054823 -0.59865755 -0.106111504 -0.055773113
000130 dc 92 59 3e 93 3c 86 be 09 d3 be bc f8 db 64 bd
       0.21247429 -0.2621809 -0.023293989 -0.05587384
000140 1b 7e 2c 3e 6c 17 ae 3d 3c 81 0c 3e 51 af 28 3d
       0.1684498 0.08500561 0.13721174 0.04118282
000150 27 bc 48 3e f4 2c c1 bd 1f c4 cf 3c 79 f4 2a be
       0.19603024 -0.09432402 0.025362073 -0.16694821
000160 6b eb 48 be 6c 9d fd 3e 03 05 b8 3d 9b d5 ce 3e
       -0.19621055 0.49534166 0.08985331 0.40397343
000170 a5 53 0b be 5a af 9f 3e 06 e6 d1 bd 7a c9 3a 3e
       -0.13606127 0.3118847 -0.102489516 0.1824092
000180 44 1d b4 3d b4 c4 da bd 34 de 61 3e 12 5d 69 3e
       0.087946445 -0.106820494 0.2205742 0.2278941
000190 3e 1a d0 3d 7a ca e2 bd 27 b6 c9 3d 81 8d c1 be
       0.10161255 -0.110737756 0.09849196 -0.3780327
0001a0 2f a3 d9 be 49 b6 1c 3f fc b7 56 bc 2a 31 ad 3e
       -0.42507312 0.61215645 -0.013105389 0.33826572
0001b0 34 97 8c be 0d a6 86 3e a6 31 cc 3d 15 c8 3c 3f
       -0.2745911 0.26298562 0.09970407 0.737428
0001c0 c0 3c 1e be 75 b7 1a 3d 9c 7d 08 3d dc 72 aa bd
       -0.15452862 0.037772615 0.033322915 -0.08322689
0001d0 af 55 66 bd 11 19 df 3d 52 e8 5f be 1a d2 fd 3d
       -0.056234058 0.10893453 -0.21865967 0.12393589
0001e0 37 cf ae 3e 1d 19 ba be e9 76 4d bd 09 cf 05 be
       0.34142467 -0.36347285 -0.05016223 -0.13067259
0001f0 6f 2a 35 3e 00 5c 5c be 71 c3 24 be e4 fd 1f be
       0.17691968 -0.2151947 -0.1609018 -0.15624195
000200 2f dd e1 3d d2 e8 51 bd ad 3d 6d 3e 1a 09 59 3e
       0.110285155 -0.051247425 0.23168059 0.21194878
000210 6d 64 93 3d ee ae 1f bd d7 4b 5c 3e aa 1b df bd
       0.07196889 -0.038985185 0.21513306 -0.108939484
000220 b9 a9 38 be 6e 21 1b 3f aa db 09 bd 0b d1 19 3e
       -0.18033494 0.60597885 -0.033656754 0.1502115
000230 ad 10 1a be 7a e9 44 3e e3 c3 91 bd f0 58 ad 3e
       -0.15045424 0.19229689 -0.071174406 0.33856916
000240 f4 66 25 3e aa da 7d 3d 25 5f fb 3d 3c d6 25 3e
       0.16152555 0.061976112 0.12274007 0.16195005
000250 40 e7 10 bd df 58 07 bd 62 e6 3b 3e d4 57 9b bd
       -0.035376787 -0.03304374 0.18349603 -0.07585111
000260 46 fb a6 be 36 77 0e 3f 6b 0f 03 3e 08 34 f7 3d
       -0.3261358 0.5565065 0.1279885 0.12070471
000270 e0 b5 e3 bd e3 19 94 3e 9d 40 b6 bd 2e d9 e2 3c
       -0.11118674 0.28926 -0.08899043 0.02769145
000280 c9 0e 30 be e0 23 5d 3d ef 12 10 bd b3 32 f5 3b
       -0.1719314 0.05398929 -0.035174306 0.0074828505
000290 ac fe 45 3e 41 21 87 bd 83 ca da 3d 9a 3b d1 bc
       0.19335431 -0.065981396 0.10683157 -0.025541116
0002a0 9d c8 a3 be ec 48 12 3f 48 f2 8b 3d 2a f7 16 3e
       -0.31988993 0.5714252 0.06833321 0.14742723
0002b0 7c f3 b1 bd 9d 1c 86 3e 8b 7e 46 bd 58 db b0 3d
       -0.08689019 0.26193705 -0.048460525 0.086355865
0002c0 82 6d 4d be e8 e3 e7 bb d5 f4 f8 bd c6 04 0f be
       -0.20061305 -0.007076729 -0.12156073 -0.13966665
0002d0 8d ec cc bb 8e c9 98 3d 0b 5e 8e bd e2 1d d9 3d
       -0.006253785 0.074603185 -0.06951531 0.10601403
0002e0 38 66 1d 3e b8 46 08 bf fe ef af bd 6c 4d 88 bd
       0.15371025 -0.5323291 -0.08590697 -0.06655392
0002f0 a3 9c b0 3d 72 7e 8f be d1 c8 80 3d 8b 2e 13 bf
       0.08623626 -0.28026158 0.06288303 -0.57492894
000300 52 5a 4a 3d 93 ef 0d bd eb 8f 1c be 8f 11 38 bc
       0.049402542 -0.034652304 -0.15289275 -0.011234655
000310 5b a9 16 bd 6a 49 01 3d 3a 96 11 be f9 e1 45 3c
       -0.036782604 0.031564154 -0.14217463 0.012077802
000320 bd e1 5e 3e 01 ec d5 be be 6a d4 bd 14 86 ad be
       0.217658 -0.4178162 -0.10371922 -0.33891356
000330 7a 75 99 3d 82 52 b6 bd a9 7c e0 3d e3 b0 d0 bd
       0.0749311 -0.08902456 0.10961277 -0.101899885
000340 9d 60 80 bc fb fe 5a 3d 2d 1a 03 3e cf 3d bc 3d
       -0.015671069 0.053465825 0.12802954 0.091914766
000350 cb 24 b3 3d d5 06 d4 bd 27 14 13 3e f3 16 00 be
       0.08747252 -0.103528656 0.14363156 -0.12508754
000360 d5 13 60 be 9d 3d 22 3f 9b 22 c9 3d b1 e6 50 3e
       -0.21882565 0.63375264 0.098210536 0.20400502
000370 90 92 f6 bd 43 16 2b 3e 32 15 c2 bd e5 c9 a1 3e
       -0.12039673 0.16707711 -0.09476699 0.31599346
000380 2f 7b 00 3d 45 e9 a7 bd a7 e9 0c 3e 6f 37 3a 3e
       0.031367477 -0.081987895 0.13761006 0.18185209
000390 8d 8a ea 3d aa 68 8f bd ca 23 21 3d ce de 24 be
       0.11452208 -0.07002385 0.03934077 -0.16100618
0003a0 de 54 83 be 2a ed 8a 3e f4 94 93 3c c5 9c 76 3e
       -0.25650686 0.27134067 0.018015362 0.2408324
0003b0 f0 e0 2d be 84 d0 af 3e 37 1c b3 3d c6 d5 85 3e
       -0.16980338 0.34338772 0.08745616 0.2613966
0003c0 ce ed e9 bd c7 41 c3 3c 56 92 1e 3d bd 40 af 3d
       -0.11422311 0.023835076 0.038713776 0.0855727
0003d0 0b 8f ae 3c 4e 8a 03 be 34 b2 10 3e fe dd 9e bd
       0.021308443 -0.12845728 0.14130479 -0.077571854
0003e0 58 fb b3 be e4 82 94 3e 3a ef 0d 3e 91 aa 54 3e
       -0.35152698 0.29006112 0.13860789 0.20768191
0003f0 82 12 10 be aa bf 94 3e af c6 9c 3d f6 7a 81 3e
       -0.1406956 0.29052478 0.076550834 0.25289124

model.decoder_gnn.lin_skipsum.1.0.bias f4 [16]
000000 ff 23 d0 bd 20 24 13 be a0 f5 2c be 1f 87 26 be
       -0.10163116 -0.1436925 -0.16890574 -0.16262482
000010 75 13 ee 3d 4e 05 4a be a3 1d ff bd 54 5b be 3d
       0.11624805 -0.19728586 -0.12456825 0.09294763
000020 9d 8a 1c be 2f 72 30 be 9f c4 0d be a6 3c 01 3e
       -0.15287252 -0.17231058 -0.13844536 0.12620792
000030 87 0f 19 3e 68 df 40 be 45 ee de bd ef 36 0f be
       0.1494733 -0.18835223 -0.1088529 -0.13985799
