_models_trained/vaca/chainsens_linear/last.ckpt (torch, 25614 bytes, 25 tensors)

model.encoder_gnn.pre_nn.fc_layers.0.0.weight f4 [16, 1]
000000 a3 44 e0 be b8 92 68 3e c5 28 eb be 8b 18 ef be
       -0.43802366 0.22712219 -0.45929542 -0.46698412
000010 2d 56 06 bf 69 85 29 3f 40 aa f1 bd 87 ad d7 be
       -0.52475244 0.6621919 -0.11800051 -0.42124578
000020 8c 1a f9 be d8 70 10 3f 22 3f 8f be f1 97 cf bc
       -0.48653066 0.56422186 -0.27977854 -0.025341006
000030 07 6b a3 bd 4f b8 44 bf 69 ff 20 3f 48 c0 5d bf
       -0.07979398 -0.7684373 0.62889725 -0.8662152

model.encoder_gnn.pre_nn.fc_layers.0.0.bias f4 [16]
000000 37 47 0b 3e 88 ca 67 bf 93 f8 78 be 0d eb 58 bf
       0.13601385 -0.90543413 -0.24313574 -0.8473366
000010 ea dd 06 bf 98 c5 41 be ae 08 5b bf d3 c7 dc be
       -0.52682364 -0.18923032 -0.8556012 -0.43121204
000020 79 37 a6 3d d5 85 a8 bd db 47 3d 3e 65 45 2b be
       0.08116049 -0.082286514 0.18484442 -0.1672569
000030 b7 30 c3 be da 4a f7 3d cd 9c 80 3d 87 f9 7d be
       -0.38123104 0.12074824 0.062799074 -0.24802218

model.encoder_gnn.lin_skipsum.0.0.weight f4 [16, 16]
000000 d6 c9 2b 3e e8 51 75 3e c4 44 7b 3e 4c de 14 be
       0.16776213 0.23957026 0.24537951 -0.14537925
000010 f9 cb cd 3d 34 be d3 bd 8c 44 99 bd f3 c7 01 3e
       0.1004867 -0.10339013 -0.074837774 0.12673931
000020 af 8f 24 3e b4 1d 33 be 83 b0 2c 3e fd 45 6c 3e
       0.16070436 -0.174918 0.16864209 0.23073573
000030 ef 73 85 3e 94 fd b7 3d d8 c1 c0 bd 83 45 a4 3d
       0.26065013 0.08983913 -0.09411973 0.08021071
000040 03 47 34 be 30 21 80 bd b3 dc 8a 3d 54 42 c1 3d
       -0.17605214 -0.0625633 0.06780376 0.09436479
000050 a2 b6 97 3d e1 a5 97 3e e4 ef f8 bd b1 e3 6b be
       0.07407881 0.29618743 -0.121551305 -0.23036076
000060 11 de 8a be f6 6d 93 3e 05 f9 11 be 76 a9 09 3e
       -0.27122548 0.2879483 -0.1425515 0.1344355
000070 46 a5 02 bd e6 66 09 be 55 ff 1e 3e 61 18 32 be
       -0.0318959 -0.13418159 0.15527089 -0.17392112
000080 21 e7 52 3e e0 89 e2 3c 3a 45 d1 3d fa f0 63 3d
       0.20595981 0.027653635 0.10218282 0.055649735
000090 3c c5 53 3e 94 c3 00 be a4 7a 3f be f3 87 98 3d
       0.20680708 -0.12574607 -0.18699127 0.07447805
0000a0 fb df 16 3e f3 c9 5a be 04 bd 98 3e c8 17 0d 3e
       0.1473388 -0.213661 0.29831707 0.13778603
0000b0 f0 0c 13 be bb a9 ff 3d 61 8f 26 be 51 da 20 3e
       -0.14360404 0.124835454 -0.16265632 0.15708281
0000c0 fb 40 44 3e f6 0f 33 be 4d 33 1a 3e e7 85 16 3f
       0.19165413 -0.17486557 0.15058632 0.5879807
0000d0 13 c8 7e be d2 78 94 be dc b4 04 be 17 c1 15 be
       -0.2488101 -0.2899843 -0.12959617 -0.14624439
0000e0 c9 f0 14 3e 85 76 9e be ed 17 39 3d f3 f5 98 be
       0.14544977 -0.30949798 0.045188833 -0.29875144
0000f0 c7 67 29 be 8e 30 82 3d 51 32 3a be 4a d4 0d 3c
       -0.16543494 0.06356917 -0.18183257 0.008656571
000100 a5 d3 00 be d4 06 fe 3d 3e 01 c0 bd 58 5c 92 3e
       -0.12580736 0.12403646 -0.09375237 0.28586078
000110 91 fb ee bd f2 88 3c 3e 00 b1 27 bd 49 8e 7c 3d
       -0.11669076 0.18411615 -0.040940285 0.06165913
000120 77 1a fa bd c7 cd 22 3e 0b b5 2b be 44 c4 a3 bd
       -0.12212079 0.1589881 -0.16768281 -0.07996419
000130 89 f9 98 be 53 3c 86 bd 36 dc f9 3d d2 ff 26 bd
       -0.2987788 -0.06554475 0.12200205 -0.040771313
000140 fb 22 b4 bd 26 91 1a 3e c1 5d 6e be e3 3a 57 bd
       -0.087957345 0.15094432 -0.23277952 -0.052546393
000150 40 79 02 3d be 7d 85 3e f4 ad 36 be fe cf 39 bd
       0.031853914 0.26072496 -0.17839795 -0.045364372
000160 34 c1 0f be d1 ac 5f 3e bd 3e 8b bd 69 86 2b be
       -0.14038545 0.21843268 -0.06799076 -0.16750492
000170 0c 99 94 be f8 5a d5 bd da 20 8b 3e c4 74 0d be
       -0.29023015 -0.104177415 0.271735 -0.13814074
000180 e1 e9 85 be 40 69 8e bb 9d fb fd bd 7f 19 06 3e
       -0.26154998 -0.004346043 -0.12401507 0.13095663
000190 3f af f1 bd b9 ff 21 3e 80 34 69 3c 6d 9e 08 bd
       -0.11801004 0.15820207 0.014233708 -0.03335421
0001a0 8e 64 62 bd f8 a1 3a 3e 4d 22 59 be d6 a5 58 3e
       -0.055271678 0.18225849 -0.21204491 0.21157011
0001b0 1a 02 3a 3e f1 9e 1c be 03 9c 21 3e 16 31 2e bd
       0.18164864 -0.15295006 0.1578217 -0.04252728
0001c0 f8 4e 30 3e 24 11 4e 3e 54 0b 8f 3e d4 aa e2 3e
       0.17217624 0.20123726 0.2793833 0.44270957
0001d0 3c 9a b8 bd b8 a4 5e be a0 d2 51 3d 20 5b 77 bd
       -0.09013793 -0.21742523 0.05122626 -0.060389638
0001e0 cc ed 62 3d f7 a5 b5 be c4 33 05 3e 71 e5 c0 3d
       0.055402562 -0.35478184 0.13008028 0.094187625
0001f0 e6 a3 d0 bd 27 39 0a 3e a0 79 49 be 80 d7 db 3d
       -0.10187511 0.13498364 -0.19675303 0.10734463
000200 f8 ff 9b 3d b8 cc 3e be bf 44 8c 3e 43 ec 9c 3d
       0.076171815 -0.18632782 0.273962 0.07662251
000210 ee 7b 1c 3e 63 56 5e be 4e 0c 52 be 5a 60 7b bd
       0.1528165 -0.21712641 -0.20512506 -0.061371185
000220 b1 25 46 3e 37 cb a8 be 6f a7 1c 3e c5 d7 18 3e
       0.19350316 -0.3296754 0.15298246 0.1492606
000230 16 c5 23 be f9 57 de 3d af fe 84 be 2d 26 14 3e
       -0.15993151 0.10856623 -0.25975558 0.14467688
000240 ec 18 f8 bd c0 6e 20 be d4 96 9d bc 1d ab 0c be
       -0.121141285 -0.15667248 -0.01923696 -0.1373715
000250 1c d7 0f 3e 4b 58 a9 3e 46 ce 67 3e d2 6b af 3d
       0.14046901 0.33075175 0.22637281 0.08565487
000260 dd ae 1a be 10 77 7f 3e ec af 14 be a4 87 28 be
       -0.15105768 0.24947762 -0.14520234 -0.16457993
000270 77 0f cc 3d eb e6 c9 bd 52 5b 56 3e 85 4e 89 3b
       0.09963887 -0.09858497 0.20933273 0.0041902685
000280 71 60 45 be 14 ee a7 bd 5a 17 c2 bd 36 aa 6a 3e
       -0.1927507 -0.08199707 -0.0947711 0.22916493
000290 b8 df 86 bd 2b 8b 37 3e c0 78 ad 3c 63 69 88 be
       -0.0658564 0.17924182 0.021175742 -0.26642904
0002a0 c8 ba 51 be fe a3 15 3e 0a 51 24 bd 08 b2 0e be
       -0.20481408 0.1461334 -0.040116347 -0.13935101
0002b0 46 21 16 3d 9f 5a fe bd e5 c2 3a 3e 08 10 94 bd
       0.036652826 -0.12419628 0.18238409 -0.0722962
0002c0 ba 82 f4 bd 58 9e 2b bd 0a 59 34 be fa a4 86 3e
       -0.119389966 -0.041899055 -0.1761209 0.26297742
0002d0 e7 05 18 be 80 3e 9c 3d 44 15 ee bd f8 22 87 bd
       -0.14846002 0.076291084 -0.1162515 -0.06598467
0002e0 75 ac 28 be 9c c2 11 3e 7e a5 ff bd 13 bb 88 bd
       -0.16472037 0.14234394 -0.12482737 -0.066763066
0002f0 2e 5b 27 3d 09 0b ca bd 23 37 c8 3d 94 a1 89 bd
       0.04085844 -0.09865386 0.097761415 -0.06720272
000300 ec cb 55 3e a0 26 5e 3d f8 94 d5 3b 4c 59 81 be
       0.20878571 0.054236054 0.0065180026 -0.2526344
000310 03 b6 15 3e 5b 1f 02 be 70 33 08 be 89 4a f0 bc
       0.14620213 -0.12707274 -0.13300872 -0.029332416
000320 b6 9b 19 3e d4 c9 9e bd 02 7d 63 3e e0 a5 ef bd
       0.15000805 -0.077533394 0.22215655 -0.1170156
000330 48 b1 2a bd 83 c6 66 3d b9 60 e9 bd 3d b7 64 3c
       -0.041672975 0.05634166 -0.113954015 0.013959703
000340 b5 5e c3 3d 98 89 2c bd 36 76 19 3e 84 f9 6e be
       0.09539548 -0.042123407 0.149865 -0.2333737
000350 f0 61 1c bd 46 8a 2b be 58 2b 24 3e c9 83 27 3e
       -0.038179338 -0.16751966 0.1603216 0.16358866
000360 9e 5a e3 3d 15 c2 15 be 68 e8 7e 3d 89 ef cf bd
       0.11101268 -0.14624818 0.06223336 -0.101531096
000370 52 da e6 bc d1 b6 b7 3d 2d 57 e7 bd 0c d1 ef 3d
       -0.028180275 0.08970416 -0.11295924 0.117097944
000380 95 fd bd bd c0 91 03 3e 5b dd b7 bc 72 d1 1e bc
       -0.092768826 0.12848568 -0.022444418 -0.00969349
000390 dd 4d b7 bc f9 69 0b 3e 68 9f c0 bd fb 98 29 bb
       -0.022375995 0.13614644 -0.09405404 -0.0025878537
0003a0 b4 1f b6 bc ce 93 97 3d c7 01 47 bd c2 c8 93 be
       -0.022231914 0.074012384 -0.04858568 -0.28864104
0003b0 80 a7 15 3c 5f 11 8b bd 97 38 07 3e 52 05 47 bd
       0.009134173 -0.06790423 0.13205181 -0.04858906
0003c0 6e c1 4e 3e 2e d6 7f 3e 40 07 e3 3d ff ec 17 3d
       0.20190975 0.24984047 0.11085367 0.03709125
0003d0 4d f6 fb bc cc a5 18 be 16 cf 14 3e da 3b 83 3d
       -0.030757094 -0.14906996 0.14532122 0.064079
0003e0 65 a1 c5 3d 0d a9 a9 be 88 9d 27 3e fe 2a 8b bc
       0.09649924 -0.33136788 0.16368687 -0.016988274
0003f0 91 2d c5 3b 14 c8 14 3e c8 8e e3 bd 03 e3 0b 3e
       0.006017395 0.14529449 -0.11111218 0.13660817

model.encoder_gnn.lin_skipsum.0.0.bias f4 [16]
000000 56 69 b7 bd 74 e6 a1 3d 5a b8 f6 bd c2 4b 6c ba
       -0.08955638 0.079052836 -0.12046881 -0.00090139743
000010 38 c3 71 3d 7d 5c 66 3c ce ba b0 3d 3f 20 a6 bc
       0.059024066 0.014060137 0.0862938 -0.020279048
000020 da 2e 82 bc 01 dd 34 3c 87 d4 83 3d b2 5f 95 3d
       -0.015891481 0.01103902 0.06437021 0.07293643
000030 90 25 c2 bd 8b 24 5c bd 8a f9 45 3c 16 b0 aa bd
       -0.09479821 -0.053745788 0.0120834205 -0.08334367

model.encoder_gnn.gnn.0.0.nn.0.weight f4 [16, 16]
000000 c5 4f c3 bc b6 6a 35 be 3a 37 b5 3e 0b 05 61 bf
       -0.023841748 -0.17716488 0.35393697 -0.8789832
000010 6c 8a 43 bf da 24 8f bd f6 23 37 3e ba 56 3b bf
       -0.7638309 -0.06989451 0.17884812 -0.7317921
000020 72 e3 c2 3c 47 b1 71 bf d9 3c 3c be 3e ec 16 3e
       0.023790095 -0.9441113 -0.18382587 0.14738557
000030 20 b9 48 3d 1c 30 ec 3c bc 62 25 3f 65 40 fc 3c
       0.049004674 0.028831534 0.6460378 0.030792424
000040 6d 23 31 3e 9e 70 5e 3e 4e 54 65 c0 c2 e4 51 3f
       0.1729867 0.21722648 -3.5832705 0.8198968
000050 52 c6 1c 3f 2e 7a 1b 3e 36 08 60 be bf c9 85 3e
       0.6124011 0.15183327 -0.21878132 0.26130483
000060 9e dc 24 be 3f db d8 3d 80 b6 22 3f d8 8b 01 3e
       -0.16099784 0.10588693 0.6355972 0.12651002
000070 48 fd b8 bd 45 b8 ac bd ca 93 bb 3d 74 b6 8e bf
       -0.090326846 -0.08433584 0.09159048 -1.114943
000080 4c c2 36 be 80 41 2e be 3d e6 ad be 00 56 d6 3e
       -0.17847556 -0.17017174 -0.3396472 0.41862488
000090 b7 68 5e be b3 e6 da 3e cc 3e 5b 3e f3 90 85 be
       -0.21719633 0.42754135 0.21410674 -0.2608715
0000a0 8c 9b 5f 3c ef e7 4f be a8 10 a0 be ea ca a6 bc
       0.013647925 -0.2030332 -0.31262708 -0.020360429
0000b0 ae 8e ff 3d b6 65 32 bd 71 8f cd 3d d6 80 0c 3f
       0.12478386 -0.04355403 0.10037125 0.5488409
0000c0 b2 ce 0d 3d 48 35 9c 3d 1e ba 23 3e 2b 17 00 be
       0.034620948 0.0762735 0.15988967 -0.12508838
0000d0 0e 57 d1 bd 86 45 a5 3e d4 17 5e be 90 e1 b5 3d
       -0.102216825 0.32279605 -0.21688777 0.08880913
0000e0 7a fb 31 ba f9 05 6e be 24 8a d5 3d d3 e5 4d be
       -0.0006789487 -0.23244466 0.10426739 -0.20107202
0000f0 34 44 8b be 1a 15 c0 3d 2d 5c 42 be bd ea 35 3e
       -0.27200472 0.09379025 -0.18980475 0.17765327
000100 99 8c 11 be 44 f9 ea 3d 71 e5 f3 3e 88 96 16 bd
       -0.1421379 0.11473325 0.47635987 -0.03676465
000110 44 cd 88 be 77 c6 2e 3f e4 7c c6 3d d0 db dc be
       -0.26719105 0.68271583 0.0969179 -0.43136454
000120 4b 0b 10 be f1 be 34 3e 22 ad 1b be 8a 7a 87 bd
       -0.14066808 0.17650963 -0.15202764 -0.06615169
000130 8b c0 22 bb da 49 80 bd d5 42 9b 3d 03 52 17 3d
       -0.0024834003 -0.06264086 0.075811066 0.036943447
000140 e6 f5 54 3e 24 7a 20 3e fd 8e 3a be 80 5c 91 be
       0.20796928 0.15671593 -0.18218608 -0.28390884
000150 a9 eb 30 3f 52 d6 13 be 08 53 7f 3e 08 c2 8e 3f
       0.6910959 -0.14437225 0.24934018 1.1152964
000160 2b e3 0e be 02 be 45 3e f2 2f 20 be a1 66 79 be
       -0.13953845 0.19310763 -0.1564329 -0.24355556
000170 fc b3 82 3d 88 8e a2 bd a1 f0 dc 3e 2b af 61 be
       0.063819855 -0.07937342 0.43152335 -0.22039478
000180 c0 1d 58 bf 0c b0 45 3e 24 e2 34 3e 69 20 32 be
       -0.84420395 0.19305438 0.17664391 -0.17395176
000190 48 e8 9f 3a 30 df 61 3d 0e 7e 38 3e 90 42 90 bd
       0.0012199963 0.05514449 0.18016836 -0.07043946
0001a0 d8 53 68 3d d1 11 f9 3d 32 bf f2 3e 93 ad 54 3e
       0.056720585 0.12161601 0.47411495 0.20769338
0001b0 9d 81 fb bd 95 cf 18 3c 55 af 4b be f7 54 af 3d
       -0.12280581 0.009326835 -0.19891103 0.08561128
0001c0 44 7e 00 be 98 14 2e 3e 42 0b f6 3e 8a fb 17 bf
       -0.12548167 0.17000043 0.48055464 -0.59368193
0001d0 20 78 83 be d5 98 f0 bd 54 13 5d be 2d 74 16 bf
       -0.25677586 -0.117479004 -0.21589404 -0.5877102
0001e0 66 8a 07 be 9c a7 42 3f 81 88 82 bd e0 00 1b 3d
       -0.13236389 0.76037 -0.06373692 0.03784263
0001f0 05 6a 30 be e5 92 32 bd e0 33 35 bf 82 39 0d bc
       -0.17227943 -0.04359712 -0.7078228 -0.008619668
000200 ab 5d 11 be 28 02 70 bd 9c c0 df 3e 34 f1 85 be
       -0.14195888 -0.058595806 0.43701637 -0.26160586
000210 b9 3a 86 be db 87 10 bf ac 88 3e be 91 63 dc be
       -0.26216677 -0.564573 -0.18606824 -0.43044713
000220 80 d0 5b bd c1 de c6 3e 36 fa 64 be 24 b9 46 3e
       -0.053665638 0.38841823 -0.22361073 0.19406563
000230 ba 68 c1 bd 21 dc 05 bc 62 3f b0 3e 4f 5b 46 bd
       -0.09443803 -0.008170159 0.34423357 -0.048426922
000240 42 2a 17 3e 00 1e ce bd 51 35 bb 3a 3e 51 2d be
       0.14762214 -0.10064316 0.0014282857 -0.16925523
000250 17 a9 5a 3d bc df de 3d 6c 1c 44 be 80 4b b0 3d
       0.053383913 0.10882518 -0.19151467 0.086081505
000260 11 05 02 bb 51 8c 72 3f e9 8d 81 3d 00 9f ab 3a
       -0.0019839446 0.94745356 0.06325895 0.001309365
000270 e9 38 df bd 34 d2 61 3d c5 5b 9d 3e cb 49 41 be
       -0.108995266 0.055132106 0.30734077 -0.18875806
000280 48 e2 81 3d 20 aa 28 3c 7a 6b 92 3e bb 07 70 3e
       0.06341988 0.010294467 0.28597623 0.23440449
000290 b6 64 e0 3d 75 37 43 be 68 b1 2d be 3a 37 41 3d
       0.10956709 -0.19064124 -0.16962206 0.04717181
0002a0 b4 b8 9c 3d 11 55 38 3d 63 f3 db 3d c8 eb 58 3e
       0.07652417 0.045003 0.10739782 0.21183693
0002b0 2d 88 35 3c 63 60 5a 3e 03 ea ab 3d 61 d6 86 3e
       0.01107983 0.21325831 0.083942436 0.26335433
0002c0 77 4c 59 be 68 c7 44 be ef ef cd bd 31 e3 04 bb
       -0.21220575 -0.19216692 -0.10055529 -0.0020277018
0002d0 30 25 27 3c 6a 5e 2c bc 2c 7a 19 be 0e 56 ce 3c
       0.010201737 -0.010520557 -0.14988011 0.025187518
0002e0 e8 51 62 be 26 c6 88 bc 9b 7f a6 be 1b d7 40 3e
       -0.22101557 -0.016696047 -0.3251923 0.18832056
0002f0 a2 76 48 be 8b 30 0a 3f 3d 0a 4e bb ab 77 31 be
       -0.19576505 0.5398032 -0.0031439208 -0.17330806
000300 d5 c6 a6 bd 80 01 a4 bb 98 ae ff bd ea 5f 5b 3d
       -0.08143393 -0.0050050616 -0.12484473 0.053558268
000310 1f 7a 6d bd 37 4a ed 3c e0 89 20 3d a8 ac d7 bc
       -0.057977792 0.028966052 0.039193988 -0.026327446
000320 d7 4f 61 3f d8 7f 83 bb eb 9c 59 be 8c 39 e9 3d
       0.8801245 -0.004013043 -0.21251266 0.11387929
000330 92 23 ca bd da 22 bd be ab 40 91 bc 88 e6 cd bd
       -0.09870066 -0.36940652 -0.017731031 -0.10053736
000340 01 02 87 3e f0 7c fb 3c e3 f0 be 3e 6d b2 97 be
       0.26368716 0.030699223 0.37293157 -0.29628316
000350 4d d1 c9 bd cd 1a f6 3d e0 d2 52 3d 71 e9 07 be
       -0.09854374 0.120168306 0.051470637 -0.13272645
000360 11 d6 2f bf ec ab d1 bc c5 8f 46 3e 31 70 19 be
       -0.68686014 -0.025594674 0.19390781 -0.14984204
000370 24 62 99 3e 8c fd 95 be cc f9 8a be 7e db ba 3e
       0.29957688 -0.29295003 -0.27143705 0.36495584
000380 d0 f7 1b be 32 9c 70 3e 1d 2a a1 3e 0b e0 65 be
       -0.15231252 0.23497084 0.31477442 -0.22448747
000390 5d 3c 87 3e 09 e3 56 bf 8c 51 bc 3d a8 31 7f 3e
       0.2641324 -0.8394018 0.09195241 0.24921286
0003a0 d8 d6 d8 ba 60 c5 bc 3e 01 a7 a9 3d 97 83 82 be
       -0.0016543521 0.36869335 0.082838066 -0.2549102
0003b0 fd e4 1d be e1 a6 54 3c e0 a0 fb 3d e4 c6 02 bd
       -0.15419383 0.01297924 0.12286544 -0.031927958
0003c0 a7 eb 88 3e ce c9 2e be 16 68 01 be 30 b3 a7 be
       0.26742288 -0.1706917 -0.12637362 -0.32753897
0003d0 f7 95 f9 be 66 fa ab bd 00 ae 39 3c 2e 25 aa be
       -0.48747227 -0.08397369 0.011332989 -0.3323149
0003e0 fc dd 02 3f 3a c6 b7 be 16 ee 15 3e 30 a5 68 be
       0.5111997 -0.35893422 0.14641604 -0.22719264
0003f0 74 dc 1e 3d 0b c5 fc 3d 94 15 d3 3e ef 26 ef 3d
       0.03878446 0.123422705 0.412274 0.11677348

model.encoder_gnn.gnn.0.0.nn.0.bias f4 [16]
000000 24 e5 f1 be 30 1f 19 3e 86 75 99 3e 1c 95 de 3e
       -0.47245133 0.14953303 0.29972476 0.43473136
000010 8e 2b 64 be 1b 24 53 3e f5 44 b6 3b 89 02 c3 bd
       -0.2228224 0.20619242 0.0055624195 -0.09521968
000020 ef 6f b6 be bc 02 77 bd 90 22 65 3e 43 e2 0a bd
       -0.35632274 -0.060305342 0.22376466 -0.033907186
000030 c3 df 8e be 8b 79 10 bc ff 26 d7 3e 14 ab b4 be
       -0.27905092 -0.008818041 0.4202194 -0.35286772

model.encoder_gnn.gnn.0.0.nn.2.weight f4 [16, 16]
000000 f0 a7 67 bf ee 6e b3 3e 43 2f 0d be cf 7d 40 bf
       -0.9049063 0.3504557 -0.1378756 -0.7519197
000010 e0 bd 00 3e e8 1b 5c 3e 0c 5c 90 3f 2e be 38 bf
       0.12572432 0.2149502 1.127809 -0.7216519
000020 a2 16 b8 be ab 1e 00 bd 06 fe 94 be 37 a4 65 bf
       -0.35954767 -0.031279247 -0.29100055 -0.89703697
000030 de 8d 3b bf de 07 b4 3f 53 33 ba bb 43 fd b6 3e
       -0.7326335 1.4064901 -0.005682388 0.35740098
000040 09 27 04 3f 3e ce 80 be 10 c6 17 be fb ad 93 3e
       0.5162206 -0.2515735 -0.14821649 0.28843674
000050 ad 79 d0 3e 16 1b 20 be 1f 96 b8 be f0 eb ef 3e
       0.4071783 -0.15635332 -0.36052033 0.46859694
000060 26 1d 0f 3f 5f 39 37 be 80 90 f2 3c 54 c7 41 bf
       0.5590385 -0.17892979 0.029609919 -0.75694776
000070 66 d3 78 bf 00 51 33 bf d8 18 87 3e d6 be 28 bd
       -0.9719757 -0.7004547 0.26386142 -0.04119762
000080 cb b3 0a bf ba 7b d3 3d 9f a1 94 3d c4 49 2b be
       -0.5418059 0.10326333 0.07257389 -0.16727358
000090 47 e6 b5 bd b3 c9 16 3e da 94 cf 3e ed 72 65 bf
       -0.088818125 0.1472538 0.40543252 -0.8962849
0000a0 a1 6d c4 bd cd 8d 33 3e 96 36 a2 3d b3 2e 7e 3f
       -0.095912226 0.17534561 0.07920568 0.9929001
0000b0 92 c9 62 3f eb f5 aa 3e bb f7 0b be db 35 ce bd
       0.8858882 0.33390746 -0.1366872 -0.10068866
0000c0 5e 50 16 bf 2e eb cd 3e 96 4e 25 3e 8a 83 c4 be
       -0.5871638 0.4021849 0.1614326 -0.38381606
0000d0 de e7 44 be 2a 81 dc 3e 7f 0e 29 3f 53 7e fa be
       -0.19229075 0.43067294 0.66037744 -0.48924503
0000e0 17 d1 af be 6e 6f 0c be a4 9a cf bd 8b 98 48 3f
       -0.3433921 -0.13714382 -0.10136917 0.7835776
0000f0 1c 64 30 3f 9d 8d 23 3f 8e 5f b4 bd 5b 42 fd be
       0.68902755 0.6388796 -0.08807288 -0.49464688
000100 51 88 2e 3f c0 ff 64 bf f3 4f c4 3e 28 02 2d be
       0.6817675 -0.89452744 0.38342246 -0.16895354
000110 09 c6 0c bf 38 c9 83 3d a3 ef 7c bd 7b 93 58 3f
       -0.5498968 0.06434864 -0.061751973 0.8460004
000120 15 ee 3d 3d b2 5e f1 3d 1b 3b 92 3b 91 85 5f bf
       0.04636963 0.1178564 0.0044626123 -0.8731318
000130 0f ae 43 bf b1 aa 8c be 4f d0 03 3d da f3 5e be
       -0.7643747 -0.27473977 0.03218108 -0.2177271
000140 25 51 cd bf df 08 1f 3f 6a 72 37 bf 53 50 4a 3e
       -1.6040388 0.6212291 -0.71658957 0.19757204
000150 fb 70 ea 3d 55 6a a6 be f5 5d 4e be 6b a1 9d 3d
       0.114473306 -0.32503 -0.2015303 0.07696804
000160 07 d3 55 bd 06 3d e9 be e5 fa 6f 3e 9f c4 16 3e
       -0.052203204 -0.4555437 0.23435552 0.14723442
000170 21 79 af 3e fa af 71 3d dd ba 05 be ee 60 f0 3d
       0.34272102 0.059005715 -0.13059564 0.11737238
000180 23 50 e5 3e 3f 45 2f be 74 f0 a4 be 7a 05 b7 bd
       0.44787702 -0.17116259 -0.322147 -0.089365914
000190 74 d1 e0 3d 9f 64 89 3c 9e eb 5b bf e2 2e 37 3f
       0.1097745 0.016771613 -0.859064 0.7155591
0001a0 ae 89 72 3f 50 4c 5f be 09 a2 33 3e 42 ba b1 be
       0.9474133 -0.21806455 0.1754228 -0.34712416
0001b0 1f ac 6c bf b6 f7 02 bf 3a 86 eb 3c 18 43 2b 3e
       -0.92450136 -0.51159227 0.028750528 0.16724813
0001c0 62 f7 dc bc 25 88 9a bd ed af b4 bd bc 59 4e be
       -0.02697343 -0.07545499 -0.08822618 -0.20151418
0001d0 59 0d 0b be 4a 59 79 be 99 37 ca bd ea a3 c1 be
       -0.1357931 -0.24350467 -0.09873886 -0.3782037
0001e0 d3 5c b2 3d 97 52 12 3e 31 39 ff bd db b0 28 be
       0.08709111 0.14289318 -0.1246208 -0.16473715
0001f0 1b 40 32 3e 35 c3 00 bd 0e a4 62 bd c7 b7 b1 3d
       0.17407267 -0.031436164 -0.055332236 0.08677631
000200 59 44 9e be 4e 1d 84 be 76 98 95 3d 43 8e 10 be
       -0.3091152 -0.25803608 0.0730447 -0.14116769
000210 91 fe ba bc 47 9d 80 3d 12 03 8e ba 09 74 02 3e
       -0.022826465 0.06279998 -0.0010834655 0.12739576
000220 d8 35 f1 bd 67 c2 0b be fb 07 48 be ba 38 65 be
       -0.11777848 -0.13648377 -0.19534294 -0.2238492
000230 b1 7f 82 be c5 56 2d be 3c 0a 3e be a4 f1 17 be
       -0.25488046 -0.16927631 -0.18558592 -0.14838272
000240 ed ff 5c 3f 71 07 fc bd 8d 82 19 bd 99 97 4c 3e
       0.8632801 -0.12306107 -0.03747802 0.19979705
000250 f4 cd ba bd 73 3d de bd f2 4b 90 be 3a 83 59 3f
       -0.09121314 -0.10851564 -0.28182942 0.8496586
000260 44 8c f2 3e de 9d 12 3e f7 fe ad 3c 0b d0 32 be
       0.4737264 0.14318034 0.02123974 -0.17462175
000270 97 66 ff be 93 b6 cb bd 1e a4 49 3e e1 ba 6b 3e
       -0.49882957 -0.09946933 0.19691512 0.23020507
000280 8a 84 3a 3f a7 ed 89 bf 6a 61 9f be e5 5a 57 bd
       0.7285849 -1.0775651 -0.3112901 -0.05257692
000290 63 82 27 3e 1f 0f 33 3e eb a9 ea be 89 c4 68 3f
       0.16358332 0.17486237 -0.45832762 0.9092489
0002a0 23 e5 0f 3f cb 46 ba be 20 32 f6 3d 38 cf f3 be
       0.5620901 -0.36382136 0.12021279 -0.47619033
0002b0 34 d7 57 bf bc c3 ab be 46 13 00 3e 39 a3 d2 3b
       -0.8431275 -0.3354777 0.12507352 0.006428149
0002c0 c3 2f 99 bc 99 bf 33 bf 68 cb ad 3e 01 1f 67 3e
       -0.018699532 -0.7021423 0.3394425 0.22570421
0002d0 8c c2 ce 3e 1d b6 89 be 56 a3 01 bf b4 d5 9a 3d
       0.40382802 -0.26896754 -0.50639856 0.07560292
0002e0 6e e4 ca 3e bf e6 b6 be 95 f9 18 be ae 16 99 bf
       0.39627403 -0.3572292 -0.14938958 -1.1960046
0002f0 99 2f 8e bf 51 14 cf be 0d 49 f8 3e e8 1e bb be
       -1.1108276 -0.40445188 0.48493233 -0.36547017
000300 b9 73 aa be ef 29 0a 3d 32 f2 2e 3f 4b fe 32 3e
       -0.33291414 0.033731397 0.6833831 0.17479818
000310 8b 37 c3 bf 2b 92 87 be 1d c6 23 3f cd b6 83 bf
       -1.5251325 -0.26478705 0.6397417 -1.0290161
000320 6f 84 88 3e f3 3d 23 3f 06 ff 16 be 25 7c 4f 3f
       0.2666354 0.637664 -0.14745721 0.81048805
000330 ef 2c 66 3f e2 27 1d 3f 1a a9 66 bf 92 a9 87 be
       0.89912313 0.6138898 -0.9010178 -0.2649656
000340 70 f8 16 3e 10 e8 a5 3d b2 39 25 3e f1 c9 a7 be
       0.14743209 0.08100903 0.1613529 -0.32771257
000350 e9 1b 25 bf 79 7e ef be ba d4 59 3d 2d 92 39 bf
       -0.6449571 -0.46776178 0.053181387 -0.7248867
000360 20 61 c9 bf cf 49 0c 3f a4 65 c0 bd 35 59 8e 3f
       -1.5732765 0.5480012 -0.093943864 1.1120974
000370 9b 3a 97 3f ac 52 63 bf 5a fa e0 3e a6 fd 2e 3d
       1.181476 -0.8879802 0.43941003 0.042722367
000380 f1 4d c7 be c2 01 22 bf 5f 13 0a 3f 72 d4 1e 3f
       -0.38926652 -0.6328393 0.5393581 0.62042916
000390 d6 91 10 3f d8 ea 73 bf 17 bc fa bd 14 1a 7c bf
       0.5647253 -0.9528022 -0.122429065 -0.9847729
0003a0 9b f9 5a bc 2f eb b8 be ef 25 fb be 7f 8b 4b bf
       -0.013365175 -0.3611693 -0.4905238 -0.7950973
0003b0 0b f7 87 bf 6e 82 a7 bf 65 7d c6 3e 60 17 62 bf
       -1.0622267 -1.3086679 0.38767543 -0.8831692
0003c0 4b c9 42 bf 16 49 82 3e 10 23 19 3e 56 6f a9 3d
       -0.760884 0.25446385 0.14954782 0.08273189
0003d0 e8 48 14 bf 9f f1 a8 3d 31 28 35 3f 8a 9a 5f bf
       -0.57923746 0.082492106 0.7076445 -0.8734518
0003e0 d0 a7 5c 3f 3e d4 32 3e 0b 19 c0 be 66 54 72 3f
       0.8619356 0.17463776 -0.37519106 0.9466003
0003f0 93 e6 67 3f 26 ab 08 bf 38 8f 98 bf fb 78 af bc
       0.90586203 -0.5338615 -1.1918707 -0.021419993

model.encoder_gnn.gnn.0.0.nn.2.bias f4 [16]
000000 5d e9 8c 3c 1c 18 8e 3d 01 6e 06 be 79 33 0c 3e
       0.01720112 0.06938192 -0.131279 0.1369151
000010 c0 5f 07 3e 1d 8c 98 be 95 42 3b bd c9 cd 8d be
       0.1322012 -0.29794398 -0.045717794 -0.27696064
000020 df e3 b0 bd b0 c0 e7 be 26 c1 93 3e 6e f0 c9 3e
       -0.08637213 -0.45264196 0.28858298 0.39441246
000030 8b d2 4c be ca e3 8f be 40 93 a1 3e 07 2e 9d 3e
       -0.20002191 -0.28103477 0.31557655 0.3069918

model.encoder_gnn.post_nn.fc_layers.0.0.weight f4 [8, 16]
000000 11 4e 86 3b c1 06 a1 3a c2 08 5e 3a 7e 8c bf 3b
       0.0040986617 0.0012285338 0.0008469933 0.0058456054
000010 6d fa 8c ba f0 2c 75 39 38 64 fb 39 6c 6c 5e 3a
       -0.0010755785 0.00023381761 0.0004794912 0.0008484784
000020 a8 67 9f ba c1 7c 4e bb 53 77 92 3b b6 cc cc 3a
       -0.0012161629 -0.0031507465 0.004469791 0.0015624973
000030 71 5c a7 3a 6c 3c 67 39 80 b2 16 b9 da 4a 44 3a
       0.0012768639 0.00022052386 -0.00014371611 0.00074879604
000040 93 24 21 bb 34 10 c2 3a 00 ca de 36 28 f0 92 3b
       -0.002458845 0.0014805854 6.6396315e-06 0.0044841953
000050 16 d9 3a bb e4 22 3e 3a 08 c7 24 3b 8a 2c 83 3a
       -0.002851074 0.0007253124 0.0025143046 0.001000778
000060 6a b5 02 3a c1 27 c5 ba 52 67 d5 3a 88 95 62 3b
       0.0004986139 -0.0015041755 0.0016281402 0.003457399
000070 50 e6 08 ba 90 e2 41 b9 3a d9 f2 3a 88 1c 07 bb
       -0.00052223075 -0.00018490315 0.0018527873 -0.0020616371
000080 ab bd 5c be 6a a4 08 3e 11 b9 24 be f9 ef 48 be
       -0.21556728 0.13343969 -0.16086222 -0.19622792
000090 f4 d8 72 3e 29 34 2f 3e 13 58 2b 3e 01 c3 1b be
       0.23715574 0.17109741 0.16732816 -0.15211107
0000a0 3e 99 17 be 1e f1 2a 3e 26 8f 4c 3e b5 4b 64 3e
       -0.14804551 0.16693541 0.19976482 0.22294505
0000b0 86 bd 82 be 14 89 7b be bd ff ab 3e 6c 49 3d be
       -0.2553522 -0.2456401 0.3359355 -0.1848504
0000c0 61 9e 4c 3e 36 0e 1c be 40 f9 1f 3e c6 ea 45 3e
       0.19982292 -0.15239796 0.15622425 0.1932784
0000d0 6d e6 7d be 32 cb 37 be 40 b9 34 be 98 2a 23 3e
       -0.24794932 -0.17948607 -0.17648792 0.15934217
0000e0 a3 22 11 3e 1e c8 2b be c8 35 4a be 56 96 6b be
       0.14173369 -0.16775557 -0.19747078 -0.23006567
0000f0 97 ab 7e 3e d8 92 68 3e 4c 5a ab be dc 7c 38 3e
       0.24870144 0.22712266 -0.3346733 0.1801638
000100 44 dd a5 b9 1d 16 61 3b 06 ff fb 3a 0c 8b a5 3a
       -0.00031636108 0.0034345456 0.0019225783 0.001262994
000110 55 5d 53 bb 66 ea a8 3a ae ef 59 ba 27 85 cf 3a
       -0.0032251675 0.0012887239 -0.0008313608 0.0015832529
000120 55 16 55 3a c0 52 9d b9 35 8b eb 39 92 ae 13 ba
       0.0008128633 -0.00030007027 0.0004492641 -0.0005633618
000130 a3 d4 97 3a 26 34 b9 b9 65 82 b5 3a 7e c7 ee 3a
       0.0011583756 -0.00035324803 0.0013848065 0.0018217412
000140 c3 33 66 ba 72 10 15 bb d4 a8 4c 3b 90 6d c4 38
       -0.0008781517 -0.0022745398 0.003122856 9.366416e-05
000150 1c 64 8d 39 61 ba c2 3a 5c 75 74 3b f6 48 51 3b
       0.00026968203 0.0014856571 0.0037301397 0.0031934357
000160 d7 d1 d0 3a 36 8d ec 39 cd 91 7f 3a e5 5d 2e bb
       0.0015931678 0.00045118638 0.0009749204 -0.0026606258
000170 b7 3b ed 3a ae 49 aa 3a 76 c9 04 bb 1e 6d 3e 3b
       0.0018099461 0.0012991929 -0.0020261682 0.0029056738
000180 ac ef 03 3e e7 21 9c 3c 14 39 dd 3d da f2 07 be
       0.12884396 0.019059135 0.108019024 -0.13276234
000190 48 f3 83 3d 3e 13 c4 3c d6 f5 ae bc 78 60 fd 3b
       0.064428866 0.023934957 -0.021357458 0.0077324472
0001a0 44 00 44 bc 10 bc 36 3e 91 61 9b bd c8 9d 00 be
       -0.011962954 0.17845178 -0.07586969 -0.12560189
0001b0 09 a7 35 3d 8e f3 38 3d 8b b9 ec 3d d4 1c 87 bc
       0.04434875 0.045154147 0.11558827 -0.016493239
0001c0 57 21 ca 3d 05 bc b8 bb e1 58 b6 3d 94 d4 2f be
       0.0986964 -0.005637648 0.08903671 -0.17170936
0001d0 fd 96 56 3d ea ac 47 3c 7d 5a 0f bd bc 49 35 bc
       0.052390087 0.012187222 -0.034998406 -0.011064943
0001e0 be 3b a9 bc 1b 73 29 3e ca e4 4f bd 87 05 ec bd
       -0.02065837 0.16547816 -0.0507553 -0.11524492
0001f0 bf 85 00 3d ff ba 81 3d f7 e9 b7 3d b0 88 96 3a
       0.03137755 0.06334495 0.08980172 0.0011484828

model.encoder_gnn.post_nn.fc_layers.0.0.bias f4 [8]
000000 43 57 18 3b 48 eb f6 ba dc 06 23 bd 56 7c 21 3d
       0.0023245371 -0.001883843 -0.039801463 0.039425217
000010 48 b2 25 ba 52 cc f7 ba 52 05 9f bf bc f1 9e bf
       -0.00063208165 -0.0018905497 -1.2423499 -1.2417521

model.decoder_gnn.pre_nn.fc_layers.0.0.weight f4 [16, 4]
000000 10 7c 5b ba bd 4f 00 bc f0 69 ac be bd 6c b0 3e
       -0.0008372674 -0.007831511 -0.33674574 0.3445796
000010 dd 7b 5a 3b bd f7 9a 3b a1 f7 58 3e c4 38 71 be
       0.0033337988 0.0047292397 0.21188213 -0.2355681
000020 b4 71 d1 3b 2a 64 7f bb 84 4d 31 3e 90 5b 27 be
       0.0063917283 -0.0038969615 0.17314726 -0.16343522
000030 14 b4 74 3c 3f 19 da 3c cb f0 06 3f 3c 51 da 3e
       0.014935512 0.026623366 0.5271117 0.42640102
000040 f5 d0 43 bb 68 00 22 bb 30 f7 d3 be 48 cc cf 3e
       -0.0029879187 -0.002471948 -0.41399527 0.40585542
000050 ff 5f 7d 3c af 57 be 3b dd e4 92 3e 76 19 8b be
       0.015464782 0.0058087925 0.28690234 -0.27167863
000060 d3 4e b2 bb b8 86 06 bc 3a de cc 3d fb e5 d3 bd
       -0.0054415255 -0.00821083 0.10003324 -0.103466
000070 b0 f0 13 3b 99 75 1e bc d6 b3 1c 3e 9d 0d 23 be
       0.002257388 -0.009671592 0.15302977 -0.15923162
000080 7a cb f8 bb 26 b2 c0 3b 5f 9e 00 3e 63 6b 1c be
       -0.0075926157 0.005880612 0.12560414 -0.1527534
000090 f4 cb d6 3b eb a2 af 3c bb 71 80 3e ef 81 81 be
       0.006555075 0.02143999 0.2508677 -0.25294444
0000a0 d0 69 0d 3c b2 a3 4d bc ff 1e ce be 35 94 c6 3e
       0.008631185 -0.012551235 -0.40258023 0.38784948
0000b0 52 0e 55 3b 7c d6 aa 3a ed 55 92 3e 39 4d 8c be
       0.0032509756 0.0013033892 0.2858118 -0.27402666
0000c0 e0 94 ae 3c 90 e7 b5 bc f6 96 be 3e 3a 5b b8 be
       0.021311224 -0.022205144 0.3722455 -0.360071
0000d0 e9 a5 aa bc e6 b7 3b bd e1 10 b4 3e 6a af 72 3c
       -0.020831065 -0.045829676 0.35169128 0.01481233
0000e0 cc 66 77 3b 60 cf 9f bb 51 74 e1 3e da e9 dc be
       0.003775048 -0.004877016 0.44034055 -0.43147165
0000f0 d9 4c 72 bb 27 f5 b7 3c 09 67 a0 be f0 80 d2 be
       -0.0036972074 0.022455765 -0.3132861 -0.41113997

model.decoder_gnn.pre_nn.fc_layers.0.0.bias f4 [16]
000000 34 11 98 3e b5 3a 33 be 64 4d 37 3e 82 3a 06 bf
       0.29700625 -0.17502864 0.17900616 -0.52433026
000010 e1 6a d8 3e 17 3e cf be 57 c2 4c 3e b2 bd b1 3e
       0.42269042 -0.40477058 0.1999601 0.3471504
000020 12 0d 23 3e 92 89 1c bf 3e ba c0 3d 9b 5b b8 3e
       0.15922955 -0.61147416 0.09410523 0.3600739
000030 e3 8a 97 be d0 6e 3f bf ef b6 97 3e 7b 71 d1 be
       -0.2959815 -0.7477846 0.29631755 -0.4090689

model.decoder_gnn.lin_skipsum.0.0.weight f4 [16, 16]
000000 67 12 a7 3c 61 8e 54 be d6 22 f6 3c 55 62 78 3c
       0.020394517 -0.20757438 0.030045908 0.015160163
000010 a4 ef 38 3e 1a bc 13 be 8c 22 92 be 92 35 a3 3d
       0.18060166 -0.14427224 -0.28541982 0.07969202
000020 9b d8 d6 3b fb d3 c4 3d 14 1c 1a 3e 6f 93 bd bd
       0.006556583 0.096107446 0.15049773 -0.09256636
000030 11 fc a0 bc 93 93 77 3d 28 19 de bd 79 52 c9 bd
       -0.019651445 0.060443472 -0.10844642 -0.098301835
000040 3e f5 68 3e b0 45 69 be ba b4 d6 bd 49 07 71 bd
       0.22749802 -0.2278049 -0.104836896 -0.05884484
000050 95 28 00 3e d0 c1 0d 3e 44 14 a5 bd cd db ce bd
       0.12515481 0.13843465 -0.08060506 -0.101005174
000060 38 ef 79 bd 5f d8 57 3d 16 df 21 3d a5 81 d6 bd
       -0.061019152 0.052696582 0.039519392 -0.104739465
000070 4a 86 4a be e2 6f 23 3e d1 44 ab bd 7e cb 79 bd
       -0.1977779 0.15960649 -0.08362735 -0.06098508
000080 00 7f c3 3d ae 48 09 be 1f 01 86 bd ae 10 fe bd
       0.09545708 -0.13406631 -0.065431826 -0.12405525
000090 49 15 1c 3e 8e 71 3c be 6b e5 c2 bd 3f 55 36 be
       0.15242495 -0.18402693 -0.09516414 -0.17805956
0000a0 7b cc 10 be 68 a4 47 3d 34 60 e7 3d 6b fb 89 bd
       -0.14140503 0.048740774 0.11297646 -0.06737407
0000b0 b8 6f 42 bc 0b 49 7b 3e 3a 6c aa bd 31 d2 0a bd
       -0.011867456 0.24539582 -0.08321424 -0.03389186
0000c0 b9 32 f2 3d 78 17 02 be d3 5a 5c bd e6 76 c8 3c
       0.11826081 -0.12704265 -0.053797554 0.024470758
0000d0 45 72 37 3e 67 fd 03 be af d7 c8 bc ae ec cc 39
       0.17914684 -0.12889634 -0.024516908 0.00039086252
0000e0 fc 92 4c be 40 ad dc 3d 07 47 07 3e 9f a1 35 bd
       -0.19977945 0.10775232 0.13210689 -0.044343587
0000f0 fc 0e c9 bd 61 fe 69 bc 3f a7 fd bd b5 f0 55 bd
       -0.09817311 -0.01428184 -0.12385415 -0.05223151
000100 44 07 11 be 52 c2 12 bc f3 c0 f5 3d 4d 12 c1 bb
       -0.14162928 -0.008957462 0.11999693 -0.005892074
000110 d7 7b 02 be ac 38 e3 3d 81 a9 07 3e bc b2 90 3d
       -0.12742554 0.11094794 0.13248254 0.07065341
000120 87 45 ff 3d 9a 1f 05 be 5d 14 ab bd b9 af b1 3d
       0.12464433 -0.13000336 -0.08353493 0.086760946
000130 92 3c ef 3d 08 28 8c 3d a4 c8 42 3d 5a ff ae bc
       0.11681475 0.06843573 0.047554627 -0.021361995
000140 b2 52 99 3d ae 9b 80 be 56 34 2a be da 27 29 bc
       0.07486476 -0.25118774 -0.16621527 -0.010324443
000150 94 d5 27 3e e4 c6 ed bd 1d 04 df 3c d2 99 a1 3d
       0.16390067 -0.11610201 0.027223641 0.07890667
000160 5f 2c 64 be 0d cc 47 3d 45 73 84 3e c1 a7 78 bc
       -0.22282551 0.048778582 0.25869194 -0.015176714
000170 6d a2 41 be aa d6 2f 3e 60 e6 e6 bc 43 98 6c 3c
       -0.18909617 0.17171732 -0.028186023 0.014440599
000180 ab a0 0a 3e 91 4c 51 bc b8 c3 0e be 06 3d ee bd
       0.13537852 -0.0127746025 -0.13941848 -0.11632733
000190 50 bf 5e 3e d6 38 45 3d 5f 4c 71 bd 35 43 45 bd
       0.21752667 0.048149906 -0.058910724 -0.048159797
0001a0 2f b1 c6 3d 1c f7 c8 bc 31 f9 04 3e 27 95 d1 bd
       0.09701764 -0.024531893 0.12985684 -0.10233527
0001b0 2f 26 7f be 37 23 71 3e 81 15 40 be a5 89 a8 bd
       -0.2491691 0.2354859 -0.18758203 -0.082293786
0001c0 43 bb 2a be fe 59 fd 3d a3 5f 91 3d 16 fb c0 3d
       -0.16672997 0.1237068 0.070983194 0.09422891
0001d0 0e fc 8b bd de bc b2 3d 18 ff e7 3d 1a a9 24 3e
       -0.06835185 0.0872743 0.11327952 0.16080132
0001e0 60 c0 f8 3d 4b 4e fd bd b0 10 f1 bd 81 c8 bd 3d
       0.121460676 -0.12368449 -0.11770761 0.09266759
0001f0 b1 b8 ab 3d 85 7b 11 be 8e 11 15 3d 27 e3 fe 3d
       0.083848365 -0.14207275 0.036393695 0.124456696
000200 19 d3 88 3d 42 03 d6 bd 75 f6 a6 bd 18 0e a0 bd
       0.06680889 -0.1044984 -0.08152477 -0.07815188
000210 65 9d 45 3e 74 7c 12 be 63 ca d4 bd a2 3a 25 be
       0.19298322 -0.14305288 -0.10390165 -0.16135648
000220 b3 b3 73 bd 70 bc 8b 3d 4c 9f d8 3d 15 a3 4c ba
       -0.059497546 0.06823051 0.105772585 -0.00078062835
000230 ca 59 f5 ba 38 27 3e 3e 90 79 38 be 6c 94 b9 3c
       -0.0018718776 0.18569648 -0.18015122 0.02265378
000240 49 8c 05 3e 5b 06 80 bd 8d c3 80 3d 37 37 82 3d
       0.13041796 -0.06251212 0.06287298 0.06358188
000250 e4 1f 36 3e 77 5f 91 bd db 59 3b 3c d8 be 61 be
       0.17785603 -0.070982866 0.011434997 -0.22045457
000260 b5 bf 23 be 6d fe 41 3d 62 ee 3a 3d 52 de 42 be
       -0.15991099 0.04736178 0.045637496 -0.19030121
000270 bc 35 cf bd da 9c 1f be 4e 97 85 bd 6e 4e 16 bd
       -0.10117671 -0.15587178 -0.06523 -0.03669589
000280 0a 84 17 3e 23 d4 63 3d 4e fb cd bd 63 17 be bd
       0.14796463 0.05562223 -0.10057698 -0.092818044
000290 ee 9c 16 3e c7 35 42 be 87 85 70 bd fb fb 00 bd
       0.14708301 -0.18965827 -0.05872109 -0.031490307
0002a0 c3 c4 a8 bd 03 9f 8c 3d 8a 67 e1 3d f6 ea a2 3b
       -0.08240654 0.068662666 0.11006077 0.004971857
0002b0 d6 75 33 be 5d 11 21 3e 05 35 0b be 2c ee 1a be
       -0.1752542 0.1572928 -0.13594444 -0.15129918
0002c0 69 c0 bd bd d3 2f 76 3e 7b a1 8f bd 19 b4 b1 3d
       -0.09265215 0.24041681 -0.07013222 0.08676929
0002d0 81 27 eb bd 70 1e d2 bc a8 a3 c2 3c ea cf 00 3e
       -0.11482144 -0.02564928 0.023759678 0.12579313
0002e0 4c 51 00 3e 08 a8 3a bd 20 b4 32 be 3d 5b 5b 3d
       0.12531012 -0.045570403 -0.17451525 0.05355381
0002f0 59 4b ed 3d 24 05 fe 3d 9d 88 95 3d 3c 22 6b ba
       0.11586637 0.12403324 0.073014475 -0.000896964
000300 d3 d7 18 be 31 94 f9 3d 4a 79 77 bc 24 a3 60 3c
       -0.1492608 0.121864684 -0.015104601 0.013710771
000310 a3 28 09 be 20 09 76 3d ef b8 6a 3d 27 c9 03 3e
       -0.13394408 0.060067296 0.057305273 0.12869702
000320 4d ca 45 bd d1 e3 1a 3d 63 15 3f bd 94 e0 81 bc
       -0.048288632 0.03781492 -0.046651255 -0.015854158
000330 54 25 60 3d 1d 94 8c bd d7 8a 09 3e b1 93 b1 3d
       0.0547231 -0.06864188 0.1343187 0.08670748
000340 c6 d0 80 3d d2 76 58 be b3 19 26 be a5 7f 22 bd
       0.062898204 -0.21139076 -0.16220741 -0.039672513
000350 c9 4e c8 3d 37 84 1c be ae 01 3c 3d c4 cf 62 bd
       0.09780652 -0.15284811 0.04590004 -0.055373922
000360 62 a4 92 3b d8 09 0a 3e 83 69 80 3e d6 77 18 be
       0.0044751624 0.13480318 0.250805 -0.14889464
000370 e7 bd c1 bc c6 16 d0 3c 0c b4 c2 bd a2 33 2c bd
       -0.023650123 0.025401484 -0.095069975 -0.04204143
000380 81 3f e6 3d d8 59 84 bd ac 9b c2 bd 99 0b 31 bd
       0.11242581 -0.06462449 -0.09502348 -0.04322395
000390 32 82 12 3d 15 9c 82 3d 05 a7 65 be d0 0a 0f bd
       0.035768695 0.063774265 -0.22426994 -0.03492242
0003a0 e8 6f 0d be 9c e9 08 3d c8 07 38 3e 64 fe ed bd
       -0.1381222 0.033425912 0.17971718 -0.11620787
0003b0 7e a3 b1 bd 1d c1 8a 3e 0d d3 c7 bd ed 20 f8 bd
       -0.08673762 0.2710046 -0.097570516 -0.12115655
0003c0 8b 2c 4d 3e 88 4f bc 3b 04 da 1e be e0 01 96 bc
       0.20036523 0.0057467856 -0.15512854 -0.018311441
0003d0 67 5f 8d 3d 57 67 68 3d d6 e5 d4 bd 0e eb 3c be
       0.06902962 0.056739178 -0.103954 -0.18449041
0003e0 93 2f d0 3c 17 ba 89 3c 66 3d a2 3d 19 08 2e be
       0.02541331 0.016812367 0.07921867 -0.16995277
0003f0 75 6b 36 be fb 26 88 bd 27 80 65 bd 7f e3 40 be
       -0.17814429 -0.0664806 -0.05603042 -0.18836783

model.decoder_gnn.lin_skipsum.0.0.bias f4 [16]
000000 3c fc a1 bc f0 9b df 3c 5d 76 3f 3d cc 0b 04 3b
       -0.019773595 0.027296036 0.04674374 0.0020148633
000010 cb c9 a7 bc 09 16 c4 bd df 10 87 3c 89 01 8f bd
       -0.020481965 -0.09574515 0.016487537 -0.06982715
000020 0c ee 87 3d 08 51 72 3d e9 92 d3 bb 6a d4 40 bc
       0.06637201 0.05915931 -0.006456722 -0.011769393
000030 63 39 77 3c 96 19 22 3c 76 17 de 3d dc 1a c3 3d
       0.015089366 0.0098937955 0.108443186 0.095266074

model.decoder_gnn.lin_skipsum.1.0.weight f4 [16, 16]
000000 5e a0 53 be d8 35 94 bd d8 a7 e6 3d 7b 60 57 3d
       -0.20666644 -0.072368324 0.112624824 0.052582245
000010 c9 5a 92 ba 9d de 49 bc 00 97 1d 3e 6e 31 11 be
       -0.0011165972 -0.012321142 0.15389633 -0.14179012
000020 74 61 9f be 34 09 8e 3e 4c 8b a9 3d 9b ea 4d 3e
       -0.31129038 0.27741396 0.08278522 0.20109026
000030 d4 92 16 be a4 52 67 3e 38 11 e2 3d 24 db a9 3e
       -0.14704448 0.22590119 0.110384405 0.33175004
000040 22 1b 18 3e ab a8 2b 3c 0b 6f 81 3d 50 2d 9e 3d
       0.148541 0.010477225 0.06320008 0.077234864
000050 d7 bb 48 3e 45 fc 90 bd ce b7 2c 3d 2c 58 fd bd
       0.19602905 -0.070793666 0.042167477 -0.12370333
000060 f8 3f 83 be 67 fb dd 3e 32 a7 a1 3d 46 a3 5c 3e
       -0.25634742 0.43355867 0.07893218 0.21546659
000070 0f ae 18 be 46 36 ab 3e 1b 1b a5 bb e1 e6 bb 3d
       -0.14910148 0.33439845 -0.0050386316 0.09174896
000080 3d 89 eb 3d ef 8a eb 3c f9 bc 63 3e 85 3f ea 3d
       0.115007855 0.028752772 0.22240056 0.11437897
000090 a1 e7 f9 bb f4 dc 37 bd 41 be 3b 3e 3f 7b 28 be
       -0.0076264893 -0.04488845 0.18334295 -0.16453265
0000a0 6b 70 93 be e4 37 6a 3e 6f cc c4 3d 65 00 d6 3e
       -0.28796706 0.22872883 0.09609305 0.41797176
0000b0 4f 0b 3c be 1e 34 77 3e f0 e5 8a bd 22 1a 0d 3f
       -0.18363689 0.24140975 -0.06782138 0.55118
0000c0 fd 6f ec 3d 86 b3 0c 3d 1f cd 04 3e 2f 75 f1 3d
       0.115447976 0.034350894 0.12968872 0.11789929
0000d0 ed 6f 82 3d 46 ae 99 bd 3a e8 4d 3e 93 8d 1f be
       0.063690044 -0.07503943 0.20108119 -0.1558135
0000e0 2e 1a 53 be 25 0f 00 3f 38 fd 22 3d 9c 09 53 3e
       -0.20615456 0.5002311 0.03979227 0.20609134
0000f0 d0 10 fa bd 6a bc 8d 3e 11 61 f4 bc 92 f9 9e 3e
       -0.12210238 0.2768281 -0.029831441 0.31049782
000100 c7 b3 d5 bd 80 72 88 3d 0c 25 10 be 63 cf 2c be
       -0.104346804 0.06662464 -0.14076632 -0.16875987
000110 99 0c b4 bd c1 ea 7c 3d 01 f6 e6 3c e2 2f dd 3d
       -0.08791465 0.061747316 0.028193476 0.108001485
000120 76 6f 42 3e 59 6a 1d bf 45 c1 c0 bd 23 db 89 bd
       0.18987831 -0.614904 -0.09411863 -0.0673125
000130 b0 5e 34 3e 7f a3 5d be b1 58 41 bd 90 8b c2 bd
       0.17614245 -0.216444 -0.047203723 -0.09499276
000140 1b 7e 2c 3e 7b 16 c2 3d 2c 49 1a 3e f1 f1 63 3d
       0.1684498 0.09476944 0.15066975 0.055650655
000150 10 7f 46 3e 4c 07 96 bd db 1a 29 3d c3 c3 0c be
       0.19384408 -0.073256105 0.041285377 -0.13746552
000160 b2 3d 4e be 5c 30 fd 3e bc 99 c0 3d f6 12 b2 3e
       -0.20140722 0.49450958 0.094043225 0.3478009
000170 fc b8 0e be 71 47 a9 3e 35 68 a2 bd ed e3 12 3e
       -0.13937753 0.33062318 -0.07930032 0.1434476
000180 44 1d b4 3d 85 39 cf bd 61 0e 55 3e be b3 6d 3e
       0.087946445 -0.10118393 0.20806266 0.23213097
000190 c9 d3 d2 3d f4 98 a8 bd 71 4d eb 3d 21 5d a8 be
       0.10294301 -0.082322985 0.1148938 -0.32883552
0001a0 30 f8 ca be 54 97 23 3f 22 99 50 3b 3e ec 99 3e
       -0.39642477 0.63902783 0.0031829556 0.3006305
0001b0 eb af 8e be ad 19 90 3e dd e5 b3 3d 95 cd 2f 3f
       -0.2786859 0.2814459 0.08784077 0.6867307
0001c0 c0 3c 1e be 71 14 86 3c 40 3c a5 3c 81 70 9d bd
       -0.15452862 0.01636717 0.020170331 -0.07687474
0001d0 60 fa 65 bd 1e 6b d8 3d ba 94 41 be c0 12 e1 3d
       -0.05614698 0.10567306 -0.18904391 0.109899044
0001e0 cd 27 aa 3e a8 0d c3 be 2c 8f 38 bd b1 68 d1 bd
       0.3323349 -0.38096356 -0.045058414 -0.102250464
0001f0 2e 3e 13 3e f8 ac 50 be 27 30 25 be 39 c0 46 be
       0.14379188 -0.20378482 -0.1613165 -0.19409265
000200 2f dd e1 3d 1d b4 d0 bc 4c ad 6a 3e 83 54 47 3e
       0.110285155 -0.02547651 0.2291767 0.19465832
000210 69 c2 86 3d d3 19 c4 bc e1 8d 4a 3e 56 38 bf bd
       0.065800495 -0.023938095 0.19780685 -0.09336917
000220 13 7f 35 be 5b 12 1a 3f 35 c1 0f bd 47 cc bc 3d
       -0.17724256 0.6018426 -0.035096366 0.0921865
000230 88 ea 25 be e3 04 45 3e e6 04 60 bd bb fa b6 3e
       -0.16202748 0.19240145 -0.05469217 0.35738167
000240 f4 66 25 3e 6e 92 5c 3d b5 f3 15 3e 26 39 18 3e
       0.16152555 0.053850584 0.14643748 0.1486555
000250 cd 26 a5 bc 19 4b 26 bd 6e 8f 32 3e 2d e0 99 bd
       -0.020160103 -0.040598962 0.17437527 -0.07513461
000260 82 3c a7 be c3 2e 18 3f 1f 7f 05 3e 68 23 d3 3d
       -0.3266335 0.5944635 0.13036774 0.103094876
000270 5b a9 0b be e4 37 7d 3e f5 b2 98 bd a6 a1 46 3d
       -0.13638823 0.24728352 -0.07456008 0.048494004
000280 c9 0e 30 be 55 e0 2c 3d 8c ac 77 38 66 db 96 3c
       -0.1719314 0.042206127 5.9050086e-05 0.018415164
000290 8a 3e 45 3e ce 2c 82 bd 6b 17 df 3d a4 d1 8d bd
       0.19262138 -0.06356202 0.108931385 -0.069247514
0002a0 ef 06 a5 be 93 5d 15 3f f4 c3 a0 3d 14 25 c7 3d
       -0.32231852 0.5834591 0.07849875 0.09723869
0002b0 f6 94 bd bd 40 a8 98 3e 46 04 59 bd 0d 4f f5 3d
       -0.09256928 0.29815865 -0.05298259 0.11977968
0002c0 82 6d 4d be 64 b5 48 bc 14 4e 10 be 9c be 0d be
       -0.20061305 -0.012250278 -0.14092284 -0.13842243
0002d0 40 f5 d2 bc 42 b5 61 3d 96 e6 98 bd 45 71 15 3e
       -0.02575171 0.0551045 -0.07465856 0.1459399
0002e0 d4 1e 1b 3e 17 18 10 bf 52 fe ba bd a9 91 59 bd
       0.15148479 -0.5628676 -0.09130539 -0.053117428
0002f0 2f 45 12 3e cb ba 91 be c8 2c 36 3d 04 3c 02 bf
       0.14284204 -0.28462824 0.0444763 -0.50872827
000300 52 5a 4a 3d a9 8b 47 bd 24 e2 15 be c4 19 90 bc
       0.049402542 -0.048717175 -0.14637047 -0.017590411
000310 72 70 13 bd 2a 6a 66 3c 84 ec 07 be 33 e3 c7 3a
       -0.035995908 0.014063397 -0.13273817 0.0015250206
000320 81 b5 5a 3e be 3d c8 be 3d 6a c5 bd 3a 42 87 be
       0.21358301 -0.39109606 -0.09639404 -0.26417714
000330 b3 88 f4 3d 77 ae be bd 45 4b 94 3d 17 a5 d6 bd
       0.11940136 -0.0931062 0.07240919 -0.10480707
000340 9d 60 80 bc 8a d5 97 3d 39 68 05 3e 96 ec b9 3d
       -0.015671069 0.07413776 0.13028039 0.09078328
000350 12 7f 9a 3d d2 fb bd bd 68 90 07 3e cd 29 d4 bd
       0.07543768 -0.092765465 0.1323868 -0.10359535
000360 94 29 5a be f6 f6 1f 3f 02 1d c2 3d 7f bd 26 3e
       -0.21304923 0.6248621 0.09478189 0.16283225
000370 dd 88 01 be 16 66 41 3e c2 d7 91 bd 45 dd 97 3e
       -0.12649865 0.18886599 -0.07121231 0.29661003
000380 2f 7b 00 3d 98 6d 85 bd f1 a8 05 3e 62 9e 2b 3e
       0.031367477 -0.06515044 0.13052727 0.16759637
000390 43 b6 e4 3d 40 d8 87 bd f7 2b f0 3c 27 51 1f be
       0.11167576 -0.06633043 0.02931784 -0.15558301
0003a0 39 4e 7c be 9e c3 95 3e 2d a0 86 3c 82 0e 46 3e
       -0.24639215 0.29250807 0.0164338 0.19341472
0003b0 5e 68 05 be 2c e9 a2 3e e6 ad bb 3d 61 9f 92 3e
       -0.13028094 0.3181852 0.09164028 0.2863722
0003c0 ce ed e9 bd ed 19 b9 3c 35 7e 86 3d 83 6e b5 3d
       -0.11422311 0.02259537 0.06567041 0.08858969
0003d0 98 3f 0b 3d d8 1b cf bd 0b 29 10 3e 39 22 b5 bd
       0.033996195 -0.10112733 0.14078157 -0.08844418
0003e0 3e c9 a8 be 09 92 b6 3e c9 a2 08 3e 04 c7 4f 3e
       -0.32966036 0.3565829 0.13343348 0.20290762
0003f0 57 e8 fa bd 85 b7 99 3e f6 5b a4 3d 42 ca 90 3e
       -0.122513466 0.30022827 0.08025353 0.2827931

model.decoder_gnn.lin_skipsum.1.0.bias f4 [16]
000000 5d 0d de bd c7 35 1b be a8 69 36 be 9f 86 25 be
       -0.108423926 -0.15157233 -0.17813742 -0.16164635
000010 e1 1f 0a 3e ee c9 4a be f1 a4 0f be b9 66 d7 3d
       0.13488723 -0.19803593 -0.14027764 0.1051764
000020 57 c3 29 be 4c 52 3f be 3f 24 1c be 39 cc 0e 3e
       -0.16578422 -0.18683738 -0.15248202 0.13945092
000030 df b0 28 3e 17 f0 44 be 80 43 08 be cd 61 18 be
       0.16473721 -0.19232212 -0.13306999 -0.14881058
