_models_trained/causal_nf/collidersens_non-linear/epoch=429-step=2150.ckpt (torch, 10488 bytes, 10 tensors)

model.flow.transforms.0.hyper.0.weight f4 [16, 4]
0	0xbeb5f7ad	-0.35540524
1	0x3de892b8	0.113561094
2	0xbd6e7b90	-0.058223307
3	0xbe77c500	-0.24196243
4	0xbebeadc5	-0.3724195
5	0x3f06f17a	0.52712214
6	0x3d4cd395	0.050006468
7	0xbe09f3fc	-0.13471979
8	0xbe929931	-0.286325
9	0x3dc6f400	0.09714508
10	0xbe12429c	-0.14283222
11	0xbc9e3a60	-0.019314945
12	0xbe2becd9	-0.16789569
13	0xbf53bb76	-0.8270792
14	0x3e494cb3	0.19658165
15	0xbee2be4a	-0.44285804
16	0x3eb01713	0.34392604
17	0xbee7ca88	-0.45271707
18	0xbc6b84c0	-0.014374912
19	0xbef2ac22	-0.47396952
20	0xbf146ce1	-0.57978636
21	0x3f22c0ac	0.63575244
22	0xbe3d821f	-0.18506669
23	0xbecb7e38	-0.39744735
24	0xbe6e6380	-0.23280144
25	0xbd6960e0	-0.056977153
26	0x3e217478	0.15767086
27	0xbd9758b8	-0.07389969
28	0xbe6d16fc	-0.23153299
29	0x3effa9fb	0.49934372
30	0x3e468bbd	0.19389243
31	0xbe8af0c8	-0.27136827
32	0x3e771927	0.24130689
33	0x3ef551e8	0.47914052
34	0x3ec1019a	0.37696534
35	0x3efc45a4	0.49271882
36	0xbdf0e903	-0.117631935
37	0xbe798728	-0.24367964
38	0xbe92fe1e	-0.287095
39	0x3dbc4450	0.09192717
40	0xbe20f736	-0.15719303
41	0xbefe43e4	-0.4966117
42	0xbdcec618	-0.10096377
43	0x3ef55c8a	0.47922164
44	0x3ed74322	0.42043406
45	0x3eda0902	0.42584997
46	0x3e900cea	0.28134853
47	0xbeede16a	-0.4646104
48	0x3e982b78	0.29720664
49	0xbe002130	-0.1251266
50	0x3ef96664	0.4871093
51	0x3e90a22a	0.2824872
52	0x3e9e06ee	0.30864662
53	0x3f1ae78b	0.60509557
54	0xbe90d684	-0.28288662
55	0xbeaf5ee0	-0.3425207
56	0xbf23f66c	-0.64047885
57	0x3e210d5c	0.15727752
58	0x3eb152b8	0.34633422
59	0x3ec1e956	0.37873334
60	0xbcbdb87e	-0.023159262
61	0xbf2f23f0	-0.6841421
62	0xbe0794c9	-0.13240351
63	0xbef44c00	-0.47714233

model.flow.transforms.0.hyper.0.bias f4 [16]
0	0x3ea5a9d5	0.32356134
1	0x3c4e8a3c	0.0126062
2	0xbeb6cefa	-0.35704786
3	0xbe822454	-0.2541834
4	0x3e350e77	0.17681299
5	0xbdd51bd2	-0.10405697
6	0xbe99b9f8	-0.30024695
7	0xbe9cc1d1	-0.3061662
8	0x3e940674	0.28911173
9	0x3d0d4ca5	0.034496922
10	0x3f13fefa	0.5781094
11	0x3da625cd	0.08112679
12	0xbedee157	-0.43531296
13	0x3ded2f40	0.11581278
14	0x3cdbac54	0.02681557
15	0xbdf9792c	-0.12181315

model.flow.transforms.0.hyper.2.weight f4 [16, 16]
0	0x3e9db767	0.30803987
1	0xbe330ff6	-0.17486557
2	0x3e40a41d	0.18812604
3	0x3e1dc36e	0.15406582
4	0xbed0f1cc	-0.40809476
5	0xbd9168e0	-0.071000814
6	0xbbfc649a	-0.0077024223
7	0x3e318004	0.1733399
8	0x3c048eef	0.008090719
9	0xbc6a28a0	-0.014291912
10	0xbd79dd66	-0.061002158
11	0xbe7aaaf4	-0.24479276
12	0xbeb5a5b7	-0.35477993
13	0xbd7c38b0	-0.0615775
14	0x3e8e0370	0.27736998
15	0xbe7a899a	-0.24466553
16	0xbdb8d21a	-0.09024449
17	0x3ed4d547	0.41568968
18	0xbd4d1179	-0.05006549
19	0x3f52c8f8	0.82337904
20	0xbe19e2d5	-0.15027936
21	0x3efb1b33	0.4904419
22	0x3c75cdfd	0.015002725
23	0x3f0777fb	0.5291745
24	0x3cff7150	0.031181961
25	0xbd63faeb	-0.055659216
26	0xbe034e9e	-0.12822959
27	0x3e5f0880	0.21780586
28	0xbddc6128	-0.107607186
29	0x3e9d4f4e	0.30724567
30	0x3d4c5a01	0.049890522
31	0x3ef9f457	0.4881923
32	0x3e98604d	0.29760972
33	0x3e1a9126	0.15094432
34	0xbdd0c892	-0.10194506
35	0x3d717778	0.058951825
36	0x3d0be2da	0.03415189
37	0x3e008812	0.12551907
38	0xbe08e2ce	-0.13367769
39	0xbd33d170	-0.043900907
40	0xbd177452	-0.036976166
41	0xbd9836ac	-0.07432303
42	0x3e65757c	0.22408098
43	0xbe682bca	-0.22672954
44	0xbe97f61c	-0.29679954
45	0xbce77ca0	-0.028257668
46	0x3e800691	0.2500501
47	0xbd9c54a8	-0.076333344
48	0xbcbe4b45	-0.02322925
49	0xbdb64daa	-0.08901532
50	0xbd6c4e50	-0.057691872
51	0x3e64b59e	0.22334906
52	0xbe00a2b3	-0.12562065
53	0xbdc8bce3	-0.09801652
54	0x3c89d0dd	0.016823227
55	0xbe967598	-0.29386592
56	0x3e673744	0.22579676
57	0x3db0c2a8	0.08630878
58	0x3e2b1144	0.16705805
59	0x3cdb749d	0.026789004
60	0x3de0864a	0.109631136
61	0xbeeaeaee	-0.45882362
62	0x3e7dc782	0.24783137
63	0x3f0614e8	0.5237565
64	0x3e9f86fd	0.31157675
65	0x3e4e1124	0.20123726
66	0x3e58a0c5	0.21155079
67	0xbd905470	-0.07047355
68	0xbe75332f	-0.23945306
69	0xbd3cc690	-0.0460878
70	0x3e080faa	0.13287225
71	0x3e10e9a2	0.14151624
72	0xbdeadf31	-0.11468352
73	0xbdbc226c	-0.09186253
74	0x3eb00b03	0.343834
75	0x3e04843c	0.12941068
76	0xbe42fa9e	-0.19040915
77	0x3e791f02	0.24328235
78	0x3e8b248d	0.27176324
79	0xbe679e1e	-0.2261891
80	0xbda55362	-0.08072545
81	0x3d849b8c	0.06474981
82	0xbcaa9b12	-0.020825896
83	0xbec0c546	-0.37650508
84	0x3e3d5920	0.1849103
85	0x3eadc58f	0.33939788
86	0xbe34f0ae	-0.17669937
87	0x3e7626fd	0.2403831
88	0x3e4d0523	0.20021491
89	0xbd1d0244	-0.03833224
90	0x3e4e74a2	0.2016168
91	0x3eb5fbcf	0.35543677
92	0xbe9982e6	-0.2998268
93	0x3e754d13	0.23955183
94	0x3e1fee82	0.15618327
95	0xbe999e12	-0.3000341
96	0x3e7d9669	0.24764408
97	0xbe206ec0	-0.15667248
98	0x3e549386	0.207594
99	0xbd90cfb4	-0.07070866
100	0xbe7b5a73	-0.24546222
101	0x3e3a4728	0.18191206
102	0x3ea0a6b6	0.3137719
103	0xbe16ea3a	-0.14737788
104	0xbea2a802	-0.31768805
105	0x3dc9718c	0.098361105
106	0x3e17b863	0.14816432
107	0xbde3148c	-0.110879034
108	0x3ca8074a	0.020511288
109	0xbdded624	-0.10880688
110	0x3e640128	0.22266066
111	0x3e6d9404	0.23200995
112	0x3cb1287d	0.021625752
113	0xbdf5d270	-0.120030284
114	0x3c5dc225	0.013535057
115	0xbe465eb9	-0.19372071
116	0x3e8d29b4	0.2757088
117	0x3d9fc714	0.07801643
118	0xbdbdcae6	-0.092672154
119	0xbe8ab4f9	-0.27091196
120	0xbd221aee	-0.039576463
121	0xbe0db9c1	-0.1384039
122	0x3eafc7a8	0.34332013
123	0xbdaee11d	-0.08539031
124	0xbce81a31	-0.028332802
125	0xbe51a921	-0.20474674
126	0x3e73b7c9	0.23800577
127	0xbe93090c	-0.2871784
128	0xbdb8a618	-0.09016055
129	0xbd2b9e58	-0.041899055
130	0xbe4a1d53	-0.19737749
131	0xbdfec5b8	-0.124400556
132	0x3b0a63ba	0.002111657
133	0x3cbeaf00	0.023276806
134	0xbe6197c3	-0.22030549
135	0x3e0f922c	0.14020604
136	0xbc9e3403	-0.01931191
137	0x3d42dd48	0.04757431
138	0x3e07dd5d	0.13268037
139	0xbbc95fc0	-0.0061454475
140	0x3dddf673	0.10838022
141	0xbe283564	-0.16426617
142	0xbda1d6ac	-0.079022735
143	0x3cc9ea00	0.024647713
144	0x3f062dce	0.5241364
145	0xbe4e2e14	-0.20134765
146	0xbe874247	-0.26417753
147	0xbef68f3d	-0.48156157
148	0x3e485cbd	0.19566627
149	0xbea44407	-0.3208315
150	0xbe629c23	-0.22129874
151	0xbebe0756	-0.37114972
152	0x3e7446ba	0.23855105
153	0x3dc71fc0	0.09722853
154	0x3eceb31f	0.40371034
155	0xbe8cb1b3	-0.27479324
156	0xbeb7f13e	-0.3592624
157	0xbe9eb03a	-0.30993825
158	0xbd7ab23b	-0.06120513
159	0xbf17c013	-0.59277457
160	0xbba8438a	-0.0051350044
161	0xbd2c8998	-0.042123407
162	0x3e3d6d57	0.18498741
163	0xbe3b60e4	-0.1829868
164	0xbec321c6	-0.38111705
165	0xbe7730b4	-0.24139673
166	0x3e7b4300	0.24537277
167	0x3e50f21e	0.2040486
168	0xbd70c59f	-0.058782216
169	0xbe362430	-0.17787242
170	0xbe80656c	-0.2507738
171	0xbdb3331c	-0.08749983
172	0xbd9b6f8b	-0.075896345
173	0x3c92b530	0.017908663
174	0x3d60e607	0.05490687
175	0x3e7f4e9a	0.24932328
176	0x3e7be21d	0.24597974
177	0xbd59c922	-0.05317033
178	0x3d8e961e	0.06962226
179	0xbe67eb8f	-0.22648452
180	0xbd0ce52d	-0.034398247
181	0xbd4e8c40	-0.05042672
182	0xbe5944af	-0.21217607
183	0xbee9091e	-0.45514768
184	0x3e9b544b	0.30337748
185	0xbe9c6a5d	-0.305499
186	0x3e942bd4	0.28939688
187	0xbe8f07eb	-0.27935728
188	0xbdc8f9d3	-0.09813275
189	0xbec039ca	-0.3754409
190	0x3e6e1fb3	0.2325428
191	0xbf03c4c4	-0.51472116
192	0x3e997346	0.2997076
193	0x3e7fd62e	0.24984047
194	0x3df5cd56	0.12002055
195	0x3df2fd34	0.11864701
196	0xbe436255	-0.1908048
197	0x3e475352	0.19465378
198	0x3e990a52	0.29890686
199	0x3e53b9c0	0.20676327
200	0xbe885239	-0.2662523
201	0xbe07a30a	-0.13245788
202	0x3e23dc92	0.1600211
203	0xbb13e800	-0.0022568703
204	0xbe5379b4	-0.20651895
205	0x3e413504	0.1886788
206	0x3ecdb3b6	0.4017617
207	0x3e482c58	0.19548166
208	0x3e519e11	0.20470454
209	0x3f0a6142	0.54054654
210	0xbe806c95	-0.25082842
211	0xbe8ea78a	-0.27862197
212	0x3dd99244	0.10623601
213	0x3eb3c21e	0.35109037
214	0x3e4a8ade	0.19779536
215	0x3eeaf94a	0.45893317
216	0x3e4f2046	0.20227155
217	0xbe4d1c00	-0.20030212
218	0x3dca73e1	0.098853834
219	0x3e7a99df	0.2447276
220	0xbed52095	-0.4162642
221	0x3ef7c890	0.48395205
222	0x3dec731a	0.115453914
223	0xbec2b8df	-0.3803167
224	0xbea378a7	-0.31927988
225	0x3dc9fd28	0.09862739
226	0xbe9cdd8a	-0.3063777
227	0xbe075814	-0.13217193
228	0x3d6348fa	0.055489518
229	0xbd7f9b88	-0.062404186
230	0xbe64b886	-0.22336015
231	0xbe4cc136	-0.19995579
232	0x3e9916d3	0.29900226
233	0xbba68640	-0.005081922
234	0x3be7435d	0.007057591
235	0x3dc5cdd4	0.09658399
236	0xbe3450db	-0.17608969
237	0x3e2e2e8c	0.17009944
238	0x3db4d258	0.088291824
239	0xbda32e98	-0.079678714
240	0x3eaf4982	0.3423577
241	0xbed8c2a2	-0.42335993
242	0x3d5e495c	0.05426918
243	0x3efe18dd	0.49628344
244	0xbe0cc6e9	-0.13747753
245	0xbee23d19	-0.4418724
246	0x3c4444c8	0.011979289
247	0xbe9fc35e	-0.3120374
248	0xbe2ab1b7	-0.16669355
249	0x3ec39aa2	0.38203913
250	0xbe0a49c5	-0.13504703
251	0xbdafb1b7	-0.08578818
252	0x3db6a75f	0.08918642
253	0xbeb2016b	-0.34766707
254	0x3c855308	0.016274944
255	0x3f0029f4	0.50064015

model.flow.transforms.0.hyper.2.bias f4 [16]
0	0xbdab7150	-0.08371222
1	0xbdb3298b	-0.08748158
2	0xbe5901a8	-0.21192038
3	0x3e48ac5b	0.19596998
4	0x3b548320	0.003242679
5	0x3dcf5638	0.10123867
6	0x3e50381f	0.20333908
7	0x3b576641	0.0032867345
8	0x3e8f2b2f	0.27962634
9	0x3da4e4ec	0.08051476
10	0xbdfc0a5a	-0.12306662
11	0x3eb4050a	0.35160094
12	0x3e4dc64c	0.20095176
13	0x3e601129	0.21881546
14	0x3eb54516	0.3540427
15	0xbe735115	-0.23761399

model.flow.transforms.0.hyper.4.weight f4 [16, 16]
0	0xbe141eab	-0.14464824
1	0x3cc61c00	0.024183273
2	0x3cdb65f7	0.026782019
3	0x3e53e9e2	0.20694688
4	0xbc3ad83c	-0.011404093
5	0xbe753aba	-0.23948184
6	0xbdab5698	-0.08366126
7	0x3d9b8254	0.075932175
8	0x3e82fe26	0.25584525
9	0x3dabf7dc	0.08396885
10	0xbce04a7d	-0.027379269
11	0x3d889110	0.066682935
12	0xbd350fef	-0.04420465
13	0x3dd645c4	0.104625255
14	0xbce51d5a	-0.027968097
15	0x3e4dae24	0.2008596
16	0x3dcab991	0.09898675
17	0xbebcf936	-0.36908883
18	0x3ce56869	0.028003888
19	0xbed35c76	-0.4128148
20	0x3eae8a56	0.34089917
21	0xbdca8a46	-0.09889655
22	0x3e8708bd	0.26373854
23	0x3d83d567	0.06437188
24	0x3ecb59c6	0.3971693
25	0x3e96d12c	0.2945646
26	0x3d231356	0.039813362
27	0x3eaa45d4	0.332564
28	0xbe2efd3a	-0.17088786
29	0xbe98775e	-0.2977857
30	0x3dbe7d23	0.09301212
31	0xbea62c23	-0.3245555
32	0xbe8465f6	-0.2585904
33	0xbd60ad10	-0.054852545
34	0xbe5bab4b	-0.21452062
35	0x3d5de380	0.05417204
36	0xbe60b23e	-0.21942994
37	0x3e3118c8	0.1729461
38	0xbeb8c167	-0.36085054
39	0xbe218202	-0.1577225
40	0x3e6c20f8	0.23059452
41	0x3e131e6a	0.14367071
42	0xbe68de1a	-0.22740975
43	0x3ceefd80	0.029173613
44	0xbec313e9	-0.38101128
45	0x3e30a6ae	0.17251083
46	0x3e8aeab8	0.271322
47	0xbe6c3ed6	-0.23070845
48	0xbd459349	-0.048236165
49	0xbcbc5927	-0.02299173
50	0x3e22f2df	0.1591296
51	0xbeef0242	-0.4668141
52	0xbe147202	-0.14496616
53	0xbe91a4ac	-0.28445947
54	0x3c001871	0.007818327
55	0xbd86a1cc	-0.06573829
56	0xbe9732b0	-0.2953086
57	0x3b421271	0.0029613043
58	0x3e872c08	0.2640078
59	0xba60fa00	-0.0008582175
60	0xbe4a33de	-0.19746348
61	0xbe9a335b	-0.30117306
62	0xbe3959db	-0.18100683
63	0xbdb55820	-0.08854699
64	0xbe87983d	-0.26483336
65	0x3de23e74	0.11047068
66	0x3e22fd07	0.15916835
67	0xbe6df5d2	-0.23238304
68	0xbd88f74f	-0.06687795
69	0xbdaa4184	-0.08313277
70	0x3e097881	0.13424875
71	0x3d95eb28	0.07320243
72	0x3d7de054	0.061981514
73	0xbe175eac	-0.14782208
74	0x3d2b5c13	0.041835856
75	0x3e0268a6	0.12735233
76	0xbe643428	-0.22285521
77	0x3e12f248	0.14350235
78	0x3e4aebdc	0.19816536
79	0xbe40f62c	-0.18843907
80	0xbe3f8325	-0.18702371
81	0x3eda0e43	0.42589006
82	0x3c2901c9	0.010315367
83	0xbc3e08a5	-0.011598741
84	0xbe8ed9eb	-0.27900633
85	0x3e3a4078	0.18188655
86	0xbcb96d1c	-0.022635035
87	0xbe9edfa9	-0.31030014
88	0x3c33a3df	0.010964363
89	0xbed0ec37	-0.40805218
90	0xbe77b81b	-0.24191324
91	0xbec18101	-0.37793735
92	0x3dd8c980	0.10585308
93	0x3ed58b49	0.4170783
94	0xbe412ba3	-0.18864302
95	0x3e92de80	0.2868538
96	0xbd978c7f	-0.073998444
97	0xbd8cf8d0	-0.06883395
98	0xbdad2613	-0.08454528
99	0xbda86738	-0.082228124
100	0xbe59f625	-0.21285303
101	0xbe5d30fc	-0.21600717
102	0xbd96036f	-0.07324874
103	0x3e0a91b6	0.13532147
104	0x3d8e6793	0.06953349
105	0xbe3699b0	-0.17832065
106	0xbe14bc74	-0.14525014
107	0xbe408810	-0.18801904
108	0xbdea35dc	-0.11436054
109	0x3e45470e	0.19265386
110	0x3eba73aa	0.3641637
111	0xbe0996e6	-0.1343647
112	0xbea591ed	-0.32337895
113	0x3f676eb9	0.90403324
114	0xbebf9605	-0.37419143
115	0x3d3a50d1	0.04548723
116	0x3d97dbf1	0.07414997
117	0x3e2fde07	0.1717454
118	0xbc945939	-0.01810895
119	0xbf09487a	-0.53626215
120	0x3cffcc98	0.031225488
121	0xbf0ab31d	-0.54179555
122	0xbc6567d3	-0.014001804
123	0xbf393d0d	-0.7235878
124	0xbea50ea5	-0.32237735
125	0x3eeba70a	0.46025878
126	0x3e6b8e25	0.23003443
127	0x3f1ddfa8	0.616694
128	0xbe0b7f8a	-0.13622871
129	0xbdbc3f20	-0.09191728
130	0x3d70a17f	0.058747765
131	0xbe6ae724	-0.22939736
132	0xbe71b325	-0.23603494
133	0xbdbf5ec8	-0.0934425
134	0xbc9573ff	-0.018243788
135	0x3dd75df4	0.10515967
136	0x3cfad641	0.030619742
137	0xbe5e514a	-0.21710697
138	0x3e154a0c	0.14579028
139	0xbe411e5a	-0.18859234
140	0xbe8a324c	-0.26991498
141	0x3da36948	0.07979065
142	0xbd54860c	-0.05188565
143	0xbd2d4830	-0.04230517
144	0x3db479ef	0.088123195
145	0xbda3ecd8	-0.08004159
146	0x3e83678f	0.25664946
147	0xbea601e5	-0.3242332
148	0x3e556916	0.20840868
149	0xbe50d83b	-0.20394985
150	0xb987a56a	-0.0002587245
151	0xbe22c6da	-0.15896168
152	0xbeaefa12	-0.34175164
153	0xbe8f982d	-0.28045788
154	0xbd92eb1d	-0.071737505
155	0xbe23bfc0	-0.15991116
156	0xbde09320	-0.10965562
157	0xbe5a0da1	-0.21294262
158	0xbd87925c	-0.06619713
159	0xbd061c90	-0.032742083
160	0x3dde810d	0.10864458
161	0x3d3022c0	0.04300189
162	0xbe174c14	-0.14775115
163	0x3db69290	0.08914673
164	0xbe1d8a56	-0.15384802
165	0x3d8d7f2c	0.06909022
166	0xbd889e28	-0.06670791
167	0x3deb57fc	0.11491391
168	0xbc1aea32	-0.009455251
169	0xbe5bd34a	-0.21467319
170	0xbe48cd39	-0.19609536
171	0x3e36e3c8	0.17860329
172	0xbe0ff91b	-0.1405987
173	0x3d19cda8	0.037549645
174	0x3e5db545	0.2165118
175	0x3d81d3a8	0.06339198
176	0x3db18587	0.086680464
177	0x3ec06cd8	0.3758304
178	0xbe8e4d5a	-0.2779339
179	0x3eeb4484	0.4595071
180	0xbe6a73a0	-0.2289567
181	0xbebc86ba	-0.36821538
182	0xbb88e4ca	-0.0041776644
183	0xbe72d63a	-0.23714533
184	0xbe0f4fac	-0.13995236
185	0xbf12400a	-0.57128966
186	0x3ec96112	0.3933187
187	0xbeb61794	-0.35564864
188	0xbdde3472	-0.10849847
189	0xbed4b9d6	-0.41548032
190	0xbe5d049d	-0.21583791
191	0x3f1e8580	0.61922455
192	0x3dc0f3a6	0.09421472
193	0xbd946e18	-0.07247561
194	0x3eafee94	0.34361708
195	0xbe21ec28	-0.15812743
196	0x3eaaee0c	0.3338474
197	0x3d3b62b8	0.045748442
198	0x3e5c775b	0.21529905
199	0xbda571c8	-0.08078343
200	0xbe2272fa	-0.15864173
201	0xbe03ec7c	-0.1288318
202	0x3e3bde4f	0.18346523
203	0x3e6968da	0.22793904
204	0x3dca670c	0.09882936
205	0xbd315328	-0.043292195
206	0xbe1fe551	-0.15614821
207	0x3e0abb9c	0.1354813
208	0x3e588fce	0.21148607
209	0x3f301fe3	0.68798655
210	0xbe5ddf73	-0.2166727
211	0x3d14a5b7	0.03629085
212	0xbe1d1f5f	-0.15343998
213	0x3e287691	0.1645148
214	0x3e0baa9c	0.13639301
215	0x3e465600	0.19368744
216	0xbdf95c2d	-0.12175784
217	0xbf1157e1	-0.5677472
218	0x3dd58f12	0.10427679
219	0xbeb19d6f	-0.34690425
220	0xbc94e965	-0.018177697
221	0xbe182dd2	-0.14861229
222	0x3bb6fe13	0.005584487
223	0x3edd18a6	0.43182868
224	0xbe928039	-0.2861345
225	0x3e59d906	0.21274194
226	0xbe4b24f8	-0.19838321
227	0xbc504620	-0.012712032
228	0x3dbb560c	0.091472715
229	0x3d9fc8c0	0.07801962
230	0xbe4c0374	-0.19923192
231	0x3e4c1ba8	0.19932425
232	0xbc8332df	-0.016015468
233	0x3e07a012	0.13244656
234	0xbe2e640b	-0.17030351
235	0xbe3ac528	-0.18239272
236	0xbe42d68b	-0.19027154
237	0xbe6f376c	-0.23360986
238	0xbb49c66c	-0.0030788435
239	0x3de7e440	0.11322832
240	0x3dea6423	0.11444881
241	0xbea68062	-0.32519823
242	0xbe063cda	-0.1310915
243	0xbdaee9c5	-0.08540682
244	0xbd9d808c	-0.07690534
245	0xbeac9578	-0.33707786
246	0x3e9cf295	0.30653825
247	0x3e528997	0.20560299
248	0x3e0e52bb	0.13898747
249	0x3eb5a16f	0.35474727
250	0xbe6f2713	-0.2335475
251	0x3e784b12	0.24247387
252	0x3e49151e	0.19636962
253	0xbcb12e9d	-0.021628672
254	0xbe20e37d	-0.1571178
255	0xbe89c9e1	-0.26911834

model.flow.transforms.0.hyper.4.bias f4 [16]
0	0x3d3b8663	0.045782458
1	0x3e4b98be	0.19882485
2	0x3ded80ba	0.11596818
3	0x3e34b678	0.17647731
4	0x3dd7632a	0.10516961
5	0x3d57d65b	0.05269466
6	0x3e99b151	0.30018094
7	0x3e5b650f	0.2142527
8	0x3e171718	0.14754903
9	0x3df4a68a	0.11945827
10	0x3b1b6e39	0.002371682
11	0x3abed42c	0.0014559082
12	0xbd0a017e	-0.03369283
13	0x3d91db50	0.07121909
14	0xbea26a66	-0.317218
15	0xbdcee995	-0.10103146

model.flow.transforms.0.hyper.6.weight f4 [8, 16]
0	0xbe7150de	-0.23566005
1	0x3d824e44	0.06362584
2	0xbe6d5e18	-0.23180425
3	0xbe6dd4d0	-0.23225713
4	0x3dac88ec	0.08424553
5	0x3e5e3a30	0.21701884
6	0x3e2c5d68	0.16832507
7	0x3e0e6a3a	0.1390771
8	0x3e310036	0.17285237
9	0xbe283d00	-0.1642952
10	0xbd054b78	-0.032542676
11	0x3e69def0	0.2283895
12	0xbe74803a	-0.2387704
13	0xbd27bd28	-0.040951878
14	0xbd3d2970	-0.046182096
15	0xbe02eddc	-0.12786049
16	0xbd615708	-0.05501464
17	0xbe265a92	-0.16245487
18	0xbcd761b0	-0.026291698
19	0xbd26fb88	-0.040767223
20	0x3def1ee0	0.11675811
21	0x3e2c45ae	0.16823456
22	0x3e5c783e	0.21530244
23	0xbdc7bfb0	-0.09753358
24	0x3ddb05c0	0.10694456
25	0xbe47479c	-0.1946091
26	0xbd42d4e8	-0.047566324
27	0xbe40416a	-0.18774953
28	0xbd474870	-0.048653066
29	0xbdd5b388	-0.104346335
30	0xbe407778	-0.18795574
31	0xbe4fa968	-0.20279467
32	0x3db71a13	0.0894052
33	0x3e63f2be	0.22260568
34	0x3e056929	0.13028397
35	0x3df29380	0.1184454
36	0xbe14df4d	-0.14538307
37	0x3e043d1c	0.12913936
38	0xbe2b3e05	-0.16722877
39	0x3d392fd0	0.045211613
40	0xbd80ceae	-0.06289421
41	0xbe7c0490	-0.24611115
42	0xbea5ebd2	-0.3240648
43	0x3d700a20	0.058603406
44	0x3d5adb1a	0.053431608
45	0x3c50de80	0.012748361
46	0xbd1e3154	-0.03862126
47	0xbe1cf01a	-0.15325966
48	0xbda745bc	-0.08167598
49	0xbd94a4c8	-0.07257992
50	0xbc313d79	-0.010817879
51	0x3c78dae0	0.015188903
52	0x3c8816f4	0.016612507
53	0xbd814c08	-0.0631333
54	0xbe1a1c7b	-0.15049927
55	0x3e11071c	0.14162868
56	0x3e7df117	0.24799
57	0xbe445690	-0.19173646
58	0x3d0d1fed	0.034454275
59	0xbe1cf9ce	-0.15329668
60	0x3db120be	0.08648823
61	0xbe066e52	-0.13128021
62	0x3e1ee80a	0.15518203
63	0xbe2532a2	-0.16132596
64	0xbe4b5449	-0.19856371
65	0xbdfeac90	-0.124352574
66	0xbecdf931	-0.4022918
67	0x3e5de1f4	0.21668226
68	0x3c9694a0	0.018381417
69	0x3e22f5aa	0.15914026
70	0xbeb1e9c0	-0.3474865
71	0xbe301054	-0.17193729
72	0xbe9387ec	-0.28814638
73	0x3db23e34	0.087032706
74	0xbe282ddf	-0.16423748
75	0x3d192980	0.037393093
76	0x3e73282f	0.23745798
77	0x3da64994	0.08119503
78	0xbec7e74f	-0.39043662
79	0xbe54160c	-0.20711535
80	0xbe26175b	-0.16219847
81	0xbd250a68	-0.040293127
82	0xbcaa7b93	-0.020810878
83	0xbe5620f4	-0.20911008
84	0xbe5797f9	-0.21054067
85	0xbdbc65ac	-0.0919908
86	0x3e2d995c	0.16953033
87	0x3db6ce68	0.089260876
88	0xbde773d1	-0.11301387
89	0xbe3d8180	-0.18506432
90	0x3e3b1f84	0.18273741
91	0x3d0b4710	0.034003317
92	0xbd119700	-0.035544395
93	0x3d212190	0.03933865
94	0xbd192e42	-0.03739763
95	0x3db51f4c	0.0884386
96	0xbda47f93	-0.08032145
97	0x3ec9bf96	0.3940398
98	0x3d6e26b2	0.05814237
99	0x3f0029cf	0.50063795
100	0xbec4f2f8	-0.3846662
101	0xbed4a51d	-0.4153222
102	0xbe8844df	-0.26615044
103	0xbf46a47e	-0.77594745
104	0xbe2b4805	-0.16726692
105	0x3e41bca6	0.1891962
106	0xbdbb6533	-0.091501616
107	0xbee08ff3	-0.43859825
108	0xbe150c11	-0.14555384
109	0xbe8e34d9	-0.27774695
110	0x3e6e3fe0	0.23266554
111	0x3ed8e33c	0.42360866
112	0x3e803f06	0.25048083
113	0xbdae53ca	-0.08512075
114	0x3e04b479	0.1295947
115	0xbef3e4f6	-0.4763562
116	0x3e1c2275	0.1524752
117	0xbe6633df	-0.22480725
118	0xbdf73147	-0.12069946
119	0xbcc46c98	-0.023977563
120	0x3df7d9d2	0.12102093
121	0x3b0444bb	0.0020182568
122	0xbe4552a2	-0.19269803
123	0xbd6bbea8	-0.05755487
124	0x3e52126a	0.20514837
125	0xbd8cf663	-0.06882932
126	0xbca1d8d5	-0.019756714
127	0xbe8d84af	-0.27640292

model.flow.transforms.0.hyper.6.bias f4 [8]
0	0x380c7588	3.348806e-05
1	0x37cf1a0d	2.4688454e-05
2	0x3d927e8f	0.071530454
3	0x3e039d05	0.12852867
4	0x3e22ff59	0.1591772
5	0x3e4fc482	0.20289806
6	0xbe9e8164	-0.30958092
7	0x3e3dc7b7	0.18533216

model.flow.base._0 f4 [4]
0	0x00000000	0.0
1	0x00000000	0.0
2	0x00000000	0.0
3	0x00000000	0.0

model.flow.base._1 f4 [4]
0	0x3f800000	1.0
1	0x3f800000	1.0
2	0x3f800000	1.0
3	0x3f800000	1.0
