_models_trained/causal_nf/collidersens_non-linear/last.ckpt (torch, 10488 bytes, 10 tensors)

model.flow.transforms.0.hyper.0.weight f4 [16, 4]
000000 6b 16 bb be b8 92 e8 3d 90 7b 6e bd 00 c5 77 be
       -0.3654054 0.113561094 -0.058223307 -0.24196243
000010 32 16 ba be 9f 20 0a 3f 19 73 53 3d fc f3 09 be
       -0.3634506 0.53956026 0.051623438 -0.13471979
000020 73 77 8e be 00 f4 c6 3d 9c 42 12 be 60 3a 9e bc
       -0.27825508 0.09714508 -0.14283222 -0.019314945
000030 11 b6 37 be c1 c6 53 bf 9d 06 68 3e 4a be e2 be
       -0.17940547 -0.8272515 0.22658773 -0.44285804
000040 78 aa ae 3e 88 ca e7 be c0 84 6b bc 22 ac f2 be
       0.34114432 -0.45271707 -0.014374912 -0.47396952
000050 8d 6b 14 bf e4 f9 21 3f 37 56 3a be 38 7e cb be
       -0.5797661 0.6327193 -0.18196951 -0.39744735
000060 84 0d 68 be e0 60 69 bd 78 74 21 3e b8 58 97 bd
       -0.22661406 -0.056977153 0.15767086 -0.07389969
000070 a2 af 85 be b3 75 f6 3e 45 c5 3b 3e c8 f0 8a be
       -0.2611056 0.48136672 0.18336971 -0.27136827
000080 16 35 68 3e e8 51 f5 3e 9a 01 c1 3e a4 45 fc 3e
       0.226765 0.47914052 0.37696534 0.49271882
000090 e8 b4 ba bd d5 43 7d be 1f 9c b8 be 50 44 bc 3d
       -0.091165364 -0.24732907 -0.3605661 0.09192717
0000a0 ff 7c 2a be e4 43 fe be 18 c6 ce bd 8a 5c f5 3e
       -0.16649245 -0.4966117 -0.10096377 0.47922164
0000b0 b7 db dd 3e 02 6b da 3e 2b 28 94 3e 6a e1 ed be
       0.43331692 0.42659765 0.28936896 -0.4646104
0000c0 ce 2c a1 3e 30 21 00 be 64 66 f9 3e 2a a2 90 3e
       0.31479496 -0.1251266 0.4871093 0.2824872
0000d0 e0 ba a7 3e a0 d8 1e 3f d4 03 8a be e0 5e af be
       0.32759762 0.62049294 -0.26956046 -0.3425207
0000e0 2d 0e 26 bf 5c 0d 21 3e b8 52 b1 3e 56 e9 c1 3e
       -0.6486538 0.15727752 0.34633422 0.37873334
0000f0 44 a2 f6 bc 46 ba 2e bf e8 18 10 be 00 4c f4 be
       -0.030106671 -0.6825298 -0.14072001 -0.47714233

model.flow.transforms.0.hyper.0.bias f4 [16]
000000 a6 0f a6 3e 16 16 1f 3c 40 fa b5 be e4 af 7a be
       0.32433814 0.009709856 -0.35542488 -0.2448116
000010 3c 56 41 3e 39 d8 d3 bd 6c 57 9b be 44 83 a9 be
       0.18880552 -0.103439756 -0.30340135 -0.3310796
000020 88 79 92 3e 28 a9 05 3d b8 a5 14 3f 54 98 98 3d
       0.28608346 0.032632023 0.58065367 0.07450929
000030 8c 3a dc be b4 8d d9 3d dc 24 ec 3c af 32 f9 bd
       -0.43013418 0.10622731 0.02882617 -0.1216787

model.flow.transforms.0.hyper.2.weight f4 [16, 16]
000000 4b 15 9e 3e f6 0f 33 be a9 7c 42 3e 6e c3 1d 3e
       0.3087562 -0.17486557 0.18992867 0.15406582
000010 c2 28 d2 be e0 68 91 bd 3f e2 b2 bb 04 80 31 3e
       -0.4104672 -0.071000814 -0.0054590995 0.1733399
000020 3f 7b c8 3b a0 28 6a bc ed 42 7b bd f4 aa 7a be
       0.0061182077 -0.014291912 -0.061343122 -0.24479276
000030 c3 c8 b5 be b0 38 7c bd 14 e0 8e 3e 9a 89 7a be
       -0.35504732 -0.0615775 0.27905333 -0.24466553
000040 d2 48 c7 bd 67 cb dc 3e 39 bf ea bc e2 02 57 3f
       -0.09730686 0.43123934 -0.028655635 0.83988774
000050 cf be 2a be d3 b0 f9 3e c1 28 13 3d ab 16 11 3f
       -0.1667435 0.4876772 0.035927538 0.56675214
000060 87 77 2d 3c 95 3a d8 bc c1 e4 12 be fe 24 6d 3e
       0.01058758 -0.026395122 -0.14345075 0.23158643
000070 58 2c c5 bd 3d 08 91 3e 4c a6 57 3d 94 c0 fb 3e
       -0.096275985 0.28326598 0.052648827 0.49170363
000080 d6 3d 9b 3e 26 91 1a 3e 41 2c dc bd 78 77 71 3d
       0.30320615 0.15094432 -0.10750628 0.058951825
000090 06 d6 13 3d 12 88 00 3e 41 6c 0e be 70 d1 33 bd
       0.03609278 0.12551907 -0.13908483 -0.043900907
0000a0 16 fb 02 bd ac 36 98 bd e6 b9 6c 3e ca 2b 68 be
       -0.031977735 -0.07432303 0.2311779 -0.22672954
0000b0 df 42 9b be a0 7c e7 bc 43 97 81 3e a8 54 9c bd
       -0.30324456 -0.028257668 0.25310716 -0.076333344
0000c0 a0 c5 c3 bc 00 a2 cd bd d4 19 3d bd 3e 13 80 3e
       -0.023897946 -0.10040665 -0.04616721 0.2501468
0000d0 cb 66 0b be 23 e3 d9 bd 86 c6 e4 3c 7b 83 9f be
       -0.13613431 -0.10639026 0.027926695 -0.31155
0000e0 b0 b7 5b 3e 8e 2f cf 3d 31 73 24 3e d0 07 84 3b
       0.2145679 0.10116492 0.16059567 0.0040292516
0000f0 3a 1b e8 3d 1a 86 10 bf 8c 9a 81 3e e9 92 0b 3f
       0.11333318 -0.5645462 0.25313222 0.5452104
000100 fa 2c 9e 3e 24 11 4e 3e 2f 37 5e 3e 70 54 90 bd
       0.3089369 0.20123726 0.21700738 -0.07047355
000110 49 57 79 be 90 c6 3c bd 31 32 0e 3e a2 e9 10 3e
       -0.24349703 -0.0460878 0.13886334 0.14151624
000120 8b 0e f6 bd 6c 22 bc bd 7d a0 ad 3e 3c 84 04 3e
       -0.120144926 -0.09186253 0.33911505 0.12941068
000130 a7 3b 3f be 02 1f 79 3e 80 16 8b 3e 1e 9e 67 be
       -0.186751 0.24328235 0.27165604 -0.2261891
000140 46 66 8c bd d7 8f b4 3d 6d 4a f9 bc a3 28 be be
       -0.068554446 0.08816498 -0.030430997 -0.37140378
000150 01 c0 42 3e 45 d7 b6 3e d6 69 3f be ae ae 6b 3e
       0.19018556 0.35711113 -0.18692717 0.23015854
000160 ec 7a 56 3e 14 ef 72 bd b6 6f 5d 3e 46 d9 ba 3e
       0.20945328 -0.059310034 0.21624646 0.3649389
000170 21 8b a0 be 27 55 6e 3e 76 25 25 3e 8a bd ad be
       -0.31356147 0.2327467 0.16127571 -0.3393367
000180 9a 52 84 3e c0 6e 20 be 76 45 5c 3e b4 cf 90 bd
       0.2584427 -0.15667248 0.21510872 -0.07070866
000190 94 fc 83 be 28 47 3a 3e e6 7e a4 3e 3a ea 16 be
       -0.2577864 0.18191206 0.32128066 -0.14737788
0001a0 77 bb a6 be 8c 71 c9 3d c5 98 1d 3e 8c 14 e3 bd
       -0.325649 0.098361105 0.15390308 -0.110879034
0001b0 1d a2 41 3c 24 d6 de bd 11 bf 71 3e 04 94 6d 3e
       0.011818436 -0.10880688 0.23608042 0.23200995
0001c0 26 5b ed 3c d6 f3 05 be 06 d1 8a 3c f7 fb 41 be
       0.028974127 -0.13081297 0.016945373 -0.18943773
0001d0 09 e1 89 3e 55 2d 87 3d 7e 19 b6 bd c9 c3 8b be
       0.269295 0.06600443 -0.08891581 -0.2729781
0001e0 f9 1a 32 bd 74 81 40 be 21 67 b1 3e 37 27 b0 bd
       -0.043482754 -0.18799382 0.34648994 -0.0860123
0001f0 e7 9f 0a bd f6 ca 62 be 85 ab 7c 3e 0b 50 8d be
       -0.0338439 -0.22147736 0.24674805 -0.2760013
000200 53 5d b7 bd 58 9e 2b bd 45 ce 49 be b8 c5 fe bd
       -0.08953347 -0.041899055 -0.19707592 -0.124400556
000210 a8 51 be 3a 00 af be 3c d2 1f 61 be 2c 92 0f 3e
       0.0014520185 0.023276806 -0.21984795 0.14020604
000220 98 1a a2 bc 48 dd 42 3d 4a 1f 08 3e c0 5f c9 bb
       -0.019788072 0.04757431 0.13293186 -0.0061454475
000230 01 d0 dc 3d 64 35 28 be dc 88 a0 bd 00 ea c9 3c
       0.10781861 -0.16426617 -0.07838604 0.024647713
000240 b4 93 08 3f c5 ff 4e be a0 ec 81 be be ca fb be
       0.5335038 -0.20214756 -0.25375843 -0.49178118
000250 28 86 39 3e 97 7d a0 be 87 9d 57 be f6 90 bd be
       0.18117583 -0.31345817 -0.21056186 -0.3702466
000260 b5 01 69 3e f7 f8 84 3d a7 5d cf 3e eb e2 93 be
       0.22754557 0.06492799 0.4050114 -0.28884062
000270 70 d0 ba be 8e 2e 9e be 17 88 3e bd 76 a1 17 bf
       -0.3648715 -0.30894893 -0.046516504 -0.59230745
000280 59 d7 f3 bb 98 89 2c bd 71 b0 3d 3e e4 60 3b be
       -0.007441443 -0.042123407 0.18524338 -0.1829868
000290 51 70 c2 be b4 30 77 be 1c 82 7b 3e 1e f2 50 3e
       -0.37976316 -0.24139673 0.24561352 0.2040486
0002a0 01 29 71 bd 30 24 36 be 5e 86 81 be 1c 33 b3 bd
       -0.058876995 -0.17787242 -0.25297827 -0.08749983
0002b0 8e ba 96 bd 30 b5 92 3c 96 e1 57 3d 9a 4e 7f 3e
       -0.07359801 0.017908663 0.05270537 0.24932328
0002c0 62 e5 80 3e c8 82 74 bd 69 dd 92 3d 41 09 6c be
       0.25175005 -0.059695035 0.07171137 -0.23050405
0002d0 93 43 20 bd fc a2 5c bd f6 bb 56 be 34 ac e9 be
       -0.039126944 -0.05386637 -0.20970139 -0.45639193
0002e0 b8 03 9a 3e 15 6d b2 be 5c b4 95 3e 8e 7a 90 be
       0.30080962 -0.34848848 0.29239166 -0.28218502
0002f0 c9 6c d2 bd 72 3b c2 be bc ee 74 3e 8f b7 02 bf
       -0.10274655 -0.37935978 0.23919195 -0.5106134
000300 77 de 99 3e 2e d6 7f 3e 8a f5 f2 3d 34 fd f2 3d
       0.3005254 0.24984047 0.11863239 0.11864701
000310 25 c0 42 be 52 53 47 3e 8c 79 98 3e c0 b9 53 3e
       -0.1901861 0.19465378 0.29780233 0.20676327
000320 4c bb 87 be 0a a3 07 be 04 60 25 3e 00 e8 13 bb
       -0.26510084 -0.13245788 0.16149908 -0.0022568703
000330 18 b5 54 be 04 35 41 3e 49 cd cd 3e 58 2c 48 3e
       -0.20772207 0.1886788 0.40195683 0.19548166
000340 97 48 59 3e e6 55 0f 3f 09 94 7e be 9d cf 8e be
       0.21219097 0.55990446 -0.24861158 -0.2789277
000350 68 da d0 3d 4e 32 bd 3e 5f 43 4c 3e 8e 60 e9 3e
       0.10197908 0.36952442 0.19947575 0.45581478
000360 76 d1 4c 3e 9c c6 32 be ff b4 d2 3d 50 e8 7a 3e
       0.20001778 -0.17458576 0.102884285 0.24502683
000370 18 1f d8 be 18 26 f9 3e 8a d9 fb 3d 08 0a d3 be
       -0.42211223 0.48661876 0.12297352 -0.4121859
000380 2a 10 a5 be 28 fd c9 3d 3e 7b 9a be 14 58 07 be
       -0.32238895 0.09862739 -0.3017215 -0.13217193
000390 e8 83 57 3d 88 9b 7f bd 7b 3b 60 be 36 c1 4c be
       0.05261603 -0.062404186 -0.2189769 -0.19995579
0003a0 47 dc 96 3e 40 86 a6 bb b8 30 06 3b d4 cd c5 3d
       0.29464933 -0.005081922 0.0020475816 0.09658399
0003b0 f9 ed 2f be 8c 2e 2e 3e 82 e6 b3 3d 98 2e a3 bd
       -0.17180623 0.17009944 0.087842 -0.079678714
0003c0 51 28 af 3e ec 4d cb be 1c d4 6c 3d ef fb fa 3e
       0.34210446 -0.39707887 0.05781947 0.49020335
0003d0 80 c4 0f be e9 56 dc be 32 c7 77 3c f4 c6 96 be
       -0.14039803 -0.43035057 0.015123175 -0.29448664
0003e0 ef 07 2e be f2 0a c0 3e c5 37 0c be f9 f0 9e bd
       -0.16995214 0.3750835 -0.1369315 -0.07760806
0003f0 39 e4 b8 3d ba 6d bc be d4 2c 91 3c 7b 72 f7 3e
       0.09027905 -0.36802465 0.017721571 0.4832953

model.flow.transforms.0.hyper.2.bias f4 [16]
000000 29 09 ad bd 53 fe d8 bd 86 6e 51 be 9d af 3f 3e
       -0.08449013 -0.105953835 -0.20452318 0.18719335
000010 d1 7f 03 bb ef e0 eb 3d c6 72 52 3e b1 89 92 3b
       -0.0020065198 0.11517512 0.20551595 0.0044719805
000020 30 3f 8f 3e 6e e3 9f 3d 28 07 00 be 0d d7 b4 3e
       0.27977896 0.07807051 -0.1250273 0.3532032
000030 5d 79 4f 3e eb 05 62 3e b2 82 b2 3e d7 1a 76 be
       0.2026114 0.2207257 0.34865338 -0.24033676

model.flow.transforms.0.hyper.4.weight f4 [16, 16]
000000 40 c2 0e be 00 1c c6 3c 83 e2 fa 3c e2 e9 53 3e
       -0.13941288 0.024183273 0.030625587 0.20694688
000010 73 42 e6 bb ba 3a 75 be 3b ef a0 bd 54 82 9b 3d
       -0.0070269643 -0.23948184 -0.078581296 0.075932175
000020 32 ad 81 3e dc f7 ab 3d 34 10 cf bc 10 91 88 3d
       0.2532745 0.08396885 -0.025276281 0.066682935
000030 49 52 22 bd c4 45 d6 3d df b9 f8 bc 24 ae 4d 3e
       -0.039629254 0.104625255 -0.030362068 0.2008596
000040 15 66 b8 3d 29 ef a8 be ad 12 c9 3c 5d d2 e0 be
       0.090038456 -0.32994965 0.024545038 -0.43910494
000050 57 e0 ab 3e 5d b4 9d bd 0f 9b 83 3e 84 84 35 3d
       0.33569595 -0.07700417 0.25704238 0.04431583
000060 4d b8 d0 3e 7a b1 8f 3e 89 28 ef 3c 07 44 a3 3e
       0.4076561 0.2806509 0.029194133 0.31887838
000070 6a a0 33 be 0e c6 8e be bd 1a d5 3d f3 0c 9b be
       -0.17541662 -0.2788548 0.104054905 -0.30283317
000080 ec 25 83 be 10 ad 60 bd 9a 58 5a be 80 e3 5d 3d
       -0.2561487 -0.054852545 -0.21322861 0.05417204
000090 f4 e0 5e be c8 18 31 3e 51 8f b7 be 02 82 21 be
       -0.217655 0.1729461 -0.3585153 -0.1577225
0000a0 86 58 69 3e 6a 1e 13 3e 8e 7c 66 be 80 fd ee 3c
       0.22787675 0.14367071 -0.22508451 0.029173613
0000b0 28 24 c2 be ae a6 30 3e 2b b5 89 3e d6 3e 6c be
       -0.3791821 0.17251083 0.26896033 -0.23070845
0000c0 51 d6 03 bd 5f 01 15 3d 69 e8 32 3e 96 b5 fb be
       -0.03218681 0.03637826 0.1747147 -0.49161977
0000d0 2f 2c 04 be d8 12 8b be 3d 3b c7 3c be 55 a8 bd
       -0.1290748 -0.27162814 0.02432024 -0.08219479
0000e0 87 02 99 be 4a 64 11 bc c6 65 89 3e ff ad 0e bc
       -0.2988474 -0.008874008 0.2683546 -0.008708476
0000f0 1f 38 3a be e4 84 96 be ed b9 3c be ea 2f 9a bd
       -0.18185471 -0.29398263 -0.184303 -0.0752867
000100 c2 15 84 be 74 3e e2 3d 73 a4 29 3e d2 f5 6d be
       -0.2579785 0.11047068 0.16566639 -0.23238304
000110 68 d8 76 bd 84 41 aa bd ea 68 10 3e 28 eb 95 3d
       -0.060264975 -0.08313277 0.14102522 0.07320243
000120 bf 37 7e 3d ac 5e 17 be ec 8e 2a 3d a6 68 02 3e
       0.062064882 -0.14782208 0.041640207 0.12735233
000130 03 76 5d be 48 f2 12 3e 3f 92 4a 3e 2c f6 40 be
       -0.21627049 0.14350235 0.19782351 -0.18843907
000140 bf 4d 5b be 8c 4d e5 3e de 22 fd b9 55 9a 22 bc
       -0.21416377 0.44785726 -0.00048281898 -0.009924491
000150 9c 97 97 be 42 fe 49 3e b9 d0 37 bd 13 52 9c be
       -0.29607856 0.19725898 -0.044876788 -0.30531368
000160 83 9a 28 3d a6 c8 c6 be 5c 64 8b be 51 70 bb be
       0.04116298 -0.38824958 -0.27225006 -0.36609128
000170 6c 72 b8 3d 2a d8 da 3e f7 5d 23 be 96 e2 89 3e
       0.09006199 0.42743045 -0.15953813 0.26930684
000180 f9 bc 90 bd d0 f8 8c bd c9 32 a3 bd 38 67 a8 bd
       -0.07067294 -0.06883395 -0.07968671 -0.082228124
000190 d2 bc 55 be fc 30 5d be 5e 40 8e bd b6 91 0a 3e
       -0.2087281 -0.21600717 -0.06945871 0.13532147
0001a0 65 d5 93 3d b0 99 36 be 68 e1 16 be 10 88 40 be
       0.07218436 -0.17832065 -0.14734423 -0.18801904
0001b0 8e 30 e2 bd 0e 47 45 3e 23 76 bb 3e e6 96 09 be
       -0.11044417 0.19265386 0.3661357 -0.1343647
0001c0 04 e3 a3 be 8c e3 75 3f 64 78 c0 be e9 62 f6 3c
       -0.32009137 0.96050334 -0.3759185 0.03007646
0001d0 bc 92 97 3d 2a 39 3d 3e 2b 2f 8d bc 93 43 12 bf
       0.07401034 0.18478838 -0.017234406 -0.5713436
0001e0 40 0b b6 3c 47 bc 0e bf c9 a0 9f bb 23 ee 41 bf
       0.022222161 -0.5575604 -0.004871462 -0.7575399
0001f0 ca 96 a5 be eb 16 f2 3e 20 c0 61 3e 51 ac 1a 3f
       -0.32341605 0.4728311 0.22045946 0.60419184
000200 64 8f 06 be 20 3f bc bd bc e4 80 3d 24 e7 6a be
       -0.13140637 -0.09191728 0.062936276 -0.22939736
000210 44 0a 6d be c8 5e bf bd 32 32 5d bc f4 5d d7 3d
       -0.23148447 -0.0934425 -0.013500737 0.10515967
000220 89 92 f0 3c 4a 51 5e be 2d 6d 16 3e 5a 1e 41 be
       0.029366748 -0.21710697 0.14690085 -0.18859234
000230 d1 06 88 be 48 69 a3 3d 37 07 5a bd 30 48 2d bd
       -0.265677 0.07979065 -0.053229537 -0.04230517
000240 a1 2e b3 3d 1f fa c3 bd 34 5f 83 3e 88 49 b2 be
       0.08749128 -0.09569191 0.25658572 -0.34821725
000250 0b 50 55 3e ee c6 4b be 31 fb 92 b9 85 27 2b be
       0.20831315 -0.19900104 -0.00028034442 -0.16714294
000260 d5 72 ae be 05 84 90 be c9 26 95 bd d9 a0 2e be
       -0.34071985 -0.28225723 -0.07282788 -0.17053546
000270 fe 1b e0 bd 81 63 58 be 6f c4 83 bd f1 33 01 bd
       -0.10942839 -0.21131708 -0.06433951 -0.031543676
000280 9b 01 dd 3d c0 22 30 3d 69 9f 16 be 90 92 b6 3d
       0.10791322 0.04300189 -0.14709248 0.08914673
000290 d8 80 1d be 2c 7f 8d 3d f4 86 89 bd fc 57 eb 3d
       -0.15381181 0.06909022 -0.067151934 0.11491391
0002a0 09 ab 02 bc 4a d3 5b be b3 c4 49 be c8 e3 36 3e
       -0.007975348 -0.21467319 -0.19703941 0.17860329
0002b0 5f 24 10 be a8 cd 19 3d 77 b6 5e 3e a8 d3 81 3d
       -0.14076374 0.037549645 0.21749292 0.06339198
0002c0 39 8d 90 3d 90 5d c6 3e eb 6b 93 be 5b 4d f7 3e
       0.07058186 0.38743258 -0.28793272 0.48301205
0002d0 c9 dc 76 be a1 62 c9 be 82 3b 98 bc 59 1c 8a be
       -0.2410766 -0.3933306 -0.018583063 -0.26974753
0002e0 79 0e 04 be e8 af 12 bf 82 82 c3 3e d5 6d bd be
       -0.12896146 -0.5729966 0.38185507 -0.36997858
0002f0 c0 7c f6 bd 4c 58 eb be 6a 77 52 be 11 1d 27 3f
       -0.12035513 -0.45965803 -0.20553365 0.65278727
000300 9b 9e cd 3d 18 6e 94 bd 28 88 b2 3e 28 ec 21 be
       0.10040017 -0.07247561 0.34869504 -0.15812743
000310 a5 a9 ad 3e b8 62 3b 3d 44 76 62 3e c8 71 a5 bd
       0.3391849 0.045748442 0.22115427 -0.08078343
000320 0d 69 21 be 7c ec 03 be 5d 91 3a 3e da 68 69 3e
       -0.1576273 -0.1288318 0.18219514 0.22793904
000330 3e 8b d5 3d 28 53 31 bd c7 17 1f be 9c bb 0a 3e
       0.10426949 -0.043292195 -0.15536414 0.1354813
000340 74 ea 53 3e e1 43 4d 3f bd 71 62 be 0f 0d 19 3d
       0.20694906 0.801817 -0.221137 0.03736597
000350 b4 08 22 be b1 6c 50 3e 31 5e 06 3e db d2 08 3e
       -0.15823632 0.20353962 0.13121869 0.13361685
000360 3e e5 fc bd d8 ce 1d bf 83 72 d9 3d 2f f8 c4 be
       -0.12348412 -0.61643744 0.106175445 -0.384706
000370 45 10 bf bc 4f 38 ec bd db ac 46 3b 58 e6 dd 3e
       -0.023323188 -0.115341775 0.0030315432 0.433398
000380 22 b1 93 be 06 d9 59 3e 7e 26 4f be 20 46 50 bc
       -0.2884608 0.21274194 -0.20229527 -0.012712032
000390 e9 8c b4 3d c0 c8 9f 3d 66 c0 4e be a8 1b 4c 3e
       0.08815939 0.07801962 -0.20190582 0.19932425
0003a0 a9 9c 8f bc 12 a0 07 3e 34 1b 2d be 28 c5 3a be
       -0.017530756 0.13244656 -0.16904908 -0.18239272
0003b0 d1 07 46 be 6c 37 6f be 95 16 88 bb 40 e4 e7 3d
       -0.19338919 -0.23360986 -0.0041530826 0.11322832
0003c0 52 63 11 3e bc a6 93 be be e8 e4 bd 6d 10 ba bd
       0.14198044 -0.28838146 -0.111772045 -0.09085164
0003d0 24 c2 60 bd 12 ee b5 be d9 b2 a9 3e be 2b 46 3e
       -0.054872647 -0.35533196 0.33144262 0.19352624
0003e0 ed 3f fb 3d 2d 55 b0 3e 75 22 5d be 9d 0e 73 3e
       0.12268052 0.34439984 -0.21595176 0.23736043
0003f0 0e ba 5e 3e 53 91 35 bd 96 06 31 be ef 16 68 be
       0.21750662 -0.044328045 -0.17287669 -0.22664998

model.flow.transforms.0.hyper.4.bias f4 [16]
000000 84 4f 39 3d b3 90 53 3e 4b dc e9 3d 65 82 36 3e
       0.045241848 0.20660667 0.11418971 0.17823179
000010 84 eb db 3d e3 be 99 3d c2 88 9b 3e 99 ef 51 3e
       0.107382804 0.07507112 0.30377775 0.20501556
000020 b8 49 17 3e 63 a5 f7 3d 67 41 5c 3b 58 79 b3 3b
       0.14774215 0.12092092 0.0033608319 0.005477112
000030 4c b6 fb bc 41 cd 89 3d 62 85 a3 be a6 14 db bd
       -0.030726574 0.06728602 -0.319377 -0.10697298

model.flow.transforms.0.hyper.6.weight f4 [8, 16]
000000 de 50 71 be 44 4e 82 3d 18 5e 6d be d0 d4 6d be
       -0.23566005 0.06362584 -0.23180425 -0.23225713
000010 ec 88 ac 3d 30 3a 5e 3e 68 5d 2c 3e 3a 6a 0e 3e
       0.08424553 0.21701884 0.16832507 0.1390771
000020 36 00 31 3e 00 3d 28 be 78 4b 05 bd f0 de 69 3e
       0.17285237 -0.1642952 -0.032542676 0.2283895
000030 3a 80 74 be 28 bd 27 bd 70 29 3d bd dc ed 02 be
       -0.2387704 -0.040951878 -0.046182096 -0.12786049
000040 08 57 61 bd 92 5a 26 be b0 61 d7 bc 88 fb 26 bd
       -0.05501464 -0.16245487 -0.026291698 -0.040767223
000050 e0 1e ef 3d ae 45 2c 3e 3e 78 5c 3e b0 bf c7 bd
       0.11675811 0.16823456 0.21530244 -0.09753358
000060 c0 05 db 3d 9c 47 47 be e8 d4 42 bd 6a 41 40 be
       0.10694456 -0.1946091 -0.047566324 -0.18774953
000070 70 48 47 bd 88 b3 d5 bd 78 77 40 be 68 a9 4f be
       -0.048653066 -0.104346335 -0.18795574 -0.20279467
000080 48 c9 b7 3d be f2 63 3e 95 74 05 3e 80 93 f2 3d
       0.08973938 0.22260568 0.13032754 0.1184454
000090 73 9d 13 be 1c 3d 04 3e e6 b9 29 be d0 2f 39 3d
       -0.14415531 0.12913936 -0.16574821 0.045211613
0000a0 ae 2a 82 bd 90 04 7c be 78 89 a5 be 20 0a 70 3d
       -0.06355797 -0.24611115 -0.32331443 0.058603406
0000b0 c5 ba 5d 3d 80 de 50 3c ac 05 26 bd 1a f0 1c be
       0.054133195 0.012748361 -0.040532753 -0.15325966
0000c0 d0 c1 a7 bd c8 a4 94 bd a0 ee 37 bc e0 da 78 3c
       -0.08191264 -0.07257992 -0.011226326 0.015188903
0000d0 40 e7 81 3c 08 4c 81 bd 7e 9e 1a be 1c 07 11 3e
       0.015857339 -0.0631333 -0.15099522 0.14162868
0000e0 2f 4a 7d 3e 90 56 44 be b2 31 0b 3d ce f9 1c be
       0.2473533 -0.19173646 0.03398294 -0.15329668
0000f0 0b 45 b1 3d 52 6e 06 be 1e 00 1f 3e a2 32 25 be
       0.08655747 -0.13128021 0.15527388 -0.16132596
000100 5b 8b 4a be 90 ac fe bd b8 c2 cd be f4 e1 5d 3e
       -0.19779722 -0.124352574 -0.4018762 0.21668226
000110 0f 93 97 3c aa f5 22 3e f1 ac b1 be 54 10 30 be
       0.01850274 0.15914026 -0.34702256 -0.17193729
000120 ff 1b 93 be 34 3e b2 3d 57 84 27 be 80 29 19 3d
       -0.28732297 0.087032706 -0.16359077 0.037393093
000130 46 5d 72 3e 94 49 a6 3d d1 71 c7 be 0c 16 54 be
       0.23668393 0.08119503 -0.38954023 -0.20711535
000140 44 94 26 be 68 0a 25 bd 08 da ba bc f4 20 56 be
       -0.16267496 -0.040293127 -0.022809044 -0.20911008
000150 ff cb 57 be ac 65 bc bd e4 f1 2c 3e 68 ce b6 3d
       -0.21073912 -0.0919908 0.16889149 0.089260876
000160 1f ae ec bd 80 81 3d be 91 1c 38 3e 10 47 0b 3d
       -0.115566485 -0.18506432 0.17979647 0.034003317
000170 f8 57 04 bd 90 21 21 3d 29 51 25 bd 4c 1f b5 3d
       -0.032310456 0.03933865 -0.040360603 0.0884386
000180 6d e9 a0 bd 34 7c c4 3e 4f 5c 7f 3d f9 76 03 3f
       -0.078570224 0.3837601 0.06234389 0.5135341
000190 e3 fa c3 be 82 b6 d6 be fd 90 88 be 8e 53 4e bf
       -0.3827735 -0.41936117 -0.26673117 -0.80596244
0001a0 fd 01 23 be 7e 98 4f 3e 0e 40 b1 bd ff 8b ec be
       -0.15918727 0.20273015 -0.086547956 -0.4620056
0001b0 96 bb 1c be 6b c7 9c be 9e e6 77 3e 89 0f c2 3e
       -0.15305933 -0.30620894 0.24209067 0.37902477
0001c0 d0 21 79 3e 06 98 96 bd ca 2c fc 3d 5c f6 f3 be
       0.24329305 -0.07353215 0.1231323 -0.47648895
0001d0 61 ed 15 3e bd 47 69 be c7 0e 00 be fe 69 94 3c
       0.14641334 -0.22781272 -0.12505637 0.018116947
0001e0 71 1c ea 3d 86 e8 93 ba 2b da 4a be 93 3f 5c bd
       0.11431206 -0.0011284507 -0.19809787 -0.053771567
0001f0 04 0a 58 3e 60 c8 b8 bd 5b a5 c0 bc 77 a2 97 be
       0.2109757 -0.090225935 -0.023516348 -0.29616138

model.flow.transforms.0.hyper.6.bias f4 [8]
000000 de 42 c6 38 03 41 af 37 c0 b9 96 3d 11 2c 03 3e
       9.453831e-05 2.08919e-05 0.07359648 0.12809779
000010 cd b6 22 3e 30 35 51 3e 75 b6 a1 be 8d 05 3d 3e
       0.15890045 0.20430446 -0.31584516 0.18459149

model.flow.base._0 f4 [4]
000000 00 00 00 00 00 00 00 00 00 00 00 00 00 00 00 00
       0.0 0.0 0.0 0.0

model.flow.base._1 f4 [4]
000000 00 00 80 3f 00 00 80 3f 00 00 80 3f 00 00 80 3f
       1.0 1.0 1.0 1.0
