_models_trained/vaca/collidersens_linear/epoch=249-step=5000.ckpt (torch, 25614 bytes, 25 tensors)

model.encoder_gnn.pre_nn.fc_layers.0.0.weight f4 [16, 1]
0	0xbeaece50	-0.3414178
1	0x3e4e64c9	0.20155634
2	0xbcbefe71	-0.023314686
3	0xbeefe718	-0.46855998
4	0xbf213478	-0.62970686
5	0x3f2699c4	0.6507838
6	0xbdf1aa40	-0.11800051
7	0xbf1228a4	-0.5709326
8	0xbf06bd1a	-0.52632296
9	0x3f1402c5	0.57816726
10	0xbe9aaa03	-0.30207834
11	0xbc42e44c	-0.0118952505
12	0xbda42dd7	-0.08016556
13	0xbf392d6f	-0.7233495
14	0x3f2f90e2	0.6858045
15	0xbf5e4caf	-0.8683576

model.encoder_gnn.pre_nn.fc_layers.0.0.bias f4 [16]
0	0x3e0b22dd	0.13587518
1	0xbf6e55fb	-0.93099946
2	0xbdd1f579	-0.10251898
3	0xbf42f635	-0.7615693
4	0xbef672c5	-0.48134437
5	0xbdc424d1	-0.09577335
6	0xbf5b08ae	-0.8556012
7	0xbedbf7e3	-0.4296256
8	0x3daaca12	0.08339323
9	0xbe452523	-0.19252448
10	0x3e19d5e1	0.15022995
11	0xbe32b890	-0.17453218
12	0xbec30d42	-0.38096052
13	0x3e3d7937	0.18503271
14	0xbd3ef7b9	-0.046622965
15	0x3d8b0146	0.06787352

model.encoder_gnn.lin_skipsum.0.0.weight f4 [16, 16]
0	0x3e1d48cb	0.153598
1	0x3e5b25d2	0.21401146
2	0x3e814aed	0.25252476
3	0xbd1db6bf	-0.03850436
4	0x3d926e2d	0.071499206
5	0xbdc7b5e1	-0.097514875
6	0xbd99448c	-0.074837774
7	0x3dbe2e6e	0.092861995
8	0x3e0f530e	0.13996527
9	0xbe2445a3	-0.1604219
10	0x3e128a3b	0.14310543
11	0x3e5a2e84	0.21306807
12	0x3e90ac10	0.28256273
13	0x3d8c558a	0.06852253
14	0xbd2f640e	-0.04282003
15	0x3d914bf1	0.07094563
16	0xbe205eb2	-0.15661123
17	0xbd17feda	-0.03710828
18	0x3e17748f	0.14790557
19	0x3d73874b	0.059455197
20	0x3da99b40	0.08281565
21	0x3e601559	0.21883143
22	0xbdf8efe4	-0.121551305
23	0xbe88320a	-0.26600677
24	0xbe733072	-0.23748949
25	0x3e871794	0.26385176
26	0xbdd8541d	-0.10562918
27	0x3e269503	0.16267781
28	0xbd0bfb0b	-0.03417496
29	0xbdbedfe6	-0.09320049
30	0x3de00446	0.10938315
31	0xbe074935	-0.1321152
32	0x3e3212c8	0.17389977
33	0x3b09aaef	0.0021006425
34	0xbdeb49f1	-0.114887126
35	0x3d82d230	0.06387746
36	0x3e57e9a2	0.21085218
37	0xbdca4daf	-0.09878098
38	0xbe3f7aa4	-0.18699127
39	0x3ddc4ea0	0.10757184
40	0x3e057f97	0.13036953
41	0xbe360d6b	-0.17778556
42	0x3e8cd7d5	0.27508417
43	0x3e3a8a2b	0.1821677
44	0xbe0f4d2b	-0.13994281
45	0x3dd797fc	0.105270356
46	0xbde4b695	-0.11167637
47	0x3df56bab	0.11983427
48	0x3e33d925	0.17563303
49	0xbe4d3a14	-0.20041686
50	0x3e252fc3	0.16131501
51	0x3f1e7b83	0.61907214
52	0x3b82b611	0.003988989
53	0xbea8f215	-0.32997194
54	0xbe04b4dc	-0.12959617
55	0x3d4ab8f4	0.04949279
56	0x3e1d6752	0.15371445
57	0xbebde9c4	-0.37092412
58	0x3dd35420	0.1031878
59	0xbe5f62a1	-0.21814968
60	0xbe20eea8	-0.1571604
61	0x3d6abbce	0.05730801
62	0xbe7f2333	-0.24915771
63	0x3d16230b	0.036654513
64	0xbe1474ed	-0.14497729
65	0x3e192ee1	0.14959289
66	0xbe458803	-0.19290166
67	0x3d444ef9	0.047926877
68	0xbd871ea9	-0.06597645
69	0x3e4d3bfd	0.20042415
70	0xbd27b100	-0.040940285
71	0x3d309cef	0.043118414
72	0xbdf84b39	-0.121237226
73	0x3e396caa	0.18107858
74	0xbe3e2b8f	-0.18571304
75	0xbdab269e	-0.08356975
76	0xbe9b26e5	-0.30303112
77	0xbd932f36	-0.07186739
78	0x3e0e62d2	0.13904884
79	0xbd80302b	-0.06259187
80	0xbd38490b	-0.044991534
81	0x3e1a9126	0.15094432
82	0xbe5dddfe	-0.21666715
83	0xbc9907c8	-0.018680468
84	0xbdd2ee77	-0.1029939
85	0x3e5c9b75	0.21543677
86	0xbe36adf4	-0.17839795
87	0xbe66fe67	-0.22557984
88	0xbdfbe224	-0.12298992
89	0x3e223874	0.15841848
90	0xbd657c19	-0.056026552
91	0xbe4cdeaf	-0.20006822
92	0xbe94f6c6	-0.29094523
93	0xbda84c03	-0.08217623
94	0x3e79189c	0.24325794
95	0xbe02f86d	-0.1279008
96	0xbe9727eb	-0.29522642
97	0x3cadc258	0.021210834
98	0xbe0c3cd2	-0.13695076
99	0x3d680850	0.056648552
100	0xbde6be0c	-0.11266717
101	0x3e24f66e	0.1610963
102	0x3c693480	0.014233708
103	0xbd8aeb4c	-0.067831606
104	0xbd94186f	-0.07231223
105	0x3e69223e	0.22766969
106	0xbe66fbef	-0.22557043
107	0x3e2814fb	0.16414253
108	0x3e340c4e	0.17582819
109	0xbe2d343c	-0.16914457
110	0x3e3c5a67	0.18393861
111	0xbd93b11e	-0.07211517
112	0x3e169315	0.14704545
113	0x3e33e5bd	0.17568107
114	0x3e22b9d4	0.158912
115	0x3f369008	0.71313524
116	0xbd88352f	-0.06650769
117	0xbe9f1f31	-0.31078485
118	0x3d51d2a0	0.05122626
119	0xbe51caf1	-0.20487572
120	0x3d9e0fa6	0.077178285
121	0xbea193ad	-0.3155798
122	0x3e5f325f	0.21796559
123	0x3e04843c	0.12941068
124	0xbdcee811	-0.10102857
125	0x3dd5837c	0.10425469
126	0xbe7afd95	-0.24510796
127	0x3e079511	0.13240458
128	0x3d9372cb	0.071996294
129	0xbe58f581	-0.21187402
130	0x3d33fbfd	0.043941487
131	0xbc26b363	-0.010174605
132	0x3e951e4c	0.29124677
133	0xbe453720	-0.1925931
134	0xbe520c4e	-0.20512506
135	0x3d73ae58	0.05949244
136	0x3e5723cc	0.21009749
137	0xbe86d97a	-0.26337796
138	0x3e4fcbcb	0.20292585
139	0x3e344d7b	0.17607681
140	0xbe2dd957	-0.1697744
141	0x3dcb87bc	0.09937999
142	0xbe687385	-0.22700317
143	0x3e0436f6	0.12911591
144	0xbde36246	-0.111027285
145	0xbe064735	-0.13113101
146	0x3d49f6d0	0.049307644
147	0xbd4df4d2	-0.050282307
148	0x3b4bc868	0.0031094793
149	0x3ea734d6	0.32657498
150	0x3e67ce46	0.22637281
151	0x3ce95e93	0.02848748
152	0xbe0e4943	-0.13895135
153	0x3e8c23d3	0.27371082
154	0xbe30ca4c	-0.1726467
155	0xbdac812e	-0.084230766
156	0x3dc2c7b7	0.09510749
157	0xbdab0d4d	-0.08352146
158	0x3e800365	0.2500259
159	0xbcd425aa	-0.025896866
160	0xbe366373	-0.17811374
161	0xbd672cd8	-0.05643925
162	0x3d2f0141	0.042725805
163	0x3c733281	0.014843584
164	0xbc4f2eff	-0.012645482
165	0x3e60ac17	0.21940647
166	0x3cad78c0	0.021175742
167	0xbe163e22	-0.1467214
168	0xbe21431c	-0.15748256
169	0x3e22c0af	0.15893815
170	0xbd5a783d	-0.053337324
171	0xbe2396e8	-0.15975535
172	0x3d07df48	0.033171922
173	0xbda94abd	-0.08266208
174	0x3e4d5493	0.20051794
175	0xbd454e4a	-0.048170365
176	0xbddab1e5	-0.10678462
177	0xbd8a12ed	-0.06741891
178	0xbe10b75e	-0.14132449
179	0x3b1a99b8	0.0023590159
180	0x3bd68866	0.0065470217
181	0x3de2aac5	0.11067728
182	0xbdee1544	-0.1162515
183	0x3d26e23e	0.040743105
184	0xbd9ea42e	-0.077461585
185	0x3e171fcf	0.14758228
186	0xbe03aa41	-0.12857915
187	0xbd06495f	-0.032784816
188	0x3d50dc43	0.050991308
189	0xbd2db8b3	-0.04241247
190	0x3dc9fcf0	0.09862697
191	0xbcc7a920	-0.024372637
192	0x3e66d1d1	0.22540976
193	0x3ceaf40f	0.02868083
194	0xbd752989	-0.059854064
195	0xbd930743	-0.071791194
196	0x3e0540d9	0.13013019
197	0xbde13037	-0.109955244
198	0xbe083370	-0.13300872
199	0x3cee6bf9	0.02910422
200	0x3e19e421	0.1502843
201	0xbdb71cce	-0.08941041
202	0x3e5d9f6c	0.21642846
203	0xbdc4de7c	-0.09612748
204	0xbd2d99ab	-0.042382877
205	0x3d731944	0.059350267
206	0xbdcb3d6a	-0.09923823
207	0x3ceb0ec6	0.028693568
208	0x3dcec63a	0.100964025
209	0xbd8a9e39	-0.0676846
210	0x3e3e05ec	0.18556947
211	0xbdc6bb12	-0.097036496
212	0xbd3dcc1e	-0.04633724
213	0xbe33c4dc	-0.17555565
214	0x3e242b58	0.1603216
215	0x3e09bcde	0.13450953
216	0x3ddf546b	0.10904773
217	0xbe165157	-0.14679466
218	0x3d90dddf	0.070735686
219	0xbdb3331c	-0.08749983
220	0xbca344a0	-0.019930184
221	0x3d909bd9	0.070609756
222	0xbdb99bda	-0.090629295
223	0x3de411a8	0.1113618
224	0xbdab7659	-0.083721824
225	0x3dd2d1c9	0.102939196
226	0x3d95d758	0.07316464
227	0x3e47e43b	0.19520657
228	0xbe66f43f	-0.2255411
229	0x3ddd9eba	0.1082129
230	0xbdc09f68	-0.09405404
231	0xbe88750c	-0.266518
232	0xbdb0f6ce	-0.08640824
233	0x3cb246aa	0.02176221
234	0xbd8955ac	-0.06705794
235	0xbe8bb95b	-0.27289852
236	0x3c124b9f	0.008929162
237	0xbddcc288	-0.107792914
238	0x3e134d74	0.14385015
239	0xbded2d17	-0.11580866
240	0x3e413943	0.188695
241	0x3e65aa28	0.2242819
242	0x3d48cb39	0.049021933
243	0x3df26115	0.11834923
244	0x3db5f415	0.088844456
245	0xbdc8c6af	-0.09803521
246	0x3e14cf16	0.14532122
247	0x3e333e2e	0.17504188
248	0x3dbac6c0	0.0911994
249	0xbeafab1e	-0.3431024
250	0x3e1cf0cb	0.1532623
251	0x3cc81e99	0.024428653
252	0x3c4bf2c8	0.01244802
253	0x3e140ec1	0.14458753
254	0xbd51edf9	-0.05125234
255	0x3e0d0159	0.13770045

model.encoder_gnn.lin_skipsum.0.0.bias f4 [16]
0	0xbdb2dcf0	-0.08733547
1	0x3dc401db	0.095706664
2	0xbe116087	-0.14196979
3	0x3d095eed	0.033537794
4	0x3d7932af	0.06083935
5	0x3d24b201	0.04020882
6	0x3de39fc3	0.111144565
7	0x3ba5d908	0.0050612725
8	0xbd3d089b	-0.046150785
9	0x3b54f363	0.0032493703
10	0x3d3ae14f	0.045625027
11	0x3d31d472	0.043415494
12	0xbdcef851	-0.10105956
13	0xbd6eea94	-0.05832918
14	0x3d8c44d0	0.068490624
15	0xbe0c268b	-0.13686578

model.encoder_gnn.gnn.0.0.nn.0.weight f4 [16, 16]
0	0xbe148298	-0.14502943
1	0xbe1b3f87	-0.15160953
2	0xbdb2a509	-0.08722884
3	0xbf06fdda	-0.52731097
4	0x3ddb429c	0.10706064
5	0xbd66e42c	-0.056369945
6	0x3e3723f6	0.17884812
7	0x3ad1d75a	0.0016009614
8	0x3d7e9093	0.062149595
9	0xbf752a0d	-0.9576729
10	0xbe6a1286	-0.22858629
11	0x3e16ec3e	0.14738557
12	0x3cb7c1e2	0.022431318
13	0x3d02c9f3	0.031930875
14	0x3f11641b	0.56793374
15	0x3bf593e6	0.0074944375
16	0x3db58922	0.08864047
17	0x3e4449f7	0.1916884
18	0x3e7ca690	0.24672914
19	0x3c2354b8	0.009968929
20	0xc05a5759	-3.4115813
21	0x3c501cdc	0.012702193
22	0xbe600836	-0.21878132
23	0xc056371c	-3.3471136
24	0xbcf89f1b	-0.030349305
25	0x3d8a28d2	0.06746067
26	0x3e08aef6	0.13347992
27	0x3e22cf6d	0.15899439
28	0xbdaa2739	-0.083082624
29	0xbcd424fc	-0.025896542
30	0x3d2dd6ca	0.042441167
31	0xbc95981a	-0.018261004
32	0xbeac29e1	-0.336257
33	0xbe1418e7	-0.14462624
34	0x3e436dc6	0.19084844
35	0x3e98bd39	0.29831865
36	0xbe972e54	-0.29527533
37	0x3e96912a	0.29407626
38	0x3e5b3ecc	0.21410674
39	0xbdffd2cb	-0.124913774
40	0xbe0d0509	-0.13771452
41	0xbed60fc9	-0.41808918
42	0xbe991e2b	-0.2990583
43	0xbd5b4a08	-0.0535374
44	0x3df34c8d	0.11879835
45	0xbdc01427	-0.09378844
46	0x3e39dde7	0.18151055
47	0x3f25d728	0.6478143
48	0x3db4e726	0.088331506
49	0x3d4fbc1b	0.0507165
50	0x3d890b82	0.06691648
51	0xbe310c87	-0.17289935
52	0xbd42920e	-0.04750257
53	0x3f10f8e8	0.566298
54	0xbe5e17d4	-0.21688777
55	0x3e41a98a	0.1891233
56	0xbdff8522	-0.12476565
57	0xbf11e413	-0.5698864
58	0xbcf18a1a	-0.029484797
59	0xbe5be8e7	-0.21475564
60	0xbe8d3764	-0.27581322
61	0x3cce711f	0.025200425
62	0xbebba2f7	-0.3664777
63	0x3e01462a	0.12624422
64	0xbdaa1a33	-0.08305778
65	0x3db6a4bf	0.089181416
66	0xbbc34e42	-0.005960257
67	0x3e8f9926	0.2804653
68	0x3d4f5867	0.050621416
69	0x3f1f9f9a	0.6235291
70	0x3dc67ce4	0.0969179
71	0x3dd16cd2	0.10225834
72	0xbda2d1b9	-0.07950158
73	0x3e2bb580	0.16768456
74	0xbddd0ce5	-0.10793475
75	0xbd8c3b3f	-0.06847238
76	0x3bad5694	0.005289862
77	0xbd15173c	-0.03639911
78	0x3d4ea9b1	0.0504548
79	0xbd541637	-0.051779
80	0x3d83d6a1	0.064374216
81	0x3e3aa3de	0.18226573
82	0xbe5a027b	-0.21290009
83	0xbecdc050	-0.40185785
84	0x3c877c71	0.01653883
85	0xbe1a6beb	-0.1508023
86	0x3e7f5308	0.24934018
87	0x3f3544a7	0.7080788
88	0x3e1d50da	0.15362874
89	0x3ea245e5	0.3169395
90	0xbd81dce8	-0.06340963
91	0xbe3c89d2	-0.1841195
92	0x3d97d12e	0.07412945
93	0xbe8d61b3	-0.276136
94	0x3ea59892	0.32342964
95	0xbda8baa1	-0.08238722
96	0x3e609d1d	0.21934934
97	0x3e45b00c	0.19305438
98	0x3d5458d3	0.051842522
99	0xbe7f00c6	-0.24902639
100	0x3e64c8d2	0.22342232
101	0x3d35933a	0.04432986
102	0x3e387e0e	0.18016836
103	0x3e98e39a	0.29861146
104	0xbf2d69f0	-0.6773977
105	0x3e0ec2aa	0.13941446
106	0x3ef77726	0.4833309
107	0x3e8a8c6d	0.2706026
108	0xbdeffc72	-0.11718072
109	0xbd82dfa4	-0.06390312
110	0xbeb8fa0a	-0.36128265
111	0xbd8e894a	-0.069597796
112	0xbe08e1a3	-0.13367324
113	0x3e2e1498	0.17000043
114	0xbdd62e6e	-0.104580745
115	0xbcf4a3df	-0.029863296
116	0x3d9fdf37	0.07806247
117	0xbdcfb399	-0.101416774
118	0xbe5d1354	-0.21589404
119	0x3d3531f9	0.04423711
120	0xbe088e07	-0.13335429
121	0x3f2e4643	0.6807596
122	0xbe13bd9f	-0.14427803
123	0x3d1b00e0	0.03784263
124	0xbe3cc174	-0.18433172
125	0x3ce6a626	0.028155398
126	0xbf14b23c	-0.58084464
127	0xbc01ebd9	-0.007929766
128	0xbdf2b40a	-0.11850746
129	0xbdac51e9	-0.084140606
130	0x3bb0c35f	0.005394384
131	0xbea0c720	-0.3140192
132	0x3dfc0984	0.123065025
133	0xbf226ec6	-0.63450277
134	0xbe3e88ac	-0.18606824
135	0x3de96813	0.11396804
136	0xbd624971	-0.05524582
137	0x3ea68c57	0.32528946
138	0xbe2ed461	-0.17073204
139	0x3e2b726a	0.16742864
140	0xbdbaf5c8	-0.0912891
141	0xbcc76bf9	-0.024343478
142	0x3e92365b	0.28557095
143	0xbc9cb435	-0.019128898
144	0x3defef27	0.117155366
145	0xbd99d649	-0.07511575
146	0x3d6cab15	0.057780344
147	0xbe4b7bd4	-0.19871455
148	0xbd4e44eb	-0.050358694
149	0x3c3d3fe4	0.011550877
150	0xbe441c6c	-0.19151467
151	0x3d4327c4	0.047645345
152	0xba2b2936	-0.0006529273
153	0x3f4730fc	0.7780912
154	0x3dd72e6c	0.10506901
155	0xbccf5ef2	-0.025313828
156	0xbdef6571	-0.1168927
157	0x3d26d3b1	0.04072923
158	0x3e6ad553	0.22932939
159	0xbe103a83	-0.1408482
160	0xbda75b53	-0.081717156
161	0xbc793cf6	-0.015212288
162	0x3e3e06fa	0.18557349
163	0x3d9d5500	0.07682228
164	0x3d599409	0.053119693
165	0xbe374938	-0.17899024
166	0xbe2db168	-0.16962206
167	0x3e44a83f	0.19204806
168	0xbe16e637	-0.14736257
169	0xbd2b3445	-0.041797895
170	0x3d1bf052	0.038070984
171	0x3e5dc5e1	0.21657516
172	0x3c91f4e2	0.017816965
173	0x3e4a6677	0.1976565
174	0x3dd2288f	0.10261642
175	0x3ee7fb5f	0.45308968
176	0xbe9ce1cc	-0.3064102
177	0xbe44c768	-0.19216692
178	0x3bb900d1	0.0056458493
179	0xbca7b44d	-0.020471716
180	0xbd380508	-0.044926673
181	0xbc0ad197	-0.008472822
182	0xbe197a2c	-0.14988011
183	0xbc808f56	-0.015693348
184	0xbe2b374b	-0.16720311
185	0xbc2d02a2	-0.01055971
186	0xbeabee6a	-0.33580333
187	0x3e5cd462	0.21565393
188	0xbe329a6a	-0.17441717
189	0x3f06eb8b	0.5270316
190	0x3a25543b	0.0006306802
191	0xbe036775	-0.12832434
192	0xbe7796c0	-0.241786
193	0xbba40180	-0.0050050616
194	0xbd956652	-0.07294907
195	0xbb5a4268	-0.0033303741
196	0xbd818f46	-0.06326155
197	0xbcd9e10a	-0.026596565
198	0x3d2089e0	0.039193988
199	0xbdd18d45	-0.10232023
200	0x3f58b662	0.84653294
201	0xbc70401a	-0.0146637205
202	0xbe4ca798	-0.19985807
203	0x3dbfd898	0.09367484
204	0xbd6ab0f5	-0.057297666
205	0xbdf38d0c	-0.11892137
206	0xbd69aa9d	-0.057047475
207	0xbddf53c0	-0.10904646
208	0xbd7a1aaf	-0.061060604
209	0x3cfb7cf0	0.030699223
210	0xbd6489fe	-0.055795662
211	0xbe0d5b12	-0.13804272
212	0xbd1ae4a6	-0.037815712
213	0xbc416a40	-0.011805117
214	0x3d52d2e0	0.051470637
215	0xbeda68ef	-0.42658183
216	0xbea80025	-0.3281261
217	0xbc7a1f22	-0.015266212
218	0xbda08113	-0.07837119
219	0xbe0470e2	-0.12933686
220	0x3e9c5e5f	0.3054075
221	0xbe5d0221	-0.21582843
222	0xbca5f6ef	-0.020259349
223	0x3f140798	0.5782409
224	0xbde579a7	-0.11204844
225	0x3e8562eb	0.2605203
226	0x3e26a238	0.16272819
227	0xbd7b7c0b	-0.061397593
228	0x3e2be1db	0.16785376
229	0xbf3dfbe3	-0.74212474
230	0x3dbc518c	0.09195241
231	0x3e852090	0.26001406
232	0x3c224a50	0.009905413
233	0x3ed2adce	0.41148227
234	0xbcf85827	-0.030315472
235	0xbe3b4432	-0.18287733
236	0xbe256cf2	-0.1615484
237	0xbc1db2a9	-0.009625115
238	0x3e99ae3c	0.30015743
239	0xbcf894c8	-0.030344382
240	0x3e4d71b8	0.20062912
241	0xbe149eb0	-0.1451366
242	0xbb89922e	-0.004198334
243	0xbe06ff33	-0.13183288
244	0xbe53282f	-0.20620798
245	0x3d16b034	0.036789134
246	0x3c39ae00	0.011332989
247	0xbe49eb67	-0.19718705
248	0x3e91b890	0.28461123
249	0xbf691d9f	-0.91060823
250	0x3e763d39	0.24046792
251	0xbe420fad	-0.18951292
252	0x3d1175f4	0.03551288
253	0x3de1d029	0.110260315
254	0x3ed45de4	0.41477883
255	0x3e4f6308	0.20252621

model.encoder_gnn.gnn.0.0.nn.0.bias f4 [16]
0	0xbe646649	-0.22304644
1	0x3ed67c1f	0.41891572
2	0x3d35faf1	0.04442877
3	0x3e8fb146	0.28064936
4	0xbe0291aa	-0.12750879
5	0x3e93cdcb	0.28867945
6	0xbc217d6c	-0.009856563
7	0x3e0d1708	0.13778317
8	0xbd8323c5	-0.06403307
9	0xbbeb4efa	-0.0071810456
10	0x3e46d3ed	0.19416781
11	0x3bd3e064	0.0064659584
12	0xbe28fd04	-0.16502768
13	0xbea5c0a7	-0.32373545
14	0x3ee2859a	0.44242555
15	0xbe1f4ee4	-0.15557438

model.encoder_gnn.gnn.0.0.nn.2.weight f4 [16, 16]
0	0xbf37432f	-0.7158689
1	0x3dcbd4aa	0.09952672
2	0x3b868228	0.0041048713
3	0xbeeffa88	-0.46870828
4	0xbb27d8e8	-0.0025611464
5	0x3e651144	0.22369868
6	0x3fa0c24d	1.2559296
7	0xbedd19a6	-0.4318363
8	0x3db49f5e	0.088194594
9	0xbb88fd8b	-0.0041806153
10	0xbef608f5	-0.4805371
11	0xbcbc2976	-0.022968989
12	0x3f9dd612	1.2330954
13	0xbf2a9816	-0.66638315
14	0xbe92f851	-0.28705075
15	0x3eae38a7	0.34027597
16	0x3eef6b9b	0.46761784
17	0xbe90f5a7	-0.28312418
18	0xbe7a6bf9	-0.24455251
19	0x3eb63cd9	0.35593298
20	0x3eaf6530	0.34256887
21	0xbe398809	-0.181183
22	0xbe874488	-0.26419473
23	0x3ebd9405	0.37026992
24	0x3ecf4835	0.40484777
25	0xbe1b6f65	-0.15179212
26	0x3cfdcf38	0.030982599
27	0xbf78081d	-0.9688738
28	0xbe446211	-0.19178034
29	0xbf86424d	-1.0488983
30	0x3ea2dfa5	0.31811252
31	0x3c157881	0.009122969
32	0xbdea44a2	-0.11438872
33	0x3e05ef08	0.13079464
34	0x3e8dfbe3	0.27731237
35	0xbd6c506d	-0.057693888
36	0xbdef7369	-0.116919346
37	0x3e006528	0.12538588
38	0x3ee86f96	0.45397633
39	0xbeba6c65	-0.36410823
40	0xbe1824ff	-0.14857863
41	0x3e22d18b	0.15900247
42	0xbd854e15	-0.065090336
43	0x3ef04092	0.46924263
44	0x3f27f63a	0.65610087
45	0x3f03b131	0.5144225
46	0xbd7cc0d2	-0.061707325
47	0xbd23dfaf	-0.040008243
48	0xbea88b7d	-0.3291892
49	0x3f0422e1	0.5161572
50	0x3e8a3a31	0.26997522
51	0xbdf387a7	-0.11891108
52	0xbe34d91f	-0.1766095
53	0x3e991994	0.29902327
54	0x3e8c8023	0.2744151
55	0xbe8ee151	-0.27906278
56	0xbed2b7b8	-0.4115579
57	0xbe1cd130	-0.15314174
58	0x3d4911d4	0.049089268
59	0x3eed5af3	0.4635845
60	0x3ecff7aa	0.4061864
61	0x3e8be71a	0.27324754
62	0xbd964499	-0.07337303
63	0xbe9000b5	-0.2812554
64	0x3ed13511	0.408608
65	0xbec878c3	-0.39154634
66	0x3ee45015	0.44592348
67	0xbdcdb48d	-0.10044203
68	0xbe9631ae	-0.29334778
69	0x3e1d788b	0.15378015
70	0xbe0eff6a	-0.1396462
71	0x3f8274f7	1.0191945
72	0x3e45ae8e	0.19304869
73	0x3c928645	0.01788629
74	0xbde733ab	-0.11289152
75	0xbe516083	-0.20446973
76	0xbf73f525	-0.95295936
77	0xbf1cf6a5	-0.6131385
78	0x3e3cbc5e	0.18431231
79	0xbdb077cd	-0.086166
80	0xbfeaad50	-1.8334141
81	0x3e35b712	0.17745617
82	0xbed338c4	-0.41254246
83	0x3e96e726	0.29473227
84	0x3f4c1645	0.7972148
85	0xbf118128	-0.568377
86	0xbdcb87dd	-0.09938023
87	0xbf3c0424	-0.7344382
88	0x3be81538	0.0070826076
89	0xbece0481	-0.4023781
90	0x3e55cf43	0.20879845
91	0xbf0f02ba	-0.55863535
92	0x3eb07efa	0.34471875
93	0xbe1e4b31	-0.15458371
94	0xbd223858	-0.039604515
95	0x3d1180a2	0.035523064
96	0x3ed91fc7	0.42407057
97	0xbd7998d3	-0.06093676
98	0xbea4bae8	-0.32173848
99	0xbdaa9990	-0.08330071
100	0x3dcb0e05	0.099147834
101	0x3d7a596a	0.06112043
102	0xbf25c657	-0.6475577
103	0x3f3a41a4	0.7275641
104	0x3dc87e8c	0.09789762
105	0xbdd2563b	-0.102703534
106	0x3df8adff	0.12142562
107	0xbf402a3d	-0.7506445
108	0xbed2cab6	-0.4117028
109	0xbe9a3849	-0.30121067
110	0x3dda1692	0.10648836
111	0x3e12287e	0.14273259
112	0xbddc2ed9	-0.10751123
113	0xbd4cdce1	-0.050015334
114	0xbe1748d1	-0.14773871
115	0xbe5b9452	-0.21443298
116	0xbe2eecfc	-0.1708259
117	0xbe5eaf56	-0.21746573
118	0xbddaaaae	-0.10677086
119	0xbe35e832	-0.17764357
120	0x3e22c0f3	0.15893917
121	0x3e1e8199	0.15479125
122	0xbde9e04d	-0.11419735
123	0xbe75e4aa	-0.2401301
124	0x3e07eb0d	0.13273259
125	0x3da2c4aa	0.07947667
126	0xbce5d95a	-0.028057743
127	0x3bcde46a	0.0062833326
128	0xbe989349	-0.2979987
129	0xbe7a85f3	-0.2446516
130	0x3d89b164	0.06723288
131	0xbe190d06	-0.14946374
132	0xbcabcad4	-0.02097074
133	0x3d6b4b60	0.05744493
134	0xbc1ab444	-0.009442393
135	0x3deed587	0.11661821
136	0xbd8d8e85	-0.06911949
137	0xbdd6c40c	-0.10486612
138	0xbe423d83	-0.18968777
139	0xbe6538ba	-0.2238492
140	0xbe413b3e	-0.18870255
141	0xbd8bc66b	-0.068249546
142	0xbe346e35	-0.17620166
143	0xbe17c414	-0.14820892
144	0x3f38d1a7	0.72194904
145	0xbe01bcfd	-0.1266975
146	0xbdb6a558	-0.089182556
147	0x3e78dcfc	0.24303049
148	0x3def588e	0.11686812
149	0xbce02ce0	-0.027365148
150	0xbf1039da	-0.56338274
151	0x3f67c88d	0.9054039
152	0x3ebe8ebc	0.37218273
153	0x3bdb0f0b	0.006685143
154	0x3cad6632	0.021166895
155	0xbea25659	-0.31706503
156	0xbd0cb9af	-0.03435677
157	0xbe1239d6	-0.14279875
158	0x3e88842b	0.26663336
159	0x3e61e16e	0.22058651
160	0x3f388a75	0.7208627
161	0xbf0c844c	-0.5488937
162	0xbcea0d0c	-0.028570674
163	0xbfc7d76a	-1.5612614
164	0xbca6171d	-0.020274693
165	0x3e5c58ec	0.21518296
166	0xbee26ff8	-0.4422605
167	0x3f861dd9	1.0477859
168	0x3f05ead3	0.5231144
169	0xbe80adb3	-0.25132522
170	0xbd5c6bda	-0.053813793
171	0x3dd0c994	0.10194698
172	0xbf4a0dee	-0.78927505
173	0xbd9042d0	-0.070439935
174	0x3e7373b3	0.23774604
175	0x3db1f4cb	0.08689269
176	0x3cd3d708	0.02585937
177	0xbf830a2a	-1.0237477
178	0x3ec05cd7	0.3757083
179	0x3ec27f41	0.37987712
180	0x3d83f665	0.064434804
181	0xbe44b1fd	-0.19208522
182	0xbe317dd6	-0.17333159
183	0xbdabb7c9	-0.083846636
184	0xbebe6081	-0.37183002
185	0xbde1a308	-0.11017424
186	0xbeb515f4	-0.3536831
187	0xbe744e6f	-0.23858045
188	0xbf1cb45a	-0.61212695
189	0xbf739a0f	-0.9515695
190	0x3f11eaaf	0.56998724
191	0xbf021dc1	-0.5082665
192	0x3eb89367	0.3604996
193	0x3e25155e	0.16121432
194	0x3f508e91	0.8146754
195	0x3d3d29ff	0.04618263
196	0xbfd22db2	-1.6420195
197	0x3ea60ce5	0.32431713
198	0x3e5b01ef	0.21387456
199	0xbeb718bf	-0.35761067
200	0xbfac4a6b	-1.346021
201	0x3f25876e	0.64659774
202	0xbe095db9	-0.13414659
203	0x3f5e49ef	0.86831564
204	0x3ebb6978	0.36603904
205	0x3f30bca2	0.6903783
206	0xbdcc9df6	-0.09991066
207	0xbef91dae	-0.48655456
208	0x3f0985c7	0.53719753
209	0x3ee7221c	0.4514321
210	0x3de86171	0.113467105
211	0xbe2bdfe5	-0.16784628
212	0xbf0de37a	-0.55425227
213	0xbeb42c8d	-0.3519024
214	0x3d458558	0.04822287
215	0xbc99b1de	-0.018761571
216	0x3e6ebbcf	0.23313831
217	0x3edfe869	0.43732002
218	0xbdf5c8de	-0.12001203
219	0x3fde76ca	1.7380002
220	0xbf468bc6	-0.7755703
221	0x3e2a0763	0.1660438
222	0xbf163891	-0.58680063
223	0xbeb8e2ba	-0.3611048
224	0x3e94b825	0.2904674
225	0xbf40a1b3	-0.75246733
226	0x3e5a6753	0.21328478
227	0x3ec8836f	0.39162776
228	0x3e68df39	0.22741403
229	0xbf03b88b	-0.51453465
230	0xbc68c810	-0.014207855
231	0x3deaa38c	0.11456975
232	0x3eb4d532	0.35318905
233	0xbeccda9c	-0.40010536
234	0xbe8d48c7	-0.27594587
235	0xbee93d34	-0.45554507
236	0xbf2109dd	-0.62905675
237	0xbf6cc90b	-0.9249427
238	0x3f375e8e	0.71628654
239	0xbdfac749	-0.12245042
240	0x3e3a68f1	0.18204094
241	0xbe369e1a	-0.17833748
242	0x3dc48a3b	0.09596678
243	0x3d51ee97	0.051252928
244	0xbe90c5b2	-0.2827583
245	0xbe35bfd0	-0.17748952
246	0xbdbd3e30	-0.09240377
247	0xbe4bbff2	-0.1989744
248	0x3e4e4ec1	0.2014723
249	0xbcb6db3d	-0.022321338
250	0xbe86aee8	-0.26305318
251	0xbd750d05	-0.05982687
252	0x3d216948	0.039407045
253	0xbdc8e068	-0.09808427
254	0xbe7c6945	-0.24649532
255	0xbe3b0ca2	-0.18266538

model.encoder_gnn.gnn.0.0.nn.2.bias f4 [16]
0	0x3d31ecd9	0.043438766
1	0xbba315b6	-0.0049769534
2	0xbe0aa2a1	-0.135386
3	0x3ce4586c	0.027874194
4	0xbafba8bc	-0.0019200067
5	0xbe1904be	-0.14943215
6	0xbc1969d8	-0.009363614
7	0xbe8cafbf	-0.27477834
8	0xbdc07190	-0.0939666
9	0xbeb027bf	-0.34405324
10	0xbd1a43ad	-0.037662197
11	0x3edb9535	0.42887273
12	0xbdb574e5	-0.088601865
13	0x3d8108b4	0.06300488
14	0x3ea4d845	0.3219625
15	0x3c20caa9	0.009813943

model.encoder_gnn.post_nn.fc_layers.0.0.weight f4 [8, 16]
0	0xba3eaf5f	-0.0007274057
1	0x3bac89f5	0.005265469
2	0xb9ded856	-0.00042504322
3	0xbba4f7fd	-0.0050344453
4	0x3a297ac3	0.00064651313
5	0x3b8ccf7a	0.004297194
6	0x3b7d2d8e	0.003863189
7	0xbb8a85fa	-0.004227397
8	0xbbb0f336	-0.0054000868
9	0x3be63565	0.007025408
10	0x3a27440d	0.0006380685
11	0xbbcba0ce	-0.006214238
12	0xbab36a56	-0.0013688307
13	0xba6c4f39	-0.00090144906
14	0x3c4625eb	0.012094001
15	0xbb8f2cb2	-0.004369342
16	0x3c955a07	0.018231405
17	0xb9de8bf8	-0.00042447424
18	0x3c34e4a0	0.011040837
19	0xbc125bf9	-0.008933061
20	0xba3c162c	-0.0007174935
21	0x3b90f7d6	0.0044240756
22	0xb8d88dc2	-0.00010326087
23	0xbb94a018	-0.004535686
24	0x3b813e5d	0.003944202
25	0x3c58581a	0.013204599
26	0xba6fe6de	-0.00091515284
27	0xbc06c86f	-0.008226498
28	0x3b4232a0	0.0029632226
29	0x3bc34f6b	0.005960395
30	0xbc269d7f	-0.010169386
31	0x3ad5a89f	0.0016300863
32	0xbe4efe37	-0.20214163
33	0x3e162e99	0.14666213
34	0xbe145484	-0.14485365
35	0xbe1775f7	-0.14791094
36	0x3e531179	0.20612134
37	0x3e182d3e	0.14861009
38	0x3e153c0a	0.14573684
39	0xbe247b5f	-0.16062687
40	0xbe1527fc	-0.14566034
41	0x3e394d45	0.18095882
42	0x3e5d53d6	0.21614012
43	0x3eb9d774	0.3629719
44	0xbe4e78fa	-0.20163336
45	0xbe766cc1	-0.24064924
46	0x3e2bccf9	0.1677741
47	0xbe155f8e	-0.14587232
48	0x3e7a7e9d	0.24462362
49	0xbe0d7b10	-0.13816476
50	0x3e3240d9	0.1740755
51	0x3e1e1cfc	0.15440744
52	0xbe4e00bd	-0.20117469
53	0xbe3b9064	-0.183168
54	0xbe198df4	-0.14995557
55	0x3e10c532	0.14137724
56	0x3e21aeca	0.15789333
57	0xbe09524a	-0.13410297
58	0xbe4fee48	-0.20305741
59	0xbe948a75	-0.29011884
60	0x3e7b572e	0.24544975
61	0x3e66e772	0.22549227
62	0xbe7a84de	-0.24464747
63	0x3e4956a9	0.19661964
64	0xba85954c	-0.0010191589
65	0xb873aad8	-5.8094825e-05
66	0x3ad19752	0.0015990532
67	0xbb899532	-0.0041986937
68	0x3abcb244	0.0014396389
69	0x3b56ca06	0.0032774224
70	0x3ad84eee	0.0016503015
71	0xba2e0b44	-0.0006639252
72	0xbab05ab0	-0.0013454761
73	0x3ade4d2e	0.0016960257
74	0x3b5bdfbf	0.003355011
75	0x391a33ae	0.00014705837
76	0xb9ae4730	-0.00033240905
77	0x3b194da2	0.002339222
78	0xb97c5b50	-0.0002406661
79	0xb99e5bd1	-0.00030204517
80	0x3b8c3d4b	0.0042797676
81	0x39b57593	0.0003461061
82	0x39deb812	0.00042480283
83	0x3ade26d6	0.001694883
84	0x3ba86eaf	0.0051401476
85	0xbb7cc486	-0.0038569286
86	0xbaf7ecb8	-0.0018915152
87	0xbad7f351	-0.0016475712
88	0x3b38d96f	0.0028205772
89	0x3b04c23a	0.002025737
90	0x3ab70e1e	0.0013965999
91	0x3afb124c	0.0019155233
92	0xba886680	-0.0010406524
93	0xba42760a	-0.0007418102
94	0xbbd7d6f2	-0.006586903
95	0x3aabd40b	0.0013109458
96	0x3da7da8e	0.08195983
97	0xbc9da8da	-0.019245554
98	0x3e05e337	0.13074957
99	0xbdfa4c83	-0.12221625
100	0x3c3e51d0	0.011616185
101	0x3c78403d	0.015152034
102	0x3bd7c0ca	0.0065842615
103	0xbd7b1243	-0.061296713
104	0xbc22f820	-0.009946853
105	0x3e074120	0.13208437
106	0x3bd8e5e8	0.006619204
107	0x3e0181d7	0.12647186
108	0x3d26d276	0.040728055
109	0x3d5c6873	0.053810548
110	0xbe520b58	-0.2051214
111	0x3db7391a	0.08946438
112	0x3db227c0	0.08698988
113	0xbc53865b	-0.012910451
114	0x3df95b19	0.121755786
115	0xbe07f86c	-0.13278359
116	0x3d38e5db	0.045141082
117	0x3c6aee79	0.014339083
118	0xbc84b1e4	-0.016198106
119	0xbdb552c2	-0.088536754
120	0x3b8b1305	0.0042442107
121	0x3df1462a	0.11780961
122	0x3d113cba	0.035458304
123	0x3dfef787	0.12449556
124	0x3d2bef95	0.04197653
125	0x3c04a9fd	0.008097169
126	0xbe1af5b9	-0.15132798
127	0x3db4c160	0.08825946

model.encoder_gnn.post_nn.fc_layers.0.0.bias f4 [8]
0	0xba4cb4c2	-0.00078089174
1	0xbb31bbf8	-0.0027120095
2	0xbcddd0b6	-0.02707706
3	0x3cbd06c6	0.023074519
4	0xbab524e0	-0.0013820194
5	0xbb22a9f8	-0.0024820548
6	0xbfa0f2d5	-1.2574106
7	0xbfa9b213	-1.3257469

model.decoder_gnn.pre_nn.fc_layers.0.0.weight f4 [16, 4]
0	0xbc4b98a2	-0.012426527
1	0x3b173dbf	0.0023077575
2	0xbed919a1	-0.42402366
3	0x3ea26a5e	0.31721777
4	0x3aa1ea7b	0.0012353206
5	0xbc495884	-0.01228917
6	0x3df75d3e	0.120783314
7	0xbdeff383	-0.11716368
8	0x3c72b48c	0.014813554
9	0x3c741812	0.014898317
10	0x3ec78c3e	0.38974184
11	0xbecbb8a3	-0.39789304
12	0xbbc9eee8	-0.006162513
13	0x3cd63e44	0.026152737
14	0xbcb02013	-0.02149967
15	0x3f04a628	0.51816034
16	0x3b296d44	0.002585248
17	0xbbdd1557	-0.0067469287
18	0xbec5f0d9	-0.38660315
19	0x3ecdc5e3	0.40190038
20	0x3c044314	0.008072633
21	0xbb3000a4	-0.002685585
22	0x3ea6602e	0.32495254
23	0xbea05594	-0.3131529
24	0xbc844890	-0.016147882
25	0xbcbd80e6	-0.023132753
26	0x3e4c1c5b	0.19932692
27	0xbe6517c7	-0.22372352
28	0x3b6618bd	0.003510996
29	0x3c470c00	0.012148857
30	0x3e8de230	0.2771163
31	0xbe97fdbb	-0.29685768
32	0xbc9cf788	-0.019161
33	0xbc8efdb9	-0.017454969
34	0x3dff191b	0.1245596
35	0xbe11eab7	-0.14249693
36	0xbbe07be3	-0.006850706
37	0xbc0af77e	-0.008481858
38	0x3ec8b6a5	0.39201847
39	0x3e8dffb5	0.2773415
40	0xba9dff9a	-0.0012054325
41	0x3c73e28e	0.014885558
42	0xbeb01a65	-0.34395137
43	0x3ed70b19	0.42000654
44	0x3be89243	0.007097514
45	0xbb8213a4	-0.0039696265
46	0x3dfd6c69	0.12374193
47	0xbe0560d8	-0.13025224
48	0xbc982b09	-0.018575208
49	0x3bc489a7	0.0059978548
50	0x3e5e693a	0.21719828
51	0xbe8c924a	-0.2745536
52	0x3c8b111a	0.016975928
53	0xbc5dd3a7	-0.013539231
54	0x3edff054	0.43738043
55	0x3ec088a8	0.3760426
56	0x3bb1de96	0.0054281456
57	0x3ae585f6	0.0017511237
58	0x3ed76326	0.42067832
59	0xbed97e7d	-0.42479315
60	0xbcbd440d	-0.023103738
61	0xbc1a3dbe	-0.009414135
62	0xbed2aa7a	-0.41145688
63	0xbeecb46f	-0.4623141

model.decoder_gnn.pre_nn.fc_layers.0.0.bias f4 [16]
0	0x3e57b41a	0.21064797
1	0x3e587945	0.2114001
2	0x3ebafb44	0.36519825
3	0xbec52953	-0.3850809
4	0x3ef24b34	0.47323
5	0xbf35298d	-0.70766526
6	0x3df19b0c	0.11797151
7	0x3eac6c7e	0.33676523
8	0x3e700995	0.23441155
9	0xbe9906e4	-0.2988807
10	0x3e8c2c8d	0.2737774
11	0x3e5b2dea	0.21404234
12	0xbe2659ec	-0.1624524
13	0xbf36daf9	-0.71427876
14	0x3ec55704	0.3854295
15	0xbf08eed4	-0.5348942

model.decoder_gnn.lin_skipsum.0.0.weight f4 [16, 16]
0	0x3ccb7df8	0.02484034
1	0xbe804d8a	-0.25059158
2	0xbc126ae6	-0.008936619
3	0x3e2f3cf1	0.17113091
4	0x3e8d34a9	0.2757924
5	0xbe438a05	-0.19095619
6	0xbea91f19	-0.33031538
7	0x3c9ac441	0.01889241
8	0xbd9747f7	-0.07386773
9	0x3ccf55b2	0.025309417
10	0x3e15d8ed	0.14633532
11	0xbe302157	-0.17200218
12	0xbda73da6	-0.081660554
13	0x3c9a48ae	0.018833485
14	0xbe0a4d8e	-0.13506147
15	0xbcff8ecd	-0.031196022
16	0x3e59b16f	0.21259092
17	0xbe8fc558	-0.2808025
18	0xbdc42abf	-0.09578466
19	0x3e429099	0.19000472
20	0x3e219243	0.1577845
21	0x3d6aeb7d	0.057353485
22	0xbda9a6ec	-0.08283791
23	0xbdd48137	-0.10376208
24	0xbddfcc20	-0.10927606
25	0xbd376d07	-0.04478171
26	0x3d10e2ed	0.035372663
27	0xbe03c42c	-0.12867802
28	0xbe935fe2	-0.2878409
29	0x3cb6d194	0.022316732
30	0xbd815686	-0.06315331
31	0x3d8e9653	0.06962266
32	0x3dd15205	0.10220722
33	0xbe0075c7	-0.12544928
34	0xbda5a02d	-0.08087192
35	0x3e639674	0.22225362
36	0x3e66350e	0.22481176
37	0xbe41423f	-0.18872927
38	0xbe16a2ff	-0.14710616
39	0xbe45183e	-0.19247529
40	0xbe515a9e	-0.20444724
41	0xbe1f76be	-0.1557264
42	0x3dbd82cc	0.09253463
43	0xbdff02eb	-0.124517284
44	0xbd345fc2	-0.044036634
45	0x3d2fe643	0.042944204
46	0xbdb28429	-0.08716614
47	0x3e0e5a1c	0.13901561
48	0xbe208e53	-0.15679292
49	0x3e2d6d3d	0.16936202
50	0x3d86ec57	0.06588047
51	0xbe4db7c8	-0.20089638
52	0xbe0c8b08	-0.13724911
53	0x3dbfcc00	0.09365082
54	0x3e38c62b	0.18044345
55	0x3e494263	0.19654231
56	0xbd308154	-0.043092087
57	0x3c0d48e7	0.008623338
58	0xbe2e0c81	-0.16996957
59	0x3e6c0730	0.23049617
60	0x3e75a149	0.23987307
61	0xbdf00e10	-0.11721432
62	0x3d0f9df3	0.03506274
63	0xbcdbf815	-0.026851693
64	0xbe36389e	-0.17795035
65	0xbcba0adf	-0.022710262
66	0x3e0410c7	0.12897025
67	0xbe113642	-0.14180854
68	0xbe537ef2	-0.20653895
69	0x3de555e4	0.11198023
70	0x3e463950	0.193578
71	0x3e07cb0c	0.1326105
72	0x3e38cc69	0.18046726
73	0xbe08acec	-0.13347214
74	0xbdd84225	-0.10559491
75	0x3e315159	0.17316188
76	0x3e1cc76e	0.15310451
77	0x3e17af12	0.14812878
78	0x3d3d5931	0.046227638
79	0xbe42b1e3	-0.19013171
80	0x3d22009a	0.039551355
81	0xbe782ab4	-0.2423504
82	0xbddb9cac	-0.10723242
83	0x3d1f139b	0.038837057
84	0x3e37f739	0.17965402
85	0xbe3af825	-0.18258722
86	0x3ad4928e	0.0016217993
87	0x3d08437b	0.03326748
88	0xbe650f79	-0.22369184
89	0xbd122d27	-0.035687592
90	0x3e4b4c6c	0.19853371
91	0x3b277922	0.0025554379
92	0xbe9061fe	-0.28199762
93	0x3db03343	0.086035274
94	0x3c3d302f	0.011547132
95	0x3e407cfb	0.18797676
96	0x3e1abc79	0.15110959
97	0xbd877cd7	-0.06615608
98	0xbdfc7ad2	-0.123281136
99	0x3e8042d3	0.25050983
100	0x3e8a1759	0.26970938
101	0xbd00d8d0	-0.03145677
102	0xbdb2f1f4	-0.08737555
103	0xbd950e0d	-0.072780706
104	0xbcf2d353	-0.029641783
105	0xbe131999	-0.14365233
106	0x3def4b64	0.116843015
107	0xbe34a68b	-0.17641656
108	0xbe9da7ef	-0.30792186
109	0xbd888f74	-0.066679865
110	0xbe785be8	-0.2425381
111	0x3e1f8beb	0.15580718
112	0xbe06cad8	-0.13163316
113	0x3e269d16	0.16270861
114	0x3d41af69	0.047286425
115	0xbdda58e7	-0.10661488
116	0xbdc65920	-0.09684968
117	0x3dba2f9a	0.090911105
118	0x3db52af5	0.08846084
119	0x3e05b072	0.1305559
120	0x3e1acc99	0.1511711
121	0xbc8e260a	-0.017352123
122	0xbd9e34fa	-0.07724948
123	0x3def6df7	0.11690896
124	0x3e10d9f9	0.1414565
125	0x3b3cf081	0.0028829875
126	0x3bcea1b3	0.006305897
127	0xbd563540	-0.052296877
128	0x3d6cf0db	0.057846885
129	0xbe1dbdb3	-0.15404396
130	0xbd88b237	-0.06674617
131	0x3e468697	0.1938728
132	0x3e6aee65	0.22942503
133	0xbe2de063	-0.16980128
134	0xbda5d57a	-0.08097358
135	0xbe29de79	-0.16588773
136	0xbe026621	-0.12734272
137	0xbc8a0642	-0.016848687
138	0x3dc8236e	0.09772383
139	0x3bb56a66	0.0055363653
140	0xbd5880e0	-0.05285728
141	0x3e1939b3	0.14963417
142	0xbe3662c8	-0.1781112
143	0x3e0352ad	0.12824507
144	0x3dfac602	0.12244798
145	0xbd150ff9	-0.036392186
146	0x3a621a98	0.00086251786
147	0x3e423ba8	0.1896807
148	0x3e486caa	0.19572702
149	0xbd902146	-0.070375964
150	0xbd3b2933	-0.045693588
151	0xbe7bb5e6	-0.24581107
152	0xbe474e2c	-0.19463414
153	0x3db97a73	0.090565585
154	0x3c6685b6	0.014069965
155	0xbe8ea627	-0.2786114
156	0xbe17840a	-0.14796463
157	0xbe363e96	-0.17797312
158	0xbd779745	-0.060446996
159	0x3e07f99d	0.13278814
160	0x3e049073	0.12945728
161	0x3dac1d17	0.08403986
162	0xbdacc83a	-0.08436628
163	0x3d9dcfe0	0.07705665
164	0x3e33e349	0.17567171
165	0xbdf54864	-0.11976698
166	0xbdb53471	-0.08847893
167	0xbd6c1b2a	-0.057643093
168	0xbde54fe1	-0.11196876
169	0x3bcaa51c	0.0061842334
170	0x3db65bf0	0.089042544
171	0x3d06c134	0.032899097
172	0xbe39d5c3	-0.1814795
173	0x3e034927	0.12820874
174	0xbdf1061a	-0.11768742
175	0xbd83b584	-0.06431106
176	0xbd4c97c4	-0.049949422
177	0x3e76a17d	0.2408504
178	0xbcd1eb89	-0.025625007
179	0xbe158beb	-0.14604156
180	0xbdf69f88	-0.12042147
181	0x3d7bd6dc	0.061484203
182	0x3cfd4aa0	0.030919373
183	0x3e0117cb	0.12606733
184	0x3e14523f	0.144845
185	0x3c5c0a97	0.013430259
186	0xbdb22cfd	-0.08699987
187	0x3d85c26c	0.06531224
188	0x3e495d38	0.19664466
189	0x3dff11fb	0.124546014
190	0x3d517d8d	0.051145125
191	0xbdb61a5e	-0.08891748
192	0xbdd8615a	-0.10565443
193	0x3dc9b619	0.098491855
194	0x3c23f94b	0.010008167
195	0xbe06f432	-0.1317909
196	0xbe138e8a	-0.14409843
197	0x3d9206a0	0.0713017
198	0x3d8be651	0.06831039
199	0x3e040c6f	0.12895368
200	0xbb5f7bec	-0.0034100963
201	0x3bf64815	0.007515917
202	0xbc8bfb90	-0.017087728
203	0xbd00e72d	-0.031470466
204	0x3db81f71	0.08990372
205	0xbac23615	-0.0014817143
206	0x3de4e68f	0.11176788
207	0xbcab08de	-0.020878252
208	0x3d9464f1	0.072458155
209	0xbe67dacc	-0.22642058
210	0xbe0c99ff	-0.1373062
211	0x3e09b551	0.13448073
212	0x3e18c9dc	0.14920753
213	0xbe28eb34	-0.16495973
214	0x3b08e785	0.002088995
215	0xbd983e78	-0.0743379
216	0xbd29fced	-0.041500974
217	0x3d439527	0.047749665
218	0x3e5cb87d	0.21554752
219	0xbe6b455f	-0.22975682
220	0xbda16db0	-0.07882249
221	0xbdf87de4	-0.12133387
222	0xbdaa26ea	-0.083082035
223	0x3de37c15	0.11107651
224	0x3e07cb20	0.1326108
225	0xbdf8d201	-0.1214943
226	0xbdbc38ed	-0.09190545
227	0x3e508435	0.20362933
228	0x3da2b08e	0.079438314
229	0x3d9fcc5b	0.078026496
230	0xbe729a82	-0.23691753
231	0xbd6e65da	-0.058202602
232	0xbe68842c	-0.2270667
233	0xbd1f9b6e	-0.03896659
234	0x3e27f081	0.16400339
235	0xbe61d2fd	-0.22053142
236	0xbe2e466b	-0.1701905
237	0x3e39e703	0.1815453
238	0xbde5ca40	-0.11220217
239	0x3d189539	0.037251685
240	0x3e430407	0.19044505
241	0xbd0930d0	-0.033493817
242	0xbdf032ee	-0.11728464
243	0x3e1ae666	0.15126953
244	0x3d980cc7	0.07424312
245	0x3de1e30d	0.110296346
246	0xbdbf4a9e	-0.09340404
247	0xbe53bab2	-0.20676687
248	0xbced626e	-0.028977599
249	0x3d78d824	0.060753003
250	0x3d37d239	0.04487822
251	0xbe862fd1	-0.26208356
252	0xbe6744ff	-0.22584914
253	0xbdf845cf	-0.1212269
254	0xbc15c580	-0.009141326
255	0xbe31eb82	-0.17374995

model.decoder_gnn.lin_skipsum.0.0.bias f4 [16]
0	0x3c8eb268	0.017419055
1	0x3dd2f51e	0.10300659
2	0x3daa08f9	0.08302493
3	0xbd8e62d7	-0.06952446
4	0xbcb52b29	-0.022115307
5	0xbd1b35ab	-0.03789298
6	0x3d4092e7	0.047015097
7	0xbdb872ab	-0.09006246
8	0x3dcef994	0.10106197
9	0x3dac1e9e	0.08404277
10	0xbc89fb2f	-0.016843406
11	0xbd7d9da3	-0.061917912
12	0xbc7ee2cd	-0.015557003
13	0x3d2da547	0.04239395
14	0x3e200092	0.15625218
15	0x3de6a36a	0.112616375

model.decoder_gnn.lin_skipsum.1.0.weight f4 [16, 16]
0	0x3e4b2a8f	0.19840454
1	0xbdae7729	-0.08518822
2	0x3de2dd66	0.11077385
3	0x3e658af4	0.22416288
4	0x3c4d6d9d	0.012538341
5	0x3e582086	0.21106157
6	0x3dddc695	0.10828892
7	0xbd760452	-0.060062714
8	0xbe31eb45	-0.17374904
9	0x3d8296ef	0.063764445
10	0x3ddf2e87	0.10897546
11	0x3f4595f6	0.7718195
12	0xbe82e3f3	-0.25564536
13	0x3e03aea4	0.12859589
14	0x3e9d905d	0.30774203
15	0xbd0b2c6e	-0.03397792
16	0x3e2fbcb5	0.1716183
17	0x3e136331	0.14393307
18	0xbc66455b	-0.014054622
19	0x3d424081	0.047424797
20	0x3e03a2e1	0.12855102
21	0xbddce241	-0.10785342
22	0xbda8b9b7	-0.08238547
23	0xbd9d8ea9	-0.07693226
24	0xbe1b8790	-0.15188432
25	0x3d93d19e	0.07217716
26	0x3cbb1c0f	0.022840528
27	0x3f44f1a7	0.7693123
28	0xbe7b9dd9	-0.24571933
29	0x3dd1593e	0.102221
30	0x3e38eb40	0.18058491
31	0xbe678e65	-0.22612913
32	0x3e9775b4	0.29581988
33	0x3d2861d6	0.04110893
34	0x3e802db3	0.25034866
35	0x3e6eb07a	0.23309508
36	0xbd2dfdf4	-0.042478517
37	0x3db0ea39	0.086384244
38	0x3dbf762a	0.0934871
39	0xbde6ac84	-0.112633735
40	0xbe724541	-0.23659231
41	0xbc7bc150	-0.0153659135
42	0x3e207642	0.15670112
43	0x3f6ac7eb	0.917113
44	0xbe301aaf	-0.17197679
45	0x3dcdd66a	0.10050662
46	0x3d39906c	0.045303747
47	0x3ba970e7	0.0051709297
48	0xbeb90123	-0.3613368
49	0x3bb7f36d	0.0056137354
50	0xbe29b6e1	-0.16573669
51	0xbe4459ec	-0.19174927
52	0xbdc28c19	-0.09499378
53	0x3ac68d6d	0.0015148349
54	0x3d8dd98d	0.0692626
55	0x3d53d989	0.05172113
56	0x3e11a4f6	0.14223084
57	0xbcc91dd7	-0.024550362
58	0xbd7561a4	-0.05990757
59	0xbf3496ee	-0.705428
60	0x3ec5830b	0.3857654
61	0x3a6d21df	0.00090458797
62	0xbe3768ee	-0.17911121
63	0xbd561980	-0.052270412
64	0xbea7eb26	-0.32796592
65	0x3ca2c6f7	0.019870264
66	0xbe23b860	-0.15988302
67	0xbe3e29c3	-0.18570618
68	0xbd8d0d3e	-0.06887291
69	0x3dfe4bc1	0.12416793
70	0x3c93db4c	0.018048905
71	0x3d91675a	0.07099791
72	0x3e4e2c8e	0.20134184
73	0xbe39c50a	-0.1814157
74	0xbdbc2c49	-0.09188134
75	0xbee299a2	-0.44257838
76	0x3e8e1e9b	0.27757725
77	0xbc538c77	-0.012911907
78	0xbdb57799	-0.08860702
79	0x3e19045e	0.14943072
80	0x3e5b4314	0.21412307
81	0x3e13ba75	0.14426596
82	0x3d456244	0.048189417
83	0x3cdbe0da	0.026840616
84	0x3d97c7c4	0.07411149
85	0xbe3b1fd2	-0.18273857
86	0xbd3437c0	-0.04399848
87	0xbd7e0c27	-0.062023308
88	0xbdf69696	-0.12040441
89	0x3e2bdc31	0.16783215
90	0x3d103d14	0.0352145
91	0x3f28fa8b	0.660073
92	0xbe009ec6	-0.12560567
93	0x3db24176	0.08703892
94	0x3c95dcdb	0.018293789
95	0xbce599ba	-0.028027404
96	0x3eca1a93	0.394734
97	0x3d393797	0.04521903
98	0x3e891912	0.2677694
99	0x3e71a770	0.23599029
100	0x3dd17a80	0.10228443
101	0x3e849aaa	0.2589925
102	0xbd6534b4	-0.055958465
103	0xbe02cd16	-0.12773547
104	0xbea95c97	-0.33078453
105	0x3e884120	0.26612186
106	0xbd4f633e	-0.050631754
107	0x3f910250	1.1328831
108	0xbe854980	-0.2603264
109	0xbb80f840	-0.0039358437
110	0x3e9eaf4d	0.3099312
111	0xbdb0f0cc	-0.08639678
112	0xbe36fb4f	-0.17869304
113	0xbb999a9e	-0.0046876213
114	0xbc876cf8	-0.016531453
115	0xbdd84f2c	-0.10561976
116	0xbd955efc	-0.072935075
117	0x3e1b8124	0.15185982
118	0xbd96dd8b	-0.07366475
119	0x3d50657f	0.050878044
120	0x3e2fbcbb	0.17161839
121	0x3cdae056	0.0267183
122	0xbdf0763e	-0.11741303
123	0xbf395205	-0.72390777
124	0x3e1dc0ef	0.1540563
125	0xbc9e001d	-0.019287163
126	0xbe531901	-0.20615007
127	0x3eba41ba	0.3637827
128	0x3e4623f6	0.19349656
129	0xbdbedd12	-0.093195096
130	0x3e69e1bc	0.22840017
131	0x3e6a7432	0.22895887
132	0x3da48dca	0.080348566
133	0x3d056a94	0.032572344
134	0x3e215657	0.15755592
135	0xbc869b21	-0.016431393
136	0xbe8c0147	-0.27344725
137	0x3decd0b3	0.11563244
138	0x3c963aa1	0.018338503
139	0x3f221e53	0.6332752
140	0xbe15e318	-0.1463741
141	0x3e000e28	0.125054
142	0x3c61515d	0.013752309
143	0x3e367a0b	0.17819993
144	0x3e4e55f5	0.20149978
145	0x3d036d7f	0.032086845
146	0x3dc54815	0.09632889
147	0x3e3eb68b	0.18624322
148	0xbd94e591	-0.07270349
149	0x3e498109	0.1967813
150	0x3daf39b9	0.085559316
151	0xbd562bfd	-0.052288044
152	0xbe4abb54	-0.19798023
153	0x3d768929	0.0601894
154	0x3e2c7c33	0.16844253
155	0x3f289a32	0.65860283
156	0xbe344d4f	-0.17607616
157	0x3dd0ada5	0.1018937
158	0x3e2cd1ae	0.16876861
159	0xbeae9597	-0.34098503
160	0x3d9dd30e	0.07706271
161	0x3ddeba3e	0.10875367
162	0xbcafe772	-0.021472666
163	0x3d52be53	0.05145104
164	0x3e198c76	0.14994988
165	0xbcc39006	-0.023872387
166	0xbce4fece	-0.027953532
167	0x3c1afada	0.009459222
168	0xbe90e107	-0.28296682
169	0x3e7afaab	0.24509685
170	0x3d9da7db	0.076980315
171	0x3f05f8c8	0.52332735
172	0xbdbc198b	-0.091845594
173	0x3dc7e4f2	0.09760465
174	0x3de8c417	0.11365526
175	0xbe7177d4	-0.23580867
176	0xbe81c992	-0.25349098
177	0xbdb0b08f	-0.08627426
178	0xbd8b0149	-0.067873545
179	0xbdc543e0	-0.09632087
180	0x3ce74752	0.02823225
181	0xbd378630	-0.044805706
182	0x3d035777	0.032065835
183	0x3d136c05	0.035991687
184	0x3dffc172	0.12488069
185	0xbd622be3	-0.055217635
186	0xbd934898	-0.071915805
187	0xbf0a07ac	-0.53917956
188	0x3dca0c96	0.09865682
189	0xbda4bc27	-0.080437
190	0xbe04594e	-0.12924692
191	0x3da868fa	0.08223148
192	0xbe30875a	-0.17239133
193	0xbd5e70fc	-0.05430697
194	0xbdf720e8	-0.12066823
195	0xbd7cadec	-0.061689302
196	0xb8df90b8	-0.000106604246
197	0xbcfb3bd9	-0.030668186
198	0xbcf9af2b	-0.030479034
199	0x3d37d51a	0.044880964
200	0x3e3fc650	0.18727994
201	0xbe13749d	-0.14399953
202	0xbdfaf5f3	-0.12253942
203	0xbf06f925	-0.52723914
204	0x3cd5fa4d	0.02612033
205	0x3b09ee8c	0.0021046726
206	0xbd81ea13	-0.06343474
207	0x3e58887e	0.21145818
208	0x3e579f85	0.21056946
209	0x3d151628	0.036398083
210	0x3e306c6f	0.17228864
211	0x3e3e653a	0.18593302
212	0x3dc691d5	0.09695784
213	0x3c894063	0.016754335
214	0x3d5c6f99	0.053817365
215	0xbe1a4102	-0.15063861
216	0xbe3ee3ee	-0.18641636
217	0x3e7827ab	0.24233882
218	0x3e1da22a	0.15393892
219	0x3f2b2d3b	0.6686589
220	0xbe027fa3	-0.12744002
221	0xbd309c86	-0.043118022
222	0x3cfe1943	0.031017905
223	0x3dae878a	0.08521946
224	0x3e1d1cf8	0.15343082
225	0xbc46bbb0	-0.012129709
226	0x3db3711b	0.087618075
227	0x3e6aad84	0.22917753
228	0x3d9ed17c	0.077548
229	0x3da69318	0.08133525
230	0x3a6485a6	0.0008717425
231	0xbd793780	-0.060843945
232	0xbd93f10b	-0.0722371
233	0x3cf17c98	0.029478356
234	0xbc9da17b	-0.019242039
235	0x3f47df30	0.7807493
236	0xbec4a323	-0.38405713
237	0x3e2b4b7e	0.16728017
238	0x3e7fb4ad	0.24971266
239	0xbb66b8df	-0.0035205407
240	0x3e18ab5d	0.1490912
241	0x3dcc66e2	0.09980561
242	0xb9ea7f0e	-0.0004472662
243	0x3e346ce3	0.17619662
244	0xbc6ff832	-0.014646577
245	0xbceb72fe	-0.028741356
246	0x3d47dbad	0.048793484
247	0xbd422654	-0.047399834
248	0xbe92adfa	-0.2864836
249	0x3db5d1ae	0.08877884
250	0x3e26f70b	0.16305177
251	0x3f41808f	0.7558679
252	0xbe279217	-0.16364323
253	0x3e0039b5	0.12522013
254	0x3e98b563	0.29825887
255	0xbe4e9ae2	-0.2017627

model.decoder_gnn.lin_skipsum.1.0.bias f4 [16]
0	0xbde76c24	-0.11299923
1	0xbdc10ee4	-0.09426668
2	0xbe0dbb06	-0.13840875
3	0x3cf0c164	0.02938909
4	0x3d6b17b7	0.057395663
5	0xbe00c845	-0.12576397
6	0xbd9388e9	-0.07203848
7	0x3d8fb0fd	0.0701618
8	0xbe1d73d2	-0.15376213
9	0xbe0ae8d7	-0.13565384
10	0xbdde0d93	-0.10842433
11	0x3dbf925f	0.0935409
12	0x3dae93d3	0.08524289
13	0xbdc19836	-0.0945286
14	0xbdd38c6c	-0.10329518
15	0xbe14afcf	-0.1452019

model.decoder_gnn.gnn.0.0.nn.0.weight f4 [16, 16]
0	0x3dbec088	0.09314066
1	0xbe5b5a18	-0.21421087
2	0x3c7b0052	0.015319901
3	0xbe33d410	-0.17561364
4	0x3e6a0266	0.22852477
5	0x3e8dc9ea	0.2769311
6	0xbcaa8bf8	-0.020818695
7	0xbd6549bd	-0.055978525
8	0xbdbf6ca6	-0.09346895
9	0x3e7cb28b	0.24677484
10	0x3e0a25af	0.13490938
11	0xbe5097d2	-0.20370415
12	0x3e9e968f	0.30974242
13	0xbe8b85b6	-0.2725045
14	0xbdacf7eb	-0.08445724
15	0xbece2fff	-0.40270993
16	0x3edf684d	0.43634263
17	0xbe70c082	-0.23510936
18	0x3c4861cf	0.012230351
19	0xbd646382	-0.05575896
20	0xbe23195d	-0.15927644
21	0x3eb5d82d	0.35516492
22	0xbde071c0	-0.10959196
23	0xbd134e39	-0.03596327
24	0xbe808ea2	-0.2510882
25	0x3ead69a4	0.3386966
26	0x3e675795	0.22592004
27	0xbeadcfbc	-0.3394755
28	0xbbf547a9	-0.007485349
29	0x3e42af9e	0.19012305
30	0xbdcd3fdb	-0.10021945
31	0x3edd0f55	0.4317576
32	0xbefcce20	-0.4937601
33	0xbd54f608	-0.051992446
34	0xbbc347cc	-0.0059594866
35	0xbe4c678a	-0.19961372
36	0xbd551408	-0.052021056
37	0x3ddc750b	0.10764512
38	0xbb6a548b	-0.0035755958
39	0xbc05b749	-0.008161374
40	0xbd25e73e	-0.040503733
41	0x3e3fb579	0.1872157
42	0x3f20bf04	0.62791467
43	0xbc9b84fe	-0.018984314
44	0x3c9d2fe0	0.019187868
45	0x3e374210	0.17896295
46	0xbca6303c	-0.020286672
47	0x3e506b50	0.20353436
48	0xbc525d20	-0.012839586
49	0xbe605ce1	-0.2191043
50	0x3f2cfdf4	0.67575
51	0x3c58928a	0.013218531
52	0xbba248a5	-0.0049525076
53	0x3cefaa2f	0.029255955
54	0xbea8eff8	-0.32995582
55	0xbd9c47f2	-0.0763091
56	0xbe6d0e57	-0.23150001
57	0x3dcf8e71	0.101345904
58	0xbc5aa7f8	-0.013345711
59	0xbea62deb	-0.32456908
60	0xbe90b76d	-0.28264943
61	0xbca14597	-0.019686503
62	0xbd80f76e	-0.062971935
63	0x3e0461aa	0.12927881
64	0xbcb917e3	-0.022594398
65	0x3e99d26f	0.3004336
66	0xbc69fd4e	-0.014281584
67	0xbdcb8d71	-0.09939087
68	0xbcff5a2f	-0.031170933
69	0xbc498005	-0.012298589
70	0x3e9cb1b9	0.30604342
71	0x3e482323	0.19544654
72	0x3e733805	0.23751839
73	0x3dbb405b	0.09143134
74	0x3a804677	0.0009786625
75	0x3e86518a	0.26234084
76	0x3e719ba7	0.23594533
77	0x3e0c2962	0.13687661
78	0xbf25ee46	-0.648167
79	0x3d5ccb60	0.05390489
80	0xbcedbbd2	-0.029020224
81	0x3df9363a	0.12168546
82	0x3d426e0d	0.047468234
83	0xbd3b98ad	-0.0457999
84	0x3ba1e547	0.004940662
85	0x3bb92194	0.005649755
86	0x3e6ff9a6	0.23435077
87	0xbf15466f	-0.583106
88	0x3e33f12b	0.17572467
89	0xbb301bbc	-0.0026872
90	0xbd93a50d	-0.07209215
91	0x3e12dd71	0.14342286
92	0x3e028e56	0.1274961
93	0xbba287bc	-0.0049600285
94	0xba14cc27	-0.0005676173
95	0xbcdbf41b	-0.026849797
96	0xbda5c74f	-0.08094656
97	0x3b702024	0.003664025
98	0xbd11ee22	-0.03562749
99	0xbeb53ff6	-0.3540036
100	0xbe17c8e3	-0.14822726
101	0x3e6c207b	0.23059265
102	0x3d9bfa47	0.07616096
103	0x3cfe43c5	0.031038174
104	0x3ccc7f13	0.024962937
105	0x3dc15c6b	0.094414555
106	0xbd75ff09	-0.060057674
107	0x3db5563a	0.08854337
108	0x3e4e6a32	0.20157698
109	0x3edf9267	0.43666384
110	0x3efeb7e8	0.49749684
111	0x3e4af676	0.1982058
112	0xbe156a21	-0.14591266
113	0xbe00b77b	-0.12569992
114	0xbe2e2ba6	-0.17008838
115	0x3d886ae3	0.06661012
116	0x3ea11baf	0.31466433
117	0xbeae92d7	-0.34096405
118	0x3e6fef7f	0.23431204
119	0x3e865f78	0.26244712
120	0xbc8d31e7	-0.01723571
121	0x3de11e4b	0.10992106
122	0xbdd57fe0	-0.10424781
123	0x3e0ac550	0.13551831
124	0x3a4c2e3e	0.0007788873
125	0x3e4a35b1	0.19747044
126	0x3e93fd7e	0.28904337
127	0x3e2a5bc3	0.16636567
128	0xbd10acaf	-0.035320934
129	0xbe0090ab	-0.12555186
130	0xbe5e8ede	-0.21734187
131	0x3dc21659	0.09476919
132	0xbd0a533a	-0.033770777
133	0xbda7127e	-0.08157824
134	0xbe82dda6	-0.2555973
135	0xbe18d0d1	-0.14923407
136	0xbe463aa1	-0.19358303
137	0x3da8b3b0	0.08237398
138	0xbcdd2362	-0.02699441
139	0xbe8312c0	-0.25600243
140	0xbe69a429	-0.22816528
141	0x3dee0963	0.11622884
142	0x3f377dd4	0.71676373
143	0x3e2203d1	0.15821768
144	0xbf1b4d63	-0.6066496
145	0xbdb34a11	-0.087543614
146	0xbc158db7	-0.009128026
147	0x3f5bfb5c	0.8593042
148	0xbf17384b	-0.5907027
149	0x3ef52418	0.478791
150	0xbdabb7a9	-0.0838464
151	0xbdb5d42e	-0.08878361
152	0xbde7b90d	-0.113145925
153	0x3e7433ca	0.23847881
154	0xbf540eeb	-0.82835263
155	0xbe1cb881	-0.15304758
156	0xbd293414	-0.04130943
157	0x3e2ed97a	0.17075148
158	0x3d0c7f0c	0.03430085
159	0x3eef6075	0.46753278
160	0x3e34efd2	0.17669609
161	0xbd69b7b1	-0.057059947
162	0x3cab9ecc	0.020949744
163	0xbe371e97	-0.17882763
164	0x3e149cde	0.14512965
165	0xbeff7c8c	-0.4989971
166	0xbcc741f6	-0.024323445
167	0x3cb77a1e	0.022397097
168	0x3d3f9d8f	0.04678112
169	0x3eed26cd	0.46318665
170	0x3cbda9d4	0.02315227
171	0x3e154cd2	0.14580086
172	0xbd884b4d	-0.066549875
173	0x3eea8614	0.45805418
174	0xbcb0e5fe	-0.021594044
175	0x3f515beb	0.8178088
176	0x3f271249	0.65262276
177	0xbc16e6bb	-0.009210284
178	0x3c229868	0.009924032
179	0xbd3c9c78	-0.046047658
180	0xbd92c462	-0.07166363
181	0x3dd1d24f	0.10245191
182	0xbd4570f0	-0.04820341
183	0xbd4217d4	-0.047386006
184	0xbcb3c8f9	-0.021946417
185	0x3de5e73d	0.11225746
186	0xbefb72c2	-0.4911099
187	0xbd84a7fc	-0.06477353
188	0x3d13ae6a	0.036055006
189	0xbd1dde04	-0.03854181
190	0xbd3f3a6d	-0.04668658
191	0x3e62a580	0.22133446
192	0x3e0565f4	0.13027173
193	0x3e7f7eed	0.24950762
194	0x3e176eaa	0.14788309
195	0x3d9e40bb	0.0772719
196	0x3e79ff2c	0.24413747
197	0xbf036bd6	-0.5133642
198	0xbcc3fb8b	-0.023923656
199	0xbd4f569f	-0.050619718
200	0x3e1beae8	0.15226328
201	0x3d4a9faf	0.049468692
202	0x3dcd2fe4	0.100189
203	0x3da06e85	0.0783358
204	0x3d275f2f	0.04086226
205	0x3c558831	0.013032959
206	0x3e85bdb8	0.26121306
207	0xbd9aa6ed	-0.0755137
208	0x3ec6b8bc	0.38812816
209	0xbdbe7807	-0.09300237
210	0xbdc2fbdc	-0.095206946
211	0x3df93e38	0.121700704
212	0xbf0ded89	-0.55440575
213	0xbe550673	-0.20803241
214	0x3d6b34e6	0.057423495
215	0x3e2c8ca5	0.16850527
216	0xbca9ad98	-0.020712659
217	0x3d991713	0.07475104
218	0x3e71e969	0.23624195
219	0x3d57d985	0.052697677
220	0xbc9aee58	-0.01891248
221	0x3c25abd9	0.010111772
222	0x3e28a757	0.16470085
223	0x3e307e8a	0.17235771
224	0xbe8e1648	-0.27751374
225	0xbe2a7689	-0.1664678
226	0xbd136360	-0.035983443
227	0x3b735080	0.003712684
228	0x3ed7b8d6	0.42133206
229	0x3ec89c8d	0.3918194
230	0xbe08912f	-0.13336633
231	0xbdf878ab	-0.121323906
232	0xbde54b70	-0.11196029
233	0x3eae17a2	0.34002405
234	0xbe9f1665	-0.31071773
235	0xbe0c9399	-0.13728179
236	0x3e7adbf1	0.24497963
237	0x3ea75d35	0.326883
238	0xbd0749fe	-0.03302955
239	0x3effa5e2	0.49931246
240	0xbe63a683	-0.22231488
241	0xbd043e61	-0.03228605
242	0xbd216daf	-0.039411243
243	0xbd6c8d3d	-0.057751883
244	0xbe5dc4ca	-0.216571
245	0xbf630a40	-0.88687515
246	0xbc896711	-0.016772779
247	0x3cb7b717	0.022426171
248	0xbba49e40	-0.0050237477
249	0x3ee7d972	0.45283085
250	0xbeb0c53b	-0.34525475
251	0xbd157b85	-0.03649475
252	0xbe085d42	-0.13316825
253	0x3f5a4bca	0.85271895
254	0xbc27fd8d	-0.010253322
255	0x3f822edb	1.0170549

model.decoder_gnn.gnn.0.0.nn.0.bias f4 [16]
0	0xbdfc10bc	-0.12307879
1	0xbdf64426	-0.12024717
2	0xbe07ae66	-0.13250121
3	0x3d80e9de	0.062946066
4	0xbe57016a	-0.20996633
5	0x3e628243	0.22120003
6	0xbdd187f6	-0.102310106
7	0xbeafe80f	-0.34356734
8	0xbec4257e	-0.38309854
9	0x3ee397de	0.44451803
10	0xbe513ce6	-0.20433387
11	0xbe15b6ac	-0.14620465
12	0xbedbf290	-0.42958498
13	0x3de0bb6c	0.10973248
14	0x3e60c82f	0.21951364
15	0x3f0764a1	0.5288792
