_models_trained/vaca/collidersens_linear/last.ckpt (torch, 25614 bytes, 25 tensors)

model.encoder_gnn.pre_nn.fc_layers.0.0.weight f4 [16, 1]
0	0xbea772aa	-0.3270467
1	0x3e4e64c9	0.20155634
2	0xbcbefe71	-0.023314686
3	0xbee6a1ff	-0.45045468
4	0xbf211b1f	-0.6293201
5	0x3f277929	0.6541925
6	0xbdf1aa40	-0.11800051
7	0xbf1309b5	-0.57436687
8	0xbf07348b	-0.5281455
9	0x3f13b90c	0.57704234
10	0xbe9a3473	-0.3011814
11	0xbc42e44c	-0.0118952505
12	0xbda42dd7	-0.08016556
13	0xbf3647e4	-0.71203446
14	0x3f2f9f51	0.6860247
15	0xbf5a2cca	-0.8522459

model.encoder_gnn.pre_nn.fc_layers.0.0.bias f4 [16]
0	0x3e09ccce	0.13457033
1	0xbf6e55fb	-0.93099946
2	0xbdd1f579	-0.10251898
3	0xbf3fad0d	-0.7487343
4	0xbf007bfc	-0.50189185
5	0xbdc1634f	-0.0944277
6	0xbf5b08ae	-0.8556012
7	0xbede8483	-0.43460473
8	0x3da712c0	0.08157873
9	0xbe4c4f6e	-0.19952175
10	0x3e188748	0.14895356
11	0xbe32b890	-0.17453218
12	0xbec30d42	-0.38096052
13	0x3e3e9acb	0.18613736
14	0xbd932e6d	-0.071865894
15	0x3da601b4	0.081057936

model.encoder_gnn.lin_skipsum.0.0.weight f4 [16, 16]
0	0x3e1be505	0.15224083
1	0x3e5b25d2	0.21401146
2	0x3e814aed	0.25252476
3	0xbd3127d6	-0.04325088
4	0x3da19da6	0.07891397
5	0xbdca9cb6	-0.098931715
6	0xbd99448c	-0.074837774
7	0x3dd21b51	0.102591164
8	0x3e0ff5d3	0.14058618
9	0xbe302d41	-0.17204763
10	0x3e233f70	0.15942168
11	0x3e5a2e84	0.21306807
12	0x3e90ac10	0.28256273
13	0x3d9d3aea	0.076772526
14	0xbda1f424	-0.07907894
15	0x3da1b43a	0.078957036
16	0xbe23b818	-0.15988195
17	0xbd17feda	-0.03710828
18	0x3e17748f	0.14790557
19	0x3d78798c	0.06066279
20	0x3d596efa	0.05308435
21	0x3e663942	0.2248278
22	0xbdf8efe4	-0.121551305
23	0xbe83d834	-0.25750887
24	0xbe6d9169	-0.23200001
25	0x3e866b79	0.2625387
26	0xbdf9b2bf	-0.12192296
27	0x3e269503	0.16267781
28	0xbd0bfb0b	-0.03417496
29	0xbdc930b2	-0.09823741
30	0x3e02812f	0.12744592
31	0xbdfd54d4	-0.12369695
32	0x3e3356ce	0.17513582
33	0x3b09aaef	0.0021006425
34	0xbdeb49f1	-0.114887126
35	0xbc083ebc	-0.008315738
36	0x3e6254a6	0.22102603
37	0xbda3a267	-0.0798996
38	0xbe3f7aa4	-0.18699127
39	0x3dfc7a59	0.123280235
40	0x3e23a5ff	0.15981291
41	0xbe238d8f	-0.15971969
42	0x3e919a5a	0.28438073
43	0x3e3a8a2b	0.1821677
44	0xbe0f4d2b	-0.13994281
45	0x3df166e6	0.117872044
46	0xbde26217	-0.110538654
47	0x3dff60d4	0.124696404
48	0x3e42d62b	0.19027011
49	0xbe4d3a14	-0.20041686
50	0x3e252fc3	0.16131501
51	0x3f0f9370	0.56084347
52	0xbb9703d2	-0.0046086097
53	0xbeb0c5b2	-0.3452583
54	0xbe04b4dc	-0.12959617
55	0x3d5d6144	0.054047838
56	0x3e20f015	0.15716584
57	0xbebf045d	-0.37308016
58	0x3dedb8e8	0.11607534
59	0xbe5f62a1	-0.21814968
60	0xbe20eea8	-0.1571604
61	0x3d875d3d	0.06609581
62	0xbe8d63d8	-0.27615237
63	0x3d2681ad	0.040651012
64	0xbe1e5a0a	-0.15464035
65	0x3e192ee1	0.14959289
66	0xbe458803	-0.19290166
67	0x3cbebcad	0.023283327
68	0xbd934c2f	-0.07192265
69	0x3e4cc1cc	0.19995803
70	0xbd27b100	-0.040940285
71	0x3c1c42fd	0.009537456
72	0xbe0432ac	-0.12909955
73	0x3e5055e9	0.20345272
74	0xbe48424e	-0.19556543
75	0xbdab269e	-0.08356975
76	0xbe9b26e5	-0.30303112
77	0xbda2458e	-0.07923423
78	0x3e1d0ae3	0.15336184
79	0xbd92d37b	-0.07169243
80	0xbd6c10db	-0.057633262
81	0x3e1a9126	0.15094432
82	0xbe5dddfe	-0.21666715
83	0xbaf6b2fd	-0.0018821653
84	0xbda6781d	-0.081283785
85	0x3e63d35d	0.22248597
86	0xbe36adf4	-0.17839795
87	0xbe48b729	-0.1960112
88	0xbe025d5d	-0.12730928
89	0x3e394e1e	0.18096206
90	0xbdbd1448	-0.09232384
91	0xbe4cdeaf	-0.20006822
92	0xbe94f6c6	-0.29094523
93	0xbdaddd4f	-0.08489477
94	0x3e7f2c78	0.24919307
95	0xbe039f00	-0.12853622
96	0xbe99b171	-0.3001819
97	0x3cadc258	0.021210834
98	0xbe0c3cd2	-0.13695076
99	0x3d4aff80	0.04956007
100	0xbdcecd17	-0.100977115
101	0x3e360e58	0.17778909
102	0x3c693480	0.014233708
103	0xbd8c9536	-0.06864397
104	0xbdbc3f32	-0.09191741
105	0x3e6cc126	0.23120555
106	0xbe71c420	-0.23609972
107	0x3e2814fb	0.16414253
108	0x3e340c4e	0.17582819
109	0xbe2608e3	-0.16214328
110	0x3e4aaa9e	0.19791648
111	0xbd90b216	-0.07065217
112	0x3e18aebd	0.14910407
113	0x3e33e5bd	0.17568107
114	0x3e22b9d4	0.158912
115	0x3f323f5b	0.6962792
116	0xbd42bd79	-0.047543976
117	0xbe98950a	-0.29801208
118	0x3d51d2a0	0.05122626
119	0xbe292b88	-0.16520512
120	0x3dab410f	0.08362018
121	0xbe9a2c25	-0.30111805
122	0x3e5af264	0.21381527
123	0x3e04843c	0.12941068
124	0xbdcee811	-0.10102857
125	0x3ddf457b	0.10901924
126	0xbe6f0f28	-0.23345625
127	0x3dfcd463	0.12345197
128	0x3da241ff	0.07922744
129	0xbe58f581	-0.21187402
130	0x3d33fbfd	0.043941487
131	0xbd6e08c1	-0.058113817
132	0x3e827a52	0.25483948
133	0xbe483f9f	-0.1955552
134	0xbe520c4e	-0.20512506
135	0x3d3bcbb0	0.04584855
136	0x3e4bd262	0.19904473
137	0xbe839ba1	-0.25704673
138	0x3e454555	0.1926473
139	0x3e344d7b	0.17607681
140	0xbe2dd957	-0.1697744
141	0x3dacb04c	0.084320635
142	0xbe67eab4	-0.22648126
143	0x3df8a3b7	0.12140601
144	0xbe006899	-0.12539901
145	0xbe064735	-0.13113101
146	0x3d49f6d0	0.049307644
147	0xbdc09c2a	-0.09404786
148	0x3c225164	0.0099071
149	0x3ea2ed82	0.3182183
150	0x3e67ce46	0.22637281
151	0x3caab6d3	0.02083913
152	0xbe18d3f4	-0.14924604
153	0x3e8e912b	0.2784513
154	0xbe44ff7d	-0.19238086
155	0xbdac812e	-0.084230766
156	0x3dc2c7b7	0.09510749
157	0xbdc0bc4c	-0.09410915
158	0x3e87cb04	0.26522076
159	0xbd22a5ad	-0.039708782
160	0xbe30fa6a	-0.17283025
161	0xbd672cd8	-0.05643925
162	0x3d2f0141	0.042725805
163	0x3d1ead4a	0.03873948
164	0xbc9d3005	-0.019187937
165	0x3e4977fd	0.19674678
166	0x3cad78c0	0.021175742
167	0xbe012773	-0.12612705
168	0xbe1f145f	-0.15535115
169	0x3e1cb064	0.15301663
170	0xbd93abd3	-0.07210507
171	0xbe2396e8	-0.15975535
172	0x3d07df48	0.033171922
173	0xbdb59283	-0.088658355
174	0x3e404b30	0.18778682
175	0xbd413b8e	-0.047175936
176	0xbdd2fb88	-0.10301882
177	0xbd8a12ed	-0.06741891
178	0xbe10b75e	-0.14132449
179	0xbc38f15c	-0.011288013
180	0x3bc175aa	0.005903919
181	0x3dc177d5	0.09446684
182	0xbdee1544	-0.1162515
183	0x3c3cfdaf	0.011535092
184	0xbdae389c	-0.08506891
185	0x3e1719c0	0.14755917
186	0xbe021ae7	-0.12705575
187	0xbd06495f	-0.032784816
188	0x3d50dc43	0.050991308
189	0xbd304475	-0.043034036
190	0x3dd994ab	0.10624059
191	0xbd0c0150	-0.03418094
192	0x3e4d56ad	0.20052595
193	0x3ceaf40f	0.02868083
194	0xbd752989	-0.059854064
195	0xbdf875d4	-0.12131849
196	0x3de8cd57	0.113672905
197	0xbddaf4d1	-0.10691226
198	0xbe083370	-0.13300872
199	0x3c48a0e8	0.012245394
200	0x3e0c8462	0.13722375
201	0xbdc81c72	-0.097710505
202	0x3e548833	0.20755081
203	0xbdc4de7c	-0.09612748
204	0xbd2d99ab	-0.042382877
205	0x3d5c33fc	0.053760514
206	0xbddf10b7	-0.1089186
207	0x3d03217d	0.03201436
208	0x3dbf0aa4	0.093282014
209	0xbd8a9e39	-0.0676846
210	0x3e3e05ec	0.18556947
211	0xbd6faa87	-0.058512237
212	0xbd24db1e	-0.04024803
213	0xbe33a5f4	-0.17543775
214	0x3e242b58	0.1603216
215	0x3dec9908	0.11552626
216	0x3dd221c4	0.102603465
217	0xbe1eb1eb	-0.15497558
218	0x3db393b7	0.08768409
219	0xbdb3331c	-0.08749983
220	0xbca344a0	-0.019930184
221	0x3d8269ba	0.06367822
222	0xbdcc5e94	-0.09978977
223	0x3dc54ecc	0.0963417
224	0xbdb3af35	-0.087736525
225	0x3dd2d1c9	0.102939196
226	0x3d95d758	0.07316464
227	0x3e74d85e	0.23910663
228	0xbe4c4985	-0.1994992
229	0x3db81a82	0.08989431
230	0xbdc09f68	-0.09405404
231	0xbe6e992c	-0.23300618
232	0xbdd5802d	-0.10424838
233	0x3c8419ab	0.01612552
234	0xbda4f581	-0.08054639
235	0xbe8bb95b	-0.27289852
236	0x3c124b9f	0.008929162
237	0xbdd8579f	-0.105635874
238	0x3e020a66	0.12699279
239	0xbde13e51	-0.10998214
240	0x3e5036ef	0.20333456
241	0x3e65aa28	0.2242819
242	0x3d48cb39	0.049021933
243	0x3d2741f1	0.04083437
244	0x3dc9699d	0.09834597
245	0xbdbdecbf	-0.09273671
246	0x3e14cf16	0.14532122
247	0x3e38a155	0.18030293
248	0x3dfa11cd	0.122104265
249	0xbe9daf97	-0.30798027
250	0x3e2e6051	0.1702893
251	0x3cc81e99	0.024428653
252	0x3c4bf2c8	0.01244802
253	0x3e1583ef	0.1460111
254	0xbd7e1e00	-0.06204033
255	0x3e117437	0.14204489

model.encoder_gnn.lin_skipsum.0.0.bias f4 [16]
0	0xbdbecfee	-0.09317003
1	0x3dc6eaad	0.097127296
2	0xbe1b308f	-0.15155242
3	0x3c87e279	0.016587483
4	0x3d84ccef	0.064844005
5	0x3d572dce	0.052533917
6	0x3de6853e	0.11255883
7	0xbc9b6ca5	-0.018972704
8	0xbd6d6e44	-0.057966486
9	0x3b0ef34d	0.00218125
10	0x3d449fca	0.04800395
11	0x3ccfbee0	0.025359571
12	0xbdbf133c	-0.093298405
13	0xbd888e43	-0.06667759
14	0x3daeb8ca	0.085313395
15	0xbe07ef05	-0.13274772

model.encoder_gnn.gnn.0.0.nn.0.weight f4 [16, 16]
0	0xbe1478dc	-0.14499229
1	0xbe1b3f87	-0.15160953
2	0xbdb2a509	-0.08722884
3	0xbeeeb156	-0.46619672
4	0x3d0cfc3d	0.03442024
5	0xbd458278	-0.048220128
6	0x3e3723f6	0.17884812
7	0x3c64f41c	0.013974216
8	0x3d8ae462	0.06781842
9	0xbf7ff760	-0.9998684
10	0xbe6bab67	-0.23014604
11	0x3e16ec3e	0.14738557
12	0x3cb7c1e2	0.022431318
13	0x3cdda208	0.027054802
14	0x3f16c8a4	0.58899903
15	0x3c10bb42	0.008833708
16	0x3db3f038	0.087860525
17	0x3e4449f7	0.1916884
18	0x3e7ca690	0.24672914
19	0xbd23ba67	-0.03997269
20	0xc0796052	-3.896504
21	0x3cbde9bf	0.023182748
22	0xbe600836	-0.21878132
23	0xc0655ea1	-3.5839007
24	0xbcbcf676	-0.02306674
25	0x3d41f944	0.04735686
26	0x3e0daa13	0.1383441
27	0x3e22cf6d	0.15899439
28	0xbdaa2739	-0.083082624
29	0xbd64dcd5	-0.055874664
30	0x3d361c59	0.04446063
31	0xbd147abb	-0.036249857
32	0xbeade9b8	-0.33967376
33	0xbe1418e7	-0.14462624
34	0x3e436dc6	0.19084844
35	0x3e6ff65e	0.23433825
36	0xbe9524ed	-0.29129735
37	0x3ea1c830	0.31598043
38	0x3e5b3ecc	0.21410674
39	0xbe081547	-0.13289367
40	0xbe19dd93	-0.1502593
41	0xbed45688	-0.41472268
42	0xbe9d67b4	-0.30743182
43	0xbd5b4a08	-0.0535374
44	0x3df34c8d	0.11879835
45	0xbdc08657	-0.09400623
46	0x3e2fae90	0.17156434
47	0x3f28f098	0.65992117
48	0x3dbc214e	0.0918604
49	0x3d4fbc1b	0.0507165
50	0x3d890b82	0.06691648
51	0xbe232418	-0.15931737
52	0xbd02b577	-0.03191134
53	0x3f1ea4ec	0.619704
54	0xbe5e17d4	-0.21688777
55	0x3e4ea72b	0.20180957
56	0xbdf60752	-0.12013115
57	0xbf1207fb	-0.5704343
58	0xbc6c6296	-0.014427802
59	0xbe5be8e7	-0.21475564
60	0xbe8d3764	-0.27581322
61	0x3cc82f72	0.024436686
62	0xbec51eac	-0.38499963
63	0x3e05f55d	0.1308188
64	0xbdd0b6e4	-0.101911336
65	0x3db6a4bf	0.089181416
66	0xbbc34e42	-0.005960257
67	0x3e95eab8	0.2928064
68	0x3d43c31b	0.04779349
69	0x3f200a28	0.625155
70	0x3dc67ce4	0.0969179
71	0x3def1a28	0.11674911
72	0xbdc28c39	-0.094994016
73	0x3e46e5ca	0.19423595
74	0xbe04fe81	-0.1298771
75	0xbd8c3b3f	-0.06847238
76	0x3bad5694	0.005289862
77	0xbd3a35cd	-0.045461465
78	0x3d6f49d8	0.058420032
79	0xbd8a44f0	-0.0675143
80	0x3d898fd8	0.06716889
81	0x3e3aa3de	0.18226573
82	0xbe5a027b	-0.21290009
83	0xbee07d8a	-0.4384578
84	0x3cc442bc	0.023957603
85	0xbe156773	-0.14590244
86	0x3e7f5308	0.24934018
87	0x3f40f318	0.7537093
88	0x3e10d824	0.14144951
89	0x3ea400f3	0.32031974
90	0xbd8f9cb0	-0.07012308
91	0xbe3c89d2	-0.1841195
92	0x3d97d12e	0.07412945
93	0xbe9468fb	-0.28986344
94	0x3ea31cd6	0.31857938
95	0xbdb717c4	-0.0894008
96	0x3e771cb0	0.24132037
97	0x3e45b00c	0.19305438
98	0x3d5458d3	0.051842522
99	0xbea46a37	-0.32112285
100	0x3e402844	0.1876536
101	0x3d6df954	0.058099106
102	0x3e387e0e	0.18016836
103	0x3ea4e186	0.3220331
104	0xbf3bfa8c	-0.7342918
105	0x3e1629e3	0.14664416
106	0x3eff9a1a	0.49922258
107	0x3e8a8c6d	0.2706026
108	0xbdeffc72	-0.11718072
109	0xbd2be570	-0.041966856
110	0xbeca3061	-0.39490035
111	0xbdb05196	-0.08609311
112	0xbe2edcdb	-0.17076437
113	0x3e2e1498	0.17000043
114	0xbdd62e6e	-0.104580745
115	0x3e2ad3b8	0.16682327
116	0x3d85b82f	0.06529271
117	0xbde4403a	-0.11145063
118	0xbe5d1354	-0.21589404
119	0x3d1d4e29	0.038404617
120	0xbe0609c7	-0.13089667
121	0x3f354061	0.7080136
122	0xbe463218	-0.19355047
123	0x3d1b00e0	0.03784263
124	0xbe3cc174	-0.18433172
125	0x3d4c0a45	0.04981448
126	0xbf14999f	-0.5804691
127	0x3af385a2	0.0018579254
128	0xbdf482c8	-0.11939007
129	0xbdac51e9	-0.084140606
130	0x3bb0c35f	0.005394384
131	0xbe7cd5f4	-0.24690992
132	0x3ddeb05a	0.1087348
133	0xbf2b4bae	-0.66912353
134	0xbe3e88ac	-0.18606824
135	0x3dcf4e96	0.10122411
136	0xbd8130fe	-0.06308173
137	0x3e9fa909	0.3118365
138	0xbe3c6d87	-0.18401156
139	0x3e2b726a	0.16742864
140	0xbdbaf5c8	-0.0912891
141	0xbccd7430	-0.025079817
142	0x3ea4204c	0.3205589
143	0xbb0e0910	-0.0021672882
144	0x3dee9515	0.11649529
145	0xbd99d649	-0.07511575
146	0x3d6cab15	0.057780344
147	0xbebeb0ad	-0.37244168
148	0xbd9f1728	-0.077680886
149	0x3cfbf3b0	0.030755848
150	0xbe441c6c	-0.19151467
151	0xbc78af7d	-0.015178558
152	0x3bc56b20	0.006024733
153	0x3f4c3a7e	0.7977675
154	0x3de4dfe8	0.11175519
155	0xbccf5ef2	-0.025313828
156	0xbdef6571	-0.1168927
157	0x3d19c8e0	0.037545085
158	0x3e83ea96	0.25764912
159	0xbe16c5c1	-0.14723875
160	0xbd557abd	-0.052119005
161	0xbc793cf6	-0.015212288
162	0x3e3e06fa	0.18557349
163	0xbce43c0d	-0.027860666
164	0x3d5ac869	0.053413782
165	0xbe2d22cc	-0.16907805
166	0xbe2db168	-0.16962206
167	0x3e5425a9	0.20717491
168	0xbe220259	-0.15821208
169	0xbcb5fc9c	-0.02221518
170	0x3cb59bb4	0.022168972
171	0x3e5dc5e1	0.21657516
172	0x3c91f4e2	0.017816965
173	0x3e47d6cb	0.19515531
174	0x3dc78526	0.09742193
175	0x3ef6321a	0.480851
176	0xbeac83f1	-0.33694413
177	0xbe44c768	-0.19216692
178	0x3bb900d1	0.0056458493
179	0xbb5385d4	-0.0032275813
180	0xbca5626c	-0.020188533
181	0xbb0e54e8	-0.0021718089
182	0xbe197a2c	-0.14988011
183	0xbb4c78b0	-0.0031199865
184	0xbe35dcb1	-0.17759968
185	0xbc84aafb	-0.016194811
186	0xbea9f533	-0.33194885
187	0x3e5cd462	0.21565393
188	0xbe329a6a	-0.17441717
189	0x3f0cb69f	0.5496616
190	0x3b4b1abe	0.0030991281
191	0xbe020b30	-0.1269958
192	0xbe7a7897	-0.24460064
193	0xbba40180	-0.0050050616
194	0xbd956652	-0.07294907
195	0xbc526f1f	-0.012843876
196	0xbd75cc9f	-0.060009595
197	0xbd003ca2	-0.031307824
198	0x3d2089e0	0.039193988
199	0xbdeb3538	-0.1148476
200	0x3f5bb796	0.85827005
201	0xbc70d15c	-0.014698353
202	0xbe6c2dc6	-0.23064336
203	0x3dbfd898	0.09367484
204	0xbd6ab0f5	-0.057297666
205	0xbe075cec	-0.1321904
206	0xbd6eb98d	-0.058282424
207	0xbdcd83be	-0.100348935
208	0xbd629ed6	-0.05532726
209	0x3cfb7cf0	0.030699223
210	0xbd6489fe	-0.055795662
211	0xbcbb7eb0	-0.022887558
212	0xba10ff92	-0.0005531247
213	0xbc2f5469	-0.010701277
214	0x3d52d2e0	0.051470637
215	0xbedb2856	-0.4280421
216	0xbea9e85a	-0.33185083
217	0x3cbeed01	0.023306372
218	0xbdd0c2f6	-0.10193436
219	0xbe0470e2	-0.12933686
220	0x3e9c5e5f	0.3054075
221	0xbe5596ae	-0.20858261
222	0x3c462a38	0.012095027
223	0x3f18c056	0.5966848
224	0xbded1624	-0.115764886
225	0x3e8562eb	0.2605203
226	0x3e26a238	0.16272819
227	0x3c3f7f52	0.01168807
228	0x3e1bc1a9	0.15210594
229	0xbf447930	-0.7674742
230	0x3dbc518c	0.09195241
231	0x3e6a048d	0.22853298
232	0x3b7b9fb5	0.0038394753
233	0x3ed8ffd9	0.42382696
234	0xbd10d5e4	-0.035360232
235	0xbe3b4432	-0.18287733
236	0xbe256cf2	-0.1615484
237	0xbc8034f8	-0.015650257
238	0x3e9ed6ce	0.31023258
239	0xbcc786c5	-0.024356255
240	0x3e56f0d4	0.20990306
241	0xbe149eb0	-0.1451366
242	0xbb89922e	-0.004198334
243	0xbe013d9f	-0.12621163
244	0xbe3ff90f	-0.18747352
245	0xbc31d51b	-0.010854031
246	0x3c39ae00	0.011332989
247	0xbe35b32e	-0.17744133
248	0x3e96be46	0.29442042
249	0xbf61ae06	-0.88156164
250	0x3e80d4d0	0.25162363
251	0xbe420fad	-0.18951292
252	0x3d1175f4	0.03551288
253	0x3dec4d88	0.115382254
254	0x3eea53ad	0.45766965
255	0x3e4a6f80	0.19769096

model.encoder_gnn.gnn.0.0.nn.0.bias f4 [16]
0	0xbe54fcad	-0.20799513
1	0x3ee1c1df	0.44093224
2	0x3cef5f3f	0.029220222
3	0x3e8bfef4	0.2734295
4	0xbde262aa	-0.11053975
5	0x3e9a3749	0.30120304
6	0x3c2ca776	0.010537973
7	0x3e1ae5b3	0.15126686
8	0xbd54c124	-0.051942006
9	0x3a313273	0.00067595317
10	0x3e42d9d0	0.19028401
11	0x3b5e694b	0.0033937271
12	0xbe39d202	-0.18146518
13	0xbeb3e30b	-0.35134158
14	0x3ee3e55f	0.44510934
15	0xbe17d7a5	-0.14828356

model.encoder_gnn.gnn.0.0.nn.2.weight f4 [16, 16]
0	0xbf33edc9	-0.70284706
1	0x3de10353	0.10986962
2	0x3b04e76e	0.0020279544
3	0xbeda8ea0	-0.4268694
4	0xbc398500	-0.011323214
5	0x3e6b4f14	0.22979385
6	0x3fa4cb83	1.2874607
7	0xbecb9ddf	-0.39768884
8	0x3daf91dd	0.08572743
9	0xbc4e0fb3	-0.012576985
10	0xbf057bfc	-0.5214231
11	0xbdb53854	-0.08848634
12	0x3f9b26d6	1.2121227
13	0xbf4b8188	-0.79494524
14	0xbe8f06bd	-0.27934828
15	0x3ebad5c1	0.36491206
16	0x3ef38bea	0.47567683
17	0xbeaebc07	-0.34127828
18	0xbe81e934	-0.25373232
19	0x3ec2e62b	0.3806623
20	0x3eb041be	0.34425157
21	0xbe240612	-0.1601794
22	0xbe808dfe	-0.2510833
23	0x3ee6d44b	0.45083842
24	0x3eeb7736	0.45989388
25	0xbe27b47f	-0.16377448
26	0x3d260f9c	0.04054223
27	0xbf73da9a	-0.95255435
28	0xbe68835f	-0.22706364
29	0xbf6f527a	-0.93485224
30	0x3eac6a50	0.3367486
31	0x3c9c0dce	0.019049551
32	0xbe546e07	-0.20745097
33	0x3e0ccabb	0.1374921
34	0x3e95193a	0.2912081
35	0xbd80ffc5	-0.06298784
36	0xbdf4fbd1	-0.11962093
37	0x3df55c00	0.11980438
38	0x3ee051f7	0.43812534
39	0xbedddb8b	-0.4333156
40	0xbe2fc932	-0.17166594
41	0x3e2eb26b	0.17060249
42	0xbd846f8b	-0.06466588
43	0x3f06f5ca	0.52718794
44	0x3f27a9e3	0.654936
45	0x3f0d8816	0.55285776
46	0xbd2953e2	-0.041339763
47	0xbc5794ca	-0.013158033
48	0xbec0ea25	-0.37678638
49	0x3f01c562	0.5069181
50	0x3e8efacb	0.27925715
51	0xbdf4b210	-0.11948025
52	0xbe29473f	-0.16531084
53	0x3e9b79b3	0.30366287
54	0x3e96a449	0.29422215
55	0xbea01772	-0.31267887
56	0xbf023053	-0.50854987
57	0xbe0b2b33	-0.13590698
58	0x3d69b3e0	0.057056308
59	0x3eff5ff0	0.49877882
60	0x3ef2271c	0.47295463
61	0x3ea144ac	0.31497705
62	0xbd81b9aa	-0.06334241
63	0xbe8478bd	-0.25873366
64	0x3ee34815	0.44390932
65	0xbeecc4a9	-0.4624379
66	0x3ee77a0a	0.45210296
67	0xbd8b871a	-0.06812878
68	0xbe92e81b	-0.28692707
69	0x3e40875c	0.18801636
70	0xbe6aedb1	-0.22942235
71	0x3f7d1d89	0.9887319
72	0x3e18b6e3	0.14913516
73	0x3bee24ee	0.007267586
74	0xbdcad359	-0.099035926
75	0xbe8e9e2f	-0.2785506
76	0xbf742c86	-0.9538044
77	0xbf2a3242	-0.6648294
78	0x3e296a45	0.16544445
79	0xbe04c116	-0.12964281
80	0xbff72580	-1.9308319
81	0x3e799f54	0.24377185
82	0xbec49001	-0.38391116
83	0x3e9c1417	0.30484077
84	0x3f58abd2	0.84637177
85	0xbf249c2a	-0.6430079
86	0xbd2c86e3	-0.042120825
87	0xbf38f95f	-0.7225551
88	0x3c0e4566	0.008683538
89	0xbeff536a	-0.49868327
90	0x3e512c7c	0.20427126
91	0xbf076961	-0.5289517
92	0x3ea8a621	0.32939246
93	0xbdf632f5	-0.12021438
94	0xbd19b7d6	-0.037528835
95	0x3cb895f2	0.022532437
96	0x3ef3e7e9	0.4763787
97	0xbdafd69b	-0.085858546
98	0xbea7993a	-0.3273409
99	0xbdb2241e	-0.08698295
100	0x3dd5c9c0	0.104388714
101	0x3d994eee	0.07485758
102	0xbf378143	-0.7168161
103	0x3f487298	0.78299856
104	0x3dbf42fe	0.093389496
105	0xbdbf036b	-0.09326824
106	0x3e064500	0.13112259
107	0xbf448ddc	-0.7677896
108	0xbec69d36	-0.38791817
109	0xbde40c39	-0.11135144
110	0x3d82c1af	0.063845985
111	0x3e0e5e4d	0.1390316
112	0xbddc2ed9	-0.10751123
113	0xbd4cdce1	-0.050015334
114	0xbe1748d1	-0.14773871
115	0xbe5b9452	-0.21443298
116	0xbe2eecfc	-0.1708259
117	0xbe5eaf56	-0.21746573
118	0xbddaaaae	-0.10677086
119	0xbe35e832	-0.17764357
120	0x3e22c0f3	0.15893917
121	0x3e1e8199	0.15479125
122	0xbde9e04d	-0.11419735
123	0xbe75e4aa	-0.2401301
124	0x3e07eb0d	0.13273259
125	0x3da2c4aa	0.07947667
126	0xbce5d95a	-0.028057743
127	0x3bcde46a	0.0062833326
128	0xbe989349	-0.2979987
129	0xbe7a85f3	-0.2446516
130	0x3d89b164	0.06723288
131	0xbe190d06	-0.14946374
132	0xbcabcad4	-0.02097074
133	0x3d6b4b60	0.05744493
134	0xbc1ab444	-0.009442393
135	0x3deed587	0.11661821
136	0xbd8d8e85	-0.06911949
137	0xbdd6c40c	-0.10486612
138	0xbe423d83	-0.18968777
139	0xbe6538ba	-0.2238492
140	0xbe413b3e	-0.18870255
141	0xbd8bc66b	-0.068249546
142	0xbe346e35	-0.17620166
143	0xbe17c414	-0.14820892
144	0x3f2ce6d7	0.67539734
145	0xbdbc0e00	-0.09182358
146	0xbddab42a	-0.10678895
147	0x3e8517a9	0.25994614
148	0x3df7c63c	0.12098357
149	0xbc5bd002	-0.013416292
150	0xbf1fa7b5	-0.62365276
151	0x3f668f4f	0.9006242
152	0x3ed25b3f	0.4108524
153	0xbc184dec	-0.009295922
154	0x3c9be2b2	0.019028995
155	0xbea2c776	-0.31792802
156	0xbd24d179	-0.04023883
157	0xbe2a208f	-0.16613983
158	0x3e832f3f	0.25621983
159	0x3e5dc50e	0.21657202
160	0x3f4b3bcb	0.7938811
161	0xbf1a6848	-0.6031537
162	0xbd33a5d9	-0.043859337
163	0xbfe08997	-1.7541989
164	0xbd22029e	-0.039553277
165	0x3e6a9852	0.22909668
166	0xbf084565	-0.5323089
167	0x3f894c99	1.0726501
168	0x3eec4031	0.46142724
169	0xbe77c00b	-0.24194352
170	0xbc60c2a2	-0.013718279
171	0x3e439a88	0.19101918
172	0xbf46d50a	-0.7766882
173	0x3bedb65a	0.007254404
174	0x3e810011	0.25195363
175	0x3d595ce5	0.053067107
176	0x3df1569b	0.11784097
177	0xbf8d52eb	-1.104093
178	0x3eb83fbe	0.3598613
179	0x3ec311af	0.3809943
180	0x3d4d909b	0.050186735
181	0xbe638e31	-0.2222221
182	0xbe4be510	-0.19911599
183	0xbd00d142	-0.031449564
184	0xbed44cf7	-0.4146497
185	0xbdf77535	-0.12082902
186	0xbebc0a2d	-0.36726514
187	0xbe5c3881	-0.2150593
188	0xbf335ace	-0.7006043
189	0xbf50e3cf	-0.8159761
190	0x3f18414d	0.5947464
191	0xbf065216	-0.52469003
192	0x3ee73a8d	0.45161858
193	0x3e57d032	0.21075514
194	0x3f5bffaf	0.8593702
195	0x3d0a7568	0.033803374
196	0xbfd504e2	-1.6642115
197	0x3ebf316d	0.37342396
198	0x3e8220f3	0.25415763
199	0xbeea6057	-0.45776626
200	0xbfb26a61	-1.3938714
201	0x3f2e53e0	0.68096733
202	0xbe3b551f	-0.1829419
203	0x3f487e24	0.78317475
204	0x3ed2fd9b	0.4120911
205	0x3f2c6120	0.673357
206	0xbe14ef30	-0.14544368
207	0xbf04ecdf	-0.51923937
208	0x3ed8ac94	0.42319167
209	0x3f179e55	0.5922597
210	0x3dc30f37	0.095243864
211	0xbe52ce6a	-0.20586553
212	0xbf0024d8	-0.5005622
213	0xbeb8d4c3	-0.36099824
214	0xbc99badb	-0.018765857
215	0x3d941c75	0.0723199
216	0x3ed95799	0.42449644
217	0x3ecdd47e	0.4020118
218	0xbe10e7fe	-0.14150998
219	0x3fed892d	1.8557488
220	0xbf541524	-0.8284476
221	0xbb7b1f5c	-0.0038318252
222	0xbf09f50a	-0.53889525
223	0xbec97b95	-0.39352098
224	0x3e43a2e2	0.19105104
225	0xbf54ccee	-0.831252
226	0x3e407e26	0.18798122
227	0x3ec5de94	0.38646376
228	0x3e397852	0.18112305
229	0xbf05a892	-0.5221034
230	0xbd030e01	-0.031995777
231	0x3e2436da	0.16036549
232	0x3e9b1f50	0.30297327
233	0xbee8767a	-0.4540289
234	0xbe8c1e92	-0.27367073
235	0xbecd7b98	-0.40133357
236	0xbf13d1c9	-0.5774198
237	0xbf61f50c	-0.88264537
238	0x3f3ddf4a	0.7416884
239	0xbe0255b9	-0.12728013
240	0x3e3a68f1	0.18204094
241	0xbe369e1a	-0.17833748
242	0x3dc48a3b	0.09596678
243	0x3d51ee97	0.051252928
244	0xbe90c5b2	-0.2827583
245	0xbe35bfd0	-0.17748952
246	0xbdbd3e30	-0.09240377
247	0xbe4bbff2	-0.1989744
248	0x3e4e4ec1	0.2014723
249	0xbcb6db3d	-0.022321338
250	0xbe86aee8	-0.26305318
251	0xbd750d05	-0.05982687
252	0x3d216948	0.039407045
253	0xbdc8e068	-0.09808427
254	0xbe7c6945	-0.24649532
255	0xbe3b0ca2	-0.18266538

model.encoder_gnn.gnn.0.0.nn.2.bias f4 [16]
0	0x3d35fb80	0.044429302
1	0xbbd2505d	-0.0064182715
2	0xbe2054a0	-0.15657282
3	0x3c462a56	0.012095055
4	0x3cfb68d2	0.03068963
5	0xbe2eb3dd	-0.170608
6	0x39a1a028	0.0003082764
7	0xbe8cafbf	-0.27477834
8	0xbdc07190	-0.0939666
9	0xbeabf520	-0.33585453
10	0xbd375140	-0.04475522
11	0x3eec4111	0.46143392
12	0xbdad8f5e	-0.08474611
13	0x3d667930	0.056267917
14	0x3eb0574e	0.34441608
15	0x3c20caa9	0.009813943

model.encoder_gnn.post_nn.fc_layers.0.0.weight f4 [8, 16]
0	0xbb5a5dd6	-0.003332009
1	0x3b204d11	0.0024459998
2	0xbc04b2b5	-0.008099248
3	0x3bd64ee5	0.0065401667
4	0xbbc23709	-0.005926971
5	0xb9debe0a	-0.0004248473
6	0x3b0b8bb6	0.002129299
7	0x3bab465b	0.005226893
8	0xbb076afb	-0.002066313
9	0xbb69e2d0	-0.003568817
10	0xba3b0550	-0.00071342755
11	0xbb81c554	-0.003960291
12	0xbbb72d1b	-0.005590094
13	0x3a2e5178	0.0006649713
14	0x3c39f485	0.011349802
15	0xbb827cea	-0.003982176
16	0x3b92f141	0.004484326
17	0xb89e58dc	-7.5505784e-05
18	0x3c23081d	0.009950665
19	0xbbb59cc8	-0.0055423714
20	0x398a3822	0.00026363233
21	0xb9d3233b	-0.00040271305
22	0x39880c37	0.00025949042
23	0xbb3a88e7	-0.0028462948
24	0xbb357491	-0.0027687887
25	0x3bb75a3a	0.0055954726
26	0x3a03838f	0.0005016857
27	0xbc0bfe86	-0.00854457
28	0x3b17833c	0.0023118993
29	0x39d028e3	0.00039703315
30	0x3b729ced	0.0037019805
31	0x3ac9cba4	0.0015395773
32	0xbe500742	-0.20315269
33	0x3e09d11c	0.13458675
34	0xbe16bb17	-0.14719807
35	0xbe1d5629	-0.15364899
36	0x3e52e22d	0.20594092
37	0x3e230aea	0.15922132
38	0x3e0c1f6d	0.13683863
39	0xbe21d7e9	-0.1580502
40	0xbe132f51	-0.14373519
41	0x3e26d440	0.16291904
42	0x3e55f7ab	0.20895259
43	0x3eb3d80d	0.3512577
44	0xbe620a8c	-0.22074336
45	0xbe80dcd2	-0.25168473
46	0x3e251a26	0.16123256
47	0xbe1a3c4e	-0.15062067
48	0x3e6963e4	0.22792011
49	0xbe23a78e	-0.15981886
50	0x3e39d718	0.18148458
51	0x3e16f861	0.14743187
52	0xbe417d0f	-0.18895362
53	0xbe3e071d	-0.18557401
54	0xbe183cf7	-0.14867006
55	0x3e0515a7	0.12996541
56	0x3e184f29	0.14873947
57	0xbdf5486d	-0.11976705
58	0xbe38371e	-0.17989776
59	0xbe9269e0	-0.285964
60	0x3e6ffa3f	0.23435305
61	0x3e68d3df	0.22737072
62	0xbe559599	-0.20857848
63	0x3e49174e	0.19637796
64	0x3aa665e7	0.0012695164
65	0xb9e32ee3	-0.00043331747
66	0xba7631fe	-0.00093916047
67	0x3a0f0321	0.00054554833
68	0xb99dfc1a	-0.00030133204
69	0x3b079473	0.0020687848
70	0xb9d89efd	-0.00041317186
71	0x3b2003b6	0.0024416274
72	0xba5f4383	-0.0008516835
73	0x3b347289	0.0027534089
74	0xbb1baf6d	-0.0023755685
75	0xb90edb66	-0.00013623908
76	0xbac625da	-0.0015117482
77	0xbafb9c69	-0.0019196394
78	0x3a274872	0.00063813396
79	0x3988b5b6	0.00026075327
80	0x3ae1f5ee	0.001723943
81	0x3a95a5ea	0.0011417244
82	0x3b00131f	0.0019542647
83	0x3ae7f7fc	0.0017697806
84	0x3abe4d35	0.0014518859
85	0xb7fc95b8	-3.011046e-05
86	0x3a4b2c41	0.000775043
87	0xb944b7e2	-0.00018760518
88	0xb9bf0a2f	-0.00036437946
89	0x3adf7708	0.0017049024
90	0xb8b4dc60	-8.624117e-05
91	0x3ac09b86	0.0014694787
92	0x3a4d33ea	0.0007827865
93	0xb9b71c72	-0.00034925673
94	0xba2e7314	-0.0006654721
95	0x3ab01a93	0.0013435654
96	0x3d9eff85	0.0776358
97	0x3a9e0522	0.0012055973
98	0x3e155974	0.14584905
99	0xbdaa5677	-0.08317273
100	0x3cad2427	0.021135403
101	0x3c913bf5	0.017728785
102	0xbc822457	-0.015886469
103	0xbd547e20	-0.051878095
104	0xbc1b216f	-0.00946842
105	0x3e000cef	0.12504934
106	0x3bb061fc	0.0053827744
107	0x3e246264	0.16053158
108	0x3d8514fa	0.064981416
109	0xbb0be8ef	-0.0021348556
110	0xbe6b2efc	-0.22967142
111	0x3d91c043	0.07116749
112	0x3d8f28c1	0.06990195
113	0xbc3fb510	-0.0117008835
114	0x3df324ab	0.11872228
115	0xbde1a193	-0.11017146
116	0x3d239ed8	0.039946407
117	0x3b932626	0.0044906316
118	0xbc86837e	-0.016420122
119	0xbd818e62	-0.063259855
120	0xbb96d8c3	-0.0046034767
121	0x3da7bab7	0.0818991
122	0x3d1de1ee	0.03854554
123	0x3e0272ea	0.12739149
124	0x3cf6cc90	0.03012684
125	0xbcad116a	-0.021126468
126	0xbe3af17e	-0.18256184
127	0x3d9a8ada	0.07546015

model.encoder_gnn.post_nn.fc_layers.0.0.bias f4 [8]
0	0x3b7324c1	0.0037100764
1	0xbacd23d9	-0.0015650942
2	0xbd11e698	-0.035620302
3	0x3c8a9cde	0.016920503
4	0x3a8571c1	0.0010180996
5	0xb9f74962	-0.00047166186
6	0xbfa0c3da	-1.2559769
7	0xbfa93078	-1.3217916

model.decoder_gnn.pre_nn.fc_layers.0.0.weight f4 [16, 4]
0	0x3bc4ed26	0.0060097156
1	0xbc218be2	-0.009860011
2	0xbed139f3	-0.40864524
3	0x3eaabeeb	0.33348784
4	0x3b428efa	0.0029687271
5	0xbbc25f05	-0.0059317374
6	0x3dffac08	0.12483984
7	0xbe06556f	-0.13118528
8	0xba90b81a	-0.0011041195
9	0x3bc37741	0.005965144
10	0x3ecc9344	0.39956105
11	0xbed0d915	-0.4079062
12	0xbb2f61d7	-0.0026761198
13	0xbbac56c5	-0.005259367
14	0xbcf06d19	-0.029348897
15	0x3efb6b30	0.49105215
16	0x3a2d3b94	0.0006608304
17	0x3aec472a	0.001802658
18	0xbec87e15	-0.39158693
19	0x3ec68d89	0.38779858
20	0x3b94b06e	0.0045376336
21	0x3b0fef94	0.0021962868
22	0x3eabee82	0.33580405
23	0xbea7d7be	-0.32781786
24	0xbb73a7e7	-0.0037178935
25	0x3a5d33e3	0.00084382127
26	0x3e59fd40	0.21288013
27	0xbe5d3500	-0.21602249
28	0x3c1acd43	0.009448352
29	0xbbb1adcc	-0.0054223295
30	0x3e930b7b	0.28719696
31	0xbe9877df	-0.29778954
32	0xbc6ba7f3	-0.014383304
33	0xbbf5e2c8	-0.007503841
34	0x3e010b9a	0.12602082
35	0xbe102a7c	-0.14078707
36	0x3c228dbe	0.009921489
37	0x3bd497e1	0.006487832
38	0x3ec7f342	0.39052778
39	0x3e91c406	0.28469867
40	0xbb622a5a	-0.0034510107
41	0x3c15a7be	0.009134231
42	0xbeb7e41b	-0.35916218
43	0x3edf77b2	0.43646008
44	0x3c32f871	0.010923491
45	0x3b63735c	0.003470621
46	0x3de453a1	0.111487634
47	0xbdf87c7b	-0.12133118
48	0xbc7d820e	-0.015472902
49	0x3b38cb34	0.002819729
50	0x3e7ec25b	0.24878828
51	0xbe81d03b	-0.2535418
52	0x3b4ba118	0.003107136
53	0x3c43830b	0.011933099
54	0x3ee724ff	0.45145413
55	0x3eb99ae6	0.3625099
56	0x3c11ed65	0.008906697
57	0xbbe39c56	-0.006946127
58	0x3ed4e543	0.41581163
59	0xbed1761d	-0.40910426
60	0xba947bb6	-0.0011328373
61	0xbba84e49	-0.0051362854
62	0xbec6935a	-0.38784295
63	0xbeec998e	-0.46210903

model.decoder_gnn.pre_nn.fc_layers.0.0.bias f4 [16]
0	0x3e6c568e	0.23079893
1	0x3e630924	0.22171456
2	0x3eb3ea9e	0.35139936
3	0xbec19a61	-0.37813094
4	0x3efd5f70	0.49486876
5	0xbf2b7aaa	-0.66984046
6	0x3de0cd75	0.10976688
7	0x3eb8347d	0.35977545
8	0x3e82b375	0.2552754
9	0xbe87e35c	-0.2654065
10	0x3e849af9	0.25899485
11	0x3e6ce38e	0.2313368
12	0xbe1f04b7	-0.15529142
13	0xbf46db5f	-0.77678484
14	0x3eca3960	0.394969
15	0xbf07a74c	-0.5298965

model.decoder_gnn.lin_skipsum.0.0.weight f4 [16, 16]
0	0x3d2d35c4	0.042287603
1	0xbe793bc6	-0.24339208
2	0xbbe89f12	-0.007099041
3	0x3e38dd30	0.18053126
4	0x3e878ccb	0.26474604
5	0xbe2d02b1	-0.16895558
6	0xbea2c331	-0.31789544
7	0xbab167f0	-0.0013535004
8	0xbd9471bd	-0.07248256
9	0x3d05751d	0.03258239
10	0x3e2bd2d8	0.1677965
11	0xbe2fe3fd	-0.17176814
12	0xbda4f09c	-0.08053705
13	0x3c035343	0.008015457
14	0xbe0c9193	-0.13727407
15	0xbc974b04	-0.018468387
16	0x3e4a8355	0.19776662
17	0xbe9156c1	-0.283865
18	0xbdb30cca	-0.08742674
19	0x3e4ece50	0.2019589
20	0x3e1c50cf	0.15265201
21	0x3dac27d1	0.08406032
22	0xbdae6af2	-0.08516492
23	0xbde5e726	-0.11225729
24	0xbde4fe2b	-0.11181291
25	0xbd4a5d5e	-0.04940545
26	0x3d216272	0.039400525
27	0xbdecf646	-0.115704104
28	0xbe8eac58	-0.27865863
29	0x3d5abdf9	0.05340383
30	0xbd8f5085	-0.0699778
31	0x3d703988	0.058648616
32	0x3dd99af1	0.10625256
33	0xbe0a6ef9	-0.13518895
34	0xbd96cd4a	-0.073633745
35	0x3e68bcb9	0.22728242
36	0x3e6268f9	0.22110356
37	0xbe2f1a2e	-0.1709983
38	0xbe12f60e	-0.14351675
39	0xbe41dca3	-0.18931822
40	0xbe4383d8	-0.19093263
41	0xbe1a50f9	-0.15069951
42	0x3dd6f3ca	0.10495718
43	0xbdf441e1	-0.11926628
44	0xbd473c33	-0.048641395
45	0x3cc523e4	0.024064966
46	0xbdb68c40	-0.08913469
47	0x3e224443	0.15846352
48	0xbe2965a2	-0.16542676
49	0x3e323a9c	0.1740517
50	0x3d6e8c5f	0.058239337
51	0xbe5045e4	-0.20339161
52	0xbe14c00d	-0.14526387
53	0x3d96770e	0.07346927
54	0x3e327423	0.17427115
55	0x3e44450a	0.19166961
56	0xbcfe8f3f	-0.031074164
57	0x3b348856	0.0027547083
58	0xbe3001bc	-0.17188162
59	0x3e625e4d	0.22106285
60	0x3e610679	0.21975125
61	0xbd9c197a	-0.07622047
62	0x3d35f7c8	0.044425756
63	0xbda900df	-0.08252119
64	0xbe3b99e9	-0.18320431
65	0xbc606cb1	-0.013697789
66	0x3deee80c	0.11665353
67	0xbe0c8b26	-0.13724956
68	0xbe515f14	-0.20446426
69	0x3ddf310a	0.10898025
70	0x3e3adff1	0.1824949
71	0x3e09bff4	0.1345213
72	0x3e3686c5	0.17824848
73	0xbdc94157	-0.09826916
74	0xbded6e50	-0.11593306
75	0x3e255d96	0.16148981
76	0x3e1d2b90	0.15348649
77	0x3e34af8f	0.17645095
78	0x3d6a501c	0.057205305
79	0xbe28438e	-0.1643202
80	0x3d57268b	0.05252699
81	0xbe716871	-0.23574997
82	0xbdc205db	-0.09473773
83	0x3d569c3d	0.052395094
84	0x3e2ab5ac	0.16670865
85	0xbe2046f0	-0.1565206
86	0x3b56771e	0.0032724808
87	0x3c872b58	0.01650016
88	0xbe4ef696	-0.20211253
89	0xbbd1f4a4	-0.0064073373
90	0x3e38d36a	0.18049398
91	0x3c8343cf	0.016023545
92	0xbe89ed25	-0.2693874
93	0x3e095331	0.13410641
94	0xbc2f329c	-0.010693219
95	0x3e38b5cf	0.18038104
96	0x3e235ba5	0.15952928
97	0xbd78f90d	-0.06078439
98	0xbdda5880	-0.10661411
99	0x3e859b38	0.26094985
100	0x3e872a24	0.26399338
101	0xbcfb6aa8	-0.030690506
102	0xbd9cc9c0	-0.07655668
103	0xbd9c82e0	-0.0764215
104	0xbd0f7e80	-0.03503275
105	0xbddda546	-0.10822539
106	0x3dfc8bec	0.123313755
107	0xbe25bd59	-0.16185512
108	0xbe921cd7	-0.28537628
109	0xbc585c00	-0.013205528
110	0xbe6532c0	-0.22382641
111	0x3e104017	0.14086948
112	0xbe0d9da7	-0.13829671
113	0x3e2b7b0a	0.16746154
114	0x3d39bdda	0.045347072
115	0xbe0dd5ea	-0.13851133
116	0xbdc1422e	-0.09436451
117	0x3d42fb1f	0.04760277
118	0x3dbd9b10	0.092580914
119	0x3e069475	0.1314257
120	0x3e239aa6	0.15976962
121	0xbbd45ecd	-0.0064810277
122	0xbda9ff42	-0.0830064
123	0x3deabbb8	0.11461586
124	0x3df45576	0.11930363
125	0x3ceec4b7	0.029146535
126	0x3c9f6703	0.0194583
127	0xbd0a582d	-0.033775497
128	0x3da5dd33	0.08098831
129	0xbe30acb1	-0.17253377
130	0xbd82b114	-0.06381431
131	0x3e5e5759	0.21713008
132	0x3e66d10b	0.22540681
133	0xbe0fb723	-0.14034705
134	0xbdbbddc5	-0.091731586
135	0xbe27ecf8	-0.1639899
136	0xbe0627d0	-0.13101125
137	0xbd5bd38b	-0.05366854
138	0x3de2f485	0.11081795
139	0x3bc254c0	0.005930513
140	0xbd3c5b69	-0.045985613
141	0x3de7c079	0.11316008
142	0xbe2d6f68	-0.1693703
143	0x3df5e6aa	0.12006886
144	0x3e0b6fd7	0.13616882
145	0xbd702c6d	-0.058636118
146	0xbbe88210	-0.007095583
147	0x3e4f85c9	0.20265879
148	0x3e526834	0.20547563
149	0xbd8bd9c0	-0.06828642
150	0xbd37e5dc	-0.044896945
151	0xbe742d11	-0.23845316
152	0xbe450b59	-0.1924261
153	0x3da7b788	0.08189303
154	0x3d44b7fa	0.048027016
155	0xbe87c51e	-0.26517576
156	0xbe18e0d1	-0.1492951
157	0xbe193a16	-0.14963564
158	0xbd973418	-0.07382983
159	0x3dca553b	0.09879538
160	0x3e0ef4da	0.13960591
161	0x3d859794	0.06523052
162	0xbd9ddd8f	-0.077082746
163	0x3dc3eb19	0.09566326
164	0x3e30c92a	0.17264238
165	0xbe1409d0	-0.14456868
166	0xbdb7245e	-0.08942483
167	0xbd992264	-0.074772626
168	0xbdf72942	-0.12068416
169	0xbc26da16	-0.010183832
170	0x3de604b2	0.11231364
171	0x3caad3ef	0.020853011
172	0xbe3bf531	-0.18355252
173	0x3df83cf5	0.12121002
174	0xbde7741f	-0.11301445
175	0xbd0fab76	-0.035075627
176	0xbd9d4af5	-0.076803125
177	0x3e64b221	0.22333576
178	0xbc73e48e	-0.014886035
179	0xbe2f4168	-0.17114794
180	0xbdf47b37	-0.11937564
181	0x3d94deea	0.0726908
182	0x3d23fb4f	0.04003459
183	0x3df4e15a	0.11957045
184	0x3e155060	0.14581442
185	0x3da99234	0.08279839
186	0xbdc1568a	-0.09440334
187	0x3d5dbabe	0.05413317
188	0x3e3318d8	0.17489946
189	0x3e4b4d3e	0.19853684
190	0x3d5210e6	0.051285647
191	0xbde43792	-0.11143412
192	0xbddf6dd8	-0.10909623
193	0x3dc46831	0.095901854
194	0x3c272342	0.010201277
195	0xbdfce905	-0.123491324
196	0xbe0a2794	-0.1349166
197	0x3d6257cf	0.055259522
198	0x3d8423e7	0.0645216
199	0x3df160be	0.1178603
200	0x3a934470	0.0011235606
201	0x3c1ea5ea	0.009683112
202	0xbcdc82aa	-0.026917774
203	0xbd1bc0c0	-0.038025618
204	0x3da95e23	0.08269908
205	0x3d638b96	0.05555304
206	0x3dcbb21c	0.09946081
207	0xbb56ba7c	-0.0032764962
208	0x3dae4645	0.085094966
209	0xbe6b2446	-0.22963056
210	0xbdf7f196	-0.12106626
211	0x3e2261df	0.15857647
212	0x3e15fd2d	0.1464736
213	0xbe341354	-0.17585498
214	0x3a73b4fd	0.0009296684
215	0xbdba9310	-0.09110081
216	0xbd575287	-0.05256894
217	0x3d4b4f29	0.04963604
218	0x3e5b0f33	0.21392517
219	0xbe5d464a	-0.21608844
220	0xbda1d317	-0.0790159
221	0xbdbd30ae	-0.092378005
222	0xbdb40ff7	-0.087921076
223	0x3df7d77b	0.121016465
224	0x3e148f3c	0.14507765
225	0xbdf57173	-0.11984529
226	0xbdbbc2c1	-0.09168006
227	0x3e635820	0.22201586
228	0x3dbf2100	0.09332466
229	0x3d9533f0	0.07285297
230	0xbe7576f5	-0.2397116
231	0xbd912a02	-0.070880905
232	0xbe6c6ddf	-0.23088787
233	0xbd8c1bc5	-0.06841234
234	0x3e2e3ec5	0.17016132
235	0xbe568901	-0.209507
236	0xbe27c3f8	-0.1638335
237	0x3e0c4866	0.13699493
238	0xbde82f7c	-0.11337182
239	0xbb1f03e1	-0.0024263787
240	0x3e451ebd	0.19250007
241	0xbd4d0e8f	-0.050062712
242	0xbddb9a0b	-0.10722741
243	0x3e37b5a8	0.1794039
244	0x3dc5ddfd	0.096614815
245	0x3db80bf8	0.08986658
246	0xbdb9fd59	-0.09081525
247	0xbe49e63d	-0.19716735
248	0xbd1a200a	-0.03762821
249	0x3d8bae55	0.068203606
250	0x3d9241b2	0.07141437
251	0xbe8184ee	-0.2529673
252	0xbe5ab3da	-0.2135767
253	0xbe1655aa	-0.14681116
254	0xbd04366b	-0.03227846
255	0xbe077a84	-0.1323033

model.decoder_gnn.lin_skipsum.0.0.bias f4 [16]
0	0x3cb8f800	0.022579193
1	0x3db2214d	0.08697758
2	0x3daaeedb	0.08346339
3	0xbd9c81bc	-0.07641932
4	0xbcd3b4e4	-0.025843091
5	0xbce5a4ec	-0.028032742
6	0x3d54c314	0.051943853
7	0xbda533bc	-0.08066508
8	0x3db67f8f	0.089110486
9	0x3db58c21	0.08864618
10	0xbc3958c1	-0.0113126645
11	0xbd836923	-0.064165376
12	0xbc8c2164	-0.017105766
13	0x3d35e7dc	0.04441057
14	0x3e1aafaa	0.15106073
15	0x3dd86f52	0.10568108

model.decoder_gnn.lin_skipsum.1.0.weight f4 [16, 16]
0	0x3e37520a	0.17902389
1	0xbd8dca88	-0.069233954
2	0x3def2c64	0.11678389
3	0x3e4bdf20	0.19909334
4	0x3c83b289	0.016076343
5	0x3e7a68c2	0.24454024
6	0x3dea6abc	0.11446139
7	0xbd5acdb5	-0.053418834
8	0xbe2023cc	-0.15638655
9	0x3d37417e	0.044740193
10	0x3dec69d7	0.11543625
11	0x3f4515bc	0.7698629
12	0xbe87dd67	-0.26536104
13	0x3df39e12	0.11895384
14	0x3e89b452	0.26895386
15	0xbba6a716	-0.005085836
16	0x3e296465	0.16542204
17	0x3e0ffdba	0.14061633
18	0x3c1967ca	0.009363124
19	0x3db743d0	0.08948481
20	0x3e0a912f	0.13531946
21	0xbd8815ed	-0.06644807
22	0xbd7d09ed	-0.061777044
23	0xbd9004fe	-0.07032202
24	0xbdfb190d	-0.122606374
25	0x3dcbeaf7	0.09956925
26	0x3d2157b8	0.039390296
27	0x3f45bcff	0.7724151
28	0xbe702982	-0.23453334
29	0x3dc4522d	0.09585986
30	0x3e3db2f8	0.18525302
31	0xbe74ee9b	-0.23919146
32	0x3e9c854e	0.30570453
33	0x3d2ec1ec	0.042665407
34	0x3e63bbdb	0.2223963
35	0x3e87ee75	0.26549116
36	0xbd102d9d	-0.03519975
37	0x3e457742	0.19283774
38	0x3de71805	0.11283878
39	0xbdf5b888	-0.11998087
40	0xbe7593e1	-0.23982193
41	0xbc4953f8	-0.012288086
42	0x3e12dc1f	0.14341782
43	0x3f6cf69b	0.9256379
44	0xbe4f8148	-0.2026416
45	0x3dbcd03f	0.09219407
46	0x3d260457	0.040531483
47	0xbdf739a1	-0.12071539
48	0xbea3d581	-0.31998828
49	0xbad33767	-0.0016114534
50	0xbe16536a	-0.14680257
51	0xbe477d2d	-0.19481345
52	0xbdd407eb	-0.10353073
53	0xbe032cb5	-0.12810023
54	0x3d586b46	0.05283668
55	0x3d365f2a	0.04452435
56	0x3df0a95f	0.11751055
57	0xbd06a56e	-0.03287261
58	0xbd942102	-0.07232858
59	0xbf3b46ee	-0.73155105
60	0x3ebffb9b	0.37496647
61	0xbc269eec	-0.010169726
62	0xbe27b190	-0.16376328
63	0xbd0cd889	-0.03438619
64	0xbe91bf2d	-0.28466168
65	0x3c8064f9	0.015673148
66	0xbe15644c	-0.14589041
67	0xbe51fe61	-0.20507194
68	0xbd9f4457	-0.07776707
69	0x3dcfb4af	0.101418845
70	0x3b5d7404	0.0033791075
71	0x3d8b439d	0.068000056
72	0x3e363445	0.17793377
73	0xbe373337	-0.1789063
74	0xbdc26b54	-0.094931275
75	0xbefa99c8	-0.4894545
76	0x3e8b0054	0.27148688
77	0xbc41e1a8	-0.011833586
78	0xbdcd6a0d	-0.10029993
79	0x3e089622	0.13338521
80	0x3e36a912	0.17837933
81	0x3e019fb1	0.12658574
82	0x3d5fc02e	0.054626636
83	0x3d4bdf9e	0.049773805
84	0x3d9fcacc	0.07802352
85	0xbe05c41e	-0.13063094
86	0xbcd8f147	-0.026482238
87	0xbd7d3fc6	-0.061828397
88	0xbdfc6a57	-0.1232497
89	0x3e209528	0.15681899
90	0x3d518d44	0.051160112
91	0x3f26e01e	0.65185726
92	0xbe14ca6b	-0.14530341
93	0x3dd35cbb	0.10320421
94	0x3cf7e364	0.030259795
95	0xbda1dbc3	-0.07903244
96	0x3ecc107a	0.3985632
97	0x3d215f13	0.03939731
98	0x3e815c9d	0.2526597
99	0x3e885376	0.26626176
100	0x3de8c3f7	0.11365502
101	0x3eb7e7ea	0.35919124
102	0xbd8387d9	-0.06422395
103	0xbe039832	-0.12851027
104	0xbe963702	-0.29338843
105	0x3e84d82a	0.2594617
106	0xbca21f0e	-0.019790199
107	0x3f92644a	1.1436856
108	0xbe8827d9	-0.265929
109	0x3c8ff2d1	0.017571839
110	0x3ea385de	0.3193807
111	0xbe23fa99	-0.16013564
112	0xbe1aa781	-0.1510296
113	0xbbc56368	-0.006023813
114	0xbccdd81c	-0.025127463
115	0xbdff7caa	-0.1247495
116	0xbd9b3757	-0.075789146
117	0x3d2ae606	0.041723274
118	0xbd911f09	-0.070859976
119	0x3d5287c2	0.051399
120	0x3e11db62	0.14243844
121	0x3d4a3d20	0.0493747
122	0xbdf15aae	-0.11784874
123	0xbf35278d	-0.70763475
124	0x3e0f5507	0.13997279
125	0xbcf2a924	-0.029621668
126	0xbe40d17a	-0.18829909
127	0x3eaa7ddb	0.33299145
128	0x3e4a9615	0.19783814
129	0xbda9ce15	-0.0829126
130	0x3e5ba9d4	0.21451503
131	0x3e824520	0.25443363
132	0x3db814ea	0.08988364
133	0x3d6a62ab	0.057223003
134	0x3e1952bb	0.14972965
135	0xbc3bd151	-0.011463479
136	0xbe7a6ee1	-0.2445636
137	0x3dcdae34	0.10042992
138	0x3ce4e413	0.027940786
139	0x3f21f8e4	0.632704
140	0xbe23f633	-0.16011886
141	0x3df2eca3	0.11861541
142	0x3d3501e3	0.044191252
143	0x3e28fdbc	0.16503042
144	0x3e4cb463	0.19990687
145	0x3ce21339	0.027597057
146	0x3dd4e52b	0.10395273
147	0x3e56602c	0.20935124
148	0xbd41054a	-0.047124185
149	0x3e775863	0.2415481
150	0x3d9ea778	0.07746786
151	0xbd95c159	-0.07312269
152	0xbe462cd2	-0.19353035
153	0x3d2b2768	0.041785628
154	0x3e333ba9	0.17503227
155	0x3f2bb375	0.67070705
156	0xbe419e44	-0.1890803
157	0x3ddebe1b	0.108761035
158	0x3e097740	0.13424397
159	0xbeb74d68	-0.35801244
160	0x3ddcf53e	0.10788964
161	0x3dbea1d9	0.09308214
162	0xbcb0f02c	-0.021598898
163	0x3dbb455b	0.09144088
164	0x3e1938ab	0.14963023
165	0x3bcb4747	0.0062035653
166	0xbc995715	-0.018718282
167	0xbca4c11c	-0.020111613
168	0xbe86b7fb	-0.2631224
169	0x3e601867	0.21884309
170	0x3da0ad67	0.07845574
171	0x3f08449e	0.532297
172	0xbdaa3d3a	-0.08312459
173	0x3dbe2d21	0.092859514
174	0x3d26831f	0.04065239
175	0xbe5a403e	-0.21313569
176	0xbe5c5c90	-0.21519685
177	0xbdae53cb	-0.08512076
178	0xbd893dba	-0.067012265
179	0xbde0c04c	-0.10974178
180	0x3bb6e242	0.0055811713
181	0xbe287a00	-0.1645279
182	0x3cddbd5d	0.027067835
183	0x3d1eb4af	0.038746532
184	0x3dd776a3	0.10520675
185	0xbd4483da	-0.047977306
186	0xbda913ad	-0.08255706
187	0xbf10fb76	-0.566337
188	0x3e025df4	0.12731153
189	0xbda4b347	-0.08042007
190	0xbdfb20f9	-0.122621484
191	0x3e080206	0.13282022
192	0xbe1de41b	-0.15419047
193	0xbd5abb88	-0.0534015
194	0xbddcb5fc	-0.10776898
195	0xbdb3dad8	-0.087819755
196	0xbbf6d6a0	-0.0075329095
197	0xbd9f2234	-0.077701956
198	0xbd0e06e9	-0.03467456
199	0x3d0e335b	0.034716945
200	0x3e2885e6	0.16457328
201	0xbdbdeac8	-0.092732966
202	0xbdf3bf19	-0.11901683
203	0xbef717f7	-0.4826047
204	0x3d9a34ba	0.07529588
205	0xbb3dcfe3	-0.0028963021
206	0xbd821457	-0.06351536
207	0x3e55257a	0.20815077
208	0x3e48407e	0.19555852
209	0x3d0714b9	0.032978747
210	0x3e212b05	0.15739067
211	0x3e3b78cc	0.18307799
212	0x3dbc6efb	0.09200855
213	0x3d91634c	0.070990175
214	0x3d83621c	0.06415197
215	0xbdfe993a	-0.124315694
216	0xbe214f90	-0.15753007
217	0x3e51cb45	0.20487697
218	0x3e210ccd	0.1572754
219	0x3f2c3d1f	0.67280763
220	0xbe1088f6	-0.14114746
221	0xbd2c2997	-0.04203185
222	0x3cf9e31f	0.030503808
223	0x3d4fc81c	0.05072795
224	0x3e494ade	0.19657466
225	0xbbaee153	-0.0053369193
226	0x3daa3040	0.08309984
227	0x3e6724cc	0.2257263
228	0x3dc746d7	0.097303085
229	0x3dc660d7	0.096864395
230	0x3c677349	0.014126607
231	0xbd770122	-0.060303815
232	0xbd50265d	-0.050817836
233	0x3c5875d7	0.013211689
234	0xbb89bb9c	-0.004203273
235	0x3f4778e8	0.77918863
236	0xbecbaf83	-0.39782342
237	0x3e19c734	0.15017396
238	0x3e7c564f	0.24642299
239	0xbd4eaa9d	-0.05045568
240	0x3df8b991	0.12144769
241	0x3dc037bf	0.09385633
242	0x3ca5654b	0.020189902
243	0x3e38750a	0.18013397
244	0xbb4a4452	-0.0030863476
245	0x3ce9ad1b	0.028524926
246	0x3d2f2c6a	0.042766966
247	0xbcc0985c	-0.02351015
248	0xbe7101b4	-0.23535806
249	0x3db22b7d	0.08699701
250	0x3e1b8311	0.15186717
251	0x3f44798e	0.7674798
252	0xbe05204a	-0.13000599
253	0x3deca287	0.11554437
254	0x3e756061	0.23962547
255	0xbe93d8ad	-0.28876248

model.decoder_gnn.lin_skipsum.1.0.bias f4 [16]
0	0xbdf8708d	-0.12130842
1	0xbdd257d5	-0.10270659
2	0xbe18701e	-0.1488652
3	0x3cfdd1c0	0.030983806
4	0x3d8ee0aa	0.06976445
5	0xbdf2a006	-0.11846928
6	0xbd9da99e	-0.076983675
7	0x3d9b53d9	0.07584352
8	0xbe21ec1d	-0.15812726
9	0xbe1468c7	-0.14493094
10	0xbdf66fc0	-0.12033033
11	0x3dc69e6c	0.09698185
12	0x3db33970	0.0875119
13	0xbdd31ee3	-0.103086255
14	0xbe00b473	-0.12568836
15	0xbe09378a	-0.13400093

model.decoder_gnn.gnn.0.0.nn.0.weight f4 [16, 16]
0	0x3db63012	0.088958874
1	0xbe45e5f6	-0.19326004
2	0xbd3d4fa7	-0.04621854
3	0xbe2f0f77	-0.17095743
4	0x3e7af308	0.24506772
5	0x3ee76c66	0.4519989
6	0xbd4ef552	-0.050526924
7	0xbd85611c	-0.06512663
8	0xbe043b4b	-0.12913243
9	0x3ebedfb3	0.37280044
10	0x3dfd99ee	0.123828754
11	0xbe30ce2f	-0.17266153
12	0x3e8eb93f	0.27875707
13	0xbeba55de	-0.36393636
14	0xbd852be6	-0.065025136
15	0xbe86b5b1	-0.26310495
16	0x3ed6d512	0.41959435
17	0xbe670085	-0.22558792
18	0x3be43fbb	0.006965605
19	0xbd405f03	-0.04696561
20	0xbe2ab982	-0.16672328
21	0x3ed64be3	0.41854772
22	0xbde0dae3	-0.10979249
23	0xbd7a55f8	-0.061117142
24	0xbe87a269	-0.26491097
25	0x3ed2fd1d	0.41208735
26	0x3e75ee24	0.24016625
27	0xbea8055c	-0.3281659
28	0x3c89bccd	0.01681366
29	0x3e898490	0.2685895
30	0xbdce4539	-0.10071797
31	0x3f06630b	0.5249488
32	0xbf00e35d	-0.5034693
33	0xbd80865c	-0.06275627
34	0xbc671b2b	-0.014105598
35	0xbe43fa37	-0.19138418
36	0xbd8caba1	-0.06868673
37	0x3e1a7ab6	0.15085873
38	0xbcc1b92f	-0.023647873
39	0xbcb7ad17	-0.022421403
40	0xbd79876e	-0.06092017
41	0x3e072b57	0.13200127
42	0x3f22b7b5	0.63561565
43	0xbd367b71	-0.044551317
44	0x3d63584e	0.055504136
45	0x3e61777c	0.22018236
46	0xbce27560	-0.02764386
47	0x3e1848c0	0.14871502
48	0xbbd26dd4	-0.006421784
49	0xbe6fc0ac	-0.23413342
50	0x3f30712f	0.68922704
51	0x3cd48b92	0.025945459
52	0xbc25e2b9	-0.010124856
53	0x3c84780b	0.016170522
54	0xbea8aab1	-0.32942727
55	0xbd995972	-0.074877635
56	0xbe7fed3e	-0.24992844
57	0x3e0fe15f	0.14050816
58	0xbb785abc	-0.0037895879
59	0xbeb10c58	-0.3457973
60	0xbe95ecc0	-0.29282188
61	0xbb27b2f0	-0.0025588833
62	0xbd75c618	-0.06000337
63	0x3df2a94d	0.11848698
64	0xbd1a2513	-0.037633013
65	0x3e9cb3d7	0.30605957
66	0xbcad9a2f	-0.021191685
67	0xbd6414b7	-0.055683818
68	0xbcbc20dd	-0.02296489
69	0xbd550e7d	-0.05201577
70	0x3ea36835	0.3191544
71	0x3e6a7302	0.22895434
72	0x3e735629	0.23763336
73	0x3d050d90	0.032483637
74	0xbc923c0e	-0.017850902
75	0x3e85ea25	0.261552
76	0x3e89dabc	0.26924694
77	0x3e1e8f97	0.15484463
78	0xbf2d3615	-0.6766065
79	0x3d364c4d	0.04450636
80	0xbd36bba3	-0.044612538
81	0x3e27940e	0.16365072
82	0x3cf9ceba	0.030494083
83	0x3cf4d1a9	0.02988513
84	0x3c24c1ce	0.010055972
85	0xba195822	-0.00058496196
86	0x3e885d00	0.26633453
87	0xbf20e986	-0.6285633
88	0x3e4adbd7	0.19810425
89	0x3cd5382d	0.026027763
90	0xbd420bea	-0.047374643
91	0x3e5012ef	0.20319723
92	0x3e2d2f16	0.16912493
93	0x3c381422	0.011235269
94	0xbc8bf853	-0.017086184
95	0x3d75dec0	0.060026884
96	0xbd729d6b	-0.059232157
97	0x3d2bf581	0.041982178
98	0xbce208ef	-0.02759215
99	0xbeab506c	-0.33459795
100	0xbe10e88e	-0.14151213
101	0x3e002205	0.12512977
102	0x3dfd00d2	0.12353672
103	0x3d3abbbd	0.045589197
104	0x3d909561	0.07059742
105	0x3d6d4a75	0.057932336
106	0xbd9a50ae	-0.0753492
107	0x3daac4c8	0.08338314
108	0x3e2234f8	0.15840518
109	0x3efbc2f1	0.49172166
110	0x3efc8785	0.49322143
111	0x3de8dbb9	0.11370034
112	0xbde9bfb2	-0.11413516
113	0xbe0784aa	-0.13234201
114	0xbe3c26d5	-0.18374188
115	0x3d788697	0.06067523
116	0x3e93d36a	0.28872234
117	0xbec95045	-0.39319053
118	0x3e6cbd96	0.23119196
119	0x3ea6fffb	0.32617173
120	0xbd10d7da	-0.035362102
121	0x3de690c6	0.11258082
122	0xbddfc189	-0.10925586
123	0x3db2bfc1	0.087279804
124	0x3c889d4f	0.016676573
125	0x3d9badb5	0.07601491
126	0x3e924c81	0.28573993
127	0x3e3b3772	0.1828287
128	0xbd53bcf6	-0.05169388
129	0xbe231c02	-0.15928653
130	0xbe47ce94	-0.19512397
131	0x3dd0b8c5	0.10191492
132	0xbd85c5a9	-0.06531841
133	0xbd29438f	-0.041324195
134	0xbe846924	-0.25861466
135	0xbe0f2b3f	-0.13981341
136	0xbe44a5a3	-0.1920381
137	0x3d8d6262	0.06903531
138	0xbcbe5f3c	-0.02323877
139	0xbe899d39	-0.26877764
140	0xbe8bc5f5	-0.27299467
141	0x3e228d47	0.15874206
142	0x3f3d0f6d	0.7385166
143	0x3e4f693b	0.20254986
144	0xbf182476	-0.59430635
145	0xbdda5460	-0.106606245
146	0xbcd43fb0	-0.025909275
147	0x3f4e313e	0.8054389
148	0xbf6ec623	-0.9327108
149	0x3eeb4a20	0.4595499
150	0xbdc6a621	-0.09699655
151	0xbdd40f81	-0.1035452
152	0xbddf32b4	-0.10898343
153	0x3e95a669	0.29228523
154	0xbf6ffbae	-0.9374341
155	0xbe20d1fe	-0.15705106
156	0xbdd41983	-0.103564285
157	0x3e84a64a	0.25908118
158	0x3ba1d1a8	0.004938323
159	0x3ecdf395	0.402249
160	0x3e311e45	0.17296703
161	0xbce3da3f	-0.027814029
162	0xbb7f7cba	-0.0038984255
163	0xbe157435	-0.1459511
164	0x3de42e37	0.11141627
165	0xbf045cb5	-0.5170396
166	0x3c857c89	0.016294735
167	0x3d00d177	0.03144976
168	0x3d68e862	0.056862243
169	0x3f06d0fe	0.52662647
170	0x3c839299	0.016061114
171	0x3e15fe61	0.14647819
172	0xbd9bb2ac	-0.07602438
173	0x3f03aac1	0.51432425
174	0xbcb9001c	-0.02258306
175	0x3f65176e	0.89488876
176	0x3f2c8031	0.67383105
177	0x3d4c7e4c	0.049925134
178	0x3ced0f2d	0.0289379
179	0xbc2bfc17	-0.010497115
180	0xbcba60bb	-0.022751203
181	0x3d32c320	0.043643117
182	0xbd1c24c2	-0.038120992
183	0xbba79a86	-0.005114856
184	0xbc6773e0	-0.014126748
185	0x3e125eb5	0.1429394
186	0xbf08e721	-0.53477675
187	0x3cf9d60a	0.03049757
188	0xbd462c57	-0.04838213
189	0xbcc4ce36	-0.02402411
190	0xbcd6dbf1	-0.026227923
191	0x3e1a94d4	0.15095836
192	0x3e02784a	0.12741199
193	0x3e839457	0.25699112
194	0x3e1b0319	0.151379
195	0x3d8b8ada	0.06813593
196	0x3e82f240	0.25575447
197	0xbefb0dc5	-0.49033943
198	0xbbd9b29c	-0.0066436063
199	0xbd1154b3	-0.035481166
200	0x3e26c4ef	0.16286062
201	0x3d2424ec	0.040074274
202	0x3e0633a5	0.13105638
203	0x3d90c753	0.07069268
204	0x3ce4b68d	0.027919078
205	0xbcaee69e	-0.021350201
206	0x3e93f398	0.28896785
207	0xbdc41242	-0.09573795
208	0x3ecae03c	0.39624202
209	0xbd8e3d19	-0.06945247
210	0xbe0dc88e	-0.13846037
211	0x3dd58aed	0.104268886
212	0xbf16dcca	-0.5893065
213	0x3df6c120	0.120485544
214	0x3dcdb66d	0.100445606
215	0x3e225ced	0.15855761
216	0xbcd7763a	-0.026301492
217	0x3da566bb	0.08076235
218	0x3e82e257	0.2556331
219	0x3d88c5c1	0.066783436
220	0xbc6c2e91	-0.014415399
221	0x3e25a7ed	0.1617734
222	0x3dff559e	0.12467502
223	0x3e51e1b0	0.20496249
224	0xbe9db683	-0.30803308
225	0xbe2fee2f	-0.17180704
226	0xbd46881e	-0.048469655
227	0x3d4fa08d	0.050690223
228	0x3ee2c172	0.44288212
229	0x3ed0cd7c	0.40781772
230	0xbe1f34fe	-0.15547559
231	0xbe1e82a3	-0.15479521
232	0xbe412577	-0.18861948
233	0x3eb03a5c	0.34419525
234	0xbe9cc3fb	-0.3061827
235	0xbe3c97f8	-0.18417346
236	0x3e9894b5	0.29800954
237	0x3e96953f	0.2941074
238	0xbc8bdcc1	-0.017073037
239	0x3f03576b	0.51305264
240	0xbe887aa1	-0.26656058
241	0xbcba2480	-0.022722483
242	0xbd2c3eec	-0.042052194
243	0xbdbd2b7e	-0.09236811
244	0xbe6b9031	-0.23004223
245	0xbf3ba8ee	-0.7330464
246	0xbc5b4695	-0.013383527
247	0x3b612cb4	0.003435892
248	0xbba565c2	-0.005047531
249	0x3eb58165	0.35450283
250	0xbeae99ed	-0.3410181
251	0xbd203dda	-0.039121486
252	0xbe2d6cd7	-0.1693605
253	0x3f6c8f01	0.92405707
254	0xbc963821	-0.018337311
255	0x3f770aed	0.96501046

model.decoder_gnn.gnn.0.0.nn.0.bias f4 [16]
0	0xbe036eaa	-0.12835184
1	0xbe0c6498	-0.13710248
2	0xbe4fba14	-0.20285827
3	0x3d810ec6	0.06301646
4	0xbe5295f3	-0.20565014
5	0x3dc025ae	0.09382187
6	0xbdf8517e	-0.121249184
7	0xbeb9a2be	-0.36256975
8	0xbed0f172	-0.40809208
9	0x3f0e48d1	0.5557986
10	0xbe4ffc86	-0.20311174
11	0xbdf13489	-0.117775984
12	0xbeffae40	-0.4993763
13	0x3e2430f4	0.16034299
14	0x3e2fc2cb	0.17164151
15	0x3f1227f7	0.5709223
