_models_trained/causal_nf/collidersens_linear/epoch=273-step=1370.ckpt (torch, 6987 bytes, 6 tensors)

model.flow.transforms.0.hyper.0.weight f4 [32, 4]
0	0xbe8745e7	-0.2642052
1	0x3de892b8	0.113561094
2	0xbd6e7b90	-0.058223307
3	0xbe77c500	-0.24196243
4	0xbe7ea723	-0.24868445
5	0xbd424534	-0.04742928
6	0xbe6debb6	-0.23234448
7	0xbe09f3fc	-0.13471979
8	0xbdcb1258	-0.09915608
9	0x3dc6f400	0.09714508
10	0xbe12429c	-0.14283222
11	0xbc9e3a60	-0.019314945
12	0x3d525650	0.051351845
13	0xbefd7d53	-0.49509677
14	0x3cff6ac2	0.031178836
15	0xbee2be4a	-0.44285804
16	0x3e0243d1	0.12721182
17	0xbee7ca88	-0.45271707
18	0xbc6b84c0	-0.014374912
19	0xbef2ac22	-0.47396952
20	0xbed889ed	-0.4229273
21	0x3ec15325	0.37758747
22	0xbe963234	-0.29335177
23	0xbecb7e38	-0.39744735
24	0xbe2a4c82	-0.16630748
25	0xbd6960e0	-0.056977153
26	0x3e217478	0.15767086
27	0xbd9758b8	-0.07389969
28	0xbde6f145	-0.11276487
29	0x3e8b2643	0.2717763
30	0x3ebc2300	0.36745453
31	0xbe8af0c8	-0.27136827
32	0x3daeae14	0.085292965
33	0x3ef551e8	0.47914052
34	0x3ec1019a	0.37696534
35	0x3efc45a4	0.49271882
36	0xbe2b41dc	-0.16724342
37	0xbd68fbd3	-0.056880783
38	0xbea39688	-0.31950784
39	0x3dbc4450	0.09192717
40	0xbe2e77e7	-0.17037927
41	0xbefe43e4	-0.4966117
42	0xbdcec618	-0.10096377
43	0x3ef55c8a	0.47922164
44	0x3ee7f3b5	0.4530312
45	0x3e93435f	0.28762338
46	0x3ed439d9	0.41450384
47	0xbeede16a	-0.4646104
48	0x3e69303d	0.22772308
49	0xbe002130	-0.1251266
50	0x3ef96664	0.4871093
51	0x3e90a22a	0.2824872
52	0x3e96cec6	0.2945463
53	0xbc650341	-0.013977827
54	0xbed4113a	-0.41419393
55	0xbeaf5ee0	-0.3425207
56	0xbedd514a	-0.4322608
57	0x3e210d5c	0.15727752
58	0x3eb152b8	0.34633422
59	0x3ec1e956	0.37873334
60	0x3d8bfe70	0.068356395
61	0xbeb80d14	-0.35947478
62	0xbe0f881a	-0.14016762
63	0xbef44c00	-0.47714233
64	0x3e80af42	0.2513371
65	0x3d6289e0	0.05530727
66	0xbed3b326	-0.41347617
67	0xbd97e370	-0.07416427
68	0x3e3366b3	0.17519645
69	0x3dbb295e	0.091387495
70	0xbe9b2d00	-0.3030777
71	0xbd654650	-0.05597526
72	0x3e5d339b	0.21601717
73	0x3d1bfd70	0.038083494
74	0x3ee1829e	0.44044966
75	0x3e9f4122	0.3110438
76	0xbeb032a6	-0.34413642
77	0x3e665164	0.22491986
78	0xbd52e9fd	-0.05149268
79	0x3e170c2c	0.14750737
80	0x3e9cc19b	0.3061646
81	0xbeb30ff6	-0.34973115
82	0x3e1421ec	0.14466065
83	0x3e9dc36e	0.30813164
84	0xbee4072f	-0.4453673
85	0xbd0ad3b1	-0.03389329
86	0xbe2be12d	-0.16785116
87	0x3eb18004	0.3466798
88	0x3e8adcdf	0.27121636
89	0xbcea28a0	-0.028583825
90	0xbea2abae	-0.31771606
91	0xbefaaaf4	-0.48958552
92	0xbed29d3d	-0.41135588
93	0xbe8e9d75	-0.27854505
94	0x3d8a8095	0.06762806
95	0xbefa899a	-0.48933107
96	0x3db4dbae	0.08830963
97	0x3e7e06d4	0.24807292
98	0xbe66bf44	-0.225339
99	0x3ef56c70	0.47934294
100	0xbf0f83ec	-0.5606067
101	0x3ea22c9e	0.31674665
102	0xbe3138b3	-0.17306785
103	0x3e746664	0.23867184
104	0x3e31f89b	0.17379992
105	0x3dbd9340	0.09256601
106	0x3bf16400	0.0073666573
107	0xbde9ea80	-0.114216805
108	0xbf0a4e74	-0.5402596
109	0xbd92bfee	-0.07165514
110	0x3eac9c6a	0.33713084
111	0x3d822068	0.06353837
112	0x3f010655	0.50400287
113	0x3e9a9126	0.30188864
114	0xbe923d64	-0.28562462
115	0x3df17778	0.11790365
116	0x3e688378	0.22706401
117	0x3edf2ade	0.43587393
118	0xbe5919a4	-0.21201187
119	0xbdb3d170	-0.087801814
120	0x3c93f069	0.018058972
121	0xbe1836ac	-0.14864606
122	0x3ec00d70	0.37510252
123	0xbee82bca	-0.45345908
124	0xbed1823c	-0.40919673
125	0x3dbfc6b1	0.09364069
126	0x3f182f69	0.5944734
127	0xbe1c54a8	-0.15266669

model.flow.transforms.0.hyper.0.bias f4 [32]
0	0xbe7df986	-0.24802217
1	0x3cb8a801	0.022541048
2	0xbe159833	-0.1460884
3	0xbdc21b7e	-0.094779
4	0xbe885e17	-0.26634285
5	0x3ddc7ae5	0.10765628
6	0x3cdf4ece	0.027259257
7	0xbdaaafe7	-0.08334332
8	0x3eca8295	0.3955275
9	0xbdf97d41	-0.121820934
10	0x3d9c40f5	0.07629577
11	0x3e84cb08	0.2593615
12	0x3ed61bd7	0.41818115
13	0xbeeef3cc	-0.46670377
14	0x3e96afac	0.29430902
15	0x3e88e4ef	0.26737162
16	0x3eb45971	0.35224488
17	0x3ee1bf53	0.4409128
18	0x3e74b0a8	0.23895514
19	0xbda42495	-0.0801479
20	0xbea121bc	-0.3147105
21	0xbe1e0e6e	-0.15435192
22	0x3d65f650	0.056143105
23	0x3ebb556e	0.36588615
24	0xbd901d47	-0.07036834
25	0xbe839b6d	-0.25704518
26	0x3eacbde4	0.33738625
27	0x3e54ea19	0.20792426
28	0xbcfdc06e	-0.030975547
29	0x3f00138a	0.50029814
30	0x3ecfc7fb	0.4058226
31	0xbe8fed90	-0.28110933

model.flow.transforms.0.hyper.2.weight f4 [8, 32]
0	0xbe105278	-0.1409396
1	0xbe06ea6e	-0.13175365
2	0xbce1a9b0	-0.027546734
3	0xbe2c125e	-0.16803882
4	0x3e2a611f	0.16638611
5	0x3d9c7b62	0.07640721
6	0xbe1486c3	-0.14504533
7	0x3cdf0da0	0.027228177
8	0x3e1440e3	0.14477877
9	0x3c8435f8	0.016139016
10	0x3daa1cf2	0.08306302
11	0x3e12d1f9	0.1433791
12	0xbe12c798	-0.14333951
13	0x3c8eb300	0.017419338
14	0x3d1532b4	0.036425307
15	0xbd94b68a	-0.07261379
16	0x3d63f400	0.05565262
17	0xbde2e2d0	-0.11078417
18	0x3daf389e	0.08555721
19	0xbd4ccb4c	-0.049998567
20	0xbd94f5ea	-0.07273467
21	0x3e03b7e9	0.12863125
22	0x3e23e953	0.16006975
23	0xbdd56d0c	-0.1042119
24	0xbe0dd393	-0.1385024
25	0x3d8e712c	0.069551796
26	0x3c9093a8	0.017648533
27	0xbda091eb	-0.07840332
28	0x3de11796	0.10990827
29	0xbd9d91b6	-0.07693808
30	0x3d32fb04	0.04369642
31	0x3e27fe3f	0.16405581
32	0xbd76b1be	-0.060228102
33	0xbd6d7d26	-0.05798068
34	0x3dc0050a	0.09375961
35	0x3e10b12f	0.1413009
36	0x3e070e45	0.13189037
37	0x3dfdd52e	0.123941764
38	0x3c755370	0.014973506
39	0xbde453c1	-0.11148787
40	0xbe012618	-0.12612188
41	0x3cf71710	0.030162364
42	0x3e1ca977	0.1529902
43	0xbdc172ee	-0.09445749
44	0x3d906070	0.07049644
45	0xbda3b5bb	-0.07993647
46	0x3e1bfb45	0.1523257
47	0x3d97ad22	0.07406069
48	0x3ca1d528	0.019754961
49	0xbcf2b488	-0.0296271
50	0xbd887d05	-0.066644706
51	0xbdb426b8	-0.087964475
52	0xbda133fa	-0.07871242
53	0x3c86d568	0.016459182
54	0xbda859a3	-0.08220222
55	0x3dcb0a3e	0.09914063
56	0xbdcbd755	-0.09953181
57	0x3d09ca38	0.033640116
58	0x3d93231e	0.071844324
59	0xbb8e64a0	-0.0043454915
60	0x3d1d0fe0	0.038345218
61	0xbdede200	-0.11615372
62	0x3c712660	0.014718622
63	0x3c8ec658	0.017428562
64	0x3e8025bd	0.25028792
65	0x3d1d159c	0.038350686
66	0xbd47e7b1	-0.048804943
67	0xbc778ac0	-0.015108764
68	0x3d9d38ff	0.07676887
69	0xbda8d132	-0.08243026
70	0xbc2d8871	-0.010591612
71	0x3a8bbb00	0.0010660589
72	0x3d9cc3d5	0.076545395
73	0x3cc0fe28	0.023558691
74	0x3e521542	0.20515922
75	0xbd8b351c	-0.06797239
76	0xbe2085c6	-0.1567603
77	0x3c73cf00	0.014880896
78	0xbdc7c8ca	-0.09755094
79	0xbe016e3e	-0.1263971
80	0xbdfafd85	-0.12255386
81	0xbcf40140	-0.029785752
82	0xbc24cd26	-0.010058677
83	0xbe047f20	-0.1293912
84	0xbe82484c	-0.25445783
85	0xbe2eca37	-0.17069326
86	0x3d32414a	0.043519296
87	0x3e13bf39	0.14428414
88	0xbcade179	-0.021225678
89	0xbe00cb1c	-0.1257748
90	0xbe7b7e5f	-0.24559925
91	0xbd7d6d34	-0.061871722
92	0xbe045214	-0.12921935
93	0x3c4f79e0	0.012663335
94	0x3c3c6fd6	0.011501273
95	0x3e348783	0.17629819
96	0x3d6767fb	0.056495648
97	0x3dba112e	0.09085308
98	0x3dc5e6c4	0.09663156
99	0x3e0322b1	0.12806202
100	0xbd471880	-0.04860735
101	0x3db235a6	0.08701639
102	0xbdbacfdd	-0.09121678
103	0xbe032516	-0.12807116
104	0x3e08ebd3	0.1337121
105	0xbe25e13e	-0.16199204
106	0x3d5b8032	0.053589053
107	0xbe3243a3	-0.17408614
108	0x3d5b4094	0.053528383
109	0xbdc00366	-0.09375648
110	0x3e020657	0.12697731
111	0xbdbfc9fe	-0.09364699
112	0x3dbedc40	0.09319353
113	0x3e34e761	0.17666389
114	0xbd0b6f49	-0.034041677
115	0x3dabd1ba	0.083896115
116	0x3a856571	0.0010177327
117	0x3e0cf1c3	0.137641
118	0x3e0ee8a2	0.1395593
119	0x3e15b66d	0.14620371
120	0xbd28a59a	-0.041173555
121	0xbdbfd1cb	-0.09366187
122	0x3c0bcf11	0.008533255
123	0xbad12c00	-0.0015958548
124	0xbc3f4aca	-0.011675546
125	0x3e089e39	0.13341607
126	0x3e25315f	0.16132115
127	0x3e0d8b39	0.1382264
128	0x3c8c6be5	0.017141292
129	0x3d879b1c	0.06621382
130	0xbdd09d99	-0.10186309
131	0xbba6ade0	-0.0050866455
132	0x3dcd0644	0.10010961
133	0xbd2ebb50	-0.042659104
134	0x3e5ab23d	0.21357055
135	0x3d6f5c88	0.058437854
136	0x3e5013ba	0.20320025
137	0xbded0418	-0.115730464
138	0x3c44a8ed	0.012003166
139	0xbd25d5b4	-0.040487006
140	0xbe1a8e0a	-0.15093246
141	0x3d277524	0.0408832
142	0xbd233061	-0.03984106
143	0xbcb2a6c8	-0.021808043
144	0xbe2b9aec	-0.16758317
145	0x3d8ed3e4	0.06974009
146	0xbe2673f8	-0.16255176
147	0xbdbf67c8	-0.093459666
148	0xbe03d523	-0.12874274
149	0xbd34bde8	-0.04412642
150	0xbde7b486	-0.11313729
151	0xbe10c890	-0.14139009
152	0x3d17c627	0.037054207
153	0xbb6b8040	-0.0035934597
154	0xbc319832	-0.010839509
155	0x3d8bde5a	0.068295196
156	0xbe585596	-0.21126398
157	0x3df6548e	0.12027846
158	0x3e50ef68	0.20403826
159	0xbd66c632	-0.056341358
160	0x3dfd205a	0.12359686
161	0xbdded5e2	-0.10880639
162	0xbd1b2d08	-0.037884742
163	0x3d9879ae	0.074450836
164	0xbd213c35	-0.03936406
165	0xbe1bf663	-0.15230708
166	0xbbc72150	-0.006076969
167	0x3d5cbf6c	0.05389349
168	0xb8e559d1	-0.000109363005
169	0x3d9831ea	0.07431395
170	0xbd561fd4	-0.052276447
171	0x3e280071	0.16406418
172	0x3de38646	0.11109595
173	0xba9a6800	-0.0011780262
174	0xbd4e027f	-0.05029535
175	0x3d589700	0.05287838
176	0xbd8607bb	-0.06544443
177	0x3cc38590	0.023867399
178	0xbe015b7d	-0.12632556
179	0x3d98b03a	0.074554875
180	0xbdf4984c	-0.11943111
181	0x3cc5b7f0	0.02413556
182	0x3d870353	0.06592431
183	0xbdab1c3d	-0.083549954
184	0x3ddf67cd	0.1090847
185	0xbdb810d8	-0.08987588
186	0xbce7520f	-0.02823737
187	0x3e04dd2d	0.12974997
188	0x3d103fd4	0.03521712
189	0x3d61a1bc	0.055085883
190	0x3e3d00a0	0.1845727
191	0xbe0e7b12	-0.13914135
192	0x3cdb345b	0.026758363
193	0x3e21f09d	0.15814443
194	0x3e23a982	0.15982631
195	0x3e8f0dcf	0.27940223
196	0x3d2035dd	0.039113868
197	0xbdd93c41	-0.10607196
198	0x3dab2489	0.08356578
199	0xbde989ce	-0.11403237
200	0x3dbe67ba	0.09297128
201	0x3e440406	0.1914216
202	0x3db397fb	0.08769222
203	0xbd7d9b2d	-0.061915565
204	0x3c8935ca	0.016749281
205	0x3e6b683b	0.2298898
206	0xbc8557e6	-0.016277265
207	0x3eb3a323	0.350854
208	0x3d46c800	0.04853058
209	0x3c85bcd4	0.016325392
210	0xbd14e891	-0.036354605
211	0xbdd3814a	-0.10327394
212	0x3def3980	0.11680889
213	0xbc681d16	-0.014167091
214	0x3ded2519	0.115793414
215	0x3e3b607d	0.18298526
216	0x3e0353f2	0.12824991
217	0x3d29591a	0.04134474
218	0x3da6f5b0	0.0815233
219	0xbd8bb9c0	-0.068225384
220	0xbe6d80cf	-0.23193668
221	0xbe99ba79	-0.3002508
222	0xbdda553a	-0.10660787
223	0xbe5dec96	-0.21672282
224	0xbde3fd19	-0.11132259
225	0xbd6b4ffe	-0.057449333
226	0xbda13fa0	-0.07873464
227	0x3d6a9c11	0.057277743
228	0xbdb1557f	-0.08658885
229	0x3da0892d	0.07838664
230	0xbe1772e0	-0.14789915
231	0xbd9db45f	-0.07700419
232	0x3e057e01	0.13036348
233	0x3d7e2d99	0.062055204
234	0xbd91afe8	-0.071136296
235	0x3d1e21f6	0.038606606
236	0xbe139f49	-0.14416231
237	0xbc638240	-0.0138860345
238	0x3e0494d3	0.12947397
239	0xbe3662ec	-0.17811173
240	0xbd1c19b8	-0.038110465
241	0x3cb9b2bd	0.022668237
242	0x3de5975d	0.11210511
243	0xbe2962df	-0.16541623
244	0xbde7bb90	-0.113150716
245	0xbdd6b0c6	-0.104829356
246	0xbd189e95	-0.03726061
247	0xbd7ae94b	-0.06125764
248	0xbe2b356d	-0.16719599
249	0x3c16b7e2	0.0091991145
250	0x3e12f424	0.14350945
251	0xba036b8a	-0.0005013278
252	0xbe081b84	-0.13291746
253	0xbddb9c12	-0.107231274
254	0xbcc719c6	-0.024304282
255	0xbd62a8d3	-0.055336785

model.flow.transforms.0.hyper.2.bias f4 [8]
0	0xb8afe08f	-8.3864776e-05
1	0x37eae8a1	2.80033e-05
2	0x3e3120e4	0.17297703
3	0xbe36f624	-0.17867333
4	0x3b55d2d4	0.0032626884
5	0xbcd6d264	-0.026223369
6	0x3deaa72e	0.11457668
7	0x3da3e6ae	0.08002983

model.flow.base._0 f4 [4]
0	0x00000000	0.0
1	0x00000000	0.0
2	0x00000000	0.0
3	0x00000000	0.0

model.flow.base._1 f4 [4]
0	0x3f800000	1.0
1	0x3f800000	1.0
2	0x3f800000	1.0
3	0x3f800000	1.0
