_models_trained/causal_nf/collidersens_linear/last.ckpt (torch, 6987 bytes, 6 tensors)

model.flow.transforms.0.hyper.0.weight f4 [32, 4]
000000 5b 60 87 be b8 92 e8 3d 90 7b 6e bd 00 c5 77 be
       -0.264407 0.113561094 -0.058223307 -0.24196243
000010 48 f9 8b be 4f 28 33 bd 60 df 4c be fc f3 09 be
       -0.27338624 -0.043739613 -0.20007086 -0.13471979
000020 b1 8d d6 bd 00 f4 c6 3d 9c 42 12 be 60 3a 9e bc
       -0.10476244 0.09714508 -0.14283222 -0.019314945
000030 15 e5 cb 3d c0 38 e1 be 8b cd 3d 3d 4a be e2 be
       0.09955803 -0.4398861 0.0463386 -0.44285804
000040 e3 70 00 3e 88 ca e7 be c0 84 6b bc 22 ac f2 be
       0.12543063 -0.45271707 -0.014374912 -0.47396952
000050 0f 99 f4 be 40 51 d1 3e 0a b2 66 be 38 7e cb be
       -0.47773024 0.408823 -0.22528854 -0.39744735
000060 18 e7 2b be e0 60 69 bd 78 74 21 3e b8 58 97 bd
       -0.16787374 -0.056977153 0.15767086 -0.07389969
000070 9b 73 df bc 1f bf 8e 3e 2e 7a a3 3e c8 f0 8a be
       -0.027276805 0.2788019 0.31929153 -0.27136827
000080 37 fe a8 3d e8 51 f5 3e 9a 01 c1 3e a4 45 fc 3e
       0.08251613 0.47914052 0.37696534 0.49271882
000090 31 a4 15 be ac 73 0c bd 00 cf 9c be 50 44 bc 3d
       -0.14613415 -0.03429 -0.30626678 0.09192717
0000a0 c1 bc 30 be e4 43 fe be 18 c6 ce bd 8a 5c f5 3e
       -0.17259504 -0.4966117 -0.10096377 0.47922164
0000b0 79 02 09 3f 26 3d cc 3e b7 42 ba 3e 6a e1 ed be
       0.535194 0.39890403 0.36379024 -0.4646104
0000c0 d9 58 68 3e 30 21 00 be 64 66 f9 3e 2a a2 90 3e
       0.22690143 -0.1251266 0.4871093 0.2824872
0000d0 75 07 88 3e 72 d5 89 3c c0 39 da be e0 5e af be
       0.2656819 0.016825411 -0.42622185 -0.3425207
0000e0 96 ba dc be 5c 0d 21 3e b8 52 b1 3e 56 e9 c1 3e
       -0.43111104 0.15727752 0.34633422 0.37873334
0000f0 ee a0 52 3d ea bc a9 be 11 98 ae bd 00 4c f4 be
       0.051423006 -0.33151942 -0.08525098 -0.47714233
000100 69 b6 7e 3e e0 89 62 3d 26 b3 d3 be 70 e3 97 bd
       0.24874271 0.05530727 -0.41347617 -0.07416427
000110 7a 22 47 3e 6f f9 b8 3d da 49 a3 be 50 46 65 bd
       0.19446746 0.09031951 -0.31892282 -0.05597526
000120 7f e4 5d 3e 70 fd 1b 3d 9e 82 e1 3e 22 41 9f 3e
       0.21669196 0.038083494 0.44044966 0.3110438
000130 7b 1b ae be c3 4b 4f 3e 31 16 ae bd 2c 0c 17 3e
       -0.3400534 0.20243745 -0.085003264 0.14750737
000140 1a b7 9a 3e f6 0f b3 be ec 21 14 3e 6e c3 9d 3e
       0.3021782 -0.34973115 0.14466065 0.30813164
000150 0d 61 ef be fb 63 f6 ba 2b a3 4b be 04 80 b1 3e
       -0.4675373 -0.0018798107 -0.19886462 0.3466798
000160 bc 07 88 3e a0 28 ea bc ae ab a2 be f4 aa fa be
       0.265684 -0.028583825 -0.31771606 -0.48958552
000170 ce 52 be be e8 2e 8f be d0 3e 18 3d 9a 89 fa be
       -0.3717255 -0.27965474 0.037169278 -0.48933107
000180 8b 2c ac 3d d4 06 7e 3e 44 bf 66 be 70 6c f5 3e
       0.084069334 0.24807292 -0.225339 0.47934294
000190 0b 02 07 bf 26 63 ae 3e 67 51 39 be 64 66 74 3e
       -0.5273749 0.3406002 -0.18097459 0.23867184
0001a0 38 81 2e 3e 40 93 bd 3d 00 64 f1 3b 80 ea e9 bd
       0.1704148 0.09256601 0.0073666573 -0.114216805
0001b0 cd 63 10 bf fb 3e 33 bd a3 9a ad 3e 68 20 82 3d
       -0.56402284 -0.043761235 0.3390704 0.06353837
0001c0 c2 48 02 3f 26 91 9a 3e 64 3d 92 be 78 77 f1 3d
       0.5089227 0.30188864 -0.28562462 0.11790365
0001d0 47 81 44 3e fa d2 ee 3e 44 bd 3c be 70 d1 b3 bd
       0.1918994 0.46645337 -0.18431574 -0.087801814
0001e0 b5 90 ad 3c ac 36 18 be 70 0d c0 3e ca 2b e8 be
       0.021187166 -0.14864606 0.37510252 -0.45345908
0001f0 f3 6d df be 0f 75 81 3c 6f cf 1b 3f a8 54 1c be
       -0.43638572 0.015802888 0.60863394 -0.15266669

model.flow.transforms.0.hyper.0.bias f4 [32]
000000 8f 61 7e be d7 38 d4 3c 22 d3 16 be b3 9f 91 bd
       -0.24841903 0.02590601 -0.14728978 -0.07110538
000010 08 8f 88 be 8c 41 24 3e 92 fb cb 3c 37 9e d1 bd
       -0.26671624 0.16040629 0.024900232 -0.10235255
000020 4d ca c9 3e 48 eb 14 be 39 44 96 3d 5d 3d 3d 3e
       0.39412156 -0.14542878 0.07337231 0.1848044
000030 fa ee d4 3e a4 e8 0a bf 93 f6 96 3e 8c 04 ae 3e
       0.41588575 -0.5426123 0.29484996 0.33987844
000040 6b 49 b3 3e 7d 57 d9 3e 5a e0 74 3e 78 56 c4 bd
       0.3501695 0.4244956 0.23913708 -0.09586805
000050 5f 36 a2 be c4 92 28 be b7 90 57 3d 3c e8 d4 3e
       -0.31682107 -0.16462237 0.052628245 0.4158343
000060 8f da 95 bd 85 d8 a3 be 9b 3a ac 3e 4f c7 41 3e
       -0.07317077 -0.3200113 0.33638462 0.18923686
000070 4d 87 e4 bc 86 7f f9 3e d8 e3 cf 3e e5 da 9d be
       -0.027896548 0.48730105 0.40603518 -0.30831066

model.flow.transforms.0.hyper.2.weight f4 [8, 32]
000000 78 52 10 be 6e ea 06 be b0 a9 e1 bc 5e 12 2c be
       -0.1409396 -0.13175365 -0.027546734 -0.16803882
000010 1f 61 2a 3e 62 7b 9c 3d c3 86 14 be a0 0d df 3c
       0.16638611 0.07640721 -0.14504533 0.027228177
000020 e3 40 14 3e f8 35 84 3c f2 1c aa 3d f9 d1 12 3e
       0.14477877 0.016139016 0.08306302 0.1433791
000030 98 c7 12 be 00 b3 8e 3c b4 32 15 3d 8a b6 94 bd
       -0.14333951 0.017419338 0.036425307 -0.07261379
000040 00 f4 63 3d d0 e2 e2 bd 9e 38 af 3d 4c cb 4c bd
       0.05565262 -0.11078417 0.08555721 -0.049998567
000050 ea f5 94 bd e9 b7 03 3e 53 e9 23 3e 0c 6d d5 bd
       -0.07273467 0.12863125 0.16006975 -0.1042119
000060 93 d3 0d be 2c 71 8e 3d a8 93 90 3c eb 91 a0 bd
       -0.1385024 0.069551796 0.017648533 -0.07840332
000070 96 17 e1 3d b6 91 9d bd 04 fb 32 3d 3f fe 27 3e
       0.10990827 -0.07693808 0.04369642 0.16405581
000080 be b1 76 bd 26 7d 6d bd 0a 05 c0 3d 2f b1 10 3e
       -0.060228102 -0.05798068 0.09375961 0.1413009
000090 45 0e 07 3e 2e d5 fd 3d 70 53 75 3c c1 53 e4 bd
       0.13189037 0.123941764 0.014973506 -0.11148787
0000a0 18 26 01 be 10 17 f7 3c 77 a9 1c 3e ee 72 c1 bd
       -0.12612188 0.030162364 0.1529902 -0.09445749
0000b0 70 60 90 3d bb b5 a3 bd 45 fb 1b 3e 22 ad 97 3d
       0.07049644 -0.07993647 0.1523257 0.07406069
0000c0 28 d5 a1 3c 88 b4 f2 bc 05 7d 88 bd b8 26 b4 bd
       0.019754961 -0.0296271 -0.066644706 -0.087964475
0000d0 fa 33 a1 bd 68 d5 86 3c a3 59 a8 bd 3e 0a cb 3d
       -0.07871242 0.016459182 -0.08220222 0.09914063
0000e0 55 d7 cb bd 38 ca 09 3d 1e 23 93 3d a0 64 8e bb
       -0.09953181 0.033640116 0.071844324 -0.0043454915
0000f0 e0 0f 1d 3d 00 e2 ed bd 60 26 71 3c 58 c6 8e 3c
       0.038345218 -0.11615372 0.014718622 0.017428562
000100 cb 36 80 3e 9c 15 1d 3d c0 45 46 bd c0 8a 77 bc
       0.25041804 0.038350686 -0.048406363 -0.015108764
000110 f3 46 9d 3d 32 d1 a8 bd 45 67 2b bc 00 bb 8b 3a
       0.07679548 -0.08243026 -0.010461633 0.0010660589
000120 b9 dc 9b 3d 28 fe c0 3c c6 cd 51 3e 1c 35 8b bd
       0.07610459 0.023558691 0.20488653 -0.06797239
000130 f0 d3 20 be 00 cf 73 3c 09 97 c7 bd 3e 6e 01 be
       -0.15705848 0.014880896 -0.097456045 -0.1263971
000140 4e 80 fb bd 40 01 f4 bc cc 18 2a bc 20 7f 04 be
       -0.122803316 -0.029785752 -0.010381889 -0.1293912
000150 bb 2f 82 be 37 ca 2e be 69 5f 31 3d 39 bf 13 3e
       -0.2542704 -0.17069326 0.04330388 0.14428414
000160 5b f7 ad bc 1c cb 00 be 76 b4 7b be 34 6d 7d bd
       -0.021236112 -0.1257748 -0.24580559 -0.061871722
000170 90 74 04 be e0 79 4f 3c 9a cb 35 3c 83 87 34 3e
       -0.1293509 0.012663335 0.011095906 0.17629819
000180 3f 17 66 3d 2e 11 ba 3d 81 78 c4 3d b1 22 03 3e
       0.056174513 0.09085308 0.09593297 0.12806202
000190 b1 46 48 bd a6 35 b2 3d 0b 2f ba bd 16 25 03 be
       -0.04889554 0.08701639 -0.09091004 -0.12807116
0001a0 3f 41 09 3e 3e e1 25 be 24 06 5c 3d a3 43 32 be
       0.13403796 -0.16199204 0.053716794 -0.17408614
0001b0 95 ab 5c 3d 66 03 c0 bd 45 26 02 3e fe c9 bf bd
       0.05387457 -0.09375648 0.12709911 -0.09364699
0001c0 06 66 bf 3d 61 e7 34 3e 91 ba 09 bd ba d1 ab 3d
       0.09345631 0.17666389 -0.03362519 0.083896115
0001d0 7d c0 3e 3a c3 f1 0c 3e 0b c2 0e 3e 6d b6 15 3e
       0.0007276608 0.137641 0.13941209 0.14620371
0001e0 84 55 29 bd cb d1 bf bd 8e de 11 3c 00 2c d1 ba
       -0.04134132 -0.09366187 0.008903159 -0.0015958548
0001f0 03 1b 3f bc 39 9e 08 3e fa 7c 25 3e 39 8b 0d 3e
       -0.011664155 0.13341607 0.16160956 0.1382264
000200 5b c3 8b 3c 1c 9b 87 3d 59 7b d0 bd e0 ad a6 bb
       0.017060926 0.06621382 -0.10179777 -0.0050866455
000210 5f 3a cc 3d 50 bb 2e bd 53 84 5a 3e 88 5c 6f 3d
       0.09972071 -0.042659104 0.2133954 0.058437854
000220 20 35 50 3e 18 04 ed bd 9c 74 48 3c b4 d5 25 bd
       0.20332766 -0.115730464 0.012234833 -0.040487006
000230 d9 3b 1a be 24 75 27 3d f2 3f 22 bd c8 a6 b2 bc
       -0.15061893 0.0408832 -0.039611764 -0.021808043
000240 e0 43 2b be e4 d3 8e 3d 7b 1c 26 be c8 67 bf bd
       -0.16725111 0.06974009 -0.16221802 -0.093459666
000250 7b ff 03 be e8 bd 34 bd ae 9f e7 bd 90 c8 10 be
       -0.12890427 -0.04412642 -0.11309753 -0.14139009
000260 f8 8c 16 3d 40 80 6b bb b3 1b 2e bc 5a de 8b 3d
       0.036755532 -0.0035934597 -0.010626721 0.068295196
000270 2c 61 58 be 8e 54 f6 3d c8 12 51 3e 32 c6 66 bd
       -0.21130818 0.12027846 0.2041732 -0.056341358
000280 78 65 fd 3d e2 d5 de bd 25 81 19 bd ae 79 98 3d
       0.12372869 -0.10880639 -0.037476677 0.074450836
000290 0b 35 21 bd 63 f6 1b be ba 30 bb bb 6c bf 5c 3d
       -0.039357226 -0.15230708 -0.005712596 0.05389349
0002a0 07 85 89 b9 ea 31 98 3d de 45 54 bd 71 00 28 3e
       -0.0002622979 0.07431395 -0.051824443 0.16406418
0002b0 eb d2 e2 3d 00 68 9a ba 9a d2 4c bd 00 97 58 3d
       0.11075386 -0.0011780262 -0.050005533 0.05287838
0002c0 cb 59 86 bd 90 85 c3 3c 0e 66 01 be 3a b0 98 3d
       -0.065600954 0.023867399 -0.12636587 0.074554875
0002d0 e8 a7 f4 bd f0 b7 c5 3c 37 fc 85 3d 3d 1c ab bd
       -0.11946088 0.02413556 0.06542247 -0.083549954
0002e0 d4 f8 dd 3d d8 10 b8 bd ec ba e8 bc 2d dd 04 3e
       0.10838476 -0.08987588 -0.028409444 0.12974997
0002f0 83 b2 0e 3d bc a1 61 3d 5d ac 3c 3e 12 7b 0e be
       0.03483821 0.055085883 0.18425126 -0.13914135
000300 b9 b5 10 3d 6d 58 28 3e 80 9e 2a 3e c1 e0 88 3e
       0.035329554 0.16439982 0.16662025 0.26733974
000310 45 b3 1d 3d e9 f0 04 be ac 78 bd 3d dc 2d f4 bd
       0.038501043 -0.12982525 0.09251532 -0.119228095
000320 6b 6a b3 3d 59 48 3e 3e 85 39 c5 3d 2c a8 ae bd
       0.08760532 0.18582286 0.096301116 -0.0852817
000330 97 77 17 3c 21 6a 88 3e b5 4b 26 bc 82 83 ba 3e
       0.009244821 0.2664347 -0.010149886 0.36428457
000340 de e5 25 3d 8e a1 c1 3c d5 b4 36 bd 12 c3 f3 bd
       0.04050242 0.023636606 -0.04460605 -0.11902441
000350 b9 b1 e4 3d a5 40 24 bc 27 34 dd 3d 6f c5 4f 3e
       0.111667104 -0.010025178 0.10800963 0.20290159
000360 37 21 fd 3d 9e 29 1a 3d 4e 07 97 3d 7f 7a a8 bd
       0.12359851 0.037637345 0.0737444 -0.08226489
000370 7c b4 76 be 27 b6 98 be f5 a1 e3 bd ff f5 67 be
       -0.24092287 -0.2982647 -0.11114875 -0.22652434
000380 03 17 e5 bd da c2 7a bd df b3 a2 bd ea 62 8a 3d
       -0.1118603 -0.06122098 -0.07944464 0.067571476
000390 34 0d b4 bd e8 77 af 3d e2 1d 16 be 0b 3a 0d bd
       -0.08791581 0.08567792 -0.14659837 -0.034479182
0003a0 63 c2 06 3e 0c 28 a2 3d 2f fc 8e bd f7 08 01 3d
       0.1316009 0.079177946 -0.06981694 0.03150269
0003b0 fe 2b 12 be fe d9 8a bc f3 a3 05 3e 6d 9f 3c be
       -0.14274594 -0.01694965 0.13050823 -0.18420191
0003c0 30 7b 17 bd a9 bb 1e 3d 5e cf e6 3d eb 2f 16 be
       -0.036982715 0.038753185 0.11270021 -0.14666717
0003d0 22 41 ea bd 08 73 fe bd d7 23 18 bd 74 61 46 bd
       -0.11438204 -0.12424284 -0.037143555 -0.048432782
0003e0 32 80 2b be 1a 56 92 3a 07 e9 13 3e e2 dd b2 3b
       -0.16748121 0.0011164576 0.14444362 0.0054585794
0003f0 e8 3d 08 be 2b 64 02 be 15 0f ba bc 92 4b a5 bd
       -0.13304865 -0.12733524 -0.02271227 -0.080710545

model.flow.transforms.0.hyper.2.bias f4 [8]
000000 05 60 5c b8 d1 95 e1 37 a1 bc 30 3e 54 86 36 be
       -5.2541513e-05 2.6891854e-05 0.17259456 -0.1782468
000010 3e bd 69 3b 36 77 d7 bc 49 47 e2 3d 56 1d a7 3d
       0.0035665776 -0.026301961 0.11048753 0.08159892

model.flow.base._0 f4 [4]
000000 00 00 00 00 00 00 00 00 00 00 00 00 00 00 00 00
       0.0 0.0 0.0 0.0

model.flow.base._1 f4 [4]
000000 00 00 80 3f 00 00 80 3f 00 00 80 3f 00 00 80 3f
       1.0 1.0 1.0 1.0
