_models_trained/causal_nf/chainsens_linear/epoch=127-step=640.ckpt (torch, 9035 bytes, 6 tensors)

model.flow.transforms.0.hyper.0.weight f4 [64, 4]
00000000: 87c8 12be b892 e83d 907b 6ebd 00c5 77be
00000010: 63a8 58be 7825 013e 88b5 51be fcf3 09be
00000020: 2987 46bd 5bc5 a33e 9c42 12be 603a 9ebc
00000030: b2fc 23bd 2ed1 bfbe 7025 3a3e 4abe e2be
00000040: 6e30 5d3e 88ca e7be 1286 f53d 22ac f2be
00000050: 7bec ffbe c940 bc3e ae08 dbbe 387e cbbe
00000060: cfdd 15be e060 69bd 7874 213e b858 97bd
00000070: e83d 17be c82d 3a3e c97b d73e c8f0 8abe
00000080: c37e 093e 51ad 313f 9a01 c13e a445 fc3e
00000090: 7841 61be a826 cd3d 8c44 19be 5044 bc3d
000000a0: 0f23 eebd e443 febe b90c 6abe 8a5c f53e
000000b0: f385 ed3e 6940 883e 68e7 d23e 6ae1 edbe
000000c0: d115 5b3e 3021 00be 6466 f93e 2aa2 903e
000000d0: dcd0 aa3e 9041 753e 34f9 c7be e05e afbe
000000e0: e356 dcbe ae15 c03e b852 b13e 56e9 c13e
000000f0: b7e5 403d 14aa 47be a028 d0bc 004c f4be
00000100: d930 da3d e089 623d c986 13bf 70e3 97bd
00000110: c6a2 463e 2516 443e a47a bfbe 5046 65bd
00000120: 7fb2 713e 70fd 1b3d 9e82 e13e 2241 9f3e
00000130: c683 dabe b025 f83d 3f82 9dbe 2c0c 173e
00000140: 1dfc 613e 35c6 b1be ec21 143e 6ec3 9d3e
00000150: b5df e6be e068 11be dcb4 84be 0480 b13e
00000160: cf88 ad3e a028 eabc a072 c4be f4aa fabe
00000170: 14c1 f9be 1fc2 9bbe 8c3a 603e 9a89 fabe
00000180: 0572 383e d406 7e3e 44bf 66be 706c f53e
00000190: 237f fdbe 82e1 db3e b1cb 6abe 6466 743e
000001a0: 9b64 d63d 1b52 843e 0064 f13b 80ea e9bd
000001b0: 062a 14bf 408d 31bc 9249 c93e 6820 823d
000001c0: cba0 fc3e 2691 9a3e 6f00 67be 7877 f13d
000001d0: 4e26 f73d 74f5 213e f4ad b6be 70d1 b3bd
000001e0: 94a5 9f3d ac36 18be 700d c03e ca2b e8be
000001f0: 8ab3 fdbe a07c 67bd 9406 af3e a854 1cbe
00000200: 39f1 c2be fa73 6cbe 280b cebd 9259 92be
00000210: acb3 96be d0e0 6ebd 8034 e93c 2879 c3bd
00000220: b307 bd3e e0fe 4dbe ca72 8c3d 86c2 a73e
00000230: a7b4 b33e 900f 1bbf da2f a73e b467 443e
00000240: c083 d83e 2411 ce3e 0062 8b3e 7054 10be
00000250: a267 73be 90c6 bcbd e4f7 753e a2e9 903e
00000260: 9a85 c4bd 3f70 bcbe 7aae c53e 3c84 843e
00000270: 35c1 23be 021f f93e 2858 b23e 1e9e e7be
00000280: aa1d dfbe b8cc bebe 5893 55be a058 f3be
00000290: 18c9 c63e 4a21 e23d 4e0c d2be f0b8 9d3d
000002a0: c750 f03e 70f9 3a3d 8093 703e 98a2 cf3e
000002b0: 52b6 bdbe a0ce 493d 899f 6c3e e04f 52be
000002c0: 435c 393e 67a3 afbe d4cc 773e b4cf 10be
000002d0: be0e 8ebe 2847 ba3e 46ce e73e 3aea 96be
000002e0: 26f9 b3be 8c71 493e 7cbe 65bc 8c14 63be
000002f0: 3aa5 8d3e 0f0a 8cbe e01d fd3d 0494 ed3e
00000300: 6c5c f5bd 14ee 27be 48c7 873e 24a0 cc3e
00000310: 2327 d03e a27c b33e 48be 433e a273 a1be
00000320: 011a 99be 03f8 8e3e b28d dd3e 00ca 88be
00000330: 916d 943e 5085 67be 5897 dc3e b080 563e
00000340: 56dc c83b 589e abbd 2e68 abbe b8c5 7ebe
00000350: ba21 96be 0554 04be 4415 6ebe 2c92 8f3e
00000360: dd77 b6be 48dd c23d 5815 503e c05f 49bc
00000370: ecf9 8a3d 6435 a8be 542f 88bd 00ea 493d
00000380: acaa dc3e 06d1 093c bc95 a1be e009 2fbd
00000390: 5db4 f83e 58be 6ebe 7033 88be 009c 453b
000003a0: 205e b83e 7077 883d 3fb3 f43e 7cde 44be
000003b0: fe0a 91be 5205 02be 7a92 f5be e60a b7be
000003c0: 9953 8fbd 9889 acbd 18d5 473e e460 bbbe
000003d0: 1068 debe b430 f7be 3c22 ee3e 1ef2 d03e
000003e0: db6c 8d3d 5b93 02bf 7e88 ebbe 1c33 33be
000003f0: ed15 46be 30b5 123d 5835 0bbe 9a4e ff3e
-0.14334308 0.113561094 -0.058223307 -0.24196243 -0.21157984 0.1261195 -0.20479405 -0.13471979
-0.048468743 0.31986508 -0.14283222 -0.019314945 -0.04003591 -0.3746428 0.18178344 -0.44285804
0.21600506 -0.45271707 0.119884625 -0.47396952 -0.49985108 0.36768177 -0.4278006 -0.39744735
-0.14635395 -0.056977153 0.15767086 -0.07389969 -0.14769709 0.18181527 0.42086628 -0.27136827
0.13427262 0.69405085 0.37696534 0.49271882 -0.2199763 0.10017139 -0.14967555 0.09192717
-0.11627781 -0.4966117 -0.22856416 0.47922164 0.46391258 0.2661164 0.41192174 -0.4646104
0.21395041 -0.1251266 0.4871093 0.2824872 0.33362472 0.23950791 -0.39057314 -0.3425207
-0.4303504 0.3751654 0.34633422 0.37873334 0.047094073 -0.19498473 -0.025409997 -0.47714233
0.10653848 0.05530727 -0.5762754 -0.07416427 0.1939803 0.19149072 -0.37398255 -0.05597526
0.23603247 0.038083494 0.44044966 0.3110438 -0.4267866 0.12116563 -0.30763432 0.14750737
0.2206883 -0.34721532 0.14466065 0.30813164 -0.4509255 -0.14200163 -0.25919235 0.3466798
0.3389344 -0.028583825 -0.38368702 -0.48958552 -0.4878012 -0.3042154 0.21897334 -0.48933107
0.18012245 0.24807292 -0.225339 0.47934294 -0.4951106 0.42945486 -0.22929265 0.23867184
0.10468408 0.25843892 0.0073666573 -0.114216805 -0.5787662 -0.010836899 0.39313942 0.06353837
0.49341425 0.30188864 -0.22558759 0.11790365 0.12067853 0.15816289 -0.3567959 -0.087801814
0.077952534 -0.14864606 0.37510252 -0.45345908 -0.4955104 -0.056515336 0.34184706 -0.15266669
-0.38074663 -0.23091117 -0.10060722 -0.28583962 -0.29433954 -0.058319867 0.028467417 -0.09544593
0.36919937 -0.20116758 0.06857832 0.32765597 0.35098764 -0.6057062 0.32653695 0.19180185
0.42288017 0.40247452 0.27223206 -0.1409471 -0.23770002 -0.0921756 0.24020344 0.28303248
-0.09595795 -0.36804387 0.38609678 0.25882137 -0.15991671 0.4865647 0.34832883 -0.4523782
-0.4357732 -0.37265563 -0.20856988 -0.47528553 0.38825297 0.11041506 -0.41025013 0.0770129
0.46936628 0.04564804 0.23493767 0.40553737 -0.37053162 0.04926932 0.23107733 -0.20538282
0.18101601 -0.34304354 0.2419923 -0.14141732 -0.27745622 0.36382413 0.45274562 -0.29475576
-0.35151023 0.19672221 -0.014022466 -0.22175807 0.2766512 -0.27351424 0.12359214 0.4640199
-0.11980519 -0.16399413 0.26519227 0.39965928 0.4065486 0.35056025 0.19115555 -0.31533533
-0.29902652 0.27923593 0.43272167 -0.26716614 0.28989843 -0.22609448 0.43084216 0.20947528
0.0061297817 -0.08379811 -0.3347792 -0.24880111 -0.29322606 -0.12922676 -0.232503 0.28041208
-0.35638323 0.09514862 0.20320642 -0.012290895 0.0678595 -0.32853234 -0.06649652 0.049295425
0.43098962 0.0084116515 -0.3155955 -0.042734027 0.48575106 -0.23314798 -0.26601744 0.0030152798
0.36009312 0.06663406 0.47793004 -0.19225496 -0.283287 -0.12697342 -0.47963315 -0.35750502
-0.06998367 -0.084246814 0.19514883 -0.3659736 -0.43438768 -0.48279345 0.46510494 0.4080972
0.06905528 -0.51006097 -0.46002573 -0.17499965 -0.19344302 0.035817325 -0.13594568 0.49864656

model.flow.transforms.0.hyper.0.bias f4 [64]
00000000: 19bb 2e3e 80b0 a13e b1bb b43e d057 bb3e
00000010: c9c0 ecbd a229 883e a6d1 53be cad7 cabe
00000020: d958 ea3e 5f18 e4be 6c2d 883e cc01 e2be
00000030: 86ee 603e e7f1 39be 8324 cd3e c4ad 86be
00000040: 5d60 d33e 813e 053f 1e22 abbd 96b2 573e
00000050: 4aad c2bc 1900 be3e 70f3 883e 53cb 083f
00000060: 8f80 4fbe ad29 61be 9c15 9c3d da63 af3d
00000070: 2389 97bd c306 b33e d8e1 ef3e 4c24 ea3e
00000080: 7558 063d 423c f33d 7c36 eabe 9dd6 533e
00000090: 420b c63e 370c d1bd 5a26 dc3e 5ee8 303e
000000a0: bb4f 083f 50d4 ddbe 9971 f7bd f018 17be
000000b0: f0da c8be d8f3 a43d 8c91 a3be 122c 5fbc
000000c0: 7eec f4be e18c 893e 01bf 95be 5bd6 58be
000000d0: 88d5 5bbe bc80 b0bd 692b 18be 553d b4be
000000e0: 76ea 4e3e c579 793d ee50 cebb a20d 7d3e
000000f0: 7166 bfbe d31c df3e 679a dd3e d71e 21be
0.1706356 0.3157997 0.35299447 0.36590433 -0.11560208 0.26594263 -0.20685443 -0.3961776
0.4577091 -0.44549844 0.26597154 -0.44141996 0.2196599 -0.18158685 0.4006692 -0.26304448
0.41284457 0.520485 -0.08356117 0.21064219 -0.023764271 0.3710945 0.26748228 0.5343525
-0.20263885 -0.21988554 0.07621309 0.08563967 -0.07399204 0.34966096 0.46851993 0.45730817
0.032799203 0.11876728 -0.45744693 0.20687337 0.38680464 -0.10207408 0.4299801 0.17276141
0.5324666 -0.43326044 -0.12082214 -0.14755607 -0.39229536 0.08054322 -0.3194698 -0.013621347
-0.4783668 0.26865295 -0.29247287 -0.2117552 -0.21468174 -0.08618304 -0.1486031 -0.35203043
0.20206627 0.060907144 -0.0062962687 0.24712232 -0.37382844 0.4357668 0.43281862 -0.1573442

model.flow.transforms.0.hyper.2.weight f4 [8, 64]
00000000: 66e7 d83d 8891 9dbd 7015 7cbc f4a1 573d
00000010: 800d 1fbb 7090 dcbd 4899 08bd 9c17 1c3d
00000020: 08e6 abbc 783c 573d a212 80bd 2097 ed3d
00000030: 08ce 6c3d 005d 5aba 3469 7ebd f426 193d
00000040: 8600 87bd 3841 8a3c be4e dcbd 18ef 573d
00000050: 4880 71bd e0ce 8b3c a627 883d 8cfc 71bd
00000060: fa42 d93d 7827 82bd d014 2abd e4e5 bb3d
00000070: 60f2 5f3d b88b 1f3d 06bc dc3d 8a7f c9bd
00000080: 2094 a2bc 001c 463c a00e 9b3d e2e9 d33d
00000090: b872 5b3d ba3a f5bd a07a 943c 5482 1b3d
000000a0: 9e6a d23d dcf7 2b3d 48ed 8c3c 1091 083d
000000b0: 0873 503d c445 563d b00e 44bd 24ae cd3d
000000c0: a685 963d 5081 b6bd 3053 583c 22eb c0bd
000000d0: 0601 f53d e845 91bd 0e01 f23d 18b7 453d
000000e0: d6de fc3d c0ac 06bb dc06 c73d f27b 993d
000000f0: 8e50 ffbd 823a e4bd a0ae 0dbd 580d 0bbd
00000100: d256 86bd 10ad e0bc 287c 1fbd 80e3 dd3c
00000110: 884d 32bd c818 b13d 32e8 e6bd 0282 a1bd
00000120: 4e00 953d 6a1e 933d 9025 84bd 80fd 6e3c
00000130: 78d9 f3bd aea6 b03d 1259 a33d d63e ecbd
00000140: b4cb 2fbd 6802 e33c 34b5 853d fed6 ebbd
00000150: 426a 80bd d465 20bd 20b8 fbbc 8402 96bd
00000160: 42a4 e5bd f86b 913c 4c17 ad3d 80f2 6abc
00000170: 1cbc bebd 5473 8abd 18c0 1bbd c0f0 ac3b
00000180: 28fa 9abd 743e 623d 9eb3 933d d2f5 edbd
00000190: a8ba 02bd 8441 2abd b028 f53d 28eb 153d
000001a0: 6866 ebbc ac5e 97bd 1aa7 a53d a668 823d
000001b0: 605f f4bd 48f2 923d 6021 053d 2cf6 c0bd
000001c0: 885a 32bd 4089 41bb e063 f73c b402 3e3d
000001d0: 0610 b7bd bcd4 253d 20bf f23c 4af1 e7bd
000001e0: 905b 68bc 1c00 5ebd 503d e2bd 7cfe fdbd
000001f0: 02b2 d43d 947a c33d ca7d d4bd 0800 373d
00000200: b32c ae3d d0f8 0cbd 4061 f03b 0cc1 8abd
00000210: a43b 67bd fc30 ddbd d681 993d b691 8a3d
00000220: 60eb 0ebd 4c7a 37bd 804c 123c 1088 c0bd
00000230: d841 6ebd 0e47 c53d 5407 d93d d1ff 6cbd
00000240: 44b5 e9bd 063b b03d 4a43 2dbe 9278 b03d
00000250: 52dd a63d 8ad0 01bc 74a7 343d 0e55 eebd
00000260: e3b2 88bd 902a c7bc 603c e83b af85 82bd
00000270: b492 b8bd 8096 ea3c 7268 873d 3049 bf3d
00000280: e06c 813b 1356 523c 6248 bd3d 24e7 eabd
00000290: 3180 b1bd c85e 3fbd 5816 ac3d bc50 fc3d
000002a0: 38e4 a63c 4a51 debd f585 d63c 5a1e c1bd
000002b0: 1e29 86bd 5dce c83d d823 30bd 3048 adbc
000002c0: cafb a03d fc2a 663d 7ea8 f33d fe9a b6bd
000002d0: 9a32 ee3d c850 e9bc 27ac fc3c 18fc 8fbd
000002e0: 38d7 fcbd ca9b 32be e2bf bdbd 08a4 a9bd
000002f0: d84d 5abc f4af 0c3d 5cc7 203d 58b4 073e
00000300: 45e5 c43d c022 b03c 7873 02bd 478d 823d
00000310: 40b4 5fbd 2c7f 0d3d b21d cf38 fc57 6b3d
00000320: e85b 9cbc 6b46 fbbd 7ca0 9bbd c8e3 b63d
00000330: 1050 20bd a8cd 993c 1eb1 a53d ef02 543c
00000340: d0d7 3f3d 58f0 28bd 0f73 01be 26f5 b63d
00000350: d8f5 a7bd 93e6 b2bd 60a8 103c e091 f9bd
00000360: fbc3 84bc 00e1 5ebd d62e fe3d 6365 1dbd
00000370: 6030 34bc 0e01 b5bd 3f5a b1bb dee3 f33d
00000380: 68ee 07bd cd47 b5bc f255 df3d 28ec a1bd
00000390: 078a 7b3d b862 bb3c 301e b03c 616a cbbc
000003a0: 6a60 d5bd 7cec 83bd d77a b63d da68 e93d
000003b0: c81f d6bc cc3c 0bbc 9694 c7bd 9cbb 8a3d
000003c0: f7ed c13d 2054 813b 0e78 93bd 10b7 a9bd
000003d0: 386b 00bd 189f 103d 6284 b63d 9416 b63d
000003e0: 0082 293c b57b 96bd 3828 bbbc f82e 63bd
000003f0: f989 313d 7629 fcbd 5ce0 b23d f0cd 593d
0.10591011 -0.076937735 -0.0153859705 0.052644685 -0.0024269521 -0.10769737 -0.033349305 0.038108453
-0.02098371 0.052547902 -0.06253554 0.116010904 0.057813674 -0.0008329898 -0.06211205 0.037390664
-0.06591897 0.016876802 -0.107572064 0.052718252 -0.05896023 0.01706642 0.06648187 -0.059078738
0.10608478 -0.06355184 -0.041523755 0.091747075 0.054674506 0.038951606 0.1077805 -0.09838779
-0.019846022 0.012091637 0.07571149 0.10347344 0.0535762 -0.11974092 0.018124878 0.037966087
0.10274242 0.041984424 0.017202988 0.033341467 0.050890952 0.052312627 -0.04786557 0.1004298
0.0734971 -0.08911383 0.013203427 -0.09419848 0.11963086 -0.07093412 0.118166074 0.048270315
0.1234719 -0.0020549744 0.09718105 0.07494344 -0.124665365 -0.11143972 -0.034590364 -0.033948272
-0.065595284 -0.027426273 -0.038936764 0.02708602 -0.04353097 0.08647305 -0.112747565 -0.07886125
0.07275449 0.071835354 -0.06452477 0.014586806 -0.11906713 0.086255416 0.07975973 -0.115354225
-0.042918876 0.027711108 0.065287024 -0.11515616 -0.06270267 -0.03915961 -0.030727446 -0.073246986
-0.1121297 0.017751679 0.08451709 -0.014340043 -0.09313223 -0.06760278 -0.03802499 0.005277723
-0.07567245 0.05523534 0.07211994 -0.11619152 -0.03191629 -0.041566387 0.11970651 0.036601216
-0.028735355 -0.07391104 0.08088513 0.06367616 -0.11932254 0.07175118 0.032502532 -0.094219536
-0.04354337 -0.002953127 0.030198991 0.046389297 -0.08938603 0.040486082 0.029632151 -0.11325319
-0.014181986 -0.054199323 -0.11046851 -0.12402055 0.10385515 0.09544864 -0.10375555 0.044677764
0.085046194 -0.034416974 0.007335812 -0.06775102 -0.056453362 -0.10800359 0.07495467 0.067660734
-0.03489244 -0.044794366 0.008929372 -0.09400952 -0.058168262 0.09632693 0.10597101 -0.057861153
-0.11411527 0.08605008 -0.169202 0.08616747 0.08147682 -0.007923255 0.04410501 -0.11637317
-0.06674745 -0.024312288 0.0070872754 -0.06373154 -0.090123564 0.028636217 0.06611718 0.09340131
0.0039497465 0.0128379045 0.092423216 -0.11469868 -0.08667029 -0.04672125 0.08402699 0.12320086
0.020372495 -0.108553484 0.026186923 -0.09429617 -0.06550811 0.09804986 -0.043002933 -0.021152586
0.07860525 0.056193337 0.11897372 -0.08916281 0.11630745 -0.028480902 0.030843807 -0.07030505
-0.12345737 -0.17442241 -0.09265114 -0.082832396 -0.013324223 0.03434749 0.039252624 0.1325239
0.09614042 0.021500945 -0.0318484 0.06374603 -0.05461526 0.03454511 9.87606e-05 0.057456955
-0.019086793 -0.122692905 -0.07598969 0.089301646 -0.039138854 0.018774822 0.08090423 0.012940153
0.046836674 -0.041244835 -0.12641548 0.08933477 -0.08201188 -0.08735385 0.008829206 -0.121860266
-0.016206732 -0.054413795 0.12411277 -0.038426768 -0.010997862 -0.08838092 -0.0054123695 0.119086966
-0.033186346 -0.022128964 0.10905065 -0.07906371 0.06141093 0.022874221 0.02149877 -0.024830999
-0.1041878 -0.0644159 0.089101486 0.11396952 -0.026138201 -0.008498382 -0.097451374 0.06774065
0.09469216 0.003946796 -0.07200633 -0.082868695 -0.03135225 0.035307974 0.08911969 0.08891025
0.010345936 -0.07347814 -0.022846326 -0.055464715 0.04334447 -0.123125955 0.087341994 0.053174913

model.flow.transforms.0.hyper.2.bias f4 [8]
00000000: 23df 68b8 9bfb 2138 e308 ab3c d199 113d
00000010: aa5c dcbd 2d97 123e ecde ccbd 9bb8 6abd
-5.5520923e-05 3.8619717e-05 0.020878261 0.03554708 -0.10759862 0.14315481 -0.100034565 -0.05730496

model.flow.base._0 f4 [4]
00000000: 0000 0000 0000 0000 0000 0000 0000 0000
0.0 0.0 0.0 0.0

model.flow.base._1 f4 [4]
00000000: 0000 803f 0000 803f 0000 803f 0000 803f
1.0 1.0 1.0 1.0
