_models_trained/causal_nf/chainsens_linear/last.ckpt (torch, 9035 bytes, 6 tensors)

model.flow.transforms.0.hyper.0.weight f4 [64, 4]
000000 ed b9 13 be b8 92 e8 3d 90 7b 6e bd 00 c5 77 be
       -0.14426394 0.113561094 -0.058223307 -0.24196243
000010 bc 18 65 be 78 25 01 3e 08 27 3a be fc f3 09 be
       -0.22372717 0.1261195 -0.18178952 -0.13471979
000020 aa 60 67 bd bc df a2 3e 9c 42 12 be 60 3a 9e bc
       -0.05648867 0.3181132 -0.14283222 -0.019314945
000030 48 df 1f bd 2e d1 bf be 70 25 3a 3e 4a be e2 be
       -0.039031297 -0.3746428 0.18178344 -0.44285804
000040 73 9e 6a 3e 88 ca e7 be 11 30 0d 3e 22 ac f2 be
       0.22912006 -0.45271707 0.13787867 -0.47396952
000050 ed 61 11 bf 88 78 c0 3e ae 08 db be 38 7e cb be
       -0.5679005 0.37591958 -0.4278006 -0.39744735
000060 f5 83 11 be e0 60 69 bd 78 74 21 3e b8 58 97 bd
       -0.14210494 -0.056977153 0.15767086 -0.07389969
000070 66 bd 51 be c8 2d 3a 3e 93 d9 c2 3e c8 f0 8a be
       -0.20482406 0.18181527 0.3805662 -0.27136827
000080 10 55 3e 3e da 29 4b 3f 9a 01 c1 3e a4 45 fc 3e
       0.18587136 0.79360735 0.37696534 0.49271882
000090 99 14 62 be a8 26 cd 3d 8c 44 19 be 50 44 bc 3d
       -0.2207817 0.10017139 -0.14967555 0.09192717
0000a0 2f e2 00 be e4 43 fe be 73 9d 5a be 8a 5c f5 3e
       -0.12586282 -0.4966117 -0.21349125 0.47922164
0000b0 79 f2 d1 3e ec 58 8c 3e 68 e7 d2 3e 6a e1 ed be
       0.41005304 0.27411592 0.41192174 -0.4646104
0000c0 b3 e0 56 3e 30 21 00 be 64 66 f9 3e 2a a2 90 3e
       0.20984153 -0.1251266 0.4871093 0.2824872
0000d0 84 2a ae 3e 90 41 75 3e 07 49 b2 be e0 5e af be
       0.34016812 0.23950791 -0.3482134 -0.3425207
0000e0 df 2c fd be cc 67 e3 3e b8 52 b1 3e 56 e9 c1 3e
       -0.49448296 0.44415128 0.34633422 0.37873334
0000f0 30 26 3b 3d 14 aa 47 be a0 28 d0 bc 00 4c f4 be
       0.045690715 -0.19498473 -0.025409997 -0.47714233
000100 56 9f bc 3d e0 89 62 3d 15 a9 e3 be 70 e3 97 bd
       0.092100784 0.05530727 -0.44464937 -0.07416427
000110 a2 34 39 3e 67 aa 30 3e a4 7a bf be 50 46 65 bd
       0.18086484 0.17252503 -0.37398255 -0.05597526
000120 03 c6 74 3e 70 fd 1b 3d 9e 82 e1 3e 22 41 9f 3e
       0.2390366 0.038083494 0.44044966 0.3110438
000130 47 28 ed be b0 25 f8 3d 88 f2 a3 be 2c 0c 17 3e
       -0.46319792 0.12116563 -0.32020974 0.14750737
000140 45 ed 3e 3e 69 23 9d be ec 21 14 3e 6e c3 9d 3e
       0.18645199 -0.30691078 0.14466065 0.30813164
000150 e0 f0 e4 be e0 68 11 be dc b4 84 be 04 80 b1 3e
       -0.44715023 -0.14200163 -0.25919235 0.3466798
000160 d1 6f 9a 3e a0 28 ea bc 1c d7 a0 be f4 aa fa be
       0.30163434 -0.028583825 -0.31414115 -0.48958552
000170 3c 32 ef be d0 a2 97 be 8c 3a 60 3e 9a 89 fa be
       -0.46718013 -0.29616404 0.21897334 -0.48933107
000180 7a 1c 3c 3e d4 06 7e 3e 44 bf 66 be 70 6c f5 3e
       0.18370238 0.24807292 -0.225339 0.47934294
000190 2c 19 f8 be 82 e1 db 3e 9f d7 7a be 64 66 74 3e
       -0.48456705 0.42945486 -0.24496315 0.23867184
0001a0 b4 5c cc 3d 36 9b 8c 3e 00 64 f1 3b 80 ea e9 bd
       0.09978619 0.27462167 0.0073666573 -0.114216805
0001b0 ab 03 15 bf 40 8d 31 bc 92 49 c9 3e 68 20 82 3d
       -0.5820872 -0.010836899 0.39313942 0.06353837
0001c0 17 0d 04 3f 26 91 9a 3e 1f f8 5e be 78 77 f1 3d
       0.51582474 0.30188864 -0.21774338 0.11790365
0001d0 2d 2d ee 3d ab 0e 20 3e f4 ad b6 be 70 d1 b3 bd
       0.1162971 0.15630595 -0.3567959 -0.087801814
0001e0 af 59 a4 3d ac 36 18 be 70 0d c0 3e ca 2b e8 be
       0.08024918 -0.14864606 0.37510252 -0.45345908
0001f0 9b b7 01 bf a0 7c 67 bd 0c 12 aa 3e a8 54 1c be
       -0.50670785 -0.056515336 0.33216894 -0.15266669
000200 cb 24 d7 be fd 22 5e be 28 0b ce bd 92 59 92 be
       -0.42020258 -0.21693034 -0.10060722 -0.28583962
000210 48 48 95 be d0 e0 6e bd 80 34 e9 3c 28 79 c3 bd
       -0.2915671 -0.058319867 0.028467417 -0.09544593
000220 1d fb b8 3e e0 fe 4d be 07 0b a0 3d 86 c2 a7 3e
       0.36129084 -0.20116758 0.07814603 0.32765597
000230 51 9b 8e 3e f3 45 14 bf da 2f a7 3e b4 67 44 3e
       0.27852872 -0.57919234 0.32653695 0.19180185
000240 1a c8 d6 3e 24 11 ce 3e 00 62 8b 3e 70 54 10 be
       0.4194954 0.40247452 0.27223206 -0.1409471
000250 99 90 97 be 90 c6 bc bd ce 7f 5e 3e a2 e9 90 3e
       -0.29602507 -0.0921756 0.21728441 0.28303248
000260 43 ca c6 bd 6c 40 ba be 7a ae c5 3e 3c 84 84 3e
       -0.09706547 -0.36377275 0.38609678 0.25882137
000270 47 4a 26 be 02 1f f9 3e 28 58 b2 3e 1e 9e e7 be
       -0.16239272 0.4865647 0.34832883 -0.4523782
000280 af 5f e4 be b8 cc be be 9e e3 47 be a0 58 f3 be
       -0.4460425 -0.37265563 -0.19520423 -0.47528553
000290 79 b7 c5 3e 4c d7 ad 3d 4e 0c d2 be f0 b8 9d 3d
       0.3861654 0.0848833 -0.41025013 0.0770129
0002a0 0f fc f1 3e 70 f9 3a 3d 80 93 70 3e 98 a2 cf 3e
       0.47262618 0.04564804 0.23493767 0.40553737
0002b0 37 e9 ce be a0 ce 49 3d e8 d0 82 3e e0 4f 52 be
       -0.40412304 0.04926932 0.25550008 -0.20538282
0002c0 37 b3 19 3e 50 a7 7d be d4 cc 77 3e b4 cf 10 be
       0.15009771 -0.24770856 0.2419923 -0.14141732
0002d0 ec 38 8e be 28 47 ba 3e 46 ce e7 3e 3a ea 96 be
       -0.27777803 0.36382413 0.45274562 -0.29475576
0002e0 49 59 b2 be 8c 71 49 3e 09 b9 46 bd 8c 14 63 be
       -0.34833744 0.19672221 -0.048516307 -0.22175807
0002f0 f4 93 81 3e 99 88 61 be e0 1d fd 3d 04 94 ed 3e
       0.25308192 -0.22024764 0.12359214 0.4640199
000300 c8 4a eb bd 14 ee 27 be 48 c7 87 3e 24 a0 cc 3e
       -0.11488873 -0.16399413 0.26519227 0.39965928
000310 84 2e d6 3e a2 7c b3 3e 7a c1 57 3e a2 73 a1 be
       0.41832364 0.35056025 0.21069899 -0.31533533
000320 62 b1 95 be bb f2 b0 3e b2 8d dd 3e 00 ca 88 be
       -0.29236895 0.3456019 0.43272167 -0.26716614
000330 0d 28 95 3e 50 85 67 be 58 97 dc 3e b0 80 56 3e
       0.2913212 -0.22609448 0.43084216 0.20947528
000340 f7 ac 0a 3c 58 9e ab bd e9 11 89 be b8 c5 7e be
       0.00846409 -0.08379811 -0.26771477 -0.24880111
000350 79 17 a1 be db 69 01 be 44 15 6e be 2c 92 8f 3e
       -0.3146322 -0.12638037 -0.232503 0.28041208
000360 19 84 b5 be 48 dd c2 3d 58 15 50 3e c0 5f 49 bc
       -0.35452345 0.09514862 0.20320642 -0.012290895
000370 51 f5 85 3d 64 35 a8 be 76 5b bd bd 00 ea 49 3d
       0.06540931 -0.32853234 -0.092459604 0.049295425
000380 30 8a db 3e c4 a8 db b9 bc 95 a1 be e0 09 2f bd
       0.42878866 -0.00041896675 -0.3155955 -0.042734027
000390 ea d8 f7 3e 58 be 6e be 70 33 88 be 00 9c 45 3b
       0.4840768 -0.23314798 -0.26601744 0.0030152798
0003a0 93 c2 d9 3e 70 77 88 3d 6a 19 f9 3e 7c de 44 be
       0.4253126 0.06663406 0.48652202 -0.19225496
0003b0 00 21 94 be 14 11 f4 bd 7a 92 f5 be e6 0a b7 be
       -0.28931427 -0.1191732 -0.47963315 -0.35750502
0003c0 30 7c 8c bd 98 89 ac bd 18 d5 47 3e e4 60 bb be
       -0.068596244 -0.084246814 0.19514883 -0.3659736
0003d0 ef 68 f2 be b4 30 f7 be e0 2a e0 3e 1e f2 d0 3e
       -0.47345683 -0.48279345 0.4378271 0.4080972
0003e0 61 56 b4 3d 29 b5 fb be 7e 88 eb be 1c 33 33 be
       0.08805538 -0.49161652 -0.46002573 -0.17499965
0003f0 9a 56 46 be 30 b5 12 3d 58 35 0b be 9a 4e ff 3e
       -0.19368973 0.035817325 -0.13594568 0.49864656

model.flow.transforms.0.hyper.0.bias f4 [64]
000000 3a a0 2d 3e a3 81 9c 3e ae 1e a5 3e ab 4c b8 3e
       0.16955653 0.30567655 0.3224997 0.35995993
000010 c5 4a cc bd 94 2d 85 3e 41 79 55 be 42 3d fd be
       -0.09975199 0.26011336 -0.20847036 -0.49460799
000020 f5 2f a5 3e 08 69 e3 be ea 63 80 3e b9 25 ea be
       0.3226315 -0.4441607 0.25076228 -0.45731905
000030 76 a9 62 3e 62 7a 68 be 94 da aa 3e 67 8d 84 be
       0.22134957 -0.22702935 0.33369887 -0.2588913
000040 c9 d4 03 3f 37 b0 0a 3f 76 ad a6 bd d6 ec 30 3e
       0.5149656 0.5417513 -0.08138554 0.17277846
000050 8b 58 23 3d 79 73 bc 3e 9f c7 a9 3e b0 b0 0d 3f
       0.039879363 0.3680685 0.3316011 0.5534773
000060 a9 65 4b be bf d5 64 be 5d f0 34 3d ac 93 a5 3d
       -0.19862999 -0.22347163 0.04417454 0.08084807
000070 5e eb 34 bd 2f a9 b3 3e 79 9d ee 3e 21 33 eb 3e
       -0.044169776 0.35090014 0.46604517 0.45937446
000080 40 63 1b bc 2c 0e e2 3d 13 19 ee be 02 94 8d 3e
       -0.009484112 0.11037859 -0.46503505 0.27651983
000090 35 e2 c4 3e dd 67 04 be ef b6 e0 3e d6 36 29 3e
       0.38453832 -0.12930246 0.43889567 0.16524825
0000a0 c0 dd 05 3f dd e2 dc be 3f c4 ee bd 7f 0a 1d be
       0.5229149 -0.43141833 -0.11658525 -0.15336035
0000b0 73 a4 d8 be cf 18 99 3d e9 61 a4 be 8d 89 c8 3b
       -0.42312965 0.07475435 -0.3210595 0.006119913
0000c0 30 14 f3 be 5c 7e 82 3e fb 7b 99 be d4 bd 53 be
       -0.4747634 0.2548703 -0.29977402 -0.20677882
0000d0 79 ea 8c be ba b8 e0 bd c4 0e 1a be 4c 02 b2 be
       -0.27522638 -0.10972734 -0.15044695 -0.34767377
0000e0 6a 35 4d 3e a6 e0 7f 3d 53 63 71 3c e5 e7 6f 3e
       0.20039907 0.0624701 0.014733153 0.23428304
0000f0 05 ad b9 be 17 f7 e4 3e a5 5c e2 3e 6e 8b 1e be
       -0.36264816 0.44719765 0.44211307 -0.15482876

model.flow.transforms.0.hyper.2.weight f4 [8, 64]
000000 66 e7 d8 3d 88 91 9d bd 70 15 7c bc f4 a1 57 3d
       0.10591011 -0.076937735 -0.0153859705 0.052644685
000010 80 0d 1f bb 70 90 dc bd 48 99 08 bd 9c 17 1c 3d
       -0.0024269521 -0.10769737 -0.033349305 0.038108453
000020 08 e6 ab bc 78 3c 57 3d a2 12 80 bd 20 97 ed 3d
       -0.02098371 0.052547902 -0.06253554 0.116010904
000030 08 ce 6c 3d 00 5d 5a ba 34 69 7e bd f4 26 19 3d
       0.057813674 -0.0008329898 -0.06211205 0.037390664
000040 86 00 87 bd 38 41 8a 3c be 4e dc bd 18 ef 57 3d
       -0.06591897 0.016876802 -0.107572064 0.052718252
000050 48 80 71 bd e0 ce 8b 3c a6 27 88 3d 8c fc 71 bd
       -0.05896023 0.01706642 0.06648187 -0.059078738
000060 fa 42 d9 3d 78 27 82 bd d0 14 2a bd e4 e5 bb 3d
       0.10608478 -0.06355184 -0.041523755 0.091747075
000070 60 f2 5f 3d b8 8b 1f 3d 06 bc dc 3d 8a 7f c9 bd
       0.054674506 0.038951606 0.1077805 -0.09838779
000080 20 94 a2 bc 00 1c 46 3c a0 0e 9b 3d e2 e9 d3 3d
       -0.019846022 0.012091637 0.07571149 0.10347344
000090 b8 72 5b 3d ba 3a f5 bd a0 7a 94 3c 54 82 1b 3d
       0.0535762 -0.11974092 0.018124878 0.037966087
0000a0 9e 6a d2 3d dc f7 2b 3d 48 ed 8c 3c 10 91 08 3d
       0.10274242 0.041984424 0.017202988 0.033341467
0000b0 08 73 50 3d c4 45 56 3d b0 0e 44 bd 24 ae cd 3d
       0.050890952 0.052312627 -0.04786557 0.1004298
0000c0 a6 85 96 3d 50 81 b6 bd 30 53 58 3c 22 eb c0 bd
       0.0734971 -0.08911383 0.013203427 -0.09419848
0000d0 06 01 f5 3d e8 45 91 bd 0e 01 f2 3d 18 b7 45 3d
       0.11963086 -0.07093412 0.118166074 0.048270315
0000e0 d6 de fc 3d c0 ac 06 bb dc 06 c7 3d f2 7b 99 3d
       0.1234719 -0.0020549744 0.09718105 0.07494344
0000f0 8e 50 ff bd 82 3a e4 bd a0 ae 0d bd 58 0d 0b bd
       -0.124665365 -0.11143972 -0.034590364 -0.033948272
000100 d2 56 86 bd 10 ad e0 bc 28 7c 1f bd 80 e3 dd 3c
       -0.065595284 -0.027426273 -0.038936764 0.02708602
000110 88 4d 32 bd c8 18 b1 3d 32 e8 e6 bd 02 82 a1 bd
       -0.04353097 0.08647305 -0.112747565 -0.07886125
000120 4e 00 95 3d 6a 1e 93 3d 90 25 84 bd 80 fd 6e 3c
       0.07275449 0.071835354 -0.06452477 0.014586806
000130 78 d9 f3 bd ae a6 b0 3d 12 59 a3 3d d6 3e ec bd
       -0.11906713 0.086255416 0.07975973 -0.115354225
000140 b4 cb 2f bd 68 02 e3 3c 34 b5 85 3d fe d6 eb bd
       -0.042918876 0.027711108 0.065287024 -0.11515616
000150 42 6a 80 bd d4 65 20 bd 20 b8 fb bc 84 02 96 bd
       -0.06270267 -0.03915961 -0.030727446 -0.073246986
000160 42 a4 e5 bd f8 6b 91 3c 4c 17 ad 3d 80 f2 6a bc
       -0.1121297 0.017751679 0.08451709 -0.014340043
000170 1c bc be bd 54 73 8a bd 18 c0 1b bd c0 f0 ac 3b
       -0.09313223 -0.06760278 -0.03802499 0.005277723
000180 28 fa 9a bd 74 3e 62 3d 9e b3 93 3d d2 f5 ed bd
       -0.07567245 0.05523534 0.07211994 -0.11619152
000190 a8 ba 02 bd 84 41 2a bd b0 28 f5 3d 28 eb 15 3d
       -0.03191629 -0.041566387 0.11970651 0.036601216
0001a0 68 66 eb bc ac 5e 97 bd 1a a7 a5 3d a6 68 82 3d
       -0.028735355 -0.07391104 0.08088513 0.06367616
0001b0 60 5f f4 bd 48 f2 92 3d 60 21 05 3d 2c f6 c0 bd
       -0.11932254 0.07175118 0.032502532 -0.094219536
0001c0 88 5a 32 bd 40 89 41 bb e0 63 f7 3c b4 02 3e 3d
       -0.04354337 -0.002953127 0.030198991 0.046389297
0001d0 06 10 b7 bd bc d4 25 3d 20 bf f2 3c 4a f1 e7 bd
       -0.08938603 0.040486082 0.029632151 -0.11325319
0001e0 90 5b 68 bc 1c 00 5e bd 50 3d e2 bd 7c fe fd bd
       -0.014181986 -0.054199323 -0.11046851 -0.12402055
0001f0 02 b2 d4 3d 94 7a c3 3d ca 7d d4 bd 08 00 37 3d
       0.10385515 0.09544864 -0.10375555 0.044677764
000200 6b 08 ae 3d d0 f8 0c bd 40 61 f0 3b 96 49 8a bd
       0.08497699 -0.034416974 0.007335812 -0.06752317
000210 a4 3b 67 bd fc 30 dd bd e4 6c 99 3d b6 91 8a 3d
       -0.056453362 -0.10800359 0.07491472 0.067660734
000220 60 eb 0e bd 34 31 37 bd 80 4c 12 3c 10 88 c0 bd
       -0.03489244 -0.044724658 0.008929372 -0.09400952
000230 94 60 6e bd 0e 47 c5 3d 54 07 d9 3d 3e 71 6c bd
       -0.058197573 0.09632693 0.10597101 -0.057725184
000240 44 b5 e9 bd 06 3b b0 3d da 45 2d be 92 78 b0 3d
       -0.11411527 0.08605008 -0.16921178 0.08616747
000250 52 dd a6 3d cc dc fa bb 74 a7 34 3d 0e 55 ee bd
       0.08147682 -0.0076557156 0.04410501 -0.11637317
000260 b1 b5 88 bd 90 2a c7 bc 60 3c e8 3b 09 ca 81 bd
       -0.0667528 -0.024312288 0.0070872754 -0.06337363
000270 b4 92 b8 bd 80 96 ea 3c 52 12 87 3d 30 49 bf 3d
       -0.090123564 0.028636217 0.06595291 0.09340131
000280 e0 6c 81 3b 47 3f 56 3c 62 48 bd 3d 24 e7 ea bd
       0.0039497465 0.01307661 0.092423216 -0.11469868
000290 a4 6d b1 bd c8 5e 3f bd 58 16 ac 3d 60 0d fc 3d
       -0.086634904 -0.04672125 0.08402699 0.123072386
0002a0 38 e4 a6 3c 4a 51 de bd 6f 02 d4 3c 5a 1e c1 bd
       0.020372495 -0.108553484 0.025880067 -0.09429617
0002b0 1e 29 86 bd a8 f6 c8 3d d8 23 30 bd 30 48 ad bc
       -0.06550811 0.09812671 -0.043002933 -0.021152586
0002c0 33 de a0 3d fc 2a 66 3d 7e a8 f3 3d 19 db b6 bd
       0.07854881 0.056193337 0.11897372 -0.08928508
0002d0 9a 32 ee 3d c8 50 e9 bc 5f 6e fe 3c 18 fc 8f bd
       0.11630745 -0.028480902 0.031058488 -0.07030505
0002e0 38 d7 fc bd e3 b5 32 be e2 bf bd bd 08 a4 a9 bd
       -0.12345737 -0.17452197 -0.09265114 -0.082832396
0002f0 dd c2 59 bc f4 af 0c 3d 5c c7 20 3d 24 a4 07 3e
       -0.013291088 0.03434749 0.039252624 0.13246208
000300 48 4c c4 3d c0 22 b0 3c 78 73 02 bd f1 fa 81 3d
       0.09584862 0.021500945 -0.0318484 0.063466914
000310 40 b4 5f bd 2c 7f 0d 3d f5 8f 16 3a fc 57 6b 3d
       -0.05461526 0.03454511 0.0005743497 0.057456955
000320 e8 5b 9c bc 7b 30 fa bd 7c a0 9b bd c8 e3 b6 3d
       -0.019086793 -0.12216278 -0.07598969 0.089301646
000330 46 dd 21 bd a8 cd 99 3c 1e b1 a5 3d af 2f 53 3c
       -0.039517663 0.018774822 0.08090423 0.012889787
000340 d0 d7 3f 3d 58 f0 28 bd 5f 9d 01 be 26 f5 b6 3d
       0.046836674 -0.041244835 -0.12657689 0.08933477
000350 d8 f5 a7 bd 58 f4 b1 bd 60 a8 10 3c e0 91 f9 bd
       -0.08201188 -0.08689183 0.008829206 -0.121860266
000360 62 fc 85 bc 00 e1 5e bd d6 2e fe 3d a8 27 1b bd
       -0.016355697 -0.054413795 0.12411277 -0.037879616
000370 60 30 34 bc 0e 01 b5 bd 7a f7 b6 bb de e3 f3 3d
       -0.010997862 -0.08838092 -0.0055837007 0.119086966
000380 68 ee 07 bd 58 aa b0 bc f2 55 df 3d 28 ec a1 bd
       -0.033186346 -0.021565601 0.10905065 -0.07906371
000390 14 73 78 3d b8 62 bb 3c 30 1e b0 3c f9 de c7 bc
       0.060656622 0.022874221 0.02149877 -0.024398314
0003a0 6a 60 d5 bd 7c ec 83 bd 95 11 b5 3d da 68 e9 3d
       -0.1041878 -0.0644159 0.08841244 0.11396952
0003b0 c8 1f d6 bc 9e a4 02 bc 96 94 c7 bd 9c bb 8a 3d
       -0.026138201 -0.007973818 -0.097451374 0.06774065
0003c0 92 31 c2 3d 20 54 81 3b 0e 78 93 bd 1a 0b aa bd
       0.09482111 0.003946796 -0.07200633 -0.08302899
0003d0 38 6b 00 bd 18 9f 10 3d 4d 39 b7 3d 94 16 b6 3d
       -0.03135225 0.035307974 0.08946476 0.08891025
0003e0 00 82 29 3c 70 6d 97 bd 38 28 bb bc f8 2e 63 bd
       0.010345936 -0.073939204 -0.022846326 -0.055464715
0003f0 04 a7 31 3d 76 29 fc bd 5c e0 b2 3d 79 72 5b 3d
       0.04337217 -0.123125955 0.087341994 0.053575967

model.flow.transforms.0.hyper.2.bias f4 [8]
000000 38 3e 5a 38 bc c1 ba 37 c3 5d ab 3c d8 1e 11 3d
       5.2033196e-05 2.2263142e-05 0.020918733 0.035429806
000010 07 4c eb bd b0 0d 11 3e a6 16 d0 bd 1d 0e 64 bd
       -0.114891104 0.14165378 -0.1016057 -0.055677522

model.flow.base._0 f4 [4]
000000 00 00 00 00 00 00 00 00 00 00 00 00 00 00 00 00
       0.0 0.0 0.0 0.0

model.flow.base._1 f4 [4]
000000 00 00 80 3f 00 00 80 3f 00 00 80 3f 00 00 80 3f
       1.0 1.0 1.0 1.0
