_models_trained/vaca/trianglesens_non-linear/epoch=62-step=1260.ckpt (torch, 121569 bytes, 37 tensors)

model.encoder_gnn.pre_nn.fc_layers.0.0.weight f4 [16, 1]
000000 a7 26 a6 be 7f c1 af 3e 26 50 a8 be 60 3a 1e bd
       -0.32451364 0.34327313 -0.32873648 -0.03862989
000010 80 82 be bd 85 6e 18 bf d6 d2 2d 3f 5e 91 60 bf
       -0.09302235 -0.5954364 0.67899835 -0.8772181
000020 66 31 15 3f f7 5f 77 bf 74 9e af be 64 9f 4e bf
       0.582785 -0.96630806 -0.34300578 -0.8071196
000030 d4 c1 68 bf ba 4e 0b 3f 2a 28 41 bf 07 7d 4a bf
       -0.9092076 0.54417 -0.7545191 -0.79097027

model.encoder_gnn.pre_nn.fc_layers.0.0.bias f4 [16]
000000 59 90 29 be 0c 03 6a be 44 a2 61 3e b8 58 17 be
       -0.1655897 -0.22852725 0.22034556 -0.14779937
000010 09 da bd be dc a6 8f 3e ef 84 77 3e 04 4b 04 bf
       -0.3708041 0.2805699 0.24171804 -0.51676965
000020 0c cf 33 3c a9 40 50 3f 62 7b 92 3e 1b 99 0a 3f
       0.010974657 0.81348664 0.2860976 0.5413987
000030 a9 87 94 be 39 3e 16 be bb 94 a0 be 2e 5c 1e 3e
       -0.2900975 -0.14672174 -0.31363472 0.15464851

model.encoder_gnn.lin_skipsum.0.0.weight f4 [16, 16]
000000 5f 30 31 be 44 a7 c0 3b 31 c0 14 be 8a 5c 75 3e
       -0.17303608 0.0058793146 -0.1452644 0.23961082
000010 6b 0b 77 3e 62 dd 64 bb 3a f1 f8 3d 6b 16 63 be
       0.2412545 -0.0034921994 0.12155385 -0.2217652
000020 e8 c8 95 3d bc c6 02 be a2 ea 25 3d 86 a3 be 3c
       0.073137105 -0.12771124 0.040506966 0.023271333
000030 8b 13 29 3e e6 b2 31 3e 82 6d 05 be ff 28 2f be
       0.16511361 0.173534 -0.13030055 -0.17105483
000040 51 a4 ff 3d c7 5f 7f be c8 10 83 3e 56 e9 41 3e
       0.12482513 -0.2493888 0.2559874 0.18936667
000050 13 bd c9 3c c7 06 8d bc 0a cf e9 bd 60 9d 3c bc
       0.02462629 -0.017215146 -0.11416443 -0.0115121305
000060 26 e5 06 3c ad 4f 07 3e c3 d6 67 bd 4d ca 7a 3d
       0.008233344 0.13213988 -0.056601297 0.061228085
000070 12 79 0e 3e 0f 68 21 be bc a1 34 bd 78 ee 03 3e
       0.13913372 -0.15762351 -0.044099554 0.12883937
000080 43 bf 1d be 84 90 96 3e 31 4b 0e 3e 22 41 1f 3e
       -0.15404992 0.29407132 0.13895871 0.1555219
000090 2c 85 35 be f0 f4 fb 3b 68 97 94 3d a8 b9 df bc
       -0.17726582 0.007689111 0.07255441 -0.027310207
0000a0 a8 fe 81 3e 48 30 42 be 88 0a 03 3d 7b df 87 3d
       0.253896 -0.1896373 0.031992465 0.066344224
0000b0 02 78 84 be f4 be 06 3e 18 16 49 be 2d 15 ad 3d
       -0.2587281 0.1315878 -0.19637334 0.084513046
0000c0 1f cc f5 bd 4f fb 67 3e b2 78 5b be f4 aa 7a be
       -0.12001824 0.2265446 -0.2143276 -0.24479276
0000d0 93 a4 4e be b4 21 d0 bd 57 58 42 3e 3e cf a8 be
       -0.20179968 -0.10162678 0.18979011 -0.32970613
0000e0 f1 f0 1d 3e 16 03 e6 3c ce 90 1f be 30 3c 07 3e
       0.15423943 0.028077643 -0.15582582 0.13206553
0000f0 c5 b9 82 be a5 36 ab 3e 4a c3 02 be 8f 3e ff 3c
       -0.25532356 0.33440128 -0.1276981 0.03115776
000100 09 7e 03 be f5 3f 99 be c2 2f 39 3d 80 ea 69 bd
       -0.12841047 -0.29931608 0.04521156 -0.057108402
000110 37 4a 94 be b5 9f 83 3d 8a e1 40 3e e9 5b 96 bd
       -0.2896287 0.06426946 0.18836036 -0.07341749
000120 95 6a 21 bd 6c 8f cf 3d d4 7d f3 bc 47 1c 61 3d
       -0.039408285 0.101347774 -0.029723085 0.054958608
000130 77 a6 bc 3d 14 32 83 3b f1 93 1a be 5d b7 8d bd
       0.09211438 0.0040037725 -0.15095498 -0.069197394
000140 91 41 d0 3e 67 94 ec be 4b 68 70 3e ca 2b 68 be
       0.40675023 -0.46206972 0.23477285 -0.22672954
000150 d5 9f 55 be 66 26 6b 3d 90 88 e3 bc 0a e1 ed 3d
       -0.20861752 0.057409666 -0.027775079 0.116151884
000160 8a 3c a6 be 81 9a 9d 3d 63 c7 8f bc e2 45 0d bd
       -0.32468063 0.07695485 -0.01755113 -0.034490474
000170 f7 65 8e bb f7 37 87 be ca 4f 13 3e 2d 2b 59 3d
       -0.0043456513 -0.26409885 0.14385906 0.05301969
000180 eb 9a 6c be 61 86 3b 3e 86 4e 31 bc 86 c2 27 3e
       -0.23105972 0.1831298 -0.010821944 0.16382799
000190 4b 81 55 3e f7 a2 39 be e8 1f 56 3e 9b 89 b3 bd
       0.20850103 -0.18128572 0.20910609 -0.087664805
0001a0 f2 b3 7a 3e 87 ea af 3d 89 cb 8c 3d 1d 80 eb bd
       0.24482706 0.085896544 0.06874759 -0.11499045
0001b0 68 cf 42 be bc f3 ea 3d f7 b2 88 bd 5d 51 26 3d
       -0.19024432 0.1147227 -0.0667476 0.040604938
0001c0 72 f2 8a 3e 44 cf 9c bb e9 36 ef 3d 3c 84 04 3e
       0.27138096 -0.00478545 0.11680395 0.12941068
0001d0 f4 16 10 3b 53 07 c2 3d 93 6e a2 3d 97 a6 33 bc
       0.0021986337 0.09474053 0.079312466 -0.010965011
0001e0 72 b3 cf bd a6 ff 5a bd a4 bf 36 be 53 50 bc bd
       -0.10141648 -0.05346646 -0.17846543 -0.09195008
0001f0 d0 e2 74 3e 65 4f 97 3d 99 ef 1b be e4 b8 40 3d
       0.23914647 0.0738819 -0.15228118 0.047051325
000200 93 d9 83 3d 39 73 46 3e 16 6b b5 3d 98 a2 4f 3e
       0.06437983 0.19379891 0.08858316 0.20276868
000210 eb a5 12 be 65 ff 8e bc 0f 21 2d 3e 89 44 09 be
       -0.14321105 -0.017455766 0.16907142 -0.1340505
000220 a1 80 81 3e 41 51 4b bd 34 ca 86 3d ab 2c 4a bb
       0.2529345 -0.049638037 0.06581536 -0.0030849378
000230 f1 9d 01 be 3b 8c 9e 3e f6 e7 0c 3e 21 a4 e4 bd
       -0.12657906 0.30966362 0.13760361 -0.111641176
000240 21 ac 39 bc 42 16 88 be e7 9a 66 3d 8c 14 e3 bd
       -0.011332543 -0.2657948 0.05630007 -0.110879034
000250 1b 9c 3e 3e c0 e0 59 bd f0 ce 08 be 7f fc 89 3e
       0.18614237 -0.053192854 -0.1336019 0.26950452
000260 0a 67 91 be f1 39 df bc 3b 17 85 3d bc 51 3c 3e
       -0.28398925 -0.027249308 0.064985715 0.18390554
000270 44 4a 43 3e 69 3f 96 bd 10 04 57 3d e4 fb dc bd
       0.19071299 -0.07336313 0.05249411 -0.10790232
000280 22 86 b3 bd e9 63 2f 3e 4d a7 0a 3e 00 ca 08 be
       -0.08765818 0.17127956 0.13540383 -0.13358307
000290 88 96 21 3d 9f b5 08 be 95 dc 73 3e f0 bd 9f 3d
       0.0394502 -0.13350533 0.23814614 0.077998996
0002a0 6c 80 61 3e 9d 2b f8 bc 5a 1e a8 bd fb ec 12 bd
       0.22021645 -0.030294234 -0.08208914 -0.035870533
0002b0 8b 05 ce bd f3 a0 77 3e 7a d8 d8 bd fa 57 ea 3d
       -0.10059651 0.24182491 -0.10588165 0.114425614
0002c0 ef c3 80 be d2 fa 3e be e2 8a 3b 3e c0 5f c9 bb
       -0.25149485 -0.18650368 0.18314698 -0.0061454475
0002d0 8d 08 d9 bb f6 0f e3 bc 4b 46 0c 3d cd 15 2d bd
       -0.006623334 -0.027717572 0.034246724 -0.04225712
0002e0 c6 20 58 3d 01 ff 98 3d d9 79 02 bc ea 4d 74 3c
       0.05276563 0.07470513 -0.007963621 0.014911154
0002f0 43 70 43 3e 92 71 0c be 33 d4 e0 bd 18 56 00 3c
       0.19085793 -0.13715199 -0.10977974 0.007833026
000300 42 49 a4 3e f9 2d 20 be 3c 06 65 3e 7c de c4 bd
       0.3208714 -0.15642537 0.2236566 -0.09612748
000310 71 19 eb bd ec 32 9c 3d 2f 7d 38 be df ae c3 bd
       -0.11479462 0.076269 -0.18016504 -0.095548384
000320 c4 23 bc bd 5b b9 df 3b 8a af 3e 3e 60 cc ce bd
       -0.09186509 0.006827516 0.1862165 -0.10097575
000330 f8 e4 24 be e8 be 89 be b6 29 6d 3e e1 77 67 3e
       -0.1610297 -0.26903462 0.23160443 0.22604324
000340 88 de 81 3e 2e 8c cf be 37 fa 2e be 1c 33 b3 bd
       0.2536509 -0.40536636 -0.17087637 -0.08749983
000350 4e 88 83 bd 74 e7 18 3d 84 f2 1b be b6 52 96 3e
       -0.064224824 0.037330106 -0.15229231 0.29359978
000360 01 2c 1b bd 4d 87 01 3e c3 1c 22 3e 16 fa 23 3e
       -0.037883762 0.1264927 0.15831284 0.16013369
000370 e3 9f 88 bd 25 4b de bc 05 d5 03 bd ac 84 e6 bd
       -0.06671121 -0.027135441 -0.032185573 -0.11255774
000380 aa 16 b4 3e 07 a5 1e bf ff 63 b7 3d 8a 1a 7c be
       0.3517354 -0.6197056 0.089546196 -0.24619499
000390 2b 5b b3 3d e0 9f b6 bd ae 3e 65 bd d5 b5 99 bd
       0.08757623 -0.089172125 -0.05596798 -0.07505385
0003a0 b5 1a 10 be be 83 45 3e 94 3d 77 bd fb ed ae 3d
       -0.14072688 0.19288537 -0.06036146 0.08541485
0003b0 df 1e 62 bc 49 da d0 bd f3 6c 1e 3e 94 a8 49 3e
       -0.013801306 -0.101978846 0.15471248 0.19693214
0003c0 34 7d f5 bd 16 3e d8 be a2 5b 94 3d 00 e8 13 bb
       -0.11986771 -0.42234868 0.0724404 -0.0022568703
0003d0 fd e5 ef bd e2 b8 41 3e 0d 5f ce 3d 6e e3 00 3e
       -0.11713789 0.18918183 0.10076723 0.12586758
0003e0 04 e2 43 be d1 da a5 3d d4 df dc bd 9a 96 b7 3b
       -0.19129187 0.080983765 -0.10784879 0.00560267
0003f0 8a ba 12 3e c3 23 7f be 56 a8 2d 3e 69 be 8d 3d
       0.14328972 -0.24915986 0.16958746 0.069210835

model.encoder_gnn.lin_skipsum.0.0.bias f4 [16]
000000 64 50 f7 3d 3e 91 3e be e2 97 cd 3b 79 f4 72 bc
       0.1207588 -0.18610093 0.0062742094 -0.014828795
000010 ef 00 6b 3c 8d 2e 42 bd 47 1d 71 bd 40 08 a8 be
       0.014343484 -0.047407676 -0.05886581 -0.32818794
000020 08 22 1e be 38 20 55 bd 89 b2 07 be 7e 0c ce 3d
       -0.1544267 -0.05203268 -0.132517 0.100609764
000030 66 5e 0b bd 61 70 16 be 48 54 4d be 04 14 35 be
       -0.034025572 -0.14691307 -0.20051682 -0.17683417

model.encoder_gnn.gnn.0.0.edge_encoder.weight f4 [16, 9]
000000 11 55 6b be b5 17 29 be 65 ee a6 3e 25 96 f2 3e
       -0.22981669 -0.1651295 0.32603756 0.47380176
000010 ef c0 90 be 94 d4 b3 ba 25 05 0a 3e 1f 7b c7 3c
       -0.28272197 -0.001371997 0.13478525 0.0243507
000020 d6 b7 ea 3c 1a c5 b4 be e3 85 a9 3d 8c af f0 3d
       0.028652113 -0.35306627 0.0827749 0.11752233
000030 88 8a 1c 3f 78 6d 12 be 9b ed a4 be 2e 66 b7 bd
       0.6114888 -0.14299572 -0.3221253 -0.08955036
000040 9c a2 ae 3d ad 95 8c bb 16 79 78 3e 69 3c 94 3e
       0.08527109 -0.0042903037 0.2426494 0.2895234
000050 0b 7a 42 be 8b 26 9d be b7 84 a1 3d b5 b9 c2 bd
       -0.18991868 -0.30693468 0.078866415 -0.09508077
000060 b6 34 21 bf c5 ec a6 3d a6 e7 cd bd fb a5 41 3e
       -0.62971056 0.08150629 -0.10053949 0.18910973
000070 ee 6b b7 3d a5 3a 63 3e b9 d1 cb bd ab 7e 95 3e
       0.08956133 0.2219034 -0.09952111 0.29198202
000080 c7 4b 26 be 2f ab 57 3f fb 32 ff bd 7d 51 33 bd
       -0.16239844 0.8424558 -0.12460896 -0.043778885
000090 48 bf 5a bd d5 57 6a 3e dd 46 50 3d 86 b2 e0 3e
       -0.053405076 0.22885068 0.05084883 0.43886203
0000a0 0e 90 1e be ea df bc 3e f9 cd 36 be d4 95 89 3e
       -0.1548464 0.36889583 -0.1785201 0.26872122
0000b0 f6 91 07 be 80 cf 22 be 6b fc 8a be d7 e6 07 bf
       -0.13239273 -0.15899467 -0.27145705 -0.5308661
0000c0 79 6a 8f bd 19 6b 49 be 09 02 06 3f 6f a0 96 be
       -0.0700273 -0.19669761 0.52346855 -0.29419276
0000d0 57 09 af 3e 37 29 28 3c 24 4f d5 3c ec 1f 68 3e
       0.34186813 0.010263733 0.026038714 0.22668427
0000e0 ea af 93 bd 58 79 82 be 6d bc b9 3d 16 0a f9 3c
       -0.07211287 -0.25483203 0.090691425 0.030400317
0000f0 03 62 0f 3e 52 c1 76 bc 62 cc a8 3d 25 fe ab be
       0.14002232 -0.01506074 0.08242108 -0.33592334
000100 7c 07 0a bb b1 1b a9 3e f3 51 d8 3d 99 5d 77 be
       -0.002106159 0.3302894 0.105625056 -0.24156798
000110 40 7a 9a 3e 3e 08 23 3f 87 9a 74 3c 23 f9 7a be
       0.30171394 0.6368445 0.01492942 -0.245091
000120 7e 4b 61 bc 53 ea 76 3e a9 2c 34 bc 07 78 b5 be
       -0.013750909 0.24112825 -0.010996976 -0.35443136
000130 20 c6 b6 3e a9 2c 5f bd 8a 26 0b bf 08 9d 8e 3a
       0.35698032 -0.05448595 -0.5435568 0.0010880539
000140 76 81 88 3e 47 0b a6 3d 3c 12 d2 3d d2 87 8e be
       0.2666127 0.0810762 0.10257384 -0.27837998
000150 66 dd 86 be aa f9 a3 3d 98 23 f4 bc 16 07 4a be
       -0.2634079 0.08006604 -0.029802129 -0.19729266
000160 2c 8c 27 3e 99 19 1e bb 61 7b d5 3d 3e 59 d1 3d
       0.16362065 -0.0024124144 0.10423923 0.102221
000170 9e 89 08 bf 58 58 1e be 98 67 76 bc 34 73 64 be
       -0.5333499 -0.15463388 -0.015039347 -0.22309572
000180 af 2b af bd 03 39 fb bb ec 91 1f 3e de 52 18 be
       -0.08553254 -0.0076667084 0.15583009 -0.14875361
000190 e0 58 de 3c f3 e2 b6 3e 04 8e 05 be 05 8b f4 bd
       0.027141988 0.35720024 -0.13042456 -0.11940578
0001a0 fd 8c f0 bd 85 67 b8 3d e7 2b 6d 3e e8 1b 82 3e
       -0.117456414 0.0900412 0.23161279 0.25411916
0001b0 42 33 b8 bb 6b 74 9d 3e 95 d1 ec bd 76 43 38 3e
       -0.005621345 0.30752882 -0.11563412 0.17994484
0001c0 ae d9 76 be ad e5 a1 3e 27 2c 30 be d3 d3 95 3e
       -0.24106476 0.3162054 -0.17204343 0.29263172
0001d0 5d 32 31 3d b0 66 68 3e a3 65 86 bd b7 70 d0 be
       0.04326092 0.22695422 -0.065623544 -0.40710995
0001e0 9f 4c 31 be e1 c7 dc 3b ef 02 ce bb c2 a7 06 be
       -0.17314385 0.0067376946 -0.006286971 -0.13149932
0001f0 c5 dc 09 3e 4d 50 93 bc bc 9a 7c be 6e 1a 33 3c
       0.13463123 -0.017982626 -0.24668401 0.010931594
000200 8f 50 18 be b8 75 55 be d5 ef d3 3d 14 1e 5c be
       -0.1487448 -0.20845687 0.10348479 -0.21495849
000210 3a e8 30 3f 0a be 7e bc 88 4c ad be 55 0a c7 3d
       0.6910435 -0.0155482385 -0.3384745 0.097187676
000220 4d 38 9e 3e 00 77 31 be c2 b0 1e bf 50 ce 40 be
       0.3090233 -0.17330551 -0.6198846 -0.18828702
000230 07 8e cc bd aa f4 ba 3e 11 bb 6d 3e 39 16 93 3d
       -0.09988027 0.3651479 0.23215891 0.07181973

model.encoder_gnn.gnn.0.0.edge_encoder.bias f4 [16]
000000 b1 04 72 be 8b b1 67 3e 1e 2c 05 3c a7 41 03 bd
       -0.23634602 0.22626321 0.008128194 -0.032045033
000010 5e c4 79 3e 1c 1e f8 bc 42 d5 01 3e ed 7e 19 be
       0.24391314 -0.030287795 0.12679008 -0.14989825
000020 df 4b 14 bd 44 07 74 be 35 05 57 3c bb a1 b2 3d
       -0.03620517 -0.23830897 0.0131238 0.08722254
000030 81 8d 8b 3c fc 0d 3f 3d 39 1c 33 3e b7 b0 17 bd
       0.017035248 0.046644196 0.17491235 -0.037033763

model.encoder_gnn.gnn.0.0.pre_nns.0.0.weight f4 [16, 48]
000000 b0 8b 95 be fa 71 4f bd 57 3e e7 bd 4d 92 f9 bc
       -0.29208136 -0.050645806 -0.11291187 -0.03046527
000010 81 1d 3f 3e 98 1b 93 bd 5c 70 53 bd ab eb ce bd
       0.18663599 -0.071829975 -0.051620826 -0.10103544
000020 6b b0 03 3c 6e 33 02 3d 7a 18 00 be a8 ec 0b bb
       0.008037667 0.03178733 -0.12509337 -0.0021350775
000030 10 2f 18 be be e7 d3 bd a8 01 d4 bd de 0d da 3d
       -0.14861703 -0.10346936 -0.103518784 0.10647176
000040 a7 cb 09 bc 08 de 5c be 2b 2a f3 bc a2 09 ca 3d
       -0.008410371 -0.21569073 -0.029683193 0.098651186
000050 25 b9 80 3d 2a 8c 1d bd 72 26 aa bd 56 15 02 be
       0.062853135 -0.03846375 -0.08308114 -0.12703452
000060 b9 90 2f be 74 66 4f 3d 8b 5b 38 3d f8 f5 30 3c
       -0.17145051 0.050634816 0.045009177 0.010800831
000070 b2 2e df bc a7 38 43 be 8c 5d ac bc d0 5b 93 3d
       -0.027243946 -0.1906458 -0.0210407 0.07195246
000080 ec 73 b0 bd 9b 47 2f bc 86 5e 5d bd 0e 03 9c 3e
       -0.0861586 -0.010698224 -0.054045223 0.3047108
000090 a6 12 4d bd e8 8a a4 be 63 28 db 3d 70 9b 2d bd
       -0.050066613 -0.32137227 0.107010625 -0.042384565
0000a0 bc 82 ce bb 72 bd bf 3d cd c6 9a 3d 5d 2f f0 bc
       -0.006302206 0.09362306 0.075574495 -0.02931946
0000b0 97 ed de bd 2a 74 45 bd 44 83 35 3e 2f 82 09 be
       -0.108851604 -0.048206486 0.17725855 -0.13428567
0000c0 b0 df 59 3d 09 6e 1d be 0c f8 b0 bd ff a3 98 3d
       0.05319184 -0.15374006 -0.08641061 0.07453155
0000d0 5a fc 5b bc b1 21 bc bd e5 b5 a0 3d b3 4c dc 3d
       -0.0134268645 -0.091861136 0.07847194 0.10756817
0000e0 21 be 9d 3d d8 2e 24 3b 3b ff ae 3d 73 62 44 3d
       0.0770228 0.0025052335 0.08544775 0.04794545
0000f0 f7 17 e9 3d 0d e1 1f bd 59 48 79 3c b8 bc eb 3d
       0.11381524 -0.039032985 0.015215003 0.115106046
000100 dd 65 be bb f0 43 83 bd f8 09 75 bd 8f 7b e1 3d
       -0.005810483 -0.064094424 -0.05982396 0.11009895
000110 03 54 85 bd cf a7 57 bd 98 6d 8d 3d d3 a9 3e bd
       -0.065101646 -0.05265027 0.06905669 -0.046548676
000120 5a cb 3a bd 2f c4 d9 bd 7c ea 38 be ef 8e 44 bd
       -0.045604087 -0.10633122 -0.18058199 -0.047987875
000130 31 52 14 bd 3f 2b 0a bd a1 fb 4a bd 3c 53 30 3b
       -0.036211196 -0.03373265 -0.04955638 0.002690508
000140 cb c2 af bd ea 3f a8 bd d0 52 14 3c 54 12 9c 3d
       -0.08582076 -0.08215316 0.009052947 0.07620683
000150 8f 19 32 be ca 66 26 bd df c6 bf bc a1 69 26 be
       -0.17392562 -0.04062537 -0.023410259 -0.16251232
000160 6c 58 32 3d 77 60 bf bc 63 dd dd 3c c3 c4 22 3d
       0.043541357 -0.023361428 0.027083104 0.039738428
000170 29 00 0d be 29 98 07 bc 73 21 8b bd b9 bd 5c bd
       -0.13769592 -0.008276024 -0.06793489 -0.05389187
000180 f3 c0 18 3e 08 75 69 be 13 51 d1 3d 95 ae a1 bd
       0.14917354 -0.2279855 0.10220542 -0.07894627
000190 e5 3f 37 bd 61 c3 98 3d 94 33 13 3e 60 0f f6 b9
       -0.04473867 0.074591406 0.14375144 -0.00046932232
0001a0 9f dd 17 3d 30 68 42 3d 02 72 2a bd 66 05 2a 3c
       0.03707659 0.047462642 -0.041612633 0.010377264
0001b0 06 be 4d 3d 2e 13 04 be 33 77 ec 3d 4a fd da bd
       0.05023005 -0.12897941 0.11546173 -0.10692842
0001c0 66 39 35 3d 23 b0 23 be 4e b3 d0 3c 40 05 03 be
       0.044244193 -0.1598516 0.025476124 -0.12794971
0001d0 d9 8d 77 bc 8d db b5 3d 60 57 e4 bb 9f 25 27 be
       -0.015109503 0.088797666 -0.0069684237 -0.16322945
0001e0 c6 1d e8 3c 74 6c c3 3d a4 d0 29 3e 5e a3 4d bd
       0.02833451 0.0954217 0.16583496 -0.050204627
0001f0 fd 02 a0 3d ea d5 c3 3d 19 89 b3 bc d8 88 0d 3e
       0.0781307 0.09562285 -0.02191596 0.13821733
000200 94 43 ba 3c 5f 9c c6 bd 09 0f c1 3d 41 24 f5 3d
       0.022737302 -0.09697794 0.09426696 0.119698055
000210 10 8e b5 bd 3e d8 03 bc 92 c8 48 bd ba 1f de 3d
       -0.08864987 -0.008047162 -0.049019404 0.10845895
000220 4a 79 06 be 4e 9b 31 3c 69 af e4 3c ab 12 75 bd
       -0.13132206 0.01084025 0.027915673 -0.059832256
000230 f5 e5 d2 bd 9f f0 bd bd 84 f1 f1 3d 54 67 c3 3d
       -0.10297767 -0.092744105 0.118136436 0.09541193
000240 16 38 53 3e b6 f8 73 3e eb 83 36 3b 27 d5 10 3e
       0.20626864 0.23825344 0.0027849625 0.14143811
000250 de a2 b6 3d 55 30 e0 3d 7a 72 03 3d 6b 17 42 bd
       0.08917783 0.109467186 0.032091595 -0.047385614
000260 54 48 2e bc c8 6c d4 bd 5d 50 2e 3d 0b 55 83 bc
       -0.010637362 -0.10372311 0.04255711 -0.016031763
000270 c7 32 fd 3d 21 68 95 bc d6 ea 90 3d 54 60 60 be
       0.12363201 -0.01823813 0.070760414 -0.21911746
000280 f7 f9 06 3d 1d 6e de bd e5 58 6e 3d 0b 28 ec 3c
       0.03295323 -0.10860846 0.058190245 0.028827688
000290 a9 57 61 bd 7e 79 a6 bd 53 22 df bc 6a 3c ff bc
       -0.05501524 -0.081286415 -0.027238047 -0.031156737
0002a0 84 b1 ee bd 87 13 f6 bc 74 7e 2b bd 26 20 f3 3d
       -0.11654952 -0.030038608 -0.041868642 0.11871366
0002b0 a0 8c d8 bc 2b 1c d6 bd fb a4 0f 3e 2c c6 02 be
       -0.026434243 -0.10454591 0.14027779 -0.12770909
0002c0 7a e3 3b bd 62 84 42 3c d7 d5 01 be 11 95 d5 3b
       -0.045871235 0.011872383 -0.1267923 0.0065180142
0002d0 b8 5d a8 3d fa 9d 23 bd a9 4a d3 bc 92 4f ea bc
       0.082210004 -0.03994558 -0.025792437 -0.028602395
0002e0 48 05 d9 bd 03 80 1d be bb a1 0d 3d 37 8a ef bd
       -0.105967104 -0.15380864 0.034578066 -0.11696284
0002f0 f9 24 ba bc f8 94 b4 bd a2 b1 12 3d f5 37 cc bc
       -0.022722708 -0.08817476 0.035813935 -0.024929026
000300 3a c3 22 3e 3c a7 78 be 1f b7 bb bd 14 fe 07 3d
       0.15894786 -0.24282545 -0.09165787 0.033201292
000310 75 bb fe bd 9c d4 96 bd 7e 16 8b 3d c4 8b e5 bd
       -0.12438098 -0.07364771 0.067913994 -0.11208299
000320 b7 aa 74 be d4 28 83 bd e4 bd 64 3d 8c d0 5f 3c
       -0.23893248 -0.06404272 0.055845156 0.013660561
000330 89 6e 10 3d 74 65 67 be cd e7 fb bc 11 3e 7e 3e
       0.035261665 -0.22597295 -0.03075018 0.24828364
000340 9e ff 8e 3d 4a c9 d5 3c 9a a3 09 bd a1 9d 90 3d
       0.06982349 0.026096959 -0.03360329 0.07061315
000350 2f 2f 9a 3d f7 a6 d3 bd c3 5a 1d 3e 10 bb fc 3d
       0.07528531 -0.103345804 0.15366654 0.12340367
000360 53 ce 7e 3d ce 07 f8 bc e1 09 66 bd ca 75 1f bd
       0.062208485 -0.030277159 -0.056161765 -0.03893069
000370 88 7d 53 bd 3b 04 01 3e 36 05 d6 ba 47 cb 90 3d
       -0.051633388 0.1259927 -0.0016328457 0.07070022
000380 bd d7 f0 bd 48 f9 0d be 74 9a d7 3d 4a 38 ef bd
       -0.11759899 -0.13864625 0.105275065 -0.11680658
000390 62 82 b8 bc 5e 97 2d 3e 12 0a a3 bd 7b 8c eb bd
       -0.022523109 0.16952273 -0.07960905 -0.11501404
0003a0 3c d3 2a 3e f2 c7 8a 3c ba 8e fa 3c 0f 22 47 bd
       0.16682142 0.016941044 0.030585635 -0.048616465
0003b0 7b e6 3b 3c 9e ec d4 bb e4 64 26 be d6 65 00 be
       0.011468525 -0.0064979335 -0.16249424 -0.12538847
0003c0 47 43 13 3e 8f 86 fb bd 64 f2 4a 3e 1a 8d 84 3d
       0.14381133 -0.122815244 0.19819027 0.064722255
0003d0 ff e6 14 bd d8 f3 ce 3d 25 36 30 3d 45 4c 3a 3d
       -0.036353108 0.10105103 0.043020386 0.045482893
0003e0 62 45 25 3e db 05 4e be ee 3f a7 3d a8 e3 12 3d
       0.16139749 -0.20119421 0.081664905 0.03586164
0003f0 9e d1 02 3e 09 25 8b 3d 84 c3 10 3e e2 80 54 3e
       0.12775275 0.06794173 0.14137083 0.2075229

model.encoder_gnn.gnn.0.0.pre_nns.0.0.bias f4 [16]
000000 77 12 d6 3d fc 58 c4 3d ca de 28 be 18 08 5d 3d
       0.10452741 0.09587285 -0.16491237 0.053962797
000010 ea dc 05 3c de 91 b8 bd 8c ce a0 bd 6e af 16 3e
       0.008170346 -0.09012197 -0.07851896 0.14715359
000020 f1 77 43 bc c2 fd b8 3d 24 ba 2f 3d cd de da 3d
       -0.011930452 0.090327755 0.042902127 0.10687027
000030 8b 6d ac 3d d1 d5 be bd cd d3 e5 3d bc eb d5 bc
       0.08419331 -0.09318126 0.112220384 -0.026113383

model.encoder_gnn.gnn.0.0.post_nns.0.0.weight f4 [16, 416]
000000 31 b4 d2 bc ce cd 49 3e 74 52 03 3b 50 79 87 bc
       -0.025720688 0.19707415 0.002003816 -0.016537338
000010 5c ef 22 bd 50 0e 56 3d 93 07 dc bd 81 24 f7 bb
       -0.039779052 0.052259743 -0.10743632 -0.0075421934
000020 fb 64 af be 36 d6 e9 3d 92 67 83 bc 80 a0 90 bb
       -0.3425673 0.114178106 -0.016040597 -0.0044136643
000030 9f a5 2e 3d fb 7e 3c be 03 45 8d 3d ce c1 35 3d
       0.042638417 -0.18407814 0.068979286 0.04437428
000040 86 81 02 3d 74 6c c5 bd 0f 09 d2 bc c5 28 7f bb
       0.031861804 -0.096398264 -0.025639085 -0.0038934213
000050 2e f7 80 3c 0d d6 71 bd 1d 80 18 bc c2 dc 41 3d
       0.015742864 -0.059042025 -0.009307888 0.04732967
000060 39 51 b7 3a 63 85 9c 3c db 65 2b bd 03 73 07 3d
       0.0013985998 0.019106572 -0.041845184 0.033068668
000070 14 88 c9 3c b5 16 9a bd a0 da 9f bd 16 51 9f 3b
       0.02460102 -0.07523862 -0.07805371 0.004861961
000080 cc 7d 3e 3d 60 72 21 bd c7 97 68 3b f5 6d a8 bd
       0.046506688 -0.039415717 0.0035490857 -0.08224098
000090 8e 33 bc 3c 61 d4 9e bd 4a fc ec bc 5b 5e 72 3d
       0.022973802 -0.07755352 -0.028928895 0.059172016
0000a0 7e 1b 41 bb de 68 f3 bc da 24 e1 bd 4a f3 3c 3c
       -0.002946585 -0.02971309 -0.10993357 0.011532614
0000b0 ee 95 94 bc 03 84 16 bd 2e 2d bd bc e7 7e 88 3d
       -0.018137898 -0.03674699 -0.023092832 0.0666483
0000c0 16 51 31 3b a7 82 1b 3c 9c 41 8d 3d d6 a2 cf 3b
       0.0027056388 0.009491599 0.068972796 0.00633655
0000d0 9b 28 0a bd b2 d1 c4 bb 42 9d a3 bc db 5b 69 3d
       -0.03373013 -0.006006443 -0.019972447 0.056972366
0000e0 d6 45 d4 bb 41 ef 58 bc 55 0a a2 3c 2b 05 89 bc
       -0.0064780517 -0.013240636 0.019780317 -0.016726097
0000f0 51 0b 13 3c b5 5e 15 be c0 7f 21 3d 71 48 a4 3c
       0.008974866 -0.14586909 0.039428473 0.020054074
000100 df 6b 0f 3e ea 23 b9 3b fb 42 0e bd be b5 f9 bb
       0.14005993 0.0056500332 -0.034731846 -0.0076205423
000110 f5 e0 f1 bb dc 53 a7 bd 85 7f 15 3d 47 ed 7d 3b
       -0.0073815533 -0.08170292 0.036498565 0.0038746165
000120 97 85 fc 3c 17 81 9b bc a0 0c 4b bd 2a 7e af bc
       0.03082542 -0.018982453 -0.049572587 -0.021422464
000130 97 d3 09 3d ee 98 0e bd dc 25 46 be 99 ea 9f 3c
       0.033649053 -0.034813814 -0.1935038 0.019521045
000140 ab 90 bc 3d 79 5d b7 3c 4f 6f a1 bd fa 14 1e bc
       0.09207281 0.022383438 -0.078825586 -0.009648556
000150 21 eb 42 3d 0b 95 4c bd ea 4b 3c 3d 23 d8 42 bc
       0.047587518 -0.049946826 0.045970835 -0.011892351
000160 65 d8 8f 3d cc ba a0 3c dd 70 7c bd a9 d4 6e 3d
       0.07023696 0.019620322 -0.061631072 0.058308277
000170 07 2f 6f bb ee 2d 0d 3d 7c cc fd bd ff 9d da bd
       -0.0036496536 0.03446763 -0.12392518 -0.106746666
000180 97 cd b7 3d 80 32 95 bd 1e 3c 80 bb 3a 34 e4 bb
       0.0897476 -0.07285023 -0.0039134165 -0.0069642337
000190 e1 f5 17 3d 42 6d 39 bc e1 a3 5f bd 83 86 8d 3c
       0.037099723 -0.011317553 -0.054599646 0.017276054
0001a0 05 5e df bc 43 e5 00 3e 31 b4 93 ba 60 d6 fc b9
       -0.027266512 0.12587456 -0.0011268911 -0.00048224907
0001b0 bd ba 8c bc 6f 8b 0a be 25 82 f3 bd dd ef 37 bc
       -0.017178888 -0.13529752 -0.118900575 -0.011226621
0001c0 bf 4e d3 3d 4b 16 4a bd f8 3f 03 bd ee 49 89 bc
       0.10317754 -0.049337666 -0.032043427 -0.016758885
0001d0 d8 cd 48 3d dd bc e1 bc d4 58 9f 3c b3 10 9e 3d
       0.049024433 -0.027555877 0.019451536 0.07718029
0001e0 25 0f cf 3c 19 23 78 3c c0 c5 53 bc 1d 23 c4 bc
       0.025275776 0.015145087 -0.012925565 -0.023942525
0001f0 9f f8 e6 bc d4 42 6d bd 25 b2 14 bd 21 58 83 bc
       -0.028194724 -0.05792506 -0.036302704 -0.016033234
000200 f3 8c c0 bc 02 5d 25 3b 63 2d 90 3d 84 e0 37 bc
       -0.02350471 0.002523244 0.07039907 -0.011222962
000210 bc 23 87 3d a0 18 87 3c 88 28 44 bd b6 87 99 3d
       0.06598613 0.016491234 -0.047890216 0.07496588
000220 42 be 63 bd 38 71 97 3c 6a e7 e8 3d 84 c7 08 bc
       -0.055601366 0.018486604 0.11372264 -0.0083483495
000230 35 68 86 3d ec ff 31 be 14 64 b3 3d e0 1a 90 3d
       0.06562845 -0.17382783 0.08759323 0.07036376
000240 f7 24 10 3e 1c 3a 72 bc f6 55 1b bd 9d 6c 60 bd
       0.14076601 -0.014784362 -0.037923776 -0.05479108
000250 c0 b7 62 bc f4 3f ce bd 92 43 9f bc 37 88 e6 3c
       -0.013837755 -0.10070792 -0.0194414 0.028141124
000260 3a ae cb 3b fc fd 3b 3d 21 6d 6b bd 51 be a4 3c
       0.006215838 0.045896515 -0.05747712 0.020110281
000270 e6 f3 17 3d 41 0f 83 bd 7f 2d 63 be ca cf 22 3c
       0.037097834 -0.06399394 -0.22185324 0.009937236
000280 20 1e 66 3d 9a ec 5d 3d fd 87 d1 bd 96 13 2e bd
       0.056181073 0.05418072 -0.10231016 -0.042499147
000290 3e 50 6c bd 5c a8 90 bd 1a 6e 43 bd 78 73 93 38
       -0.057693712 -0.07063362 -0.047712423 7.031014e-05
0002a0 14 e7 a0 ba d8 4b 95 3d 0d 74 cc bd 6a fb 33 3d
       -0.0012275898 0.07289857 -0.099830724 0.04394094
0002b0 f7 56 9f bc 1d 7a e3 bc ff a7 29 be b6 67 fc bd
       -0.019450648 -0.02776819 -0.16567992 -0.12324469
0002c0 ef 5f 18 3d 91 0f b0 bc c6 73 4a 3d e7 82 4b bd
       0.037200864 -0.021491798 0.049426816 -0.049685385
0002d0 53 c9 0d 3b 93 e2 94 bd 90 0a 33 bd 85 b5 b5 3d
       0.002163489 -0.07269778 -0.043711245 0.08872513
0002e0 99 b1 5a 3b 56 4f 75 3c 70 2e 25 bd ce 45 9f 3c
       0.0033370017 0.014972528 -0.04032749 0.019442465
0002f0 a2 2f 83 3c 71 9e ef bd c7 39 78 bd ae 76 90 3d
       0.016013924 -0.11700142 -0.060601976 0.07053886
000300 9e 15 7d bd 42 bf 66 3d ca b7 0c bd 86 98 82 bd
       -0.061788194 0.05633474 -0.034354962 -0.06376748
000310 e7 b6 fb 3c 2a 2b 50 bd be 2f ab 3c 2f 4b bd bc
       0.030726863 -0.050822414 0.020896789 -0.02310714
000320 8f 0f 9e 3c ab b5 94 bc 3c 26 f4 bd 8a 0d 30 bb
       0.019294528 -0.018153032 -0.11921355 -0.0026863539
000330 f8 1e 66 bd 55 a5 88 3d a8 6a bd 3c 0d 92 5d 3d
       -0.056181878 0.066721596 0.023122147 0.054094363
000340 7e aa 66 bd e5 05 03 3d 57 ea 23 b9 07 7c 41 bd
       -0.056314938 0.031988043 -0.0001563219 -0.047237422
000350 e8 a9 28 3c f5 6f 68 bc 6c 48 1c 3c ad 3e 60 bc
       0.010294415 -0.014186849 0.009538751 -0.013686818
000360 13 22 60 bc ae 34 de bc ec 93 8c bd 54 28 28 39
       -0.013679999 -0.027124729 -0.06864151 0.00016036752
000370 1e f0 72 bd 86 5e 62 bd 76 73 b2 3d ae 32 eb 3c
       -0.059311025 -0.055265926 0.08713429 0.02871069
000380 c6 ee c2 3a 27 a7 c6 3d be 1a 3e bd ce 0f 2a bd
       0.0014872185 0.096998505 -0.046412222 -0.04151898
000390 8a 7b c1 bb e6 74 2e bd ae 4e c2 3d 06 1a a0 3d
       -0.0059046196 -0.04259195 0.09487663 0.078174636
0003a0 47 2a fd 3b 91 7b f3 bc 8f b1 b3 bd b5 3b d1 3b
       0.007725987 -0.029722007 -0.08774101 0.0063852915
0003b0 6f eb 9d 3c fd c6 06 bc a1 59 09 bd f9 86 68 3c
       0.019277303 -0.008226153 -0.033532742 0.014192336
0003c0 7f 43 5d 3e ac 00 d4 3d 7c c2 3e bd be 61 0b bc
       0.21607779 0.10351691 -0.046572194 -0.00850719
0003d0 94 2f b1 3d 66 0e 6d bc 94 e9 7c 3c d2 f5 61 3d
       0.08651653 -0.014468765 0.015436549 0.055166073
0003e0 a8 d1 bc 3c 52 67 17 3e ef b0 97 bd e8 5e 74 3c
       0.02304919 0.14785507 -0.07406794 0.014915206
0003f0 63 b6 a8 bd 72 18 9a 3d 83 87 40 bd f5 d3 f3 bd
       -0.082379125 0.07524194 -0.047004234 -0.11905662

model.encoder_gnn.gnn.0.0.post_nns.0.0.bias f4 [16]
000000 03 f1 cf ba b4 3d 4e 3c 18 73 c1 3b e9 b5 b4 bc
       -0.0015864674 0.012587953 0.005903613 -0.022059398
000010 1f d3 bb bc 6d 44 a4 bd d7 37 1f bd a0 1c 2e be
       -0.022927819 -0.08020864 -0.038871612 -0.17003107
000020 73 8a 20 bc 3e c1 08 bd 99 cd 01 be 5a 03 b8 3c
       -0.009798634 -0.033387415 -0.12676086 0.022462536
000030 05 7b 9f 3c a9 98 df 3c e1 bd 77 3d 44 43 40 be
       0.01946784 0.027294474 0.060483817 -0.1877566

model.encoder_gnn.gnn.0.0.lin.weight f4 [16, 16]
000000 7b 85 ed 3d d2 91 1b be e7 0e 5f be 07 c5 ab bd
       0.11597725 -0.15192345 -0.21783029 -0.08387189
000010 5c 7d 82 be 45 c1 94 3d 9f 63 99 3e 90 93 5a 3e
       -0.25486267 0.07263426 0.29958817 0.21345353
000020 19 1f 8b be 96 a0 dc bb 39 de 80 be 0e b6 0f be
       -0.27172163 -0.0067330105 -0.25169542 -0.14034292
000030 91 5c 8b 3e e5 c1 ec 3c b6 02 69 3e 79 d0 1a be
       0.2721906 0.02890105 0.2275494 -0.15118589
000040 47 38 08 3b 0d 6e 23 3d 28 d4 a9 be 74 c0 4f bd
       0.0020785497 0.039899874 -0.33169675 -0.050720647
000050 37 e7 75 3c 6a 3e 64 3d e7 b9 24 be 0d 6f 03 be
       0.015008739 0.055723585 -0.16086541 -0.12835331
000060 16 74 94 bd 74 1c 1f be 62 3b ca bd c2 7f 5f be
       -0.07248704 -0.15538198 -0.098746076 -0.2182608
000070 b6 08 28 be b8 66 12 3d d4 3f f8 bd 32 53 e8 3e
       -0.16409573 0.03574249 -0.12121549 0.45375973
000080 80 92 a6 3d a9 c5 57 be 08 e4 07 be c6 8b 11 bc
       0.081334114 -0.21071495 -0.13270581 -0.008883422
000090 8f d4 92 3d 98 01 28 be b1 86 fb bd 96 37 3d bd
       0.071694486 -0.16406858 -0.1228155 -0.04619559
0000a0 df ad 2f be db 53 a3 3d 5a f5 01 3e 91 7d 3c 3e
       -0.1715617 0.079749785 0.1269125 0.18407275
0000b0 bc 9c 13 be 2d 4e 32 3d 0e 8b 81 3d d7 74 31 bd
       -0.14415258 0.043531585 0.06325351 -0.043324318
0000c0 c2 3d 09 be 4c 7a a3 bd 7c e4 1d bd 12 cd 15 3e
       -0.13402465 -0.07982311 -0.038547978 0.1462901
0000d0 e4 e0 e3 bd 0c 4d 14 be 27 70 d5 3d 89 c9 2b be
       -0.11126879 -0.14482516 0.10421782 -0.16776098
0000e0 7b d8 18 be f0 66 95 3d 49 fa 4b 3e 4f 10 81 3d
       -0.14926331 0.072950244 0.19919695 0.06301939
0000f0 8c 25 07 3d 4a 1b a8 3d d7 a4 c4 3d e4 d1 ac bd
       0.032994792 0.0820833 0.09601753 -0.08438471
000100 cb 89 87 3e 62 4a 56 3e 80 f4 ed bd b5 da 11 be
       0.26472315 0.20926812 -0.116189 -0.14243586
000110 4e 07 87 be 05 fd 18 3e b8 91 24 bd 91 f6 fe bd
       -0.2637276 0.1494027 -0.04017803 -0.124493726
000120 b3 44 fe 3d 1f 92 1e be ce ba 0e be ab 72 c3 bd
       0.12415447 -0.15485428 -0.13938448 -0.095433556
000130 64 e3 8f bd c3 40 38 3e 45 ff 3e be 30 51 9f be
       -0.07025793 0.17993455 -0.18652065 -0.3111663
000140 7f ba a5 bb 31 57 25 bd 6f 8c bb 3d 7c 17 00 3e
       -0.0050576325 -0.040366355 0.09157645 0.12508959
000150 45 94 2c bd dc c1 2a be b6 e4 ca bd 28 68 c7 3e
       -0.04213359 -0.16675514 -0.099069044 0.38946652
000160 0f 28 e4 bd f2 df 80 be 34 2e 03 3e c1 0e 86 be
       -0.11140453 -0.25170857 0.12810594 -0.2618313
000170 a8 57 f1 bd e9 ca 91 3e c2 9c 45 3c 4a 75 5c bd
       -0.11784297 0.2847512 0.0120613 -0.053822793
000180 75 e8 11 3c d8 52 2f be a3 23 01 3d cf 81 af bd
       0.00890552 -0.17121446 0.031528126 -0.08569681
000190 82 9e ed 3d 8a e8 9e bd 85 a1 bb 3d b5 42 41 be
       0.116024986 -0.07759197 0.09161667 -0.18873103
0001a0 da 34 94 bd b4 44 36 be 09 43 28 be 9a d4 ae bd
       -0.07236643 -0.17799646 -0.16431822 -0.08536644
0001b0 53 c1 62 3e 56 b4 28 3e 02 6f 56 3c 14 0b 30 be
       0.2214406 0.16475043 0.01308799 -0.17191726
0001c0 66 ff 9b bd ef 10 7a be 53 04 82 be ec 79 4d be
       -0.07617073 -0.24420522 -0.25393924 -0.20066041
0001d0 61 d4 09 3d fb 00 ed 3e 34 45 3e 3c 0c f4 a4 3e
       0.033649806 0.4628981 0.011613179 0.32217443
0001e0 94 30 f4 bd d7 c1 85 be c8 42 d1 3c f1 95 e7 bc
       -0.11923328 -0.2612445 0.02554454 -0.02826974
0001f0 fc 2e 3f 3e 06 0a 58 be 0e a5 3c bd 80 82 dd 3d
       0.18670267 -0.21097574 -0.046055846 0.108159065
000200 5b a6 5a bd 9e dc ca be c6 2b ab ba 38 a6 2b 3e
       -0.053381305 -0.39621443 -0.001305931 0.16762626
000210 01 ce 78 bd c6 0b b3 3e 59 5a 36 bd be 47 aa 3c
       -0.060743336 0.3496992 -0.044519756 0.020786162
000220 a3 a3 64 3e d7 c0 b0 bb 51 5b 0a 3e 88 65 17 3e
       0.22328047 -0.005394082 0.13511397 0.14784825
000230 df 0a 84 3e 6a ee 18 be 79 f6 53 bf 9a 8e 8e 3b
       0.25789544 -0.14934698 -0.8279796 0.0043504955
000240 94 09 b0 3c 3b 31 fa 3d c6 67 b7 3d d7 df aa 3d
       0.021488942 0.12216421 0.0895534 0.08343475
000250 0b 66 c1 bd 18 b4 a5 bd 26 3e ee bc 65 b7 80 3e
       -0.09443291 -0.08090991 -0.029082369 0.2513992
000260 02 b8 48 bc 9e c0 19 bd e4 1b 74 3e 61 ff bf bd
       -0.012250902 -0.03753721 0.23838764 -0.093748815
000270 c7 38 31 3e 00 b1 4a 3e dc 94 bd 3d 97 69 7d 3d
       0.17306815 0.19794083 0.09256908 0.061868276
000280 82 60 d0 3d d8 ea 50 be 8f ee 30 be e6 6a af be
       0.101746574 -0.20402086 -0.17278503 -0.34261245
000290 b3 66 b9 bd e0 13 1a be 6a 57 d0 3e 18 b3 cf bd
       -0.090527914 -0.15046644 0.40691692 -0.10141581
0002a0 88 47 e3 3d 7f e2 46 3e 3e 8e f1 3e 60 c6 0c be
       0.11097628 0.19422339 0.47178835 -0.13747549
0002b0 68 19 41 be ef ca 37 bc 61 bc 29 be 33 46 ee 3d
       -0.18857348 -0.011217817 -0.16575767 0.11634483
0002c0 d1 dd c2 bc 03 d1 2a 3e 4e c2 65 bc 63 a9 a9 b9
       -0.02378741 0.16681294 -0.014023377 -0.00032360395
0002d0 7d b3 85 3c 08 09 9b 3b 2f 03 1c be ca b9 65 be
       0.016320938 0.004731301 -0.1523559 -0.22434154
0002e0 66 dd 06 3d 73 8e 23 be 3d 26 f2 3d 15 c8 3e 3d
       0.032925986 -0.15972309 0.118236996 0.04657753
0002f0 ff 0c dd bd 4a 6c 43 3d c9 a2 5c 3d 45 34 89 be
       -0.107934944 0.047710694 0.05386618 -0.2679769
000300 ba 20 e5 3d 03 56 5b be 05 cb 82 bd 4c 01 b8 3d
       0.11187883 -0.2141953 -0.06386379 0.08984622
000310 33 a6 3e 3e cf 6d 44 3e e2 b4 00 bd 44 2f 58 be
       0.18618087 0.19182514 -0.031422503 -0.2111178
000320 e6 00 47 3d 2a 13 55 3d 7a ee 54 3d e5 1e 39 be
       0.04858484 0.05202023 0.05198524 -0.18078192
000330 d2 2e 12 bd 0a dc 3f 3d af 66 0f 3e 40 c3 77 3e
       -0.035689183 0.046840705 0.14004014 0.24195576
000340 f3 db 80 be c8 09 12 be eb 46 e4 3d fb ce aa be
       -0.25167808 -0.14261544 0.11146339 -0.3336104
000350 2a 95 19 be 08 bb 50 3e 67 2b e0 bd d5 9f d3 bd
       -0.14998308 0.20383847 -0.10945778 -0.1033322
000360 97 16 2c ba e0 9c 67 3e c8 19 2c bd 23 bf 4a be
       -0.00065646454 0.22618437 -0.042016774 -0.19799475
000370 f2 ed 02 be fa 63 70 3d 0d 49 e0 bd 32 32 df 3d
       -0.12786081 0.058689095 -0.10951433 0.10898246
000380 36 5d 37 bd e2 3d 2d 3d 26 b9 d2 3d 50 ac 50 be
       -0.044766627 0.042295344 0.102892205 -0.20378232
000390 a5 71 a5 3d 8e 4d 90 3e 7d 57 a8 bd c2 15 ec bc
       0.080783166 0.2818417 -0.08219812 -0.028818969
0003a0 27 bf e3 bd 25 d3 a6 3d 85 a7 48 3d 9a 6b 34 bd
       -0.11120444 0.081457414 0.048987884 -0.04404793
0003b0 1f 48 8e be cd 85 bb bd b0 b3 74 bd 7a 78 77 bd
       -0.277894 -0.0915638 -0.059741676 -0.06041763
0003c0 2d d2 c5 3d d7 29 67 3e 7e 14 58 bd 60 df 4d bd
       0.096592285 0.22574554 -0.052753918 -0.050261855
0003d0 2f 6f 6e bc 16 69 58 bc 7a 7b 04 3d a0 3d 0f 3d
       -0.014552875 -0.013208648 0.03234432 0.03497088
0003e0 f2 6d 3a 3e 0f 13 d1 3b bd 56 df 3d 94 98 22 bc
       0.18206003 0.006380446 0.10905216 -0.009924073
0003f0 cc dd fa bd 65 40 82 be 63 1d 74 bc b7 77 fb bd
       -0.12249336 -0.25439754 -0.014899584 -0.12278693

model.encoder_gnn.gnn.0.0.lin.bias f4 [16]
000000 83 4d 8e be 40 76 87 be a7 c6 89 3d fd 2f ae 3d
       -0.27793512 -0.26457405 0.06727343 0.08505247
000010 94 8d 4f bd 3a c6 7a be 42 83 76 b9 5d 8c d1 3d
       -0.05067213 -0.2448968 -0.00023509286 0.1023185
000020 9c 47 cc be e4 86 7a 3d a1 19 dd 3d d8 3f fe 3d
       -0.39898384 0.061163798 0.10795904 0.12414521
000030 8e 83 fc 3d 9e 29 ff 3b da ed 74 bd 0c da 4f be
       0.123297796 0.0077869436 -0.059797145 -0.20298022

model.encoder_gnn.post_nn.fc_layers.0.0.weight f4 [8, 16]
000000 67 35 b2 3b fb e6 df bb 04 cd b6 3b 11 2c f6 3b
       0.005438495 -0.006832955 0.005578639 0.0075125773
000010 1a 8b 1d 3b 83 f8 80 bc dc 3f dc 3b 05 2f f8 3a
       0.002403921 -0.0157435 0.00672148 0.0018934911
000020 93 3e a7 3b 3a 81 8b bb 71 74 18 3c f0 1d 6b ba
       0.005103895 -0.0042573484 0.009305106 -0.00089689996
000030 f9 2e d4 bb 91 b5 83 bb 69 12 5e bc 18 57 01 bc
       -0.006475326 -0.004019447 -0.013554194 -0.0078943
000040 e7 f0 19 3e bb e1 02 be ef c9 0c 3e 6a a2 04 3e
       0.15033303 -0.12781422 0.13748907 0.12952581
000050 07 2c c7 bb 5c 9c bf bd 9e a1 11 3e 7d 17 6d 3c
       -0.0060782465 -0.09355995 0.14221808 0.014470932
000060 9a 60 2c 3e b7 f8 15 be 79 41 35 3e 88 4a 12 bb
       0.16833726 -0.14645658 0.17700757 -0.0022322256
000070 b8 ca 13 be 07 69 12 be 34 96 08 be 24 e0 06 be
       -0.144328 -0.14297877 -0.13338548 -0.1317144
000080 4b f7 1e bb 86 d1 9d 3b a6 8e 9d 3b fb 42 1e 3a
       -0.0024256285 0.004816237 0.004808265 0.00060372025
000090 aa 59 c4 bb 05 1f 1b 3c 53 64 21 3b 3c ff 18 3a
       -0.005992134 0.009467845 0.0024626448 0.0005836373
0000a0 dd 65 fd 3b 12 aa a7 3b f6 cb 97 3b 67 03 14 bb
       0.0077330903 0.0051167095 0.0046324683 -0.0022585036
0000b0 c7 95 8c 3a 7a 9f 02 3a 96 e7 dc 3b a3 01 7f 3b
       0.001072579 0.00049828703 0.0067414744 0.0038910888
0000c0 d4 52 fc bd 14 58 08 3e e8 c5 0a be 85 93 ea bd
       -0.12320486 0.13314849 -0.13552058 -0.11453918
0000d0 c7 bb 0c bc ca b3 f5 3d 1e b5 f3 bd 37 c6 98 bc
       -0.0085896915 0.11997183 -0.1189978 -0.018649204
0000e0 62 8e 13 be 6e fb f6 3d ad fa 1f be cf 56 09 3d
       -0.14409783 0.12059675 -0.15622969 0.033530053
0000f0 58 65 1e 3e a2 92 1d 3e e4 e6 dc 3d c4 b9 1d 3e
       0.15468347 0.15387967 0.107862264 0.15402895
000100 62 55 91 3a e2 55 5f 3a b0 62 04 b7 87 2f 81 3a
       0.0011088068 0.00085195724 -7.890791e-06 0.0009856083
000110 31 d5 0e bb 15 ec 6d ba 0c 6b a3 ba 3c 52 44 3a
       -0.0021794552 -0.00090760115 -0.0012467816 0.00074890605
000120 a0 79 b6 3a 14 5b 28 3a 49 6b 23 3a cb c7 4a b9
       0.0013921745 0.0006422263 0.0006233943 -0.0001933865
000130 78 ad 1c b9 a8 e6 63 38 11 3d a5 39 86 47 f7 3a
       -0.00014941941 5.4335833e-05 0.0003151675 0.001886592
000140 85 8d e2 3d 59 5f 70 3d b2 3f af bd 3b 43 91 bd
       0.11062149 0.05868468 -0.08557071 -0.07092901
000150 0e aa ae be 77 cb 92 bb f5 ee e2 bd 36 38 56 3e
       -0.34114116 -0.0044798213 -0.11080734 0.2091988
000160 df cc b5 3c 16 52 a9 bb a2 ca de 3d 7e 6f 64 be
       0.022192417 -0.005167256 0.10878493 -0.22308156
000170 b6 64 95 bc 73 8c ba 3d 58 7e c7 bc 56 44 90 bd
       -0.0182365 0.0910882 -0.024352238 -0.07044284
000180 98 07 57 3a 78 87 8f b7 70 1a 4d 3a 0c d3 be 3a
       0.00082027307 -1.7110011e-05 0.0007824069 0.0014558746
000190 d8 5c 32 ba a3 50 8f 3a 50 53 1d b8 9c b6 a3 38
       -0.0006803996 0.0010934066 -3.7509308e-05 7.806459e-05
0001a0 0e a0 76 39 be 73 94 3a a0 4d 49 3a d4 e8 a3 38
       0.00023520013 0.0011325998 0.00076791085 7.815813e-05
0001b0 86 7b fc b9 76 46 ee 39 8d 42 97 b9 eb cf 91 39
       -0.00048157218 0.00045447395 -0.0002885055 0.00027811466
0001c0 77 ee cc 3d c0 18 a8 3d 6a 1f cb bd 1d 89 af bd
       0.10006421 0.08207846 -0.09918101 -0.08571074
0001d0 02 98 b5 be 3c 01 8f bc e6 b9 b9 bd 91 84 31 3e
       -0.35467535 -0.017456643 -0.090686604 0.17335726
0001e0 4e 5a 27 3d db 5b 41 3c f7 13 b6 3d 46 3f 6e be
       0.040857606 0.011801685 0.08890527 -0.23266324
0001f0 1a 8c 4b bd be 9c af 3d c5 ff c0 3c 7d 3c 76 bd
       -0.049694158 0.08574818 0.02355946 -0.06011628

model.encoder_gnn.post_nn.fc_layers.0.0.bias f4 [8]
000000 2c 7f be 3b 40 3f 91 3d 9f 41 64 bb e2 c2 da bd
       0.0058135 0.07092142 -0.0034829152 -0.10681702
000010 31 b4 29 bb 9b 89 4e bf f2 3f fc ba b1 4a 36 bf
       -0.0025894756 -0.8067872 -0.0019245131 -0.7120772

model.decoder_gnn.pre_nn.fc_layers.0.0.weight f4 [16, 4]
000000 77 3e ca bb cc 5f a8 be 6a 65 4d 3c 8a b1 e3 3e
       -0.006171997 -0.32885587 0.012536386 0.4447139
000010 65 a3 59 bc c5 64 97 be af 66 b1 3c 66 66 91 3e
       -0.013283585 -0.2956907 0.021655409 0.28398436
000020 b4 24 a4 3c 8e 58 cc be d6 53 d4 3c ea 8f fb 3e
       0.020037033 -0.39911312 0.025918882 0.49133235
000030 09 08 a2 bc 6e db aa be 47 17 ea bb 47 3b 8a 3e
       -0.019779222 -0.33370537 -0.007143888 0.2699835
000040 a3 2b 19 3c 54 48 cf 3e 9c 31 5e 3b 4a 5b 93 be
       0.009348783 0.4048487 0.0033904081 -0.28780586
000050 c0 fc 27 bc 13 6c 70 be d4 0b a3 ba 2f a4 5a 3e
       -0.010253131 -0.23478727 -0.0012439438 0.21351694
000060 c6 0e ec 3b 4a 20 9f be 70 4a 12 3a 7e 66 b1 3e
       0.0072039096 -0.31079322 0.000558055 0.34648508
000070 0b 57 e3 3c 1b 92 b9 3d 39 b5 8b 3a 92 09 6b be
       0.027751466 0.090610705 0.0010658867 -0.2295287
000080 dd df 0b bd 52 b8 00 bf 32 98 bc bc 63 ff d1 3e
       -0.03414904 -0.5028125 -0.023021791 0.41015157
000090 d7 6f 7d 39 7b 65 7a 3e 51 41 5c bb 08 d5 81 be
       0.00024169624 0.24452774 -0.0033608268 -0.25357842
0000a0 f6 2e 7d 3c 15 b4 04 3f 33 2c fd ba de 88 81 3d
       0.015453091 0.51837283 -0.001931554 0.063249335
0000b0 45 db 54 3d cb 09 0c 3e 87 fd 81 bb 76 54 21 bf
       0.051966924 0.1367561 -0.0039669904 -0.630195
0000c0 82 e5 09 bb d4 a7 10 bf 1e ee 10 bd 42 04 c0 bc
       -0.0021041338 -0.56506085 -0.035383336 -0.02343953
0000d0 4e c8 a2 bb 1d 37 93 3c 9a e7 2b 3c 8f a3 04 3f
       -0.004967726 0.017970616 0.01049223 0.5181207
0000e0 88 58 b8 bc e2 59 00 bf 4c 28 12 3d 3c 97 c2 be
       -0.022503152 -0.5013715 0.03568296 -0.38006008
0000f0 76 04 14 bd a2 98 c7 be 82 2a 07 bb 23 58 bd 3e
       -0.036137067 -0.38983637 -0.0020624702 0.36981305

model.decoder_gnn.pre_nn.fc_layers.0.0.bias f4 [16]
000000 d1 20 86 3d 40 39 91 3e fb 8c 2c be b1 57 4d 3d
       0.06549228 0.2836399 -0.16850655 0.050132457
000010 e9 54 c8 bc e8 77 80 3e 9d ff f0 3d c7 67 44 bd
       -0.02445455 0.2509148 0.11767504 -0.047950532
000020 ba 3a 1d be 73 99 4a bd a7 f1 7c be 83 a3 c8 be
       -0.15354434 -0.049462747 -0.24701558 -0.3918725
000030 98 9a 96 be 8e d4 92 be 9b 98 de be 01 5d 8e 3e
       -0.2941482 -0.2867779 -0.43475804 0.2780533

model.decoder_gnn.lin_skipsum.0.0.weight f4 [16, 16]
000000 5a 89 5d 3e 53 06 92 3d ff 87 c1 3d 03 7f 18 3e
       0.21634427 0.071301125 0.09449767 0.14892201
000010 d6 9f c6 bd a8 df c6 3d a0 76 83 be 80 4f 5a bd
       -0.09698455 0.09710628 -0.2567644 -0.053298473
000020 7c 09 0b 3e e4 3c 9c be 2c 46 c6 bb fc 21 68 be
       0.13577837 -0.30515206 -0.0060508456 -0.22669214
000030 88 73 2d 3c 8e af 45 3e 41 bc a5 bd 02 36 be bd
       0.010586627 0.1930525 -0.08092547 -0.09287645
000040 d5 9e 30 bd ac 98 6a 3c 63 4c 89 3e db d4 30 3e
       -0.043120224 0.014318626 0.2681609 0.17268698
000050 e2 82 5d 3d 43 5c 00 3e ab bc 80 3e 70 3b c4 bd
       0.054079898 0.12535195 0.25143942 -0.09581649
000060 e9 2d 35 bd 4c 09 5c 3c be a1 a6 be 95 d0 ef bd
       -0.044233236 0.013429951 -0.32545274 -0.11709706
000070 c3 ca b3 3d 96 bb 3f 3e 88 1b 04 be c6 05 6a bd
       0.08778908 0.18723902 -0.12901127 -0.057134412
000080 c8 25 a0 3d 8b a2 94 bd d6 53 09 3d e8 ca e8 bd
       0.07819706 -0.07257565 0.033527218 -0.11366826
000090 f9 0a bd bd 31 e6 47 bd 1e 5e 0e 3e 9f 8c 71 be
       -0.092306085 -0.048803512 0.1390309 -0.23588799
0000a0 69 5e 1f 3e 09 ad 56 be c9 86 0a be a1 d2 a5 bd
       0.15563358 -0.20964445 -0.13527979 -0.08096815
0000b0 0e 36 1f bc 95 a6 50 3e 2a b0 ba bc f1 e7 fe 3c
       -0.0097174775 0.20376046 -0.02278908 0.031116458
0000c0 33 64 1e be de 11 8e 3c a5 27 41 be fd 62 6e be
       -0.1546791 0.017342504 -0.1886278 -0.23279949
0000d0 41 6e 8e 3d 7b 43 be bc d2 de fe bd f6 75 3c 3e
       0.06954623 -0.023225537 -0.12444843 0.18404374
0000e0 bb cb 46 3d 2e 0a 56 3e e1 04 62 bd 13 55 11 3e
       0.048534136 0.2090232 -0.055180434 0.1419261
0000f0 0e 61 84 bc a3 04 80 3d c1 95 a5 bd 46 7c 2a bd
       -0.01615956 0.062508844 -0.08085204 -0.041622423
000100 2f b0 6a 3e c2 d5 3d 3d 8e c1 52 bc f3 c4 df 3c
       0.22918771 0.046346433 -0.01286353 0.027315592
000110 f2 24 2f be 2d 83 e9 3d df f7 d9 3d c6 5f 8c 3c
       -0.17103937 0.11401973 0.10642981 0.017135512
000120 ca 66 d3 3b 11 d1 4e be 94 e3 f9 bd 84 31 f2 3d
       0.0064514624 -0.2019694 -0.1220161 0.118258506
000130 5b 9e 8b 3e 4d c5 9c 3e 9c 06 3d bb 32 97 d6 bd
       0.27269253 0.3061928 -0.002884305 -0.10478057
000140 15 45 10 3e 4e 08 8f bd 8f 1d d2 bc 3d 4b 0c be
       0.14088853 -0.06984006 -0.02564886 -0.13700576
000150 c1 57 f3 bd 1b 3e 19 be 06 37 01 be 1e 02 3b 3c
       -0.11881972 -0.14965098 -0.12618646 0.011414079
000160 46 3b 12 be e3 19 a2 3d 5a 12 90 3d 4d e4 0d 3e
       -0.14280424 0.07915094 0.0703475 0.13856621
000170 d0 1c 2e be e7 e4 94 3d 8e a9 53 3d 91 de bd bd
       -0.17003179 0.07270222 0.05167537 -0.09270967
000180 e5 f1 b1 bd 58 a4 1a bd 2b d1 34 3e 6b 66 9c bd
       -0.08688716 -0.037754387 0.17657916 -0.07636722
000190 15 b8 af 3d fb ff 3e 3d a1 d9 13 bd 61 ea 5a be
       0.08580033 0.04663084 -0.03609622 -0.21378471
0001a0 ce 98 48 3e 2d 4e e2 bc 37 2f dd bd e4 a2 95 bd
       0.1958954 -0.027625168 -0.10800021 -0.073064595
0001b0 3d e2 36 3e 74 ef 32 bc 40 5f 55 3d 03 cb 5f 3e
       0.1785974 -0.010921348 0.05209279 0.21854787
0001c0 26 e2 81 be 80 62 95 3c 23 d4 2d 3d 2c 5d 11 3d
       -0.2536785 0.018235445 0.042438637 0.035489246
0001d0 4e f2 e3 3d f6 d1 06 3c d2 a9 b4 bd 6d 95 49 3d
       0.111302 0.0082287695 -0.08821453 0.04921477
0001e0 87 ab 09 be 06 28 c9 bd 5f 36 91 bd 5a 7c 06 3d
       -0.13444339 -0.09822087 -0.070904486 0.032833435
0001f0 85 c6 90 be 03 3f 12 3d 68 78 34 3d 6e 5d e0 3c
       -0.28276458 0.035704624 0.04406014 0.0273883
000200 bd 1b b6 bd 71 83 8d bd c6 15 8a bd b5 52 b2 bd
       -0.088920094 -0.06909836 -0.06742434 -0.08707181
000210 a0 83 a8 3c fd 6e 43 be d1 ba 2a be 75 7c 33 3d
       0.020570576 -0.19085307 -0.16672827 0.043819863
000220 a0 2e 32 be 11 5a 2c 3e 37 27 62 3c f9 93 61 3c
       -0.17400599 0.16831233 0.013803295 0.01376819
000230 32 1b 97 3d f1 3c 9e bd 80 93 ba bd 56 95 30 3e
       0.07378234 -0.077264674 -0.09110165 0.17244467
000240 89 e5 cc bd 03 df 23 be ba d6 eb bd 91 52 50 be
       -0.10004718 -0.16003041 -0.11515565 -0.20343997
000250 dd e8 68 3d 0b 43 7c bd 68 eb c4 bd 00 a8 d2 bc
       0.0568627 -0.061587375 -0.09615213 -0.025714874
000260 45 dc 26 3d f6 ab f4 3c 6c c5 09 3e 0e de 71 3d
       0.04073741 0.029867154 0.13454217 0.05904966
000270 71 2e 08 3d c0 03 5f 3e 6f 42 93 bd bb 16 4c be
       0.033247415 0.21778774 -0.071904056 -0.19930546
000280 da 0f d3 bd ee 0a e9 bd e6 3e 67 3e ff 29 95 3d
       -0.10305758 -0.11379038 0.22582588 0.07283401
000290 51 fc 8f be 24 05 49 3e 8d c1 d0 3d de 5f 33 3d
       -0.2812219 0.19630867 0.10193167 0.043792598
0002a0 3b 1c 33 3e db e6 75 3d a8 f4 0c 3c f2 b1 08 be
       0.17491238 0.060034614 0.0086032525 -0.13349131
0002b0 c0 88 9e bd ef 23 b4 3d f9 77 28 be d0 46 e9 bd
       -0.07740927 0.08795916 -0.16452016 -0.113904595
0002c0 4f 36 29 3e 43 c4 9f bd ba d5 25 3e 06 83 a8 3e
       0.16524623 -0.07801106 0.16194811 0.32912463
0002d0 32 03 24 be a5 f9 e7 bd 96 be 14 be 42 a4 ef 3b
       -0.16016844 -0.11326913 -0.14525828 0.007313282
0002e0 d4 07 ce bd d8 99 03 be 33 6a 93 be e1 71 70 bd
       -0.10060087 -0.12851655 -0.2879196 -0.058702353
0002f0 75 1f 89 bd 45 ba 6b 3e 90 95 a9 3d 92 2b 3a 3e
       -0.06695453 0.23020275 0.0828048 0.18180683
000300 36 44 2f 3e c6 18 36 3e 7f b3 15 be 80 b9 e5 3d
       0.17115864 0.17782888 -0.14619254 0.11217022
000310 14 91 1c be 53 f0 4b 3e c9 d1 db bd bd d0 81 bd
       -0.15289718 0.19915895 -0.10733373 -0.06338642
000320 50 1f a0 bc 57 0e d8 3c 3b 1a ec bd 60 2d 89 bd
       -0.019546181 0.026374025 -0.115284406 -0.06698108
000330 fb 19 4e 3e 78 e3 76 3e 46 71 aa 3c 8d bf 9d bd
       0.20127098 0.2411021 0.020805966 -0.07702551
000340 f3 12 8b 3d 47 20 4e be 01 02 d2 3d 55 68 81 bb
       0.06790724 -0.201295 0.102542885 -0.003949205
000350 dc b8 4a 3e 47 74 99 bd e1 78 14 bd 53 6e f7 bd
       0.19797081 -0.07492881 -0.03624809 -0.120815895
000360 cc f3 c4 bd 87 67 3f 3e 4c 41 5e bd 7e 72 09 3e
       -0.09616813 0.18691836 -0.05426149 0.13422582
000370 77 1c 53 be 4f 1b fb bd e6 a5 08 be 9b 50 86 3d
       -0.20616327 -0.12261068 -0.13344535 0.06558343
000380 1d b1 a1 3d 09 9f e9 3d 4d 4f 15 3d 9d 61 ec 3d
       0.0789511 0.11407287 0.03645258 0.11542056
000390 cb 79 0a 3e b8 9e 22 be 54 49 53 3d f8 b5 e3 bc
       0.13523023 -0.15880859 0.051583603 -0.02779673
0003a0 8c 98 bc bd 0c 3a 76 bd fe 15 14 be 88 55 f7 bd
       -0.092087835 -0.06011395 -0.14461514 -0.12076861
0003b0 c8 0d 02 3b 72 33 a8 bc aa f1 08 3e f4 28 66 3e
       0.001984464 -0.020532344 0.13373438 0.2247656
0003c0 09 18 39 be d6 59 4d be 07 dc 25 be e6 50 c2 3d
       -0.18075575 -0.20053801 -0.16197215 0.094880864
0003d0 dc 2f c1 3e 96 0a 17 3e 63 c1 08 3e 0b 06 1e be
       0.37731826 0.14750132 0.13355021 -0.15431993
0003e0 89 7b d5 bd 66 e2 42 bc 0e ef ea 3d 10 79 94 3e
       -0.10423953 -0.011894798 0.11471377 0.28998613
0003f0 9e dc 90 3d ea db 7b be 43 30 0c be f1 cd 07 be
       0.070733294 -0.2459561 -0.13690285 -0.13262154

model.decoder_gnn.lin_skipsum.0.0.bias f4 [16]
000000 ba 13 b6 3b f2 69 65 be 2a 4e ae 3d cf c8 f7 3d
       0.005556551 -0.22403696 0.08511002 0.12098848
000010 49 0a 24 be 1e 54 58 3e 7b 14 4d be 05 c1 24 3e
       -0.16019548 0.21125838 -0.20027344 0.16089256
000020 73 90 31 3e e4 ba 44 3e 06 3b 6a 3b 85 29 9d bc
       0.17340259 0.19211918 0.0035740747 -0.019184837
000030 28 13 de bd e0 b5 25 bd 94 01 1e be a1 4a 63 bd
       -0.108434975 -0.040456653 -0.1543029 -0.055491094
