_models_trained/vaca/trianglesens_non-linear/last.ckpt (torch, 121569 bytes, 37 tensors)

model.encoder_gnn.pre_nn.fc_layers.0.0.weight f4 [16, 1]
00000000: e7b2 b2be 7829 c73e 64d4 66be 603a 1ebd
00000010: 8082 bebd f8d6 babe e4e7 393f abfa 3fbf
00000020: ead7 0a3f 112a 6dbf 0ab1 9fbe 9386 dbbe
00000030: 941f 19bf e60d 0d3f b7d9 ecbe 78f2 55bf
-0.34902117 0.38898826 -0.22541958 -0.03862989 -0.09302235 -0.36492133 0.7261946 -0.74991864
0.5423571 -0.92642313 -0.31189758 -0.4287611 -0.5981381 0.5509933 -0.46259853 -0.835731

model.encoder_gnn.pre_nn.fc_layers.0.0.bias f4 [16]
00000000: 554f 18be 9055 fabd 5ff3 f93d b858 17be
00000010: 09da bdbe 24e1 d43d 0c43 df3d be63 f7be
00000020: 58cc c8bd 54ea 173f 98b0 e23d ccfb f43d
00000030: 452b 52be 2ec3 4cbe 50af 28bd 237d a43d
-0.14874013 -0.12223351 0.122046225 -0.14779937 -0.3708041 0.10394505 0.1090146 -0.48318285
-0.098046005 0.5934193 0.11068839 0.11962089 -0.20524319 -0.1999633 -0.041182816 0.080316804

model.encoder_gnn.lin_skipsum.0.0.weight f4 [16, 16]
00000000: 24e7 29be dd39 043d ceec 5ebe 8a5c 753e
00000010: 6b0b 773e 0424 9cbd e881 9b3e 1c32 dcbd
00000020: 23b7 6f3e c3c1 ecbd 08aa 7cbd ba8c 4bbd
00000030: 9cbe ee3d cb83 a83e 8277 f2bd ca7e bbbd
00000040: 67e3 9f3e effe a7be e9b8 b93e 56e9 413e
00000050: 13bd c93c eebb 043e d430 0dbe 5f29 ad3d
00000060: 295a 0cbe c36f d93d 1e30 c23d 3057 323e
00000070: 13b1 713e 213a a6be 69c6 b23d 0414 1d3e
00000080: 8f2b 9bbe 62c4 8b3e b1cb f4bb 2241 1f3e
00000090: 2c85 35be 315c d8bd 47a9 073e e6e8 ddbd
000000a0: 6d0c a23e ab55 19be 6d1a bdbd edb4 4abd
000000b0: a749 acbe 9615 773e 7286 85be a104 bebc
000000c0: 4fd3 65be 3eab 463e 1f5f 9cbe f4aa 7abe
000000d0: 93a4 4ebe 8b1c 45be 3be7 513e 9cbc 9fbe
000000e0: 062f 703e 2f44 7bbc 6a77 83be 4b68 fc3b
000000f0: 6be2 8fbe bd54 c93e d64e 4ebe 4587 11bd
00000100: eaa7 56be 54c1 33be 6d4a 97bd 80ea 69bd
00000110: 374a 94be 4244 ffbc da96 07be 1e51 11be
00000120: 3457 64bd c63b 8b3d febe f6bd 1f38 2bbd
00000130: e75c 3abc c064 bf3c 4c7a 28be 4c92 64bd
00000140: f9d9 f33e 8461 afbe 3b47 a13e ca2b 68be
00000150: d59f 55be e890 213e d984 dbbd 1d69 143e
00000160: 18d0 b7be e6d4 8a3d 8a5d f03d ce08 913d
00000170: e62c c23d 8e4b a6be ae81 5b3e 5cc8 c43d
00000180: 3b83 abbe bae0 3d3e 8bcd 06be 86c2 273e
00000190: 4b81 553e db88 81be 4e46 913e ee0a e3bd
000001a0: caec ad3e 5c99 543c 07cd 71bd e1ad 3abe
000001b0: e8de 76be e013 933e e446 0cbe e27e d4bc
000001c0: 96bc 0e3e aec2 9d3d 2882 703d 3c84 043e
000001d0: f416 103b 7120 343d 652c 1e3f ded1 a7bd
000001e0: f400 9e3e 8dc6 85bd ba95 41be a651 b8bd
000001f0: 3791 da3d bd98 b13e 890f 41be 5a4e fa3c
00000200: 8af5 36be 764f 133e 6857 02bd 98a2 4f3e
00000210: eba5 12be d086 08be dd88 813e 6653 57be
00000220: d381 b43e b107 4dbd d7de 7abd 1648 e3bd
00000230: 304b 6ebe 2e8e d23e 379a 02bd 7b97 1abe
00000240: 0352 d03d 10b0 61be c918 1f3e 8c14 e3bd
00000250: 1b9c 3e3e 0cad 993d 22f4 66be 77a9 7d3e
00000260: 59d8 b5be 60ca 273d 4e90 3b3e 7a7d 6f3e
00000270: dc42 6d3e da7c 76be 2005 073e fbff 88bc
00000280: d471 85be 22f1 b43c fd11 a43c 00ca 08be
00000290: 8896 213d a17e 32be 76d5 9f3e ece1 6cbd
000002a0: e983 a83e 4b54 efbc 973f 29be d814 d8bd
000002b0: 120a 42be c197 a53e ccf5 44be 4ce5 c83c
000002c0: 2fa5 84bd 384f 9dbe 696f 723e c05f c9bb
000002d0: 8d08 d9bb e0e0 4d3d 63a9 debe a94d 0f3d
000002e0: 4fa1 aebe 99b8 a13d 0e64 c23d 4bf3 be3d
000002f0: 1b67 763e ed32 ecbe 6ae5 4039 029f 643d
00000300: 1b59 da3e 150d f7bd ffb2 973e 7cde c4bd
00000310: 7119 ebbd 0863 203e 8a78 6bbe 6e6b 8fbb
00000320: 898b 5fbe 7d63 113d 10d2 883e 928f f8ba
00000330: fd89 11bd a725 cabe 3c8f 953e cf60 413e
00000340: c531 cc3e 9aaa dabe 5abb 693b 1c33 b3bd
00000350: 4e88 83bd 92bd 323e d6fe f8bd bb1b a23e
00000360: 12d6 12be 8cdb 043e 01e7 913e a444 7b3e
00000370: 4337 8b3d fa8d 30be 5b17 e63d 5f7d 6d3c
00000380: 91c1 f13e a06f 0abf cfb2 4d3e 8a1a 7cbe
00000390: 2b5b b33d 221a 1a3d a01b 97bd 8a57 043c
000003a0: f7e5 4cbe 39a4 173e 3ae5 ad3d 9288 2d3e
000003b0: 2526 b83d aa7f 55be 9cdb 6a3e 907f 3f3e
000003c0: 99a0 ea3b 37d0 d5be 12b9 423e 00e8 13bb
000003d0: fde5 efbd aa1e 823e 70ca c8bd e67d ec3d
000003e0: d01d adbe 2e52 d83d e7dc 493d f9f4 ce3d
000003f0: f6a6 373e 2ee0 c3be 7d8e 573e 541c d73d
-0.1659208 0.032281745 -0.21770021 0.23961082 0.2412545 -0.07624057 0.30372548 -0.10751745
0.23409705 -0.115603946 -0.061685592 -0.049694754 0.116574496 0.3291305 -0.118392006 -0.091550425
0.31228182 -0.32811686 0.36273888 0.18936667 0.02462629 0.12962314 -0.13788158 0.084551565
-0.13706268 0.1061702 0.09481834 0.17416072 0.23602705 -0.32466224 0.0872925 0.15339667
-0.3030667 0.27298266 -0.007470571 0.1555219 -0.17726582 -0.10564459 0.13248168 -0.108354375
0.31650105 -0.14974086 -0.09233556 -0.04948895 -0.33649942 0.24129328 -0.26079136 -0.023195567
-0.22443889 0.19401261 -0.30541322 -0.24479276 -0.20179968 -0.1924917 0.20498364 -0.31198585
0.23455438 -0.01533608 -0.25677043 0.0077028624 -0.2810243 0.39322463 -0.20147261 -0.035529394
-0.20962492 -0.17554218 -0.073872425 -0.057108402 -0.2896287 -0.031160478 -0.13241139 -0.141911
-0.055747226 0.0679851 -0.120481476 -0.041801568 -0.011374689 0.023363471 -0.16452903 -0.055803582
0.47627237 -0.34254086 0.31499657 -0.22672954 -0.20861752 0.15777934 -0.10718698 0.14493223
-0.3590095 0.067788884 0.11736591 0.070817575 0.0948122 -0.3247952 0.21436188 0.09608528
-0.33498558 0.18542758 -0.13164346 0.16382799 0.20850103 -0.25299725 0.2837395 -0.11086069
0.33969718 0.012976017 -0.05903342 -0.18230392 -0.2410847 0.287261 -0.13698918 -0.025939409
0.13939127 0.07703148 0.058717877 0.12941068 0.0021986337 0.04397625 0.6178649 -0.08194326
0.30860102 -0.06532011 -0.18904772 -0.08999948 0.10672229 0.34686843 -0.18853582 0.030554939
-0.17867103 0.1438578 -0.03182164 0.20276868 -0.14321105 -0.13332677 0.2529973 -0.21027908
0.35255298 -0.050056163 -0.061247673 -0.11097734 -0.2327087 0.411241 -0.031885352 -0.15096848
0.101718925 -0.22039819 0.15536799 -0.110879034 0.18614237 0.07503709 -0.22554067 0.24771677
-0.35516623 0.040964484 0.18316767 0.2338771 0.23170036 -0.24071065 0.13185549 -0.016723623
-0.26063406 0.022087637 0.020028109 -0.13358307 0.0394502 -0.17431118 0.31217545 -0.057832643
0.3291314 -0.029214999 -0.16528164 -0.10550851 -0.18949154 0.32342342 -0.19234389 0.0245234
-0.06476819 -0.30724502 0.23675312 -0.0061454475 -0.006623334 0.050263286 -0.43488607 0.034986172
-0.34107444 0.07896537 0.0949174 0.09323748 0.24062769 -0.46132603 0.0001839601 0.055815704
0.42646107 -0.12063042 0.2962875 -0.09612748 -0.11479462 0.15662777 -0.22995201 -0.0043768203
-0.21830572 0.03549527 0.26722765 -0.0018963686 -0.035531987 -0.3948185 0.29210842 0.18884586
0.3988172 -0.42708284 0.0035664649 -0.08749983 -0.064224824 0.17455128 -0.12157981 0.31661782
-0.14339474 0.12974375 0.28496554 0.24537903 0.0679765 -0.1724166 0.112349235 0.014495223
0.47217992 -0.54076576 0.20087741 -0.24619499 0.08757623 0.03762258 -0.07378316 0.008077512
-0.200096 0.1480874 0.08490987 0.16946629 0.089916505 -0.20849481 0.22935337 0.18701005
0.007160258 -0.41760418 0.19015911 -0.0022568703 -0.11713789 0.2541402 -0.09804237 0.11547451
-0.33811808 0.105625495 0.049282935 0.101053186 0.17934784 -0.38256973 0.21050449 0.1050345

model.encoder_gnn.lin_skipsum.0.0.bias f4 [16]
00000000: 5c4c 823d 88ff 2ebe 313b 893d c64c 0b3d
00000010: 9189 f53d 6c20 b4bd 6ce9 833c cffa 55be
00000020: 80e9 efbc 4109 85bd 6bfe 08bc 2da2 1cbb
00000030: a816 9abd db20 f8bd 8a3b 3dbe 0f75 22be
0.06362221 -0.17089665 0.06700743 0.034008764 0.11989129 -0.087952465 0.016102515 -0.20896457
-0.029286146 -0.06495906 -0.008361439 -0.0023900375 -0.075238526 -0.12115642 -0.18479744 -0.15864967

model.encoder_gnn.gnn.0.0.edge_encoder.weight f4 [16, 9]
00000000: daf9 f8bd 8328 a6bb 7b17 543e 5482 803e
00000010: 1e86 83bd f019 433e d6cc 533e 9a20 aa3c
00000020: 6bcd 933d cd90 65be ed3d 893d e7fc 01be
00000030: 4fe3 9b3e 6ed8 a4bd a639 a4be 37d3 62be
00000040: 208a 2e3b 2848 b1bd 778d 883d 9858 143e
00000050: 8fe7 3ebe 9ccc 61be 62a7 633d b648 5abd
00000060: edc0 fcbe 1fff f93c 2594 673c 755e 2b3e
00000070: f156 803d e8af 833e c5f2 9fbd f949 803e
00000080: 69a7 4abe 64cb 633f 4307 fdbd 785b 573c
00000090: f616 1ebe 9a39 973d 6d46 98bd 68ab c33e
000000a0: 9375 36be bcef 7b3e ebbe 47be 7987 523e
000000b0: e039 13be 2199 12be 4576 5dbe fb70 08bf
000000c0: c178 5f3d 6035 32be 7d45 013f 6916 a4be
000000d0: cdad 893e 38e8 653c 98bd f9ba 9d7b 913d
000000e0: f048 38bd f670 dabd 34c6 afbc 36d2 b0bc
000000f0: 0c39 543d 5d41 36bd c0ac bc3b c5bd b4be
00000100: 1d2c ab3d 4e92 c03e 395c 523d 6c87 56be
00000110: bb60 a53e 8494 2f3f 1c14 973c 76dc a7bd
00000120: 077a 403d cd5b 753e ea0a abbd 13d4 91be
00000130: 83b6 983e eb81 5cbd 5aed 23bf c493 bb3c
00000140: cfdc 3b3e 88fa 7b3d 5b74 333e 98f8 29be
00000150: 5b82 613d 69bc 033e 42fc cc3d db83 523c
00000160: b0d0 ec3d ed54 d23d 96c5 893d 64cd 27bc
00000170: 74df 08bf 6a09 0d3e f25d 77bb 377a eebd
00000180: 5db8 d03d 44a9 4d3d d28b 57bc cb23 cdbd
00000190: 3556 da3d b2be cc3e 90d2 10be 7dc2 19bd
000001a0: b9ee 173c c13f 9fbd 02ec a2bc d1da 963d
000001b0: b224 1abd c8af 763e 4246 6ebd c8e8 573d
000001c0: ea44 c7bd ed7b 143e 44ee 71be 8cd9 f43d
000001d0: 2a3b bd3d 59b0 0dbd eb47 34bd 9857 f9bd
000001e0: d970 01bd e30c a0bc 3764 26bc 697e 41bd
000001f0: 015d 29bd f6ee f4bc 475d 1abe c63b 14bd
00000200: 23c3 83be 8585 32be 7ebe 3abc 2dbe 34be
00000210: 844f 293f d558 01be 8f45 74be 2a30 9cbc
00000220: 2b5d 883e 6452 5cbd 73ce f3be 2ecf 48bd
00000230: 1f77 aebc 4718 ac3e 21c4 9c3d 234c 4e3d
-0.121570304 -0.0050707473 0.20712082 0.25099432 -0.06422065 0.19052863 0.20683607 0.020767499
0.07216915 -0.22418518 0.067012645 -0.12694131 0.3044686 -0.08049093 -0.32075232 -0.22150885
0.0026632622 -0.08656341 0.06667607 0.14486921 -0.1864302 -0.22050709 0.05557955 -0.053292
-0.4936594 0.030517159 0.0141344415 0.16735251 0.06266583 0.25720143 -0.078099765 0.25056437
-0.19790424 0.88982224 -0.12354901 0.013144366 -0.15438446 0.073840335 -0.07435308 0.3821671
-0.17818289 0.2460317 -0.19506423 0.20559491 -0.14377546 -0.14316227 -0.21627147 -0.53297395
0.05455852 -0.17403173 0.50496656 -0.32048348 0.26890412 0.014032416 -0.0019053696 0.071036555
-0.044991434 -0.10666077 -0.021456815 -0.021584611 0.051812217 -0.04449593 0.005757898 -0.35301033
0.08358023 0.37611622 0.05135748 -0.20950097 0.32300362 0.6858599 0.018442206 -0.081963465
0.046991374 0.239608 -0.08351691 -0.28482112 0.29826745 -0.053834837 -0.64034045 0.022897609
0.1834595 0.061518222 0.17524855 -0.16598737 0.055055957 0.12864842 0.10009052 0.01284882
0.115632415 0.102701046 0.0672714 -0.01024184 -0.5346596 0.13773122 -0.0037745205 -0.116444044
0.101914145 0.050210252 -0.013155894 -0.100165926 0.10660974 0.3998924 -0.14142823 -0.037538994
0.0092732245 -0.07775832 -0.019887928 0.07365955 -0.03763265 0.24090493 -0.05817247 0.052712232
-0.09729941 0.14500399 -0.23626047 0.11955556 0.092398 -0.034592006 -0.0440139 -0.1217491
-0.03160176 -0.019537395 -0.010155729 -0.047239695 -0.04134846 -0.029899102 -0.15074645 -0.036189817
-0.25734815 -0.17433746 -0.011397956 -0.17650671 0.66136956 -0.12631543 -0.2385466 -0.019065935
0.26633582 -0.05378951 -0.47618446 -0.049025707 -0.021297036 0.33612272 0.07654596 0.05036558

model.encoder_gnn.gnn.0.0.edge_encoder.bias f4 [16]
00000000: c888 a2bd 3502 ca3d 6b3b 86ba 2802 e9bc
00000010: a4ee 583d 7836 f2bc bf1a 913c 5841 82bd
00000020: 8ad1 66bd 5233 d2bd 9b40 0b3c 8b40 863a
00000030: 3c80 7fbd e121 ff3c 5321 023e 3e8a b3bb
-0.07936245 0.09863702 -0.0010241097 -0.028443411 0.05296196 -0.029566988 0.017712949 -0.063601196
-0.056352176 -0.10263695 0.00849929 0.0010242624 -0.062378153 0.031144084 0.12708025 -0.0054791262

model.encoder_gnn.gnn.0.0.pre_nns.0.0.weight f4 [16, 48]
00000000: 445e c8be 4c5b 43be 932b 1abe 4d92 f9bc
00000010: 811d 3f3e 03b7 07be 87f6 60bd 9058 15be
00000020: 86d8 67bd 8c3a 8c3c 890c 5cbe 852f a8bd
00000030: 4fa9 1bbe 8f2f d9bd 9a6a 12be 571e 523e
00000040: 5807 dcbc 475e 9dbe 6806 b23c a209 ca3d
00000050: 25b9 803d 29e5 883c b11a 2dbe 20cc d6bd
00000060: 4197 29be 717f c33c b637 073d 078d 843b
00000070: 2dcd 3fbc 866b 01be b2d5 d0bc 4755 b33d
00000080: 0036 56bd babd 573c a94e 92bd baba ce3e
00000090: dca1 edbd 0813 bcbe 8615 29b9 2c7a 9cbd
000000a0: 3458 6e3c a26a c23c e18e 583d 7af5 63bd
000000b0: 93fd 2fbe 1de0 f5bb 6146 523e 1a79 b0bd
000000c0: 020c cb3d 225b 72bd 8229 e2bc ffa3 983d
000000d0: 5afc 5bbc ecae 0dbd 3c46 d13d d8ad 4d3e
000000e0: bd3c 7c3d efa3 56bd 8a50 953d 7e13 803d
000000f0: 4a42 0a3e a861 bcbc 3781 6c3d e7fc 3c3e
00000100: 43c8 87be 292e 66bd 3e5d 47be 8f7b e13d
00000110: 0354 85bd f100 0cbe 8df3 56bd 8f3b bebd
00000120: 564b e1bc 8746 b3bd 1a82 5ebe aca6 08be
00000130: 341f 2fbe faee bbbd 1fac 38be dc12 8f3d
00000140: 7bb2 86bd 6cf1 d4bd bf8c 75bd 437a 183e
00000150: c2c0 30be 6acf d7bd 4376 09bd c989 2dbe
00000160: 6b22 d1bc a2f5 9439 bda3 9a3b 0e10 e6bb
00000170: 5931 e1bd 3543 b9bc e810 25bd 1914 b0bd
00000180: aca7 4e3e 8aaa 9abe b6da e53d 95ae a1bd
00000190: e53f 37bd a26e e23d 64b3 773e 3146 b13c
000001a0: a2d1 483d 7260 af3c 0c9e aa3c 1635 373d
000001b0: ece2 5f3d df20 cdbd 7534 193e 2302 38be
000001c0: 0f05 913d 2dd4 94bd 11c3 973d 4005 03be
000001d0: d98d 77bc 42f7 073e bb57 37bc 301a b2be
000001e0: 86bc 013c c432 033e 9b1a 5c3e ae87 aa3c
000001f0: a34f b33c 3982 8e3d d72f 48bd 9299 173e
00000200: 12e4 bf3b becd b8bd 4ed9 fe3d be22 023e
00000210: 4adb 85bd d869 4e3c 1987 bfbc 7865 093e
00000220: c8a8 a7bd 5919 203d e4fb 163d 4c07 c3bc
00000230: cbe6 2bbd b79a 2cbd 6def 103e 7285 0b3e
00000240: 2e29 a83e 8e00 f33e 10d8 bc3d 27d5 103e
00000250: dea2 b63d 4215 3f3e da8d 0e3d c43f 2a3c
00000260: 824c a1bd 9ba5 0fbe 7609 ef3d 0621 2d3d
00000270: 2ec6 3f3e 1f01 a2bd 80b5 313e b633 abbe
00000280: 197a 313d 5af7 adbd 1331 c93d 0b28 ec3c
00000290: a957 61bd 78cb 22bc 5f28 bfbd 0580 84bd
000002a0: 0370 f8bd d10f 8dbd e98c 613d d68a 213e
000002b0: 80e1 f63c 83cb dcbd 1d2c 0a3e 7bbc 01be
000002c0: 94b0 46bd 30f0 04b8 8420 25bd f909 593c
000002d0: c5b3 dc3d a6be afbc 808c 71bd a308 95bd
000002e0: f4fb 37be 57fe b2bd ab6c 9c3d 04e3 12be
000002f0: a465 c0bd 2d10 58bc ecef c8bb 39bd 38be
00000300: 813e bd3d de23 1abe 50a0 f9bd 14fe 073d
00000310: 75bb febd f3b6 03be a0a4 723e 5e0a fdbd
00000320: 8b92 aebe 80b2 85bd b4d2 dbbb d24c 08bd
00000330: 829c e1bc 30ad cdbe 4534 cbbd c456 c33e
00000340: e41f 37bd 8909 bd3c 23ea d6bd a19d 903d
00000350: 2f2f 9a3d 5bed b9bd 2cad 0e3d 8f4b 323e
00000360: 973c f83d a814 05bd 8120 d6bd 045c 82bd
00000370: 60e6 82bd ce4d 143e 4b49 5abd c202 5b3c
00000380: 6e5f a1bd 36e4 15be 7ad1 673d e326 d8bd
00000390: ffdf 40bd 1a49 183e 7aa8 42bd 7436 40be
000003a0: 4498 5b3e d357 82bc 5a40 dcbd 8a84 073d
000003b0: 8686 90bd b5bd 21bd de9f 33be 7b7b 2ebe
000003c0: ff51 caba 8c8a a3be 139d 493e 1a8d 843d
000003d0: ffe6 14bd ccfa f73d 122c 28bd 720b 92bb
000003e0: b88a 253e 1206 92be d96a f33d 17b7 843d
000003f0: 063a b23d d9f3 eb3d 95cb 033e 3f18 9a3e
-0.3913442 -0.19077796 -0.15055685 -0.03046527 0.18663599 -0.13253407 -0.054922607 -0.14584565
-0.056602977 0.017117761 -0.21489157 -0.08212189 -0.15201305 -0.10604774 -0.14298478 0.20519386
-0.02685897 -0.3073599 0.02173157 0.098651186 0.062853135 0.016710835 -0.16904713 -0.104881525
-0.16561605 0.02386448 0.033012114 0.004045132 -0.011706633 -0.12638673 -0.025492523 0.087565
-0.052297592 0.013167793 -0.071439095 0.40376836 -0.11603138 -0.3673327 -0.00016125114 -0.0764049
0.014547396 0.023732487 0.052870635 -0.055654027 -0.17186575 -0.007503523 0.2053466 -0.08616848
0.099144 -0.059168942 -0.027607683 0.07453155 -0.0134268645 -0.034590647 0.10218474 0.20085847
0.061581362 -0.052402433 0.07290752 0.06253718 0.1350185 -0.022995785 0.057740416 0.1845585
-0.26519975 -0.056196366 -0.19469163 0.11009895 -0.065101646 -0.13672234 -0.052478362 -0.09288704
-0.027501743 -0.087536864 -0.21729317 -0.1334483 -0.17101747 -0.091764405 -0.18034409 0.06986019
-0.06577011 -0.1039761 -0.05994868 0.14890389 -0.17261031 -0.10537608 -0.03356005 -0.16947092
-0.025529107 0.0002841177 0.004719226 -0.007020957 -0.109957404 -0.022615055 -0.040299326 -0.08597583
0.20181149 -0.30208236 0.112233564 -0.07894627 -0.04473867 0.11056258 0.24189526 0.021639915
0.049028046 0.021408293 0.020827316 0.04472836 0.05465977 -0.10016035 0.14961417 -0.17969565
0.07081043 -0.07267032 0.07410253 -0.12794971 -0.015109503 0.13277915 -0.01119035 -0.34785604
0.007918483 0.12812334 0.21494524 0.02081665 0.02188856 0.06958432 -0.04887375 0.14804676
0.0058560455 -0.09023617 0.12443791 0.12708566 -0.06535967 0.012598477 -0.02337985 0.13417614
-0.08186489 0.039086673 0.036861315 -0.02380719 -0.04196815 -0.042139735 0.14153834 0.13625124
0.32843918 0.4746136 0.09220898 0.14143811 0.08917783 0.18660453 0.03480325 0.0103911795
-0.07875921 -0.14028017 0.116717264 0.04226782 0.18727943 -0.0791037 0.17354393 -0.3343789
0.043329332 -0.08494444 0.09823813 0.028827688 -0.05501524 -0.009936206 -0.09333872 -0.0646973
-0.121307395 -0.06887782 0.055066023 0.15775618 0.030136824 -0.10781004 0.1349339 -0.12669556
-0.04850824 -3.1694944e-05 -0.040314212 0.013247007 0.10776476 -0.021453213 -0.058971882 -0.07277038
-0.17967206 -0.08739918 0.07637914 -0.14344412 -0.093943864 -0.01318745 -0.0061321165 -0.18040933
0.09240437 -0.15052745 -0.1218878 0.033201292 -0.12438098 -0.12862758 0.23695612 -0.12355493
-0.34096178 -0.06528187 -0.0067084674 -0.033276387 -0.027540449 -0.40171194 -0.09922079 0.38152134
-0.044708148 0.023075836 -0.10493877 0.07061315 0.07528531 -0.09078475 0.03483312 0.17411636
0.121209316 -0.032490402 -0.104554184 -0.06365207 -0.06391597 0.14482805 -0.053292554 0.013367357
-0.0787953 -0.14637837 0.056596257 -0.10554292 -0.04708862 0.14871636 -0.047523953 -0.18770772
0.21444803 -0.015911018 -0.107544616 0.033085383 -0.07056908 -0.03948756 -0.17541453 -0.17039292
-0.0015435814 -0.3194164 0.19688825 0.064722255 -0.036353108 0.121083826 -0.041057654 -0.004456931
0.16166198 -0.28520256 0.11885614 0.06480234 0.08702473 0.115211196 0.12870629 0.30096623

model.encoder_gnn.gnn.0.0.pre_nns.0.0.bias f4 [16]
00000000: 9f48 bf3d e17c c73d 612d 65be 4b58 de3d
00000010: 6045 b93b ed63 92bd 00f6 19be 5bf9 c13d
00000020: d0bf 813d 5bd2 d53d 9891 d53d f869 563e
00000030: bbf0 bb3d bfe8 06be 1b95 1c3e a93b a4bd
0.09340023 0.09740616 -0.22380592 0.10856684 0.005654022 -0.071479656 -0.15035248 0.09471389
0.063354135 0.10440513 0.104281604 0.20938861 0.09176775 -0.13174723 0.15291254 -0.08019192

model.encoder_gnn.gnn.0.0.post_nns.0.0.weight f4 [16, 416]
00000000: 7a29 83bc 683d bb3e be70 a53d 5079 87bc
00000010: 5cef 22bd fe03 593d 41c8 cfbe d411 a43c
00000020: 2abd 02bf 3fa5 803e fe72 fa3b 93fd 86bc
00000030: 3f9b f83c e9bf d0be 6771 66bc 5926 c93d
00000040: 0244 973d 7a3d 67be 750f 38bc 2a07 863c
00000050: 4076 3bbd 69e3 26be a19a 9fbd 880d 16bd
00000060: 4727 16bd 8378 f23c c752 abbd 37b2 37bb
00000070: b96d 333d 8516 73bd 8586 9abc 88fb b63a
00000080: 305b d43c 1e6c 6ebd b156 06bd 8460 94bd
00000090: cb76 32bd f11e bdbd 7f1a 95bd 9b47 9a3c
000000a0: f218 913d b28f a4bd 385a 5cbe 1523 e73c
000000b0: 9743 9dbb e45b 83bd 5210 3a3d 71a6 713d
000000c0: ca94 b5bd bf79 853d e785 513d dbd0 ad3b
000000d0: 4b11 62bd 11bc a63c ab15 f3bd 3922 8a3c
000000e0: dbd2 243e 2562 993c c0b4 acbd a49e 553c
000000f0: d564 b03d e772 4dbe 5dfe b73d 16d5 3d3c
00000100: fdf3 8b3e f59d 743d 8c32 94bd daeb d5bb
00000110: 6715 57bd 65f1 0abe 18fe 323e cbaf cc3d
00000120: c436 05be b2ac 00bd 82b1 2ebd 6014 11ba
00000130: 1538 183b c929 1cbc 2aed 07be 2377 053d
00000140: 494a 9b3e 46ae 223d c3ea 7bbd 4f4e 51bd
00000150: 53e2 e03c 9a2f 08be e93e 8d3e dc8c 163e
00000160: 74ad f9bd 6bae aebb e93f 3e3d 4166 a13c
00000170: e19e 8bbe 1b3e f03d 2dc4 dbbd 9ec2 abbd
00000180: 1b00 1a3e 4331 86be bf78 ea3c 784d cb3c
00000190: 5696 b8bc 514a 22be f033 ddbd c2c0 a9bd
000001a0: 6802 febd cc04 2c3e 6481 533b e9f6 74bd
000001b0: 479c 1fbc 904c d0bd a146 89bd 48af 6dbc
000001c0: 9339 033e 54cd 07be 6ccb 04bd 84d6 93bb
000001d0: 29f4 61bc 0301 c8bd 0617 69bd 290f d83b
000001e0: b77b 043d 0c5b 8139 6fea b3bd 3e12 28bd
000001f0: f666 0cbb 30d4 67bd 144f e13c f9f7 a2bc
00000200: 361e 77bd f7d6 813d 89d2 013e 86c1 57bc
00000210: 67e0 833d bcdd 9d3c 29a1 09be 4b36 373d
00000220: f827 e33d e85e e13d 44f1 7e3d c69b 043b
00000230: 5c66 303e 6afe 45be e0d9 203e 066a 813d
00000240: 92be 903e 6e8d e0bc 5e1d 7dbd 627d 5abd
00000250: ce23 90bd 41be 6dbe a040 6d3d cb61 e63d
00000260: 02fd 86be 79cd 493d e387 ffbc 3053 c1bb
00000270: 2376 1c3c 3ea7 b3bc 3ade 5bbe 8eea 073d
00000280: ef96 5b3e 2f9f 103d b91a f5bd 7fc0 9fbd
00000290: aa7e e2bd b44a 41be f092 fb3d 027b 023e
000002a0: 6dee 86be 5ab3 80bc b306 05bd 4013 c9bc
000002b0: 6999 96be 9477 053d 0ae8 40be 14ac cdbd
000002c0: f301 2f3d 6a5a aebd 7c9d 0d3d 2f7b 14bd
000002d0: d8f5 7fbd fdbb febd bdef cfbd f127 fb3c
000002e0: 4e87 003d d416 27bc 1113 fabd 4e4c 623c
000002f0: 3504 093d 6b7c 01be e684 a13b b28a 843d
00000300: 2ddf 07be ddd3 b73d f001 efbd aa93 3ebd
00000310: 46cf 22bd 2ec9 3bbc 3b4c 503d af87 febc
00000320: b969 1c3e 615e c5bd 3b08 6bbe 7ca1 513d
00000330: c4ed 9dbd e677 193c db4f bd3d dd92 263d
00000340: b60d 4dbe 9e93 ab3d 18c9 bebd 8643 1ebd
00000350: f2bc 0bbd 802c 1f3d 71b0 75bd ceea 3ebd
00000360: 05a4 1f3e 0e1e 5ebd 5a68 4bbe bf0e 613d
00000370: 381f 15bd bfeb 11be b6ef f83d 4d25 863c
00000380: 82f9 a73d 55e1 523e c353 e3bd 6f8f f5bc
00000390: 9ded 30bd ae6d 91bc f29d a03e 12dd 373e
000003a0: c961 1bbd 43e7 6bbd 6cfa c1bd ec0e 973d
000003b0: 379b 0abd a593 26bc bb37 873d b262 743c
000003c0: 2779 f23e 56c3 1f3e 8def c63b d159 62bd
000003d0: 6638 cf3d a4d8 7dbd d7db 9a3e 0d1e 783e
000003e0: f8d4 c8bd c5d8 443e 4bf1 963d b3a4 d93b
000003f0: bcb7 afbe 52fa 373e cc74 073c a39e c2bd
-0.016010989 0.36570287 0.080781445 -0.016537338 -0.039779052 0.052982323 -0.4058247 0.020028032
-0.5106989 0.25126073 0.0076431027 -0.016478335 0.030347465 -0.40771416 -0.014065123 0.09821767
0.07386018 -0.22582045 -0.011234154 0.016360838 -0.04576707 -0.16297688 -0.07793165 -0.036634
-0.03665855 0.02959848 -0.08365398 -0.0028029808 0.04380581 -0.05934765 -0.018862972 0.001396046
0.025922388 -0.058208577 -0.03279752 -0.072449714 -0.04357032 -0.09234417 -0.07280444 0.018832972
0.07084836 -0.0803522 -0.2151879 0.02821497 -0.004799317 -0.06414011 0.04542572 0.05899662
-0.0886627 0.06517362 0.05115309 0.0053044385 -0.055192273 0.020353349 -0.11869367 0.016862022
0.1609606 0.018723557 -0.08432913 0.013038311 0.08612982 -0.20063363 0.08984063 0.011586448
0.27334586 0.059720952 -0.072362036 -0.00652836 -0.052510645 -0.13568647 0.17479742 0.09994467
-0.13009173 -0.031414695 -0.042649753 -0.0005534347 0.0023226787 -0.009531447 -0.13274065 0.03258432
0.30330113 0.03971698 -0.061503183 -0.05110007 0.02745167 -0.13299409 0.2758706 0.14702171
-0.12191287 -0.005330851 0.04644767 0.019702079 -0.27269652 0.11730596 -0.10730777 -0.0838673
0.15039103 -0.2620946 0.02862203 0.024817213 -0.022532623 -0.15848662 -0.10800922 -0.08288719
-0.12402803 0.16798705 0.0032273168 -0.059805784 -0.009741849 -0.10170853 -0.067029245 -0.014507122
0.12814932 -0.1326192 -0.03242056 -0.0045116562 -0.0137911225 -0.09765818 -0.056906722 0.006593604
0.032344546 0.00024672633 -0.08784949 -0.041033022 -0.0021423674 -0.056598842 0.027503528 -0.019893633
-0.060331546 0.063398294 0.12677969 -0.013168698 0.06439286 0.01927077 -0.13440384 0.044729512
0.11091608 0.1100443 0.062241808 0.002023445 0.17226547 -0.19335333 0.15708113 0.063190505
0.28270394 -0.027411189 -0.061795585 -0.05334223 -0.07038079 -0.23217107 0.05792296 0.11249121
-0.26364905 0.04926822 -0.031192726 -0.0058998093 0.00954965 -0.021930333 -0.21471491 0.033182673
0.21444295 0.03530806 -0.119679876 -0.078003876 -0.110593155 -0.18876153 0.122838855 0.12742236
-0.2635378 -0.015710521 -0.032477092 -0.024545312 -0.29413918 0.03258474 -0.18838516 -0.10042587
0.04272647 -0.08513339 0.034574017 -0.03625029 -0.062490314 -0.124382 -0.10153148 0.030658694
0.031379037 -0.010198314 -0.12210668 0.013812138 0.033451278 -0.12645118 0.004929173 0.064717665
-0.13268729 0.089759566 -0.116702914 -0.046527542 -0.039748453 -0.011461539 0.05085395 -0.031070558
0.15274705 -0.09637142 -0.22952358 0.051179394 -0.07711366 0.009366965 0.09243747 0.040667403
-0.20024762 0.08377765 -0.09315699 -0.038638614 -0.03411574 0.038860798 -0.05998272 -0.046610646
0.15589912 -0.05422788 -0.19864026 0.054945704 -0.036406726 -0.14250086 0.12155096 0.016375208
0.08201887 0.2059377 -0.11099961 -0.029975621 -0.043195356 -0.017752495 0.31370503 0.17955425
-0.037935052 -0.057593595 -0.09471592 0.07375893 -0.03383943 -0.010167037 0.066024266 0.014916109
0.47358057 0.15601858 0.006071037 -0.055261437 0.10118179 -0.061974183 0.3024585 0.24230213
-0.098062456 0.19223316 0.07370242 0.006641948 -0.34319866 0.17966583 0.008267593 -0.09502914

model.encoder_gnn.gnn.0.0.post_nns.0.0.bias f4 [16]
00000000: 4768 d2bc 1eef a43d 5a62 21bd b632 09be
00000010: ad59 9bbc 2221 f6bd edd3 b3bd 5b26 86be
00000020: 957f 54bd 1eed 483b 825a 62be b6a8 b13d
00000030: d47b 3dbd 2a16 e83c c252 933c 9633 5bbe
-0.025684489 0.080534205 -0.039400436 -0.13398251 -0.01896366 -0.12018038 -0.08780656 -0.26201138
-0.051879484 0.003065891 -0.22104838 0.08674757 -0.04626067 0.028330881 0.017983798 -0.21406397

model.encoder_gnn.gnn.0.0.lin.weight f4 [16, 16]
00000000: 8f27 be3d 9d90 75bd b8ad 16be 80ce d0bc
00000010: f3e2 ebbd 0b7e d13d 7042 e33d ed00 203e
00000020: bf8e 64be 205e 223e 2be9 51be e127 93be
00000030: 6354 cc3d 89ca 913c 1289 9b3e 7d93 27be
00000040: 4166 a43c 05fd a33c 44e7 91be c121 43bb
00000050: ce04 91bc c24c c0bc a630 92bd 0dda 94bd
00000060: e941 8cbd 67bd ccbd 5c99 96bd 887c 82bd
00000070: 4e66 b4bd b039 5ebc c9e1 bdbd a19d df3e
00000080: 49e8 283d 7fa3 68be 41bf efbd 5ff2 b3bc
00000090: 87f3 7a3c cc81 15be c64b 17be bc9a 8cbc
000000a0: fa06 cabd bc02 143e 8fd9 bf3d 7701 123e
000000b0: 89c6 2cbe 9398 3b3d a737 803d 444b cdbd
000000c0: 3e1b 16be 2dba a5bd aefe 8c3c bd52 e63d
000000d0: 81dd 02be 0fdf c4bd 0245 113d 3bcb 4cbe
000000e0: 7404 05be b6db abbd 2802 813d 60b9 033d
000000f0: 0602 953d 656c 8b3d 984f d93d f0a3 d7bd
00000100: 8080 c23e 1643 5c3e 09e1 e6bd 11aa fbbd
00000110: 025d 35be ad4c 3d3e cff5 afbd c486 8bbe
00000120: 65a3 063e 80c6 14be 53b1 16bd 467f f5bd
00000130: c77d 08be 5e76 9a3e c1c3 d9bd d4e5 d8be
00000140: 0e9d 2f3d 4a1a 12bc fe09 e23d 187e 053e
00000150: 003b 17bd 637d 20be 10fb 85bd acdf bd3e
00000160: 5e9e bbbc 0c60 09be 1ba9 fe3d 5db3 4bbe
00000170: 62be 8ebb 57a9 073e 5222 81ba e6e1 8d3c
00000180: 9bc3 603b 91e7 6bbe 4dc0 65bb 0a40 90bd
00000190: 9070 1f3e b98a 87bd 78a8 063d ce39 80bd
000001a0: dcc1 87bd b740 f6bd 097d 0cbe cf05 c9bd
000001b0: 89ec 383e 2add dc3d 76e6 453d a004 2bbe
000001c0: 8801 4f3d 0992 5cbe 1679 c4bd 53c4 05be
000001d0: 359e 59bd abd3 f83e 4f93 c43b d1d2 ad3e
000001e0: e5d0 443d ea91 95be d679 783c ab07 853c
000001f0: f833 9b3e e83d f9bd 528c bf3b 1ebd 5a3c
00000200: 858b acbd effb b2be 1a05 293d 4037 fe3d
00000210: 5e73 8fbc db5b ad3e 6340 0ebe e181 2e3c
00000220: 7571 b93d 67c8 533d 146e 183e b66e 8d3d
00000230: e2df ed3d e7ef bbbd b019 2bbf 0857 cd3a
00000240: a7d0 ecbb 8182 b43d cdce a43c 30d2 5e3c
00000250: ff84 b6bd 386a 8ebc 4b79 03bd 7ad6 563e
00000260: 2535 c0bd 6c8a 69bc 12a4 773e 5394 cabd
00000270: d61d 343e 17c1 663e f806 a53c d117 253d
00000280: 473e e13d f4e1 71be d6dc 623c f57f acbe
00000290: c3e9 3abd fa5f 25be 30f7 093f 9c7e 89bc
000002a0: 1d1b 1b3e 9cf1 093d 446e bb3e ce93 36be
000002b0: 3fc3 16be ba6d 54bd 4741 a8bd 8058 3a3e
000002c0: 4e9b aebc 6a3f 443e d156 d9bb 7957 49bd
000002d0: 86e0 f53c f230 1f3e 6ae2 a7bd fd96 3cbe
000002e0: 9ea9 a43c bc28 37bd 5d64 263e 6aa2 19be
000002f0: 0600 96bd 86df 0cbe 8858 c73d e963 6fbe
00000300: a3b1 ee3d 6c92 3abe 681c 1ebc 1422 303e
00000310: 2942 f33d 468f 223e 8892 7d39 504a 21be
00000320: d83b ad3d 00cc 913d 8ee2 5f3d ee9e 27be
00000330: 101c 533c 84d8 4b3d eb80 0d3e 791e 9a3e
00000340: 28cc 43be 99fb 4cbe 40c4 be3d 066e babe
00000350: f2be 24be 50a5 523e 1192 0bbe 55df b1bd
00000360: d1ea 593d 3855 2f3e 8bc8 e2bc 5739 2bbe
00000370: 07c4 f2bd d518 453d 27be dabd 18f0 523d
00000380: 078c 05be 7d04 2f3d 0176 c63d 2b81 6cbe
00000390: 03f5 a53d 381b 213e 3f15 9cbd e2c5 1bbd
000003a0: 088d 22be 559e 913d d3ed 2e3b d0ce a73b
000003b0: fccb 93be ad7b b1bb 4e82 a8bd 7a44 aa3d
000003c0: 220a 7b3c 9a0e 683e b151 7ebd 0451 02bd
000003d0: d6c5 193b b0c7 3c3d 7894 22bd d0da ebbc
000003e0: 0c3f a83d e5b9 52bd cffd 853d eb66 9fbc
000003f0: 4b8e c8bd 9ead 13be 5bee 713c a171 39be
0.09284889 -0.059952367 -0.14714706 -0.025489092 -0.115178965 0.10229119 0.11096656 0.15625353
-0.22320078 0.15856218 -0.20499103 -0.28741363 0.09977033 0.017796772 0.30378014 -0.16364856
0.02006829 0.02001811 -0.28496754 -0.0029774758 -0.017702486 -0.023474101 -0.07138185 -0.072681524
-0.06848509 -0.09997063 -0.0735347 -0.06371409 -0.088085756 -0.013563558 -0.09271581 0.4367495
0.04123715 -0.22718619 -0.11706401 -0.021966157 0.0153168505 -0.14600295 -0.14774999 -0.017163627
-0.09864612 0.14454168 0.09367668 0.14258371 -0.1687261 0.045799803 0.06260615 -0.100241214
-0.1465883 -0.08092151 0.017211284 0.1124625 -0.1277981 -0.096128576 0.0354662 -0.19999401
-0.1298998 -0.08391516 0.062992394 0.03215921 0.072757766 0.06807784 0.106108844 -0.105293155
0.37988663 0.21509966 -0.11273391 -0.12288297 -0.17711261 0.1848628 -0.08591806 -0.27251256
0.13148268 -0.14528847 -0.036790203 -0.11987166 -0.1332923 0.30168432 -0.1063304 -0.42362845
0.04287439 -0.008917401 0.11037062 0.13036382 -0.0369215 -0.15672831 -0.06542027 0.3708471
-0.022902664 -0.13415545 0.12434598 -0.1989264 -0.0043561915 0.13248192 -0.0009852147 0.01731963
0.0034296277 -0.23037554 -0.0035057247 -0.070434645 0.15570283 -0.06618256 0.032875508 -0.06261025
-0.066287726 -0.12024062 -0.13719572 -0.09815561 0.18058981 0.10784371 0.048315488 -0.16700983
0.05053857 -0.21540083 -0.09593408 -0.13063173 -0.053129394 0.4859899 0.005999006 0.33949903
0.04805078 -0.29212886 0.015165767 0.016239008 0.30313087 -0.12170011 0.005845585 0.013350753
-0.08425049 -0.34957835 0.04126463 0.12412882 -0.017511066 0.33859143 -0.13891749 0.010651083
0.09054843 0.05170479 0.14885741 0.06905882 0.11614968 -0.09176617 -0.6683607 0.0015666196
-0.0072270217 0.08813954 0.020118142 0.013599917 -0.08912086 -0.017384633 -0.032098096 0.20980254
-0.093851365 -0.014254194 0.24183682 -0.09891572 0.17589507 0.22534595 0.020144925 0.040305916
0.109982066 -0.2362135 0.013846597 -0.33691373 -0.04563309 -0.16149893 0.53892803 -0.016784005
0.15147062 0.033677682 0.36607563 -0.1782982 -0.14722918 -0.051862456 -0.08215576 0.18197823
-0.02131429 0.19164816 -0.006632664 -0.049155686 0.030014288 0.15546015 -0.08197482 -0.18416972
0.020100411 -0.04471658 0.16249223 -0.15003362 -0.07324223 -0.13757142 0.09733683 -0.23377956
0.11654975 -0.18219918 -0.009650327 0.172005 0.118778534 0.15874967 0.00024182547 -0.15751004
0.0845868 0.07118988 0.05465942 -0.1636922 0.012885109 0.049767032 0.1381871 0.30101374
-0.19120848 -0.20017852 0.093147755 -0.36412066 -0.16088465 0.20570874 -0.13629939 -0.08685175
0.053202454 0.17122352 -0.027683517 -0.16721092 -0.118537955 0.048119385 -0.106808 0.051498502
-0.13041697 0.04272889 0.09690476 -0.23096149 0.08103373 0.1573304 -0.0762124 -0.038030513
-0.15874112 0.071102776 0.0026692047 0.0051210895 -0.28866565 -0.0054163546 -0.08227979 0.08313842
0.01532224 0.2266182 -0.062089626 -0.031815544 0.0023463867 0.046088874 -0.039692372 -0.028790861
0.0821515 -0.051446814 0.06542551 -0.019458255 -0.09792765 -0.14421698 0.014766301 -0.18109752

model.encoder_gnn.gnn.0.0.lin.bias f4 [16]
00000000: bf98 e2be 956a 5fbe 9acf 373d 0907 673d
00000010: ab36 30bd 896f 9fbe c38e 3ebc 889e 78be
00000020: 7d57 00bf ea97 7abd 0500 aebd c67b fe3c
00000030: 28b6 453d fd1c cabd f322 2e3d 0453 2fbe
-0.4425716 -0.21818002 0.04487572 0.056403194 -0.043020885 -0.31139782 -0.011630717 -0.24279225
-0.50133497 -0.061180033 -0.084960975 0.03106488 0.04826942 -0.0986881 0.0425138 -0.17121512

model.encoder_gnn.post_nn.fc_layers.0.0.weight f4 [8, 16]
00000000: 39bb 07bb 4fbf ab3a aeac abbb fa14 93bb
00000010: 2487 1a3b caa3 89ba d08e cabb b65b b0ba
00000020: f792 99bb fb10 8ab9 65af b6bb f315 043b
00000030: 72e5 c6b9 22d3 3b3b c438 d6b9 690b bcba
00000040: 05e3 b93d 7384 96bd 68af b73d d6d0 b03d
00000050: aaf8 093c b7dc b4bd c9ac b13d 3d75 3c3d
00000060: f30b a73d 4b74 aebd cb26 be3d c193 86bd
00000070: cb7b c9bd 25f8 afbd 3201 99bd 404b afbd
00000080: f42f 043c 2826 95bb 2b28 0b3c bca2 bf3a
00000090: 3e08 89ba c7cb b1bb 2080 8a3a b44a 663b
000000a0: 5080 183b dd47 06bc 6680 ae3a 7bd0 c4bb
000000b0: 346c d1bb bf25 65bb c4fe a8bb c30c 87bb
000000c0: 7ebf b0bd 145c 9a3d 5023 b6bd e4c0 a3bd
000000d0: 313b f1bb ef47 a73d 61e1 c5bd e394 4fbd
000000e0: 0dd8 b6bd 8fb2 c03d bf29 cfbd 4508 8c3d
000000f0: 2d50 ba3d f1fa ab3d 4375 923d 6d31 a73d
00000100: 728c ffb9 5e0a ccb8 29be 2538 19a9 d63a
00000110: 073e 0fba c80a 7db9 7769 1cb9 6342 d2b9
00000120: 70e5 7eba 1814 93ba c06b 78b9 6eb6 65ba
00000130: b227 9f39 4b44 00ba 9019 a0b9 fc53 873a
00000140: 1d75 f43d c7a6 a83d 8dc6 9bbd 06f7 19bd
00000150: 72e9 6dbe 8dce 753c b5c1 913c b6b1 313e
00000160: 24bd 8b3b 5fcc c2bc b685 033d 9d95 95bd
00000170: a23a 7a3c fc0b b53d e30d 473d 3bb9 e0bc
00000180: 01d3 fb3a a5eb 54ba 2c45 d2ba cfa4 72bb
00000190: f321 7ebb 1bdb 84ba 4dfd 0fbb f4b6 d138
000001a0: a469 5d3b 5872 bcb9 e03a af3a 40ce 1937
000001b0: 4cae 9dba a2de c9ba c13b 8bba 4418 dc38
000001c0: 1519 ff3d 0773 a43d cb55 67bd 1722 4fbd
000001d0: 07e7 81be e4d6 0d3d 0356 c23b 8ab1 323e
000001e0: ab10 aebc 341f 55bc 84e7 3e3d 873e b8bd
000001f0: e4be e4bb bd17 8a3d 22e0 533d 609b e2bc
-0.0020710959 0.0013103279 -0.005239091 -0.0044885846 0.0023579085 -0.0010501083 -0.0061815754 -0.0013455066
-0.004686709 -0.00026334063 -0.005575108 0.0020154684 -0.00037936453 0.002865978 -0.00040859554 -0.0014346662
0.09076504 -0.073494814 0.08969003 0.08633582 0.008421103 -0.088311605 0.08675534 0.046010245
0.08156576 -0.08518275 0.09284743 -0.065711506 -0.09838065 -0.08592252 -0.07470931 -0.08559275
0.008068074 -0.0045516677 0.0084934635 0.0014620642 -0.0010454727 -0.0054259035 0.0010566749 0.0035139741
0.002326984 -0.0081958445 0.0013313412 -0.006006298 -0.0063910726 -0.0034965125 -0.0051573236 -0.0041213944
-0.08630274 0.07537094 -0.08893454 -0.07995775 -0.0073617925 0.08168017 -0.09662128 -0.0506791
-0.08927927 0.09409057 -0.10115384 0.06837515 0.090973236 0.08397473 0.07151272 0.08163724
-0.0004874203 -9.729409e-05 3.9516166e-05 0.0016377299 -0.000546426 -0.00024131977 -0.00014916608 -0.00040103783
-0.000972352 -0.0011221198 -0.00023691263 -0.0008762841 0.0003035642 -0.0004892989 -0.00030536624 0.0010324712
0.119364 0.08234935 -0.0760623 -0.037589096 -0.23233584 0.015002859 0.017792562 0.17352948
0.0042644907 -0.023779092 0.03210994 -0.07303927 0.015272768 0.088401765 0.048597228 -0.027432075
0.0019212664 -0.0008122272 -0.0016042343 -0.0037024503 -0.003877756 -0.0010136099 -0.0021971047 9.999974e-05
0.003378489 -0.00035943347 0.0013368987 9.167532e-06 -0.0012030094 -0.0015401433 -0.0010622666 0.00010494937
0.12455956 0.08029752 -0.056478303 -0.05056962 -0.25371572 0.034628764 0.0059306636 0.17450538
-0.021248182 -0.013007928 0.04660751 -0.08996301 -0.0069807637 0.06742809 0.05172742 -0.02766198

model.encoder_gnn.post_nn.fc_layers.0.0.bias f4 [8]
00000000: 7a37 9c3b 7751 c53d ea56 d83b aab4 9ebd
00000010: ced2 9fb8 0193 99bf d1ca 0fbb 25e9 9bbf
0.0047673555 0.09634679 0.006602158 -0.07749303 -7.620976e-05 -1.1997987 -0.0021940956 -1.2180525

model.decoder_gnn.pre_nn.fc_layers.0.0.weight f4 [16, 4]
00000000: c90d fb3b f2b5 9fbe cb24 1fbc 9e5e 8d3e
00000010: a21d 883b 5561 c8be 6127 08bb 55d0 bd3e
00000020: 16f9 6e3c fe76 e3bd 921b 26bc 2242 013f
00000030: c69e 4cbc 94ba 86be e2c1 debc 935b 8b3e
00000040: d105 c2bb 155c ce3e 403a 693b dae9 b7be
00000050: 9e85 a23c 85e9 52be f153 23bc 4dd9 723e
00000060: 8a2f d73a f48e cbbe c04f 71bc a2ff df3e
00000070: 09c5 1cbc 561b 653e 45cb 2d3c 5c74 7fbe
00000080: bee8 80bb e197 c3be 6810 b8bc 2601 b33e
00000090: 69cf 87bc 2072 863e 4202 0a3c 87aa 90be
000000a0: f24e ebbb 7f21 f93e a88c 003c a0b9 763d
000000b0: 02f6 763b c8d2 d93d 14c8 64bc 48b2 26bf
000000c0: 34db ae3a 17e8 0bbf 88a8 efbb 0cda 273c
000000d0: 6d29 8dbc 647b 9a3e 6558 d03c fe93 fb3e
000000e0: 8deb cdbb e119 07bf 05f1 063c c7a0 b7be
000000f0: 9e45 c03b d6f4 a5be 0853 a0bc ae57 ac3e
0.0076615554 -0.311935 -0.009713362 0.2761125 0.004153923 -0.39136758 -0.0020775425 0.37073007
0.014585754 -0.1110668 -0.010138409 0.50491536 -0.012489026 -0.26314223 -0.02719206 0.27218303
-0.0059211035 0.40304628 0.0035587698 -0.35920602 0.019839104 -0.20596893 -0.009968744 0.23715706
0.0016417366 -0.39757502 -0.014728487 0.4374972 -0.009568461 0.22373709 0.010607545 -0.24946731
-0.003933995 -0.38201812 -0.02246876 0.34961814 -0.016578393 0.26258945 0.00842339 -0.28255102
-0.007181042 0.48658368 0.007846035 0.06023562 0.0037683253 0.106359065 -0.013963718 -0.65115786
0.0013340474 -0.54651016 -0.0073137917 0.0102448575 -0.017231667 0.30172265 0.025432775 0.49136347
-0.0062841834 -0.52773863 0.0082361745 -0.3586485 0.005867674 -0.32413357 -0.019570842 0.33660644

model.decoder_gnn.pre_nn.fc_layers.0.0.bias f4 [16]
00000000: 53fa 413d e2c5 6e3e 969e 84be 5132 b33d
00000010: 31ba 34bd 19e1 683e ac94 6c3e 03d9 ccbd
00000020: 8cd7 c6bc 166f 0ebe dbc6 8abe 8421 c0be
00000030: 178d 9ebe 3e08 b2be 7fdd c2be d0c4 743e
0.04735787 0.23317674 -0.2590224 0.087498315 -0.04412288 0.22742118 0.23103589 -0.10002329
-0.024272703 -0.13909563 -0.2710484 -0.3752557 -0.30967018 -0.34771913 -0.38059613 0.23903203

model.decoder_gnn.lin_skipsum.0.0.weight f4 [16, 16]
00000000: 2187 9e3e 1924 203e 4fe4 623e 15ad 873e
00000010: c895 0fbe 53ca 373e f390 61be 4387 4ebe
00000020: 03ab 823e 6419 bdbe d8ca 22be ea45 67be
00000030: 2b78 433e 71da 393e c3bf 25bc af94 283d
00000040: 5d39 743d dfa3 c83d 31be a73e 4f1d 813e
00000050: 8f4b 32bd e5fb 593e ce76 223e 47ed 96be
00000060: c8af 743d cdda 04be 83bf cabe 3c7f 72be
00000070: 157b 3a3e b047 2b3e 50bb 06bd 0107 773d
00000080: 73fe 443e ae58 bf3c 6f7c 2e3e 0c88 043d
00000090: 9658 22be 0091 3b3d c298 f83d a409 b1be
000000a0: 69a6 843e f5ff 90be 721e 5fbe c903 11be
000000b0: a958 253e 213b 4d3e 4261 6fbc b4bc e23d
000000c0: 00c5 4dbe 7a85 80bd 3ae4 7abe f09c 8fbe
000000d0: dfee af3d d3d8 d0bd 65d1 1abd 2713 983e
000000e0: 2339 4fbd dfa5 863e ceee 4b3d 1080 283e
000000f0: 6c93 d6bd 83f5 a039 b326 a2bd a1b7 ecbd
00000100: 0272 8d3e 8341 f43d b6a2 9d3d 6541 eb3d
00000110: 9f6f 3cbe a4b0 3e3e 90c2 543d 4b37 04be
00000120: efb0 ab3d 7eb5 90be 60a1 39be cc56 30bd
00000130: 5e52 9d3e c7c5 873e 421a 9ebb 3cd5 ae3b
00000140: 6181 c13c 6b34 0dbe 913c dcbd 7ae7 4ebe
00000150: b66e 1ebb ca47 6cbe 5db3 67bd d842 2e3e
00000160: 6191 48be 1182 3c3e 3671 553e 421d 6c3e
00000170: dd1b 45be c8c0 45bc 380b c6bb f2ea 2bbe
00000180: 097c 8d3c 08e2 493d 5d3d 693e 4214 0f3d
00000190: 392a be3b 802f 1f3e 8e5f ccbc 3489 a0be
000001a0: bc1e 723e e228 e1bd 7150 1cbe 5d74 40be
000001b0: f913 3a3e 75eb 443d 8e1f b83c 0654 893e
000001c0: d316 92be e956 64bd db2a ffbc 3643 50bd
000001d0: 3ea7 293e b9cc 8abd 0d9c 28bd 0e53 3e3e
000001e0: 4a2b 32be 3418 ac3c 7b93 c63d d9f0 eb3d
000001f0: b3da 7ebe f11d a0bc ee01 b13c f0d8 43bd
00000200: 0d5a 2abe 8aed 09be f366 16be dd74 2cbe
00000210: f367 e53d 2351 87be 5d1d 0ebe 0bc4 373e
00000220: d4ba 70be f497 813e ca1d fe3d ffb7 0a3e
00000230: 94de 80bc e446 a9bd 1535 e2bd 6678 9f3d
00000240: 67a9 2abe e33d 49be 3516 3bbe f288 80be
00000250: 565c 0f3e 11b9 fbbd 7193 77bd 3307 f93d
00000260: 1fe9 1dbd 78d3 0d3e ce0e 373e 6abb 463e
00000270: 8e65 2ebd 19a3 0a3e 7b00 06be 4675 78be
00000280: 3d49 633a cb08 10bc c993 8d3e e1a5 1b3e
00000290: be0e 92be c4e7 753e 8711 7b3d 8c48 bfbd
000002a0: 21b5 723e 0433 31bd 8892 d0bd 7b00 39be
000002b0: 8e51 d63d 017a a23d f524 87bc 6c8d 96bc
000002c0: f088 823e 39ad fb3c 7fa7 8c3e 93cb ce3e
000002d0: 698e 30be 98be a23a 96cc 02be 7b97 1cbe
000002e0: 5459 763d 61f3 58be 98b5 a0be cd76 1bbe
000002f0: ab1b c03d a6df 793e 642a 533d b8bd 7f3e
00000300: e38c 793e c768 623e 4199 06bb ab61 5b3e
00000310: 6bef 35be 95a3 823e 8c81 d1bd 3660 59be
00000320: 9324 d73d d521 9cbd 8f62 50be 5033 1abe
00000330: b759 833e 2d19 713e d856 5dbd 07b1 9e3c
00000340: f389 3fbd 0772 72be 4943 37bd f294 efbd
00000350: dd3f 893e f452 0cbe 52ef 8abc 9f13 243d
00000360: 93cc 44be 8c6a 883e 5c03 b13d 363a 4d3e
00000370: eef9 87be b738 24be 8101 96bd f7ce 62bc
00000380: 1296 233e 28cd 303e 26ae 0b3e a6d1 4c3e
00000390: 0798 153c 5f99 07bd a149 003d fcd2 41be
000003a0: 41c6 cf3c 4f9e 32be 8660 6dbe 9dc2 70be
000003b0: 4d26 973d da19 043d 7e40 bf3d aea3 883e
000003c0: ae29 94be fa6f 87be 7610 8fbe 765f 6dbd
000003d0: 8a1c c83e ae26 1a3d b77b 0a3e afb7 cc3c
000003e0: d93c 75be 43bf d93d f30a 513e 6e7b af3e
000003f0: 7250 cfbd 2f1e 6cbe 2056 0abe 1234 60be
0.3096247 0.1563877 0.22157405 0.2649924 -0.14021981 0.17948274 -0.2202795 -0.20168786
0.25521097 -0.36933434 -0.15897691 -0.22585264 0.19088809 0.18149735 -0.01011652 0.04115742
0.05962502 0.09796881 0.32762292 0.25217673 -0.04352909 0.21287496 0.15865633 -0.29477903
0.05973795 -0.12974091 -0.39599237 -0.23681349 0.18211015 0.16726565 -0.03289348 0.060309414
0.1923769 0.023357715 0.17039655 0.032356307 -0.15854105 0.04579258 0.12138511 -0.34577668
0.2590821 -0.2832028 -0.21788958 -0.141616 0.16147102 0.20042087 -0.01461059 0.110711485
-0.20094681 -0.06275459 -0.24501124 -0.2804942 0.08590483 -0.10197606 -0.03779735 0.29702112
-0.0505916 0.26298425 0.04978829 0.16455102 -0.10477337 0.000307005 -0.079175375 -0.11558462
0.27626044 0.11926558 0.0769705 0.114870824 -0.18401955 0.1862207 0.05194336 -0.12911718
0.08383357 -0.28263468 -0.18127966 -0.043051526 0.30726904 0.2651808 -0.0048249075 0.005335478
0.023621263 -0.13789527 -0.107537396 -0.20205489 -0.0024174876 -0.2307426 -0.05656754 0.17017686
-0.19586708 0.18408991 0.20843968 0.23058036 -0.1924891 -0.012069888 -0.006043818 -0.16788843
0.017271059 0.049287826 0.22777314 0.03493143 0.005803373 0.15545464 -0.024947908 -0.31354678
0.23644537 -0.10994126 -0.15265061 -0.18794389 0.18171681 0.04807611 0.022475984 0.26821917
-0.28533038 -0.055746946 -0.031148365 -0.050845347 0.16567704 -0.06777329 -0.041164447 0.1858637
-0.17399326 0.021007635 0.096960984 0.115205474 -0.24888115 -0.019545527 0.021607365 -0.04781431
-0.16635914 -0.1346952 -0.1468771 -0.16841455 0.11201467 -0.2642909 -0.13878389 0.17945878
-0.2350877 0.25311244 0.124080256 0.13546751 -0.015731134 -0.082654744 -0.11045281 0.07786636
-0.16666184 -0.19652514 -0.1827019 -0.2510448 0.14000067 -0.12291158 -0.060443345 0.12159576
-0.0385524 0.138502 0.17876741 0.1940743 -0.04257732 0.1353878 -0.13086121 -0.24263486
0.0008670276 -0.008791159 0.27651814 0.15199997 -0.28526872 0.24014193 0.061296012 -0.09340009
0.23701908 -0.043261543 -0.101841986 -0.1806659 0.10464774 0.07933427 -0.016497115 -0.018377982
0.254951 0.030722247 0.2747154 0.4038969 -0.17241825 0.001241642 -0.12773356 -0.1529216
0.060143784 -0.21186592 -0.31388545 -0.15182038 0.09380277 0.24401721 0.0515541 0.24974716
0.2437015 0.22110282 -0.0020538124 0.21423976 -0.17767112 0.25515428 -0.10229787 -0.21228108
0.10505023 -0.076236404 -0.20350097 -0.15058637 0.25654384 0.2354476 -0.0540379 0.019371523
-0.046762418 -0.2367631 -0.044741903 -0.11698331 0.26806536 -0.13703519 -0.01695982 0.040057775
-0.19218664 0.2664379 0.08643219 0.20041737 -0.2655787 -0.1603726 -0.073245056 -0.01384329
0.15975216 0.17265761 0.13640651 0.2000185 0.009130484 -0.03310525 0.031320218 -0.1892814
0.02536309 -0.17443202 -0.23181352 -0.23511739 0.07380352 0.032251216 0.09338473 0.26687378
-0.2893805 -0.2645262 -0.27942246 -0.057952367 0.39084274 0.037634544 0.13523756 0.02498993
-0.23948993 0.106321834 0.20414333 0.34273857 -0.101227656 -0.23058389 -0.13509417 -0.21894863

model.decoder_gnn.lin_skipsum.0.0.bias f4 [16]
00000000: 1ee6 f3bd 38e4 8dbe b326 9fbd 9265 3c3e
00000010: f234 36be ad34 643e bbe9 3ebe c431 203e
00000020: 1670 413e 9c50 6f3e 688a acbd 247d 16be
00000030: 6fdb 35be 22ec c83d 1314 4bbe fe1a c23d
-0.11909126 -0.2771318 -0.07771053 0.18398121 -0.17793635 0.22285719 -0.18643849 0.15643984
0.18890414 0.23370594 -0.084248364 -0.14696175 -0.17759489 0.09810664 -0.19831876 0.094778046

model.decoder_gnn.lin_skipsum.1.0.weight f4 [16, 16]
00000000: 5a8f dd3d 1362 753c cbe7 aebd 2561 e0bd
00000010: e740 8b3e 9625 21be 99fa 2dbe 938d 42be
00000020: 3424 80be ef24 6e3d 2b34 52be b10d 603d
00000030: f620 b6bd 4926 eebd 1706 8c3e 235f 413e
00000040: 165b e23d 7566 24bd 9a05 fcbd f446 2abe
00000050: 6fd5 7c3e a9a8 0ebe 5329 88be 0b2e 28be
00000060: 4d60 81be f287 23bd 9584 31be 072a 4c3d
00000070: 6d6f 03be 6bbf b7bd 64b0 a53e 5618 423e
00000080: de8e 443e 6b76 05bc fa9f d8bd 77aa 9dbd
00000090: 72fb 5d3e d726 21be 584b 843d e91f 2bbe
000000a0: 1f01 8cbe 304c af3d 431b 38be d5a2 b13d
000000b0: abc8 edbd c84d 08be 5831 8d3e 30aa 0f3e
000000c0: 24a1 39be 9630 b13d b843 0cbc 3204 e43d
000000d0: fa18 1dbe c37e 443e 5d7a 2d3e bd60 d73d
000000e0: b97f 993e 483d 97bc 600b 583e eaf9 98bd
000000f0: fb37 423d 7d11 aa3d 1995 8abe 59ef 35be
00000100: 9807 2f3e ef68 14bd 80ef 83bd 019c 8cbd
00000110: 8202 153e df43 29be 72a7 46be 7f2c 24be
00000120: 6a4f b2be a99c 383d a0aa 39be 48c1 073e
00000130: e463 b8bd 17ad 93bd 5a25 573e 41ac d13d
00000140: c6a9 2cbe 67f2 083e 359b 123c 0c5a 493e
00000150: c0ad 2dbe be4d 293e ac32 5c3e aada 8b3d
00000160: e9f5 823e 26df d93c 45ea 343e 5dea 70bd
00000170: 4b00 713d 3fcf 423d 98e7 87be db1a 40be
00000180: 94c2 393e 768e 0fbc acb8 d2bd 4457 c2bd
00000190: 66d5 c43d d16d 29be 331f 2bbe bc58 f5bd
000001a0: ade4 b3be 605c 4b3d 721c 2bbe 972c 023e
000001b0: e685 6dbd a10f 6dbd 4fda 4d3e 1aaf d23d
000001c0: 8fcf 16be 1865 893d 5715 473d 2685 383e
000001d0: e7d5 09be b317 f93d f67f 3b3e 4e5b da3d
000001e0: 061c 5c3e 184a a3bb 6923 6a3d fdb5 4abd
000001f0: 77a0 733d edbb 533d 692f 20be ab30 f0bd
00000200: 4fb6 68be e2be 5f3d e9ac 173e f68b 1d3e
00000210: b4ff 68be cc29 3c3e a410 463e bf7b 0c3e
00000220: fc2c 903e 3cdb 16bd d25b fa3d 396f 49bd
00000230: dac4 a33d 7f73 ccbc 02d0 72be c61d 6ebd
00000240: 3052 4ebe 5e76 a73d 0f39 243e a9b9 f43d
00000250: f72f 68be 5940 443e 51fa 353e d0d0 e23d
00000260: cd69 623e 9ef8 23bd 3e04 3f3e b958 9fbd
00000270: 180e e83d f054 0fba 9bf5 6dbe f9db 0fbe
00000280: 6a18 a03d 320b 67bd 8aa5 d0bc 2e82 e8bd
00000290: a038 313e fc69 27be a647 0bbe b84c 02be
000002a0: a570 27be 0358 0e3c 570c 36be 3699 613d
000002b0: 1015 bcbd 498d acbd bf86 8c3e c761 023e
000002c0: 5e33 3e3e d61c 45bd 24c4 f4bd 41a2 0cbe
000002d0: 0789 1b3e 1dd3 30be ab2e 5ebe b43c 06be
000002e0: 2332 6bbe 1de2 6dbc 364b 3ebe 5e27 853d
000002f0: 7940 1ebe c442 34bd 6b9d aa3e 31f4 e43d
00000300: 95e2 143e 92e2 abbc 56c5 6cbd 4ea0 e9bd
00000310: d234 1b3e 85b4 ffbd 7742 10bb dd9f 3ebe
00000320: 778d 4bbe 3651 97bc 074e 33be 93c6 753d
00000330: 08b9 8bbd a681 dabd 97fd 763e 3a0e 193e
00000340: d407 29be 874c 153d 39ad 873d 2046 3d3e
00000350: c7ed 0abe 59d3 d93d beeb 093e c91d 333e
00000360: c625 7f3e e619 b1bc 03d4 ce3d 4d12 b8bd
00000370: 7636 d33d 4067 293e af94 89be 46e5 00be
00000380: 0f37 3c3e c943 a4bc 6be7 58bd 3d21 04be
00000390: 049f e13d 7fcf cebd 6ece e33c 13b9 58be
000003a0: 4f32 83be 1791 98bc 281c 02be 41ec 113d
000003b0: 6ee2 9bbc 5e47 c9bd 0a32 4b3e 9074 2a3e
000003c0: fbf2 6dbe fd0f e13c c169 393e bfcc 313e
000003d0: 6b09 59be ac28 433e 341e 813e 9a33 463e
000003e0: b956 df3e d286 b83b b81f 173e 7459 05be
000003f0: 88aa 163e d12e 733d 5603 a2be 5f97 02be
0.10818358 0.014976996 -0.08540305 -0.10956029 0.27197954 -0.15736994 -0.16990127 -0.18999319
-0.2502762 0.05814069 -0.20527713 0.054700557 -0.088930055 -0.11628396 0.27348396 0.18883948
0.110525295 -0.040136773 -0.12305756 -0.16628629 0.24690793 -0.13931526 -0.26594028 -0.16423814
-0.25268784 -0.03992457 -0.17335732 0.049844768 -0.12835474 -0.08972057 0.32361138 0.18954596
0.19195125 -0.008145909 -0.10577388 -0.07698529 0.2167795 -0.15737472 0.06459683 -0.16711392
-0.27344605 0.085594535 -0.1797915 0.08673636 -0.1161054 -0.13310921 0.2757671 0.14029765
-0.18127877 0.08651845 -0.008561067 0.11133613 -0.15341559 0.19188981 0.16941209 0.10516498
0.29980257 -0.018461838 0.21098089 -0.07469542 0.04741667 0.08304117 -0.27066877 -0.17767085
0.1709274 -0.036232885 -0.064421654 -0.06865693 0.14551738 -0.16529797 -0.19399813 -0.16032599
-0.34826213 0.045071278 -0.18131495 0.13257325 -0.090034276 -0.07210749 0.21010342 0.10237933
-0.16861638 0.13373719 0.008948137 0.19663256 -0.16960812 0.16533563 0.21503705 0.06828816
0.2557824 0.026595663 0.17667492 -0.058817256 0.05883817 0.047560927 -0.2654388 -0.18760245
0.18140632 -0.008761993 -0.102891296 -0.09489301 0.09611015 -0.16545798 -0.1671112 -0.11979815
-0.35135403 0.049648643 -0.1671007 0.12712322 -0.057989024 -0.057876233 0.2010281 0.10287304
-0.14727615 0.06708735 0.048604336 0.18019542 -0.13460504 0.121627234 0.18310532 0.10661946
0.21495065 -0.004983198 0.057162676 -0.049489964 0.059479203 0.051692892 -0.15643086 -0.11728033
-0.22725795 0.0546254 0.14812054 0.15385422 -0.22753793 0.18375319 0.19342285 0.1371908
0.2815932 -0.036830172 0.122245446 -0.049178336 0.07996531 -0.024957417 -0.23712161 -0.058133863
-0.2014854 0.081768736 0.16037391 0.11949474 -0.22674547 0.19165172 0.1777127 0.11074984
0.22110672 -0.04003202 0.18653962 -0.077805944 0.11330813 -0.0005467674 -0.23238222 -0.14048757
0.078171566 -0.05640716 -0.02546956 -0.11352955 0.17306757 -0.16349024 -0.1360155 -0.12724578
-0.16351564 0.008687976 -0.17778145 0.055077754 -0.09183705 -0.084253855 0.27446553 0.12732612
0.18574283 -0.048123203 -0.11951473 -0.1373377 0.1518899 -0.17268033 -0.2169749 -0.13109094
-0.22968344 -0.014519242 -0.18583378 0.06501649 -0.15454282 -0.044008985 0.33323225 0.11179388
0.14539559 -0.02098206 -0.05780538 -0.11407529 0.15156868 -0.12485603 -0.0022012272 -0.1861567
-0.19878183 -0.018471342 -0.17510234 0.06000383 -0.06822401 -0.1066926 0.24120174 0.14946833
-0.16506892 0.036449935 0.066248365 0.18483782 -0.13567267 0.106360145 0.13468835 0.17491831
0.24916753 -0.021618795 0.10099032 -0.089878656 0.10313122 0.16543293 -0.2687125 -0.12587461
0.18380378 -0.020051854 -0.052955072 -0.12903304 0.11016658 -0.100981705 0.027808394 -0.2116435
-0.2562432 -0.018623872 -0.12706053 0.0356257 -0.019028869 -0.09828065 0.19843307 0.16646028
-0.23237221 0.027473444 0.18106748 0.1736326 -0.21194999 0.19058484 0.25218356 0.19355622
0.43620852 0.005631306 0.14758193 -0.13022405 0.1471349 0.05937082 -0.3164317 -0.12753056

model.decoder_gnn.lin_skipsum.1.0.bias f4 [16]
00000000: b5c5 96bc 9a8e e33d 673d 95bd 2abe c5bc
00000010: 58fd 1cbc 1dd2 b6bd db3d c8bb 9020 26bd
00000020: bef4 8a3d c33a 363d c79e 0b3e cd54 e13d
00000030: 2046 ac3d 31cc 1dbe e937 c03d b5ec 08be
-0.018404821 0.111111835 -0.07287102 -0.024138529 -0.009581886 -0.08926795 -0.0061108894 -0.040558398
0.06784962 0.044489633 0.13634787 0.110025026 0.08411813 -0.15409924 0.09385664 -0.13371547
