_models_trained/causal_nf/trianglesens_non-linear/epoch=961-step=4810.ckpt (torch, 19320 bytes, 10 tensors)

model.flow.transforms.0.hyper.0.weight f4 [32, 4]
0	0xbe396934	-0.18106538
1	0x3f077bb2	0.5292312
2	0xbd6e7b90	-0.058223307
3	0xbe77c500	-0.24196243
4	0xbe905f7e	-0.28197855
5	0x3e012578	0.1261195
6	0xbd71aa40	-0.059000254
7	0xbe09f3fc	-0.13471979
8	0xbd5de343	-0.05417181
9	0x3d8ca433	0.06867256
10	0xbe9d6f62	-0.3074904
11	0xbc9e3a60	-0.019314945
12	0xbda06ec0	-0.07833624
13	0xbf6e4049	-0.9306684
14	0x3e3a2570	0.18178344
15	0xbee2be4a	-0.44285804
16	0x3e47f4d7	0.19526993
17	0xbee7ca88	-0.45271707
18	0xbc6b84c0	-0.014374912
19	0xbef2ac22	-0.47396952
20	0xbf03d119	-0.5149093
21	0x3e36149e	0.17781302
22	0xbf0ca0d8	-0.5493293
23	0xbecb7e38	-0.39744735
24	0xbdde4b60	-0.108542204
25	0xbee9ff21	-0.4570246
26	0x3e217478	0.15767086
27	0xbd9758b8	-0.07389969
28	0xbe7fbbf6	-0.24974045
29	0x3e3a2dc8	0.18181527
30	0x3ea0433c	0.31301296
31	0xbe8af0c8	-0.27136827
32	0x3ba0af42	0.004903705
33	0x3f1ea4cc	0.6197021
34	0x3ea2ffe7	0.31835863
35	0x3efc45a4	0.49271882
36	0xbe025590	-0.12727952
37	0x3f0bbaa4	0.54581666
38	0xbe19448c	-0.14967555
39	0x3dbc4450	0.09192717
40	0x3da70b8c	0.08156499
41	0xbefe43e4	-0.4966117
42	0xbdcec618	-0.10096377
43	0x3ef55c8a	0.47922164
44	0x3ea62e35	0.32457128
45	0x3eaa23c7	0.3323042
46	0x3ef06406	0.46951312
47	0xbeede16a	-0.4646104
48	0x3e0fe680	0.14052773
49	0xbec4e86b	-0.3845857
50	0x3ef96664	0.4871093
51	0x3e90a22a	0.2824872
52	0x3ec095b5	0.37614217
53	0x3e754190	0.23950791
54	0xbe78efe4	-0.24310261
55	0xbeaf5ee0	-0.3425207
56	0xbf0ae33a	-0.5425297
57	0x3e67d38a	0.2263929
58	0x3ed5965f	0.41716287
59	0x3ec1e956	0.37873334
60	0x3dab9b88	0.083792746
61	0xbf118156	-0.56837976
62	0xbcd028a0	-0.025409997
63	0xbef44c00	-0.47714233
64	0x3e574012	0.21020535
65	0x3d6289e0	0.05530727
66	0xbed3b326	-0.41347617
67	0xbd97e370	-0.07416427
68	0x3e5bd348	0.21467316
69	0xbcb39808	-0.02192308
70	0xbec32dfb	-0.38121018
71	0xbd654650	-0.05597526
72	0x3e2ce0bc	0.16882604
73	0x3eaf7815	0.34271303
74	0x3ee1829e	0.44044966
75	0x3e9f4122	0.3110438
76	0xbeea541f	-0.45767304
77	0x3df825b0	0.12116563
78	0xbe25f78c	-0.16207713
79	0x3e170c2c	0.14750737
80	0x3ef547b3	0.47906265
81	0xbf2a9e45	-0.6664775
82	0x3e583152	0.21112564
83	0x3e9dc36e	0.30813164
84	0xbefbdb50	-0.4919076
85	0xbf0c803f	-0.5488319
86	0xbe84b4dc	-0.25919235
87	0x3eb18004	0.3466798
88	0x3ec1e039	0.3786638
89	0xbcea28a0	-0.028583825
90	0xbea2abae	-0.31771606
91	0xbefaaaf4	-0.48958552
92	0xbeb6a01d	-0.35669032
93	0xbe66cac1	-0.22538282
94	0x3e84adb0	0.25913763
95	0xbefa899a	-0.48933107
96	0x3e09e7d8	0.13467348
97	0x3f1e7be9	0.6190782
98	0xbe66bf44	-0.225339
99	0x3ef56c70	0.47934294
100	0xbef1da17	-0.47236702
101	0x3edbe182	0.42945486
102	0xbda7b100	-0.08188057
103	0x3e746664	0.23867184
104	0x3df069c5	0.11738924
105	0xbd3295b9	-0.043599818
106	0xbdf1bc04	-0.11803439
107	0xbde9ea80	-0.114216805
108	0xbef66cfc	-0.48130023
109	0x3ea9a5eb	0.33134398
110	0x3ec94992	0.39313942
111	0x3d822068	0.06353837
112	0x3edcf4da	0.43155557
113	0x3e9a9126	0.30188864
114	0xbe923d64	-0.28562462
115	0x3df17778	0.11790365
116	0x3e644878	0.2229327
117	0x3ef50ad1	0.47859815
118	0xbea17f63	-0.315425
119	0xbdb3d170	-0.087801814
120	0x3c025a40	0.007956088
121	0xbef028e9	-0.46906212
122	0x3ec00d70	0.37510252
123	0xbee82bca	-0.45345908
124	0xbefb361a	-0.49064714
125	0xbd677ca0	-0.056515336
126	0x3ec6f8d2	0.3886171
127	0xbe1c54a8	-0.15266669

model.flow.transforms.0.hyper.0.bias f4 [32]
0	0xbe2ceb3f	-0.16886614
1	0xbdeb63c8	-0.11493641
2	0xbd7b6d36	-0.06138345
3	0xbd140a3a	-0.036142565
4	0xbee1135a	-0.43960077
5	0x3e11e808	0.14248669
6	0x3d79b34f	0.060962018
7	0xbdfec5f6	-0.12440102
8	0x3f18c798	0.59679556
9	0xbb1b42cb	-0.0023690935
10	0x3e8f66ed	0.28008214
11	0x3e80e61f	0.25175568
12	0x3f26ebab	0.6520335
13	0xbf11f929	-0.57020813
14	0x3d260a77	0.040537324
15	0x3e36ad61	0.17839576
16	0x3f108601	0.56454474
17	0x3f2cc728	0.6749139
18	0x3f2da7b4	0.6783402
19	0xbe10e642	-0.14150336
20	0xbebf235c	-0.37331665
21	0x3d4a9f5e	0.04946839
22	0x3d15f33b	0.036608916
23	0x3f1bbefe	0.60838306
24	0x3e08f550	0.1337483
25	0xbddef36a	-0.10886271
26	0x3f21660b	0.6304633
27	0x3f2d1304	0.6760714
28	0xbe9d9853	-0.30780277
29	0x3f01a1db	0.50637597
30	0x3ec88911	0.39167073
31	0xbef6c7c1	-0.48199275

model.flow.transforms.0.hyper.2.weight f4 [32, 32]
0	0xbc97eb36	-0.018544775
1	0xbe06ea6e	-0.13175365
2	0xbce1a9b0	-0.027546734
3	0xbf0c54b8	-0.5481677
4	0x3e2a611f	0.16638611
5	0x3d9c7b62	0.07640721
6	0xbefa6f29	-0.48912933
7	0x3cdf0da0	0.027228177
8	0x3e1440e3	0.14477877
9	0x3e5faba7	0.21842824
10	0x3daa1cf2	0.08306302
11	0x3e12d1f9	0.1433791
12	0xbeb39ff2	-0.35082966
13	0x3c8eb300	0.017419338
14	0x3d1532b4	0.036425307
15	0xbec12008	-0.3771975
16	0x3d63f400	0.05565262
17	0xbde2e2d0	-0.11078417
18	0x3e89b8b6	0.26898736
19	0xbd4ccb4c	-0.049998567
20	0xbd94f5ea	-0.07273467
21	0xbe62cf2c	-0.22149342
22	0x3e23e953	0.16006975
23	0xbdd56d0c	-0.1042119
24	0x3d8c0ac2	0.068379894
25	0x3d8e712c	0.069551796
26	0x3c9093a8	0.017648533
27	0x3de4179e	0.11137317
28	0x3de11796	0.10990827
29	0xbd9d91b6	-0.07693808
30	0xbe595416	-0.21223482
31	0x3e27fe3f	0.16405581
32	0xbd76b1be	-0.060228102
33	0xbe331041	-0.17486669
34	0x3dc0050a	0.09375961
35	0x3e10b12f	0.1413009
36	0x3e5f13ee	0.21784946
37	0x3dfdd52e	0.123941764
38	0x3c755370	0.014973506
39	0xbe76a64d	-0.24086876
40	0xbe012618	-0.12612188
41	0x3cf71710	0.030162364
42	0x3dfcf113	0.12350669
43	0xbdc172ee	-0.09445749
44	0x3d906070	0.07049644
45	0x3bf182e5	0.00737034
46	0x3e1bfb45	0.1523257
47	0x3d97ad22	0.07406069
48	0x3e06a885	0.13150223
49	0xbcf2b488	-0.0296271
50	0xbd887d05	-0.066644706
51	0xbe4fe907	-0.20303737
52	0xbda133fa	-0.07871242
53	0x3c86d568	0.016459182
54	0x3d02bcd1	0.03191835
55	0x3dcb0a3e	0.09914063
56	0xbdcbd755	-0.09953181
57	0xbda5a532	-0.08088149
58	0x3d93231e	0.071844324
59	0xbb8e64a0	-0.0043454915
60	0x3e0d5fd3	0.13806085
61	0xbdede200	-0.11615372
62	0x3c712660	0.014718622
63	0xbdd254c9	-0.10270078
64	0x3e835c6d	0.25656453
65	0x3d639c25	0.055568833
66	0xbd75481a	-0.059883215
67	0xbda55b62	-0.080740705
68	0x3dded4ec	0.108804554
69	0x3c048798	0.008088969
70	0xbe4208d5	-0.18948682
71	0x3c4ca7d8	0.012491189
72	0x3e8cdb43	0.27511033
73	0x3e34e1e3	0.17664294
74	0x3dbacf7f	0.09121608
75	0xbcd42d2f	-0.025900451
76	0xbdf2b432	-0.11850776
77	0xbcf91d3c	-0.030409448
78	0x3d8fd996	0.07023923
79	0xbe257763	-0.16158824
80	0x3c0417cc	0.008062314
81	0xbb92e4d8	-0.0044828467
82	0x3ea093cb	0.31362757
83	0xbdd60f46	-0.10452132
84	0xbef67a8d	-0.48140374
85	0xbe72591f	-0.2366681
86	0x3dabb274	0.083836466
87	0x3df8d302	0.121496215
88	0x3e714ed5	0.23565228
89	0xbdbb193e	-0.09135674
90	0xbd72d1c4	-0.05928208
91	0x3e01c0bf	0.12671183
92	0xbdf6b9d7	-0.12047165
93	0x3e7cfb1e	0.24705169
94	0xbd972b43	-0.073812984
95	0x3e1454ae	0.14485428
96	0xbebb61a5	-0.36597934
97	0x3dba112e	0.09085308
98	0x3e0aafb5	0.1354359
99	0x3edb45c2	0.42826658
100	0xbd8c1275	-0.06839458
101	0x3db235a6	0.08701639
102	0x3e8574ea	0.2606576
103	0xbe032516	-0.12807116
104	0x3e11c405	0.14234932
105	0xbf1e5db1	-0.6186171
106	0x3d999bae	0.07500397
107	0xbe3243a3	-0.17408614
108	0x3e94778b	0.28997454
109	0xbdc00366	-0.09375648
110	0x3e1a04c3	0.15040879
111	0x3e4035d5	0.18770535
112	0x3dce268e	0.100659475
113	0x3e34e761	0.17666389
114	0xbec9f7f9	-0.39447
115	0x3dabd1ba	0.083896115
116	0xbc988d60	-0.0186221
117	0x3ee53d85	0.44773498
118	0x3dd27296	0.10275762
119	0x3e15b66d	0.14620371
120	0xbf018fe3	-0.5061018
121	0xbdbfd1cb	-0.09366187
122	0x3cac3190	0.021019727
123	0xbea2a996	-0.3177001
124	0xbd297688	-0.041372806
125	0x3e089e39	0.13341607
126	0x3eda9963	0.4269515
127	0x3e0d8b39	0.1382264
128	0xbcbb9af8	-0.022901043
129	0xbc833d9a	-0.016020585
130	0xbe1e6d82	-0.15471461
131	0xbba6ade0	-0.0050866455
132	0x3e9237fc	0.28558338
133	0xbd2ebb50	-0.042659104
134	0x3e1b7b3f	0.15183733
135	0xbcb9791b	-0.022640755
136	0x3e306a99	0.17228164
137	0xbded0418	-0.115730464
138	0xbe08a1d4	-0.13342983
139	0xbd25d5b4	-0.040487006
140	0xbe2b4db9	-0.16728868
141	0x3e2c1544	0.16804987
142	0xbdc1b73e	-0.09458779
143	0xbcb2a6c8	-0.021808043
144	0xbe12bbcc	-0.14329451
145	0x3d8ed3e4	0.06974009
146	0xbde51fec	-0.11187729
147	0xbe3250f0	-0.17413688
148	0xbd94b449	-0.07260949
149	0xbd34bde8	-0.04412642
150	0x3cb053a6	0.021524262
151	0xbe10c890	-0.14139009
152	0x3dba5f7e	0.09100245
153	0xbdad31ed	-0.08456788
154	0xbd25f650	-0.040518105
155	0x3d8bde5a	0.068295196
156	0xbd3f5ac3	-0.046717416
157	0x3df6548e	0.12027846
158	0x3e2048d9	0.15652789
159	0xbde29edc	-0.11065456
160	0x3e88e7c6	0.2673933
161	0x3d98d5e7	0.07462674
162	0x3d3c5687	0.045980956
163	0x3ec2093a	0.37897664
164	0x3df0822d	0.11743579
165	0xbe25294e	-0.16129038
166	0x3e5b4508	0.21413052
167	0x3e8f8e23	0.2803813
168	0x3d8416a3	0.0644963
169	0x3e2fc57e	0.17165181
170	0xbea1a94b	-0.31574473
171	0x3e48285f	0.1954665
172	0x3daed07a	0.085358575
173	0x3daa1c9c	0.08306238
174	0xbe02faa7	-0.12790929
175	0x3e780df6	0.24224076
176	0xbe9c11d3	-0.3048235
177	0xbe549bc9	-0.20762552
178	0xbed2ba82	-0.4115792
179	0x3e8cc65f	0.27495095
180	0x3e863b3a	0.2621706
181	0x3e9e98de	0.30976003
182	0xbde7904f	-0.113068216
183	0xbcf0c1e7	-0.029389335
184	0x3e812bbd	0.25228682
185	0x3de453cc	0.111487955
186	0xbe810627	-0.25200006
187	0xbe0f122f	-0.1397178
188	0xbcff0b17	-0.031133218
189	0xbe90cd95	-0.28281847
190	0x3e84e8df	0.25958917
191	0x3dabeec0	0.08395147
192	0xbeb0b8b0	-0.34515905
193	0x3c8c15a0	0.017100155
194	0x3ddb48ae	0.10707222
195	0x3e24806e	0.16064617
196	0x3d9b2c5a	0.07576819
197	0xbe2d6743	-0.16933922
198	0x3dee6dd7	0.11642044
199	0x3d5bec50	0.053692162
200	0x3e14c973	0.14529972
201	0xbe48b876	-0.19601616
202	0x3cc74cf8	0.024328694
203	0x3d412268	0.047151953
204	0x3eaa49b1	0.33259347
205	0x3d97837a	0.07398124
206	0xbd8aa22d	-0.06769214
207	0x3e8caf5d	0.27477542
208	0x3dd4dece	0.10394059
209	0xbe010cf5	-0.12602599
210	0x3e0bbd2a	0.13646379
211	0xbe0869fa	-0.13321677
212	0x3e2d3e75	0.16918357
213	0xbc176590	-0.009240523
214	0x3e2b1f6d	0.16711207
215	0x3d8bce46	0.06826453
216	0xbd21e121	-0.03952134
217	0xbb3e7580	-0.0029061735
218	0x3e0cbbb3	0.13743477
219	0x3e8d3777	0.2758138
220	0xbe3488e4	-0.17630345
221	0xbe2161c8	-0.15759957
222	0x3e15ac25	0.14616449
223	0xbd44a640	-0.04801011
224	0xbdbdfbf7	-0.09276574
225	0x3d134b14	0.035960272
226	0xbd618bbc	-0.0550649
227	0x3d1ce624	0.038305417
228	0xbe52417f	-0.20532797
229	0x3dfa73e2	0.12229134
230	0xbe2346a2	-0.15944913
231	0xbd2d1e79	-0.04226539
232	0x3dd2b832	0.10289039
233	0x3dd00eb2	0.10159053
234	0x3ca155d2	0.019694243
235	0x3ca8fdd8	0.020628855
236	0xbe2c6d79	-0.16838636
237	0xbc663c91	-0.014052526
238	0x3de70246	0.112797305
239	0xbe270cff	-0.16313551
240	0x3d50d73a	0.050986506
241	0x3d208518	0.039189428
242	0x3dbd1766	0.092329785
243	0xbdb4860e	-0.088146314
244	0xbdb59b38	-0.08867496
245	0xbd62d632	-0.055380054
246	0xbdec2bdb	-0.11531802
247	0xbdd4255c	-0.10358688
248	0xbe226193	-0.15857534
249	0x3dd05650	0.10172713
250	0x3df4c9a2	0.11952521
251	0xbca62200	-0.020279884
252	0xbe74e0f4	-0.23913938
253	0xbdc3cc6f	-0.09560477
254	0xbd5c43a8	-0.05377546
255	0x3ce37206	0.027764332

model.flow.transforms.0.hyper.2.bias f4 [32]
0	0x3e7c8a7c	0.24662203
1	0xbcdc82f5	-0.026917914
2	0x3e5a65b1	0.21327855
3	0x3b60017f	0.003418058
4	0xbe47732b	-0.19477527
5	0xbd3c64af	-0.045994457
6	0x3e997230	0.2996993
7	0x3e5b7b4f	0.21433757
8	0xbe2ec3bf	-0.17066859
9	0xbc63d250	-0.013905123
10	0x3e3ccaf9	0.18436803
11	0x3e7882ab	0.24268596
12	0x3dca18f1	0.098680384
13	0xba8138c4	-0.0009858836
14	0x3d0754a3	0.0330397
15	0x3ede998f	0.4347653
16	0x3e235684	0.15950972
17	0x3ea64c42	0.32480055
18	0x3e555122	0.20831731
19	0x3d855c7a	0.06511779
20	0x3e846984	0.25861752
21	0xbd3f895f	-0.046761867
22	0xbe5bb93b	-0.21457379
23	0x3e445f33	0.1917694
24	0x3e94526d	0.28969136
25	0xbb438322	-0.00298328
26	0xbe3330d6	-0.17499098
27	0x3ef25f86	0.47338504
28	0x3e6a3470	0.22871566
29	0x3e9d95cf	0.30778357
30	0x3e99038e	0.29885525
31	0xbd85fcd3	-0.06542363

model.flow.transforms.0.hyper.4.weight f4 [32, 32]
0	0x3cdac27d	0.026704067
1	0x3d1fb994	0.03899534
2	0x3ce8c6f8	0.028415188
3	0xbcc79372	-0.0243623
4	0xbe008f1d	-0.12554593
5	0x3d17a364	0.037021056
6	0x3e4cc6ba	0.19997683
7	0x3d9cd5a6	0.07657938
8	0xbc33a5b0	-0.010964796
9	0xbe27c83d	-0.16384979
10	0xbd0acda0	-0.033887506
11	0xbde4e47b	-0.11176392
12	0xbdad8794	-0.08473125
13	0xbda60cc9	-0.08107907
14	0x3d1ac018	0.03778085
15	0x3ea15ec7	0.31517622
16	0xbd4ce31c	-0.050021276
17	0xbc450320	-0.012024671
18	0xbdc6aba8	-0.097007096
19	0xbdf8661c	-0.12128851
20	0xbdc22072	-0.09478845
21	0xbe0216c2	-0.12703994
22	0xbd869679	-0.06571669
23	0xbe00a0b0	-0.12561297
24	0x3db619d5	0.08891646
25	0x3e0ab6e3	0.13546328
26	0xbd3a33c4	-0.045459524
27	0xbd8cfa2f	-0.06883656
28	0x3e081495	0.13289101
29	0x3da8cee2	0.08242585
30	0xbe22f1a7	-0.15912496
31	0x3d5f19a8	0.054467827
32	0xbe238180	-0.15967369
33	0xbe9b6825	-0.30352893
34	0x3de41f3a	0.111387685
35	0xbd40e56c	-0.047093794
36	0xbcbabeab	-0.022795996
37	0x3de3dd8a	0.111262396
38	0x3d71a9c4	0.05899979
39	0x3e880c72	0.26571995
40	0xbcb65fe0	-0.022262514
41	0xbd3ad004	-0.045608535
42	0xbb8ea843	-0.0043535545
43	0xbe22158a	-0.15828529
44	0xbe08a29f	-0.13343285
45	0x3df139e4	0.1177862
46	0xbd7a4cc2	-0.06110836
47	0xbdaa3fcf	-0.08312952
48	0x3e87e5fa	0.26542646
49	0x3ca12698	0.019671723
50	0x3de3b5aa	0.11118634
51	0x3ce5fe59	0.028075384
52	0xbcc8e8e0	-0.024525106
53	0x3d2f64ec	0.042820856
54	0x3c59d77c	0.013296004
55	0x3b296d40	0.0025852472
56	0xbe0afc59	-0.13572825
57	0x3e9f38b9	0.31097963
58	0xbc93dd18	-0.018049762
59	0xbe0d5487	-0.13801776
60	0x3e0355a1	0.12825634
61	0xbe06894f	-0.13138317
62	0x3e02a24d	0.12757225
63	0xbe1aa491	-0.1510184
64	0x3d9621ac	0.07330641
65	0xbdfd38e5	-0.123643674
66	0xbecde5d7	-0.40214416
67	0xbe081744	-0.13290125
68	0xbd1668af	-0.036720928
69	0xbd61bb44	-0.05511023
70	0x3cd5b3a8	0.026086643
71	0x3e675f65	0.22594984
72	0xbe2d2bd7	-0.16911255
73	0xbe8a16f1	-0.26970628
74	0x3cd8b743	0.026454573
75	0x3ea58b9f	0.32333085
76	0xbe0a2cf1	-0.13493706
77	0x3cd05b7a	0.025434244
78	0xbe5fa096	-0.21838602
79	0xbdaf036e	-0.08545576
80	0x3b97eb51	0.004636206
81	0x3caba865	0.02095432
82	0x3d964cb4	0.07338849
83	0xbd894ed6	-0.0670449
84	0x3eaff7cd	0.34368744
85	0xbe139d05	-0.14415367
86	0xb9b97290	-0.00035371305
87	0x3e2295d5	0.15877469
88	0xbd6ef19c	-0.058335885
89	0x3e12d6b4	0.14339715
90	0xbecb3b6f	-0.39693782
91	0x3cdc328b	0.02687957
92	0x3dc2c81a	0.095108226
93	0x3e0af174	0.1356867
94	0x3d6019cc	0.0547121
95	0xbdc2c829	-0.09510834
96	0xbcf12854	-0.029438175
97	0xba02f800	-0.00049960613
98	0x3e00dee1	0.12585022
99	0xbe7ea5f6	-0.24867997
100	0xbd9d6c4d	-0.07686672
101	0xbe16e65f	-0.14736317
102	0xbd571b40	-0.052516222
103	0x3d1b14a4	0.03786148
104	0x3e132e41	0.14373113
105	0xbf13f614	-0.5779736
106	0xbcff14c8	-0.031137839
107	0x3ddb51ee	0.10708986
108	0xbe96b66f	-0.2943606
109	0xbdb95eee	-0.090513095
110	0xbd0fd9e8	-0.03511992
111	0x3d8e7430	0.06955755
112	0xbe220a3b	-0.15824215
113	0x3cb492e0	0.022042692
114	0xbda699d7	-0.08134811
115	0xbe02d878	-0.12777889
116	0xbe2677fa	-0.16256705
117	0xbf0b76ac	-0.54477954
118	0xbd826a3f	-0.06367921
119	0xbd6bfe40	-0.05761552
120	0x3de43620	0.11143136
121	0x3bc4a2e0	0.0060008615
122	0xbc96ec38	-0.018423185
123	0x3e9cf214	0.3065344
124	0xbe11b17e	-0.14227864
125	0xbe1aa4a6	-0.15101871
126	0xbdf32b8e	-0.11873542
127	0xbb9fdb20	-0.0048784167
128	0x3e05e415	0.13075288
129	0x3e7c49cf	0.2463753
130	0x3da0c1fa	0.07849498
131	0x3e0979f3	0.13425426
132	0x3d3a3e3f	0.04546952
133	0xbe26ec51	-0.16301085
134	0xbd614752	-0.054999657
135	0x3da657d7	0.08122223
136	0x3dba71ee	0.091037616
137	0x3d9aa0d6	0.07550208
138	0xbe4e81e5	-0.20166738
139	0xbdf44b35	-0.11928407
140	0xbddd40ff	-0.10803413
141	0xbd7b982b	-0.061424416
142	0xbdf0ade2	-0.117519155
143	0x3cd3e3c8	0.02586545
144	0x3da36ea0	0.079800844
145	0xbdb54012	-0.08850111
146	0x3de89e42	0.1135831
147	0x3e2f8766	0.17141494
148	0xbe189ace	-0.14902803
149	0xbdac160e	-0.08402644
150	0xbdb1deef	-0.08685099
151	0xbdde88a7	-0.10865908
152	0x3e32ddd1	0.17467429
153	0xbdc2096e	-0.09474455
154	0xbe152476	-0.1456469
155	0xbd81e41b	-0.06342336
156	0xbcf36026	-0.029708933
157	0xbd8e0a8c	-0.069356054
158	0xbe073bad	-0.13206358
159	0x3d201c48	0.03908947
160	0x3e6ee9a5	0.23331316
161	0x3d3e6ce5	0.04649057
162	0x3e581217	0.2110065
163	0xbdcefc57	-0.10106724
164	0xbdabe285	-0.083928145
165	0xbe7055eb	-0.23470275
166	0x3e70f191	0.2352965
167	0x3c504f8f	0.012714281
168	0x3d7feaf9	0.062479947
169	0xbe98ec1d	-0.2986764
170	0x3ea24947	0.3169653
171	0x3ee84d09	0.45371273
172	0xbe3599f3	-0.17734508
173	0xbcdd779c	-0.027034573
174	0x3eaa751e	0.33292478
175	0x3ea8d083	0.32971582
176	0xbd8e9f8b	-0.06964024
177	0x3e912828	0.2835095
178	0x3e3f6c21	0.18693592
179	0xbe643c02	-0.22288516
180	0x3ea7e6b5	0.32793203
181	0xbea7cf4e	-0.32775348
182	0xbd9c619b	-0.07635804
183	0xbd969e7a	-0.07354446
184	0x3e6ebb49	0.23313631
185	0xbe7011b2	-0.2344425
186	0xbd4d48a3	-0.0501181
187	0x3e70ed10	0.23527932
188	0x3d64bf0e	0.055846266
189	0x3da1382a	0.078720406
190	0x3e78c08d	0.24292202
191	0xbd02c366	-0.031924628
192	0xbbc32677	-0.005955513
193	0x3d86c7a4	0.06581047
194	0x3e0313b5	0.12800486
195	0xbe7dfe36	-0.24804005
196	0x3e1b97b7	0.15194593
197	0xbd429444	-0.04750468
198	0xbc75668a	-0.0149780605
199	0xbb2cf600	-0.0026391745
200	0x3d7ce820	0.06174481
201	0xbea28930	-0.3174529
202	0xbd01270c	-0.03153138
203	0x3e1b3563	0.15157084
204	0xbe3b00c3	-0.1826201
205	0x3e0d072b	0.13772266
206	0xbd1af5b0	-0.037831962
207	0xbe810dc3	-0.25205812
208	0xbdfe535d	-0.12418244
209	0xbc790bd0	-0.01520057
210	0xbe04cf5c	-0.12969726
211	0xbdf01747	-0.1172319
212	0x3e2c3ae5	0.16819341
213	0x3d58bd1f	0.052914735
214	0x3e1d96ab	0.15389507
215	0xbe057858	-0.13034189
216	0xbe52baaa	-0.20579019
217	0x3d980e02	0.07424547
218	0x3db8920e	0.09012233
219	0xbe0e0b71	-0.13871552
220	0xbdda5ce6	-0.1066225
221	0xbe15550b	-0.14583223
222	0xbe1b3eeb	-0.1516072
223	0xbdbf0b73	-0.09328356
224	0xbdd90660	-0.10596919
225	0xbe147211	-0.14496638
226	0x3e2a17e3	0.16610675
227	0x3c878978	0.016545042
228	0xbe40d6ed	-0.18831988
229	0xbe2282e2	-0.1587024
230	0xbd8e83cb	-0.06958731
231	0xbe20566f	-0.15657972
232	0xbbb9f4c0	-0.0056749284
233	0xbdec657a	-0.115427926
234	0xbe0913c6	-0.13386449
235	0xbe10ccf0	-0.14140677
236	0x3cc0fd30	0.02355823
237	0xbd26281d	-0.0405656
238	0xbe16c583	-0.14723782
239	0x3e2864af	0.16444658
240	0x3d00eced	0.03147595
241	0xbca2ab80	-0.019857168
242	0xbd0a4cdc	-0.033764705
243	0x3dfcb1db	0.12338611
244	0xbe1be61e	-0.15224501
245	0xbe17c704	-0.14822012
246	0xbdd8d9c6	-0.10588412
247	0x3d87097a	0.065936044
248	0xbe3276dd	-0.17428155
249	0xbdea7a93	-0.114491604
250	0x3dad217e	0.08453654
251	0x3de63af2	0.11241712
252	0xbdc55b80	-0.09636593
253	0xbe2f47d2	-0.17117241
254	0x3dfe2e26	0.12411146
255	0xbe105fa4	-0.14098984

model.flow.transforms.0.hyper.4.bias f4 [32]
0	0x3ed8aa52	0.42317444
1	0x3ddf3160	0.108980894
2	0x3d797981	0.06090689
3	0x3ed3a8b7	0.41339657
4	0x3dbe87d5	0.09303252
5	0x3b5042d5	0.0031778116
6	0xbedaa674	-0.4270512
7	0xbe23ddee	-0.16002628
8	0x3e22f92d	0.15915366
9	0x3e358bbe	0.17729089
10	0x3d8ee65a	0.0697753
11	0xbe89de7d	-0.26927558
12	0x3ec115d0	0.37711954
13	0xbcbffb88	-0.02343537
14	0x3e167a17	0.14695011
15	0x3e31d0f5	0.17364867
16	0x3db6f2bd	0.089330174
17	0x3d00daf7	0.03145882
18	0x3e9700f4	0.29492915
19	0xbd685281	-0.056719307
20	0x3db48be6	0.08815746
21	0x3e5618df	0.20907925
22	0x3d8dd049	0.06924493
23	0x3e6df14e	0.23236582
24	0x3edc7a17	0.43061897
25	0x3e2346b6	0.15944943
26	0x3e651885	0.22372635
27	0x3e94375b	0.28948483
28	0x3d2a0935	0.041512687
29	0x3e8aa3a7	0.27077982
30	0x3eafb06d	0.3431429
31	0x3de7ed5b	0.11324569

model.flow.transforms.0.hyper.6.weight f4 [8, 32]
0	0x3d0df770	0.034659803
1	0x3bfa2420	0.007633701
2	0xbd1d2d98	-0.03837356
3	0x3d822f60	0.06356692
4	0x3dd3e936	0.10347216
5	0xbe3428b9	-0.1759366
6	0x3d724cb4	0.05915518
7	0x3d81974e	0.06327687
8	0xbdf9b8df	-0.121934645
9	0xbd8acd8a	-0.06777485
10	0xbd8c7261	-0.068577535
11	0xbdd94787	-0.10609346
12	0x3d092c24	0.03348936
13	0xbe2412ab	-0.16022746
14	0x3e1ab35f	0.15107487
15	0xbe0467cf	-0.12930225
16	0xbe098d32	-0.13432768
17	0xbe324fbf	-0.17413233
18	0xbce2cd30	-0.027685732
19	0x3e0bc409	0.13649
20	0xbda8fb86	-0.08251099
21	0xbdbd2975	-0.09236423
22	0x3e2456d3	0.16048746
23	0xbe2c8475	-0.16847403
24	0xbe0373d9	-0.12837161
25	0xbdeece22	-0.116604105
26	0xbd2a1c14	-0.041530684
27	0x3df19182	0.117953315
28	0xbd29a590	-0.04141766
29	0xbe23e87d	-0.16006656
30	0x3d9d48de	0.07679914
31	0x3ddddd16	0.108331844
32	0xbbf59b60	-0.007495329
33	0x3e1a1a69	0.15049137
34	0x3e2a4d89	0.1663114
35	0xbe19f1ca	-0.15033641
36	0x3e2c68c3	0.16836838
37	0xbd800e96	-0.06252782
38	0x3d70e8c4	0.058815733
39	0x3e225fe3	0.1585689
40	0xbe02204b	-0.12707631
41	0x3e03301f	0.12811325
42	0xbd75b1da	-0.059984066
43	0x3c95dfb0	0.01829514
44	0xbe143a4a	-0.1447536
45	0xbd7ad03c	-0.061233744
46	0xbd73d4b6	-0.05952903
47	0xbde2063a	-0.11036344
48	0xbdbd72bb	-0.09250399
49	0x3e277a53	0.16355257
50	0x3d8a2376	0.06745045
51	0xbcd92fa0	-0.026511967
52	0x3d3fcc84	0.0468259
53	0xbe2652a5	-0.16242464
54	0xbdc029ac	-0.09382948
55	0xbc811728	-0.015758112
56	0x3c9437d8	0.018093035
57	0x3d7238b0	0.059136093
58	0x3de5f592	0.112284794
59	0xbda444db	-0.08020946
60	0xbd22e7d4	-0.03977187
61	0x3d64ae48	0.05583027
62	0x3a09bb00	0.00052540004
63	0xbe28db30	-0.16489863
64	0xbda3515e	-0.07974504
65	0x3e04524c	0.12922019
66	0x3d0fb4e4	0.03508462
67	0xbd8da94f	-0.06917059
68	0xbe257b29	-0.16160263
69	0xbe1568ad	-0.14590712
70	0xbe280177	-0.16406809
71	0x3d60c7c7	0.054878023
72	0x3d9b794a	0.075914934
73	0x3d829b6e	0.06377302
74	0xbd6ae2b5	-0.05734511
75	0x3ce38200	0.02777195
76	0xbb8f35e0	-0.004370436
77	0x3d7718b8	0.060326308
78	0x3de80f66	0.11331062
79	0x3e225e6d	0.15856333
80	0xbe25c4cb	-0.16188352
81	0xbd2bbf1c	-0.041930303
82	0x3da53bee	0.08068071
83	0x3e407d4a	0.18797794
84	0xbde82163	-0.11334493
85	0xbdb6103f	-0.088898174
86	0xbc88c0e4	-0.01669354
87	0x3b9cc680	0.004784405
88	0xbe094042	-0.13403419
89	0x3e1ec2e0	0.15504026
90	0xbcdd2f38	-0.027000055
91	0x3e3429e9	0.17594112
92	0x3dba91d8	0.09109849
93	0x3dde3fae	0.1085199
94	0x3c49ed30	0.012324616
95	0xbdef5177	-0.1168546
96	0xbdb40924	-0.08790806
97	0x3b096fa9	0.0020971096
98	0x3e048bc9	0.12943949
99	0xbddb4dac	-0.10708174
100	0xbcf24633	-0.02957449
101	0xbda432ec	-0.08017525
102	0x3dffda2e	0.12492786
103	0x3dbcfb9a	0.09227677
104	0xbe119565	-0.14217146
105	0xbe3469d4	-0.17618495
106	0xbe086bdb	-0.13322394
107	0xbdfffa4e	-0.12498914
108	0x3d5394f8	0.05165574
109	0xbdc41707	-0.095747046
110	0xbd635c30	-0.05550784
111	0x3daf1c52	0.085503235
112	0xbdbd0caf	-0.09230935
113	0x3dc9b852	0.098496094
114	0x3df985fa	0.12183757
115	0xbca9a460	-0.020708263
116	0xbdd2c6b0	-0.10291803
117	0x3d6682b8	0.056277007
118	0x3cfc3f7f	0.030791996
119	0x3aba6d80	0.0014223307
120	0xbda399fd	-0.07988355
121	0xbe0b8256	-0.13623938
122	0xbdf84412	-0.121223584
123	0x3d926be6	0.07149486
124	0x3ddd007e	0.107911095
125	0x3c071990	0.008245841
126	0xbe06e7b8	-0.13174331
127	0xbcaa50f1	-0.020790549
128	0x3e76fd8c	0.24120158
129	0xbe140976	-0.14456734
130	0x3d8ee344	0.06976941
131	0xbecba27f	-0.39772412
132	0x3b247b80	0.0025098026
133	0xbdada8dd	-0.08479474
134	0xbe6512e9	-0.22370495
135	0x3ddc5a8e	0.107594594
136	0xbe0be3be	-0.13661095
137	0xbed6d6c7	-0.41960737
138	0x3dbd0c6a	0.092308834
139	0xbde514e2	-0.11185624
140	0xbe5da583	-0.21645169
141	0x3ace8a80	0.0015757829
142	0x3ddd656e	0.10810362
143	0x3ea451f3	0.32093772
144	0xbd57cb3a	-0.052684046
145	0xbc6e4f90	-0.014545336
146	0xbdd87603	-0.10569384
147	0xbe1e5251	-0.15461089
148	0x3d2d053c	0.04224132
149	0x3ea359ea	0.31904536
150	0x3db22a62	0.0869949
151	0xbb2cc080	-0.0026359856
152	0x3ee6d97b	0.450878
153	0xbd93542e	-0.071937904
154	0x3ddff7ea	0.10935958
155	0x3d2de576	0.04245516
156	0x3e2cb243	0.16864876
157	0x3e2ebc03	0.17063908
158	0xbeab2d54	-0.3343302
159	0xbe12b6f4	-0.14327604
160	0x3ec01271	0.3751407
161	0x3e19f769	0.15035786
162	0xbe1b6bdc	-0.15177864
163	0xbd88ab2b	-0.06673273
164	0x3aa7c900	0.0012800992
165	0x3da6e732	0.08149566
166	0xbe820830	-0.25396872
167	0xbc3183c0	-0.010834634
168	0x3e217abf	0.1576948
169	0x3ca03207	0.019555105
170	0xbdc6b1a3	-0.0970185
171	0xbda010bd	-0.078156926
172	0x3e285d98	0.16441953
173	0x3dd9af12	0.10629095
174	0xbdda5237	-0.106602125
175	0xbd04e18c	-0.03244166
176	0xbcde2188	-0.027115598
177	0x3e1eaf15	0.15496476
178	0x3eb31b97	0.34981987
179	0xbe1a15ad	-0.15047331
180	0x3e337533	0.17525177
181	0x3e8432f8	0.25820136
182	0x3e2380d1	0.15967108
183	0x3db8785a	0.0900733
184	0x3de18058	0.11010808
185	0xbc818eb8	-0.015815124
186	0xbe3013f2	-0.17195109
187	0x3e91f864	0.2850982
188	0x3d204adc	0.03913389
189	0x3e19d0e7	0.15021096
190	0x3e37d93d	0.17953964
191	0xbdae1e8d	-0.08501921
192	0x3d99cd45	0.07509855
193	0x3e1ed71f	0.1551175
194	0x3eba5b00	0.36397552
195	0xbe53e250	-0.206918
196	0xbe2d5827	-0.16928159
197	0xbe87e61a	-0.2654274
198	0x3dce9db1	0.10088671
199	0xbe0f58a0	-0.13998652
200	0x3ed4222f	0.4143233
201	0xbd93151a	-0.07181759
202	0x3d8628f3	0.06550779
203	0xbeb5cbbe	-0.35507005
204	0xbe5dcee4	-0.21660954
205	0x3e15cc69	0.14628758
206	0xbeda7be9	-0.4267266
207	0xbd6e24b7	-0.058140483
208	0xbd8f0e93	-0.06985202
209	0xbe9074bc	-0.2821406
210	0xbd97a8fc	-0.07405278
211	0x3d884c66	0.06655197
212	0xbe9a646d	-0.30154744
213	0xbdeef4ae	-0.11667763
214	0xbd2c97d4	-0.042136982
215	0x3ed452bb	0.41469368
216	0xbe4b01f2	-0.19824961
217	0xbd8f72a7	-0.0700429
218	0x3e770f2b	0.2412688
219	0xbe21ba36	-0.1579369
220	0xbdd57ad5	-0.10423819
221	0x3ea9703f	0.3309345
222	0xbdebdfc4	-0.11517289
223	0xbcd42c6a	-0.025900085
224	0xbd3e011f	-0.046387788
225	0xbcdb06b3	-0.026736593
226	0xbeb771b7	-0.35828945
227	0x3d9938b6	0.0748152
228	0x3e5c71f2	0.21527842
229	0xbd4b293e	-0.04959988
230	0xbe76fc8f	-0.24119781
231	0xbe6c08c4	-0.23050219
232	0x3e6b3547	0.22969542
233	0x3c9cdda6	0.019148659
234	0x3e138afc	0.14408487
235	0x3d150763	0.036383998
236	0x3d3308c2	0.043709524
237	0xbb71147a	-0.0036785887
238	0x3e5ac5f0	0.2136457
239	0xbde233c4	-0.1104503
240	0x3deb27a8	0.11482173
241	0xbdaebbf8	-0.08531946
242	0xbcce367b	-0.025172463
243	0xbda52043	-0.08062794
244	0x3dcf1aec	0.10112557
245	0xbde84db5	-0.113429464
246	0xbd0557ba	-0.032554366
247	0x3d87d891	0.06633104
248	0x3d9a41ce	0.075320825
249	0x3db87dca	0.09008367
250	0x3e5a4ffe	0.21319577
251	0xbe026e8d	-0.12737484
252	0xbd7718e5	-0.060326476
253	0x3db679e6	0.08909969
254	0xbe483a41	-0.19553472
255	0xbc5d0458	-0.013489805

model.flow.transforms.0.hyper.6.bias f4 [8]
0	0x38dc9fb6	0.00010520166
1	0x37c6a8cf	2.3682047e-05
2	0xbd7811c7	-0.06056383
3	0x3dda02b9	0.106450506
4	0x3e466918	0.19376028
5	0x3e8b3f5f	0.27196786
6	0x3e13c755	0.14431508
7	0x3cf4a5b4	0.02986417

model.flow.base._0 f4 [4]
0	0x00000000	0.0
1	0x00000000	0.0
2	0x00000000	0.0
3	0x00000000	0.0

model.flow.base._1 f4 [4]
0	0x3f800000	1.0
1	0x3f800000	1.0
2	0x3f800000	1.0
3	0x3f800000	1.0
