_models_trained/causal_nf/trianglesens_non-linear/last.ckpt (torch, 19320 bytes, 10 tensors)

model.flow.transforms.0.hyper.0.weight f4 [32, 4]
00000000: 3469 39be 4590 073f 907b 6ebd 00c5 77be
00000010: 6d06 90be 7825 013e 40aa 71bd fcf3 09be
00000020: f7e8 5bbd a7e0 8c3d 0e45 9dbe 603a 9ebc
00000030: c06e a0bd a37e 6ebf 7025 3a3e 4abe e2be
00000040: 6c1f 483e 88ca e7be c084 6bbc 22ac f2be
00000050: dbe4 03bf 5d36 353e 65aa 0cbf 387e cbbe
00000060: 604b debd a944 eabe 7874 213e b858 97bd
00000070: b3e0 7fbe c82d 3a3e 3c43 a03e c8f0 8abe
00000080: 0c46 b03b 8691 1e3f 30a6 a23e a445 fc3e
00000090: 9055 02be fab4 0b3f 8c44 19be 5044 bc3d
000000a0: 2b56 a63d e443 febe 18c6 cebd 8a5c f53e
000000b0: 1b39 a63e 39fc a93e 1e39 f03e 6ae1 edbe
000000c0: 80e6 0f3e 1fc9 c4be 6466 f93e 2aa2 903e
000000d0: 0aaa c03e 9041 753e e4ef 78be e05e afbe
000000e0: d8a7 0abf 2b37 683e e955 d63e 56e9 c13e
000000f0: 889b ab3d e0a7 11bf a028 d0bc 004c f4be
00000100: ecea 563e e089 623d 26b3 d3be 70e3 97bd
00000110: 931d 5b3e 599b aebc 74ef c2be 5046 65bd
00000120: bce0 2c3e f051 af3e 9e82 e13e 2241 9f3e
00000130: c59c eabe b025 f83d 8cf7 25be 2c0c 173e
00000140: ce07 f73e 7b90 2abf 02c6 553e 6ec3 9d3e
00000150: 50db fbbe a3a4 0cbf dcb4 84be 0480 b13e
00000160: ce24 c23e a028 eabc aeab a2be f4aa fabe
00000170: c38a b6be 667b 66be a576 843e 9a89 fabe
00000180: d8e7 093e 7c72 1e3f 44bf 66be 706c f53e
00000190: d5d6 f1be 82e1 db3e 00b1 a7bd 6466 743e
000001a0: 49f9 ef3d 30c7 31bd c0f5 f1bd 80ea e9bd
000001b0: fc6c f6be f1bb a93e 9249 c93e 6820 823d
000001c0: b90a dd3e 2691 9a3e 643d 92be 7877 f13d
000001d0: 27d8 643e 3acd f53e 80fd a0be 70d1 b3bd
000001e0: 405a 023c 8f3f f0be 700d c03e ca2b e8be
000001f0: 572c fbbe a07c 67bd d2f8 c63e a854 1cbe
-0.18106538 0.5295451 -0.058223307 -0.24196243 -0.28129902 0.1261195 -0.059000254 -0.13471979
-0.05368897 0.068787865 -0.30716747 -0.019314945 -0.07833624 -0.9316198 0.18178344 -0.44285804
0.19543236 -0.45271707 -0.014374912 -0.47396952 -0.5152108 0.17696519 -0.549475 -0.39744735
-0.108542204 -0.4575551 0.15767086 -0.07389969 -0.2498806 0.18181527 0.31301296 -0.27136827
0.005379444 0.619408 0.31767416 0.49271882 -0.12727952 0.54573023 -0.14967555 0.09192717
0.08121904 -0.4966117 -0.10096377 0.47922164 0.32465443 0.33200243 0.46918577 -0.4646104
0.14052773 -0.38434693 0.4871093 0.2824872 0.3762973 0.23950791 -0.24310261 -0.3425207
-0.5416236 0.22677295 0.4186242 0.37873334 0.083792746 -0.5689678 -0.025409997 -0.47714233
0.20988053 0.05530727 -0.41347617 -0.07416427 0.21398 -0.02131431 -0.38073313 -0.05597526
0.16882604 0.342422 0.44044966 0.3110438 -0.4582273 0.12116563 -0.16207713 0.14750737
0.48248142 -0.6662671 0.20876315 0.30813164 -0.4919076 -0.54938716 -0.25919235 0.3466798
0.37918705 -0.028583825 -0.31771606 -0.48958552 -0.35652742 -0.2250801 0.2587177 -0.48933107
0.13467348 0.6189344 -0.225339 0.47934294 -0.47234216 0.42945486 -0.08188057 0.23867184
0.11717469 -0.04340285 -0.11814451 -0.114216805 -0.48130023 0.331512 0.39313942 0.06353837
0.43172243 0.30188864 -0.28562462 0.11790365 0.2234808 0.48008138 -0.31443405 -0.087801814
0.007956088 -0.4692349 0.37510252 -0.45345908 -0.49057266 -0.056515336 0.3886171 -0.15266669

model.flow.transforms.0.hyper.0.bias f4 [32]
00000000: 9d23 2fbe 43b3 ecbd 2950 79bd b7f8 17bd
00000010: b643 e1be e53d 123e 22c3 7b3d e352 ffbd
00000020: 5b0c 193f 22dc 56bb 6aa5 8f3e 3c54 813e
00000030: 9d37 273f 7b06 12bf 7259 293d 0714 373e
00000040: 36a2 103f ff07 2d3f 8511 2e3f 31d4 10be
00000050: 9a27 c1be f46f 4a3d 3e13 163d c9e4 1b3f
00000060: a420 093e e1eb debd 7d88 213f 7382 2d3f
00000070: 6ac6 9dbe fe8c 013f 6ade c83e f012 f7be
-0.17103429 -0.11557629 -0.060867462 -0.037102427 -0.43996972 0.14281423 0.06146539 -0.12466981
0.5978448 -0.0032785018 0.28055888 0.25259578 0.65319234 -0.5704114 0.041345067 0.17878734
0.56497514 0.67590326 0.6799548 -0.14143445 -0.37725526 0.049423173 0.036639445 0.60895973
0.13391358 -0.10884834 0.6309889 0.67777175 -0.3081544 0.5060576 0.39232188 -0.48256636

model.flow.transforms.0.hyper.2.weight f4 [32, 32]
00000000: d0be 93bc 6eea 06be b0a9 e1bc f7ac 0cbf
00000010: 1f61 2a3e 627b 9c3d 040a fbbe a00d df3c
00000020: e340 143e 3713 603e f21c aa3d f9d1 123e
00000030: 50cc b3be 00b3 8e3c b432 153d 4fce c1be
00000040: 00f4 633d d0e2 e2bd 5ac7 893e 4ccb 4cbd
00000050: eaf5 94bd 5414 64be 53e9 233e 0c6d d5bd
00000060: 7bd6 8c3d 2c71 8e3d a893 903c d24f e43d
00000070: 9617 e13d b691 9dbd 511e 5abe 3ffe 273e
00000080: beb1 76bd e6fb 32be 0a05 c03d 2fb1 103e
00000090: 7de3 5e3e 2ed5 fd3d 7053 753c 7498 76be
000000a0: 1826 01be 1017 f73c 7633 fd3d ee72 c1bd
000000b0: 7060 903d ba37 eb3b 45fb 1b3e 22ad 973d
000000c0: 16c5 063e 88b4 f2bc 057d 88bd 80c7 4fbe
000000d0: fa33 a1bd 68d5 863c 1b3a 023d 3e0a cb3d
000000e0: 55d7 cbbd 065b a5bd 1e23 933d a064 8ebb
000000f0: 362a 0d3e 00e2 edbd 6026 713c d460 d2bd
00000100: 7f4b 833e 7f78 653d aceb 74bd 7b93 a5bd
00000110: 5ed7 de3d 6de1 fd3b 5508 42be 2a06 543c
00000120: bbe1 8c3e 5fcb 343e ea61 ba3d 0335 d6bc
00000130: effe f2bd e978 f9bc 372b 923d 7166 25be
00000140: 8509 003c 957d a7bb d386 a03e be0d d5bd
00000150: e7fb f6be 555c 72be f8ad aa3d 6580 f93d
00000160: 9c19 713e 4321 babd ee36 74bd 8da5 013e
00000170: ac36 f7bd 3548 7c3e ad50 97bd 07bf 143e
00000180: cdcf babe 2e11 ba3d b5af 0a3e 55c2 da3e
00000190: 7512 8cbd a635 b23d ccf0 843e 1625 03be
000001a0: 05c4 113e 9d19 1ebf ae9b 993d a343 32be
000001b0: dbd3 933e 6603 c0bd c304 1a3e 2c2a 3f3e
000001c0: 8e26 ce3d 61e7 343e 94a1 cabe bad1 ab3d
000001d0: 608d 98bc b9ba e43e 9672 d23d 6db6 153e
000001e0: 8664 01bf cbd1 bfbd 9031 ac3c 0f54 a3be
000001f0: 8876 29bd 399e 083e 3700 da3e 398b 0d3e
00000200: f89a bbbc cf41 84bc 826d 1ebe e0ad a6bb
00000210: 8a67 923e 50bb 2ebd 3f7b 1b3e 0745 babc
00000220: 996a 303e 1804 edbd 51c8 08be b4d5 25bd
00000230: b94d 2bbe f584 2c3e 3eb7 c1bd c8a6 b2bc
00000240: dde1 12be e4d3 8e3d ec1f e5bd 1b76 32be
00000250: 49b4 94bd e8bd 34bd 9850 b13c 90c8 10be
00000260: 7e5f ba3d eb8a adbd 50f6 25bd 5ade 8b3d
00000270: 7454 3dbd 8e54 f63d d948 203e 3b8c e2bd
00000280: 7706 893e f2c4 9c3d bee3 3c3d dc90 c23e
00000290: 3e1c f03d 0df5 24be 5540 5c3e e689 903e
000002a0: 7773 863d 2b0e 303e fe08 a2be 4fc0 483e
000002b0: a063 af3d 6d4b a93d 39b7 00be f3fa 783e
000002c0: 7683 9cbe 6c41 55be dc30 d3be b0c9 8d3e
000002d0: 6196 863e fa19 9f3e 71aa ebbd 5975 e9bc
000002e0: c05c 813e fd45 e83d 0942 81be 7006 10be
000002f0: 9027 04bd fa80 92be db34 853e 2a2a af3d
00000300: 5134 b1be a015 8c3c ae48 db3d 54e8 233e
00000310: 5a2c 9b3d 4367 2dbe fb3e ee3d 50ec 5b3d
00000320: 73c9 143e ce2b 49be f84c c73c 6822 413d
00000330: e4d6 aa3e 7a83 973d 2da2 8abd 52c2 8c3e
00000340: cede d43d f50c 01be eda6 0c3e fa69 08be
00000350: 753e 2d3e 51bd 1abc 6d1f 2b3e 46ce 8b3d
00000360: 4df7 22bd 8075 3ebb b3bb 0c3e 3bad 8d3e
00000370: e488 34be c861 21be 6668 163e 40a6 44bd
00000380: f7fb bdbd 9395 133d bc8b 61bd 24e6 1c3d
00000390: 459f 52be e273 fa3d a246 23be faee 2cbd
000003a0: 32b8 d23d b20e d03d 3cde a23c d8fd a83c
000003b0: 796d 2cbe d7c1 6cbc 4602 e73d ff0c 27be
000003c0: 019e 513d 1885 203d 6617 bd3d 5e5a b4bd
000003d0: 389b b5bd 32d6 62bd 544b ecbd 5c25 d4bd
000003e0: 9361 22be 418f d03d a2c9 f43d 0022 a6bc
000003f0: 1149 75be 6fcc c3bd a843 5cbd 27bb e23c
-0.018035322 -0.13175365 -0.027546734 -0.54951423 0.16638611 0.07640721 -0.4903108 0.027228177
0.14477877 0.2188233 0.08306302 0.1433791 -0.35116816 0.017419338 0.036425307 -0.37852713
0.05565262 -0.11078417 0.26909906 -0.049998567 -0.07273467 -0.2227338 0.16006975 -0.1042119
0.068768464 0.069551796 0.017648533 0.11148037 0.10990827 -0.07693808 -0.21300627 0.16405581
-0.060228102 -0.17478904 0.09375961 0.1413009 0.21766467 0.123941764 0.014973506 -0.24081594
-0.12612188 0.030162364 0.12363331 -0.09445749 0.07049644 0.007178274 0.1523257 0.07406069
0.1316112 -0.0296271 -0.066644706 -0.20290947 -0.07871242 0.016459182 0.031793695 0.09914063
-0.09953181 -0.08074002 0.071844324 -0.0043454915 0.13785633 -0.11615372 0.014718622 -0.10272375
0.25643536 0.056023117 -0.059795067 -0.0808477 0.10880922 0.00774782 -0.18948491 0.012940923
0.2751597 0.17655705 0.09100707 -0.026148325 -0.11865031 -0.030453162 0.07137149 -0.1615236
0.00781477 -0.005111406 0.31352863 -0.10403012 -0.4823906 -0.23668034 0.08333963 0.121826924
0.23544925 -0.090883754 -0.059622698 0.12660809 -0.12070975 0.2463692 -0.073884346 0.14525996
-0.36486664 0.09085308 0.1354359 0.4272639 -0.06839458 0.08701639 0.25964963 -0.12807116
0.14234932 -0.6175783 0.07500397 -0.17408614 0.2887257 -0.09375648 0.15040879 0.18668431
0.100659475 0.17666389 -0.395764 0.083896115 -0.0186221 0.44673708 0.10275762 0.14620371
-0.5054401 -0.09366187 0.021019727 -0.3190007 -0.041372806 0.13341607 0.4257829 0.1382264
-0.022901043 -0.016144661 -0.15471461 -0.0050866455 0.2859462 -0.042659104 0.15183733 -0.022737993
0.17228164 -0.115730464 -0.13357665 -0.040487006 -0.16728868 0.16847594 -0.09458779 -0.021808043
-0.14343973 0.06974009 -0.11187729 -0.17427866 -0.07260949 -0.04412642 0.021644875 -0.14139009
0.09100245 -0.08473762 -0.040518105 0.068295196 -0.04622312 0.12027846 0.15652789 -0.11061903
0.26762745 0.07654752 0.04611563 0.38001144 0.11724137 -0.16109104 0.21508916 0.28230208
0.06564992 0.17192905 -0.31647485 0.1960461 0.08563924 0.082663395 -0.12569894 0.2431448
-0.30569047 -0.20825738 -0.41248214 0.27692938 0.26286605 0.31074506 -0.115071185 -0.028498339
0.25266075 0.11341474 -0.25245693 -0.14064956 -0.032264292 -0.28614026 0.26016888 0.08552964
-0.34610227 0.017100155 0.10707222 0.16006595 0.07576819 -0.16933922 0.11633106 0.053692162
0.14529972 -0.19645616 0.024328694 0.047151953 0.33367074 0.07398124 -0.06769214 0.27492005
0.10394059 -0.12602599 0.13735552 -0.13321677 0.16918357 -0.009444551 0.16711207 0.06826453
-0.039786626 -0.0029061735 0.13743477 0.27671227 -0.17630345 -0.15759957 0.14688262 -0.04801011
-0.09276574 0.036031317 -0.0550649 0.038305417 -0.20568569 0.12229134 -0.15944913 -0.042220093
0.10289039 0.10159053 0.01988136 0.020628855 -0.16838636 -0.014450512 0.112797305 -0.16313551
0.051176075 0.039189428 0.092329785 -0.08806299 -0.08867496 -0.055380054 -0.11537805 -0.10358688
-0.15857534 0.101835735 0.11952521 -0.020279884 -0.23953654 -0.09560477 -0.05377546 0.027677132

model.flow.transforms.0.hyper.2.bias f4 [32]
00000000: fa74 7c3e ce55 dbbc c140 5a3e 20a4 0b3b
00000010: 82b8 47be 0dbf 3dbd 7801 9a3e 23c8 5b3e
00000020: bd16 2fbe d886 5dbc be53 3d3e 8a10 793e
00000030: 9004 cc3d 6496 b3ba 4fb9 083d 8b1a df3e
00000040: 8c91 233e 3594 a63e 5b67 553e 884f 853d
00000050: cba7 843e 4aa6 3dbd ed49 5cbe 3005 443e
00000060: c265 953e 6188 4fbb 9fc4 33be 4ef7 f23e
00000070: 448a 6a3e 41c6 9d3e 84d1 9a3e 702f 86bd
0.24653998 -0.026774313 0.21313764 0.0021307543 -0.19503978 -0.04632478 0.30079246 0.21463065
-0.17098518 -0.013520919 0.18488976 0.24322715 0.09961808 -0.0013701436 0.03337985 0.43574938
0.1597349 0.32534948 0.20840208 0.0650931 0.25909266 -0.046301164 -0.21512575 0.19142604
0.29179198 -0.0031666982 -0.17555474 0.47454304 0.22904307 0.30815318 0.30237973 -0.06552017

model.flow.transforms.0.hyper.4.weight f4 [32, 32]
00000000: a5a6 d73c 94b9 1f3d f8c6 e83c 6883 c8bc
00000010: 1d8f 00be 64a3 173d 372a 4d3e a6d5 9c3d
00000020: b0a5 33bc 72e0 27be a0cd 0abd 7be4 e4bd
00000030: 14fd adbd c90c a6bd 18c0 1a3d a39b a13e
00000040: 1ce3 4cbd 2003 45bc 0962 c7bd 1c66 f8bd
00000050: 7220 c2bd 7a38 02be 7996 86bd b0a0 00be
00000060: 9743 b53d e3b6 0a3e c433 3abd ac36 8dbd
00000070: 9514 083e e2ce a83d ba68 23be a819 5f3d
00000080: 8081 23be b557 9bbe 3a1f e43d 6ce5 40bd
00000090: b3d1 b7bc 8add e33d c4a9 713d 69dc 873e
000000a0: e05f b6bc 04d0 3abd d76e 9abb 8a15 22be
000000b0: 9fa2 08be 3940 f13d c24c 7abd cf3f aabd
000000c0: 9db9 873e 9826 a13c aab5 e33d 7fa2 e93c
000000d0: e0e8 c8bc ec64 2f3d 6c0f 5f3c 406d 293b
000000e0: 59fc 0abe 4e1a 9f3e 18dd 93bc 8754 0dbe
000000f0: 7ef6 023e 4f89 06be 4da2 023e b853 1abe
00000100: 66d3 953d 37ad fdbd 1eb1 cdbe 458e 07be
00000110: ccd3 16bd 6ee1 5dbd 69cd d53c 797f 673e
00000120: 2109 2dbe 17e3 89be b4a3 d93c 11ab a53e
00000130: 939b 09be 3c8f d13c 9ca8 5fbe a400 afbd
00000140: a7dc 9f3b 9ae5 ac3c f275 963d b783 89bd
00000150: d715 b03e 7b24 13be c4bf cfb9 c37e 223e
00000160: 276b 6dbd b60d 133e b555 cbbe 14b6 d93c
00000170: eaf3 c23d c103 0b3e fc56 623d 5539 c3bd
00000180: 5f40 f5bc 00f8 02ba e1de 003e 2404 7fbe
00000190: 4d6c 9dbd 5fe6 16be d1ba 59bd a414 1b3d
000001a0: 412e 133e bc10 14bf c814 ffbc ee51 db3d
000001b0: 82d5 96be ee5e b9bd e8d9 0fbd 7173 8d3d
000001c0: 3b0a 22be e092 b43c 10c6 a7bd 78d8 02be
000001d0: fa77 26be b18c 0bbf 3f6a 82bd 40fe 6bbd
000001e0: fcd9 e23d e0a2 c43b 38ec 96bc 6199 9c3e
000001f0: 7eb1 11be a6a4 1abe 7298 f4bd 20db 9fbb
00000200: 15e4 053e 4958 7c3e fac1 a03d f379 093e
00000210: bd4b 393d 51ec 26be 5247 61bd 16c7 a63d
00000220: ee71 ba3d d6a0 9a3d 3f47 4ebe 354b f4bd
00000230: ff40 ddbd ace8 7bbd e2ad f0bd c8e3 d33c
00000240: bb9b a33d 1240 b5bd 429e e83d 7d46 2f3e
00000250: ce9a 18be 0e16 acbd d05d b2bd a788 debd
00000260: d1dd 323e ce01 c2bd 7624 15be 1be4 81bd
00000270: 2184 f1bc 8c0a 8ebd ad3b 07be 43d0 1f3d
00000280: f08e 6e3e c6cf 363d 5651 583e fb78 cfbd
00000290: a5e4 aebd 11dc 70be 09d2 713e a6b1 6b3c
000002a0: c48b 7c3d 8c35 99be d2fd a23e 0e9d e93e
000002b0: e886 35be 6b31 d3bc 5790 aa3e 4346 a93e
000002c0: 9e49 88bd c5ff 913e bb1f 3f3e 3488 67be
000002d0: 01cf a83e 2203 a8be e378 9dbd 666a 99bd
000002e0: b075 6e3e d08e 6dbe 43bb 51bd 8063 713e
000002f0: d233 693d ffcd a43d d27b 783e f326 0fbd
00000300: d31a edbb a4c7 863d b513 033e 5a6f 7dbe
00000310: b797 1b3e 4494 42bd 126e 6cbc 00f6 2cbb
00000320: 20e8 7c3d 3195 a2be 0c27 01bd 6335 1b3e
00000330: ea02 3abe 2b07 0d3e b0f5 1abd 9abb 80be
00000340: 5d53 febd d00b 79bc b9f5 05be 4717 f0bd
00000350: e53a 2c3e 6cb3 593d ab96 1d3e 5878 05be
00000360: edbd 53be 020e 983d 0e92 b83d 5a56 0ebe
00000370: e65c dabd 0b55 15be d91b 1cbe 730b bfbd
00000380: 6006 d9bd 7b8e 14be e317 2a3e 7889 873c
00000390: d2a4 40be e282 22be cb83 8ebd d27f 20be
000003a0: c0f4 b9bb 7a65 ecbd 9b42 09be f0cc 10be
000003b0: 30fd c03c d8d9 25bd 83c5 16be af64 283e
000003c0: e803 013d 80ab a2bc dc4c 0abd feed fc3d
000003d0: 1ee6 1bbe 04c7 17be 6e73 d8bd 7a09 873d
000003e0: dd76 32be b14e eabd 7e21 ad3d f23a e63d
000003f0: 53af c5bd d247 2fbe 262e fe3d e16c 10be
0.02632458 0.03899534 0.028415188 -0.024476722 -0.12554593 0.037021056 0.20035635 0.07657938
-0.010964796 -0.16394213 -0.033887506 -0.11176392 -0.084955364 -0.08107907 0.03778085 0.31564054
-0.050021276 -0.012024671 -0.097354956 -0.12128851 -0.09478845 -0.12716857 -0.06571669 -0.12561297
0.08850782 0.13546328 -0.045459524 -0.068951935 0.13289101 0.08242585 -0.15957919 0.054467827
-0.15967369 -0.30340353 0.111387685 -0.047093794 -0.02243886 0.111262396 0.05899979 0.26535347
-0.022262514 -0.045608535 -0.00471292 -0.15828529 -0.13343285 0.117798276 -0.06110836 -0.08312952
0.265088 0.019671723 0.11118634 0.028519867 -0.024525106 0.042820856 0.013614517 0.0025852472
-0.13572825 0.31074756 -0.018049762 -0.13801776 0.12789342 -0.13138317 0.12757225 -0.15070999
0.07315712 -0.12386554 -0.40174192 -0.13237865 -0.03682308 -0.054170065 0.026098924 0.2260722
-0.16898014 -0.26931068 0.026567318 0.32357076 -0.13438253 0.025580995 -0.21841663 -0.08545044
0.0048785987 0.021105576 0.07346715 -0.06714576 0.34391662 -0.14369385 -0.00039624993 0.15868668
-0.057963517 0.14360699 -0.39713827 0.02657608 0.09519179 0.13575651 0.055258736 -0.095324196
-0.029937921 -0.00049960613 0.12585022 -0.24903923 -0.07686672 -0.14736317 -0.053156678 0.03786148
0.14373113 -0.57838035 -0.031137839 0.10708986 -0.2945977 -0.090513095 -0.03511992 0.06906784
-0.15824215 0.022042692 -0.08192074 -0.12777889 -0.16256705 -0.54511553 -0.06367921 -0.05761552
0.110767335 0.0060008615 -0.018423185 0.3058577 -0.14227864 -0.15101871 -0.11943139 -0.0048784167
0.13075288 0.24643053 0.07849498 0.13425426 0.045238245 -0.16301085 -0.054999657 0.081434414
0.091037616 0.07550208 -0.20144366 -0.11928407 -0.10803413 -0.06150119 -0.117519155 0.02586545
0.079886876 -0.08850111 0.1135831 0.17116733 -0.14902803 -0.08402644 -0.087092996 -0.10865908
0.17467429 -0.094730005 -0.1456469 -0.06342336 -0.02948195 -0.069356054 -0.13206358 0.039016973
0.23296714 0.044631742 0.21124777 -0.10130497 -0.08539704 -0.23521449 0.23615278 0.014385616
0.06165673 -0.29923666 0.31834275 0.45627636 -0.17727244 -0.0257804 0.33313248 0.33061418
-0.06654666 0.2851545 0.18664448 -0.22610551 0.3297043 -0.3281489 -0.07689073 -0.07490997
0.23287082 -0.2319901 -0.051203977 0.23573112 0.056934185 0.08047103 0.24265984 -0.034949254
-0.0072358637 0.06581047 0.12800486 -0.24749509 0.15194593 -0.04750468 -0.01443054 -0.0026391745
0.06174481 -0.3175445 -0.03153138 0.15157084 -0.18165174 0.13772266 -0.037831962 -0.2514313
-0.12418244 -0.01520057 -0.13082017 -0.1172319 0.16819341 0.053149626 0.15389507 -0.13034189
-0.2067792 0.07424547 0.09012233 -0.13900128 -0.1066225 -0.14583223 -0.15244998 -0.09328356
-0.10596919 -0.14507477 0.16610675 0.016545042 -0.18812874 -0.1587024 -0.06958731 -0.1567376
-0.0056749284 -0.115427926 -0.13404314 -0.14140677 0.02355823 -0.040490955 -0.14723782 0.16444658
0.031497866 -0.019857168 -0.033764705 0.12350081 -0.15224501 -0.14822012 -0.105688915 0.065936044
-0.17428155 -0.114407904 0.08453654 0.11241712 -0.09652581 -0.17117241 0.12411146 -0.14104034

model.flow.transforms.0.hyper.4.bias f4 [32]
00000000: 75eb d83e a297 de3d 26a6 793d 4a4a d33e
00000010: 9a10 bf3d a1a1 793b 68b3 dabe e21f 24be
00000020: fa61 233e 932c 373e 346d 8f3d ca26 8abe
00000030: 305b c13e c977 c0bc 6c9f 163e d1f2 333e
00000040: c39f b73d c945 003d 76f1 963e f9d6 69bd
00000050: 2db9 b43d a342 543e 8a1b 8d3d 055b 6e3e
00000060: 3223 dd3e 9059 233e e77b 653e 1633 943e
00000070: a0e6 283d b4cd 8a3e 84fe af3e 935e e83d
0.4236714 0.108687654 0.060949467 0.41267616 0.09329338 0.0038090723 -0.42715 -0.16027787
0.15955344 0.17888097 0.07003251 -0.2698272 0.37764883 -0.023494618 0.14709252 0.17573096
0.08966019 0.031316552 0.29481095 -0.05708978 0.08824382 0.20728545 0.06890018 0.23276909
0.43190914 0.15952134 0.22410546 0.28945225 0.041235566 0.27110064 0.34373868 0.113461636

model.flow.transforms.0.hyper.6.weight f4 [8, 32]
00000000: 70f7 0d3d 2024 fa3b 982d 1dbd 602f 823d
00000010: 36e9 d33d b928 34be b44c 723d 4e97 813d
00000020: dfb8 f9bd 8acd 8abd 6172 8cbd 8747 d9bd
00000030: 242c 093d ab12 24be 5fb3 1a3e cf67 04be
00000040: 328d 09be bf4f 32be 30cd e2bc 09c4 0b3e
00000050: 86fb a8bd 7529 bdbd d356 243e 7584 2cbe
00000060: d973 03be 22ce eebd 141c 2abd 8291 f13d
00000070: 90a5 29bd 7de8 23be de48 9d3d 16dd dd3d
00000080: 609b f5bb 691a 1a3e 894d 2a3e caf1 19be
00000090: c368 2c3e 960e 80bd c4e8 703d e35f 223e
000000a0: 4b20 02be 1f30 033e dab1 75bd b0df 953c
000000b0: 4a3a 14be 3cd0 7abd b6d4 73bd 3a06 e2bd
000000c0: bb72 bdbd 537a 273e 7623 8a3d a02f d9bc
000000d0: 84cc 3f3d a552 26be ac29 c0bd 2817 81bc
000000e0: d837 943c b038 723d 92f5 e53d db44 a4bd
000000f0: d4e7 22bd 48ae 643d 00bb 093a 30db 28be
00000100: 5e51 a3bd d0ee 033e e4b4 0f3d 4fa9 8dbd
00000110: bd4e 25be ad68 15be 7701 28be 17e7 613d
00000120: 4a79 9b3d 6e9b 823d 918f 6abd 0082 e33c
00000130: e035 8fbb ec8d 753d 660f e83d 6d5e 223e
00000140: a18e 25be 1cbf 2bbd ee3b a53d 301f 403e
00000150: 6321 e8bd 3f10 b6bd 42ba 88bc 80c6 9c3b
00000160: 4240 09be 9057 1e3e 382f ddbc e929 343e
00000170: 1058 ba3d ae3f de3d 30ed 493c d57b eebd
00000180: 2409 b4bd e4d1 053b c98b 043e ac4d dbbd
00000190: 3e92 f3bc ec32 a4bd 2eda ff3d 0c68 bd3d
000001a0: 6595 11be d469 34be a080 08be 4efa ffbd
000001b0: f894 533d 1bf4 c3bd 305c 63bd 521c af3d
000001c0: 9f4c bdbd 52b8 c93d fa85 f93d c855 a9bc
000001d0: b0c6 d2bd b882 663d 4ed8 f83c 806d ba3a
000001e0: fd99 a3bd 5c97 0bbe 1244 f8bd e66b 923d
000001f0: de19 dd3d 9019 073c b8e7 06be c850 aabc
00000200: be82 773e 7609 14be 44e3 8e3d d9be cbbe
00000210: 807b 243b dda8 adbd 2865 65be 8e5a dc3d
00000220: bee3 0bbe 5d50 d7be 6a0c bd3d e214 e5bd
00000230: eeb6 5dbe 808a ce3a 6e65 dd3d 43bb a43e
00000240: 3acb 57bd 904f 6ebc af22 d7bd 5152 1ebe
00000250: 3c05 2d3d 3610 a33e 622a b23d 80c0 2cbb
00000260: 5ee8 e73e 2e54 93bd eaf7 df3d 53c5 2d3d
00000270: 43b2 2c3e 03bc 2e3e 4858 abbe f4b6 12be
00000280: 9c8f c03e 69f7 193e dc6b 1bbe b45b 88bd
00000290: 00c9 a73a 32e7 a63d 0b4e 82be c083 31bc
000002a0: bf7a 213e 480c 9e3c a3b1 c6bd bd10 a0bd
000002b0: e000 283e 12af d93d 3752 dabd 5ba6 06bd
000002c0: 8821 debc 15af 1e3e 7bfe b23e ad15 1abe
000002d0: 3375 333e dc92 843e d180 233e 5a78 b83d
000002e0: 17e9 e03d b88e 81bc f213 30be 4fcb 913e
000002f0: dc4a 203d e7d0 193e 42ab 373e 8d1e aebd
00000300: 27c6 9a3d c5be 1e3e 7d6a ba3e 7bf4 53be
00000310: 774a 2dbe 7641 88be 433f ce3d 2a40 0fbe
00000320: 5063 d43e 8a68 92bd 95e1 853d 4652 b6be
00000330: 0cf2 5dbe d884 153e 3deb dabe e8e4 6fbd
00000340: d509 8fbd 3fc8 90be 7ff7 97bd c420 883d
00000350: 8df5 9abe 2b75 edbd 5544 2bbd 8a89 d43e
00000360: b52b 4bbe f184 8fbd 7ba2 773e 7624 22be
00000370: e2cc d4bd 54c6 a93e a16b ebbd a0f0 d2bc
00000380: 252a 3cbd 4385 dabc 3055 b7be 9e18 993d
00000390: 1a80 5c3e bc5a 4abd e63c 77be 0427 6cbe
000003a0: 2d40 6b3e 8297 963c a981 133e 756a 173d
000003b0: 2cce 313d 8e06 72bb dda0 5a3e 46a6 e3bd
000003c0: 7056 eb3d cb52 aebd 680a cebc 6b0f a5bd
000003d0: 5c26 cf3d 48b2 e6bd 3602 03bd 4bde 873d
000003e0: 7229 983d 479f b83d b86c 5a3e beb5 02be
000003f0: c2ef 76bd f18a b63d 3d96 48be d49f 5abc
0.034659803 0.007633701 -0.03837356 0.06356692 0.10347216 -0.1759366 0.05915518 0.06327687
-0.121934645 -0.06777485 -0.068577535 -0.10609346 0.03348936 -0.16022746 0.15107487 -0.12930225
-0.13432768 -0.17413233 -0.027685732 0.13649 -0.08251099 -0.09236423 0.16048746 -0.16847403
-0.12837161 -0.116604105 -0.041530684 0.117953315 -0.04141766 -0.16006656 0.07679914 0.108331844
-0.007495329 0.15049137 0.1663114 -0.15033641 0.16836838 -0.06252782 0.058815733 0.1585689
-0.12707631 0.12811325 -0.059984066 0.01829514 -0.1447536 -0.061233744 -0.05952903 -0.11036344
-0.09250399 0.16355257 0.06745045 -0.026511967 0.0468259 -0.16242464 -0.09382948 -0.015758112
0.018093035 0.059136093 0.112284794 -0.08020946 -0.03977187 0.05583027 0.00052540004 -0.16489863
-0.07974504 0.12884068 0.03508462 -0.06917059 -0.16143318 -0.14590712 -0.16406809 0.055152025
0.075914934 0.06377302 -0.05726582 0.02777195 -0.004370436 0.0599498 0.11331062 0.15856333
-0.1616769 -0.041930303 0.08068071 0.18761897 -0.11334493 -0.088898174 -0.016690377 0.004784405
-0.13403419 0.1546309 -0.027000055 0.17594112 0.09098828 0.1085199 0.012324616 -0.11644713
-0.08790806 0.0020419294 0.12943949 -0.10708174 -0.02973282 -0.08017525 0.12492786 0.09248361
-0.14217146 -0.17618495 -0.13330317 -0.12498914 0.05165574 -0.09568044 -0.05550784 0.085503235
-0.0924313 0.098496094 0.12183757 -0.020670786 -0.10291803 0.056277007 0.03037658 0.0014223307
-0.07988355 -0.13631958 -0.121223584 0.07149486 0.107959494 0.008245841 -0.13174331 -0.020790473
0.24170968 -0.14456734 0.06976941 -0.39794043 0.0025098026 -0.08479474 -0.2240187 0.107594594
-0.13661095 -0.420535 0.092308834 -0.11185624 -0.21651813 0.0015757829 0.10810362 0.3217412
-0.052684046 -0.014545336 -0.10504662 -0.15461089 0.04224132 0.31848305 0.0869949 -0.0026359856
0.4529447 -0.071937904 0.10935958 0.04242451 0.16864876 0.17063908 -0.3346579 -0.14327604
0.37609565 0.15035786 -0.15177864 -0.06658116 0.0012800992 0.08149566 -0.25450167 -0.010834634
0.1576948 0.019292966 -0.0970185 -0.078156926 0.16406584 0.10629095 -0.106602125 -0.032873493
-0.027115598 0.15496476 0.34959778 -0.15047331 0.17525177 0.25893295 0.15967108 0.0900733
0.10981958 -0.015815124 -0.17195109 0.28475425 0.03913389 0.15021096 0.17936423 -0.08501921
0.07557326 0.1550246 0.3640937 -0.2069873 -0.16922937 -0.26612443 0.1007066 -0.1398932
0.4148202 -0.071488455 0.06537167 -0.35609645 -0.21674365 0.14601457 -0.42757598 -0.05856791
-0.06984297 -0.28277776 -0.07420253 0.066468745 -0.30265465 -0.11594614 -0.041813213 0.41511184
-0.19840892 -0.070077784 0.24183075 -0.15834221 -0.10390641 0.33159125 -0.11495138 -0.025749505
-0.04593863 -0.026674872 -0.3580718 0.074753985 0.21533242 -0.049402937 -0.24144325 -0.23061758
0.229737 0.018382791 0.1440493 0.03696676 0.04340951 -0.0036930176 0.21350427 -0.111156985
0.11491096 -0.08511885 -0.025151446 -0.08059581 0.10114738 -0.11264473 -0.03198453 0.06634196
0.0742978 0.09014755 0.21330535 -0.12764642 -0.060287245 0.0891322 -0.19588561 -0.01334377

model.flow.transforms.0.hyper.6.bias f4 [8]
00000000: fa11 b4b7 7b73 db37 2335 79bd 6182 d93d
00000010: fae0 463e 9069 8b3e 94c4 133e 3a95 f63c
-2.1466043e-05 2.616061e-05 -0.06084169 0.10620571 0.19421759 0.27228975 0.14430457 0.030100454

model.flow.base._0 f4 [4]
00000000: 0000 0000 0000 0000 0000 0000 0000 0000
0.0 0.0 0.0 0.0

model.flow.base._1 f4 [4]
00000000: 0000 803f 0000 803f 0000 803f 0000 803f
1.0 1.0 1.0 1.0
