_models_trained/vaca/collidersens_non-linear/epoch=106-step=2140-v1.ckpt (torch, 121569 bytes, 37 tensors)

model.encoder_gnn.pre_nn.fc_layers.0.0.weight f4 [16, 1]
-0.2907485 0.362702 -0.28566623 -0.03862989 -0.08774532 -0.6513584 0.67069334 -0.8876214
0.6328444 -0.9862928 -0.3200313 -0.8779102 -0.85437393 0.62422633 -0.6511428 -0.8452312
00000000: fddc 94be 14b4 b93e d842 92be 603a 1ebd
00000010: d1b3 b3bd 6dbf 26bf 8fb2 2b3f 283b 63bf
00000020: 1702 223f af7d 7cbf 24db a3be b9be 60bf
00000030: 40b8 5abf 4ccd 1f3f 4bb1 26bf 1261 58bf

model.encoder_gnn.pre_nn.fc_layers.0.0.bias f4 [16]
-0.16442317 -0.21347466 0.16502567 -0.14779937 -0.37720373 0.20659414 0.22318467 -0.34103343
0.03222875 0.649074 0.21454664 0.4255303 -0.11558733 -0.02106407 0.0068772268 0.1711457
00000000: 8c5e 28be 1a99 5abe 7dfc 283e b858 17be
00000010: d920 c1be 6a8d 533e 868a 643e ef9b aebe
00000020: 4b02 043d b729 263f 1db2 5b3e 1cdf d93e
00000030: 0db9 ecbd 8e8e acbc 5c5a e13b d240 2f3e

model.encoder_gnn.lin_skipsum.0.0.weight f4 [16, 16]
-0.16245344 -0.018847883 -0.19536059 0.23961082 0.15602307 -0.022096526 0.1025037 -0.18302926
0.13202457 -0.100728355 -0.003243559 0.006645782 0.1278514 0.21855323 -0.12331899 -0.157311
0.01074744 0.018400803 0.30594924 0.18936667 0.05435058 0.068910964 -0.13821545 -0.016266588
-0.038977828 0.09429943 0.0077793486 0.09391809 0.17272292 -0.18069604 -0.015842505 0.111507595
-0.11922736 0.16378878 0.08968445 0.1555219 -0.25167483 -0.02478155 0.07403066 -0.018299088
0.2771879 -0.13412854 0.0077132755 0.036355395 -0.24406488 0.15050897 -0.18950862 0.05797703
-0.020709742 0.068953425 -0.25436667 -0.24479276 -0.27150682 -0.1410527 0.16415025 -0.27986944
0.1781512 0.034716353 -0.1786544 0.09250127 -0.25710735 0.30807433 -0.12078585 0.011592389
-0.24529117 -0.18989363 -0.013039553 -0.057108402 -0.2006328 -0.068472765 0.24376337 -0.20668644
0.051588073 0.04960037 -0.0664317 -0.002561305 -0.107342556 -0.029532248 -0.2487306 -0.10915214
-0.19981556 0.14825904 0.0015332962 -0.22672954 -0.16912542 -0.056919713 0.22358972 -0.10887949
0.09249831 -0.033410884 -0.13598149 -0.09324987 -0.12627624 0.17758504 -0.053566117 -0.071122095
-0.15721303 0.04689325 -0.08745622 0.16382799 0.18304099 -0.20860435 0.20015442 -0.066566266
0.2662325 0.07883482 0.031486932 -0.09963549 -0.1838567 0.16943868 -0.07890542 0.02301862
0.003791516 0.27098864 0.030591294 0.12941068 -0.05958645 0.10276302 0.30007762 -0.092445746
0.24672312 -0.10319534 -0.21523687 -0.13059919 0.18626419 0.41566032 -0.22502653 0.019875893
-0.029688358 0.037092097 0.047006547 0.20276868 -0.1890601 -0.014217402 0.14564781 -0.11407787
0.28177112 -0.03377512 0.062120315 -0.009333695 -0.11804993 0.2911376 0.10078879 -0.10509578
-0.048035137 -0.10430803 0.09792213 -0.110879034 0.21189658 -0.02527876 -0.08580811 0.20922893
-0.26090163 -0.032068875 0.0985984 0.15366907 0.17591369 -0.08806892 0.042162508 -0.06717121
-0.26136822 0.009087204 0.13152108 -0.13358307 0.07346972 -0.10760712 0.22953199 0.058291808
0.26723644 -0.010519308 -0.08331763 -0.036056653 -0.11100044 0.31020465 -0.104200624 0.08236744
-0.2239954 -0.40138385 0.21549532 -0.0061454475 0.043796837 -0.028031211 -0.14626278 -0.08284905
-0.24394578 0.077572145 0.06943899 0.05064355 0.1476872 -0.48518875 -0.08439124 0.06193672
0.38803566 -0.056244135 0.24854007 -0.09612748 -0.048044715 0.095261075 -0.18501244 -0.07519904
-0.1583345 0.028103739 0.20412457 -0.078073725 -0.12898676 -0.30328658 0.22584401 0.22007476
0.19589682 -0.31831264 -0.112384275 -0.08749983 -0.023180805 0.091560066 -0.16685475 0.2762906
-0.09977995 0.11759585 0.17482102 0.16794458 -0.023232605 -0.04988285 0.012432877 -0.058257915
0.31387958 -0.47084644 0.12195968 -0.24619499 0.12047985 -0.040193513 -0.047374517 -0.08592319
-0.17000563 0.155477 -0.022553612 0.10263815 -0.009252233 -0.11744793 0.1452572 0.17263417
-0.16845608 -0.3251005 0.10554103 -0.0022568703 -0.04158402 0.18036367 0.0911283 0.061786532
-0.2022115 0.07371908 -0.06450143 0.011712743 0.10219047 -0.2403303 0.1543682 0.051158875
00000000: 325a 26be e066 9abc 9b0c 48be 8a5c 753e
00000010: 83c4 1f3e c603 b5bc 76ed d13d 066c 3bbe
00000020: 7331 073e ab4a cebd e491 54bb dcc4 d93b
00000030: 7aeb 023e 6bcc 5f3e ab8e fcbd 2316 21be
00000040: 0816 303c 48bd 963c 61a5 9c3e 56e9 413e
00000050: b79e 5e3d 3121 8d3d 5a88 0dbe 8241 85bc
00000060: 37a7 1fbd 0f20 c13d e8e9 fe3b 2158 c03d
00000070: 47de 303e 6208 39be 24c8 81bc 185e e43d
00000080: 792d f4bd 3fb8 273e 7bac b73d 2241 1f3e
00000090: 86db 80be ad02 cbbc 639d 973d f8e7 95bc
000000a0: 93eb 8d3e fe58 09be a5bf fc3b 65e9 143d
000000b0: 25ec 79be 061f 1a3e 8c0e 42be 5279 6d3d
000000c0: 7aa7 a9bc 7437 8d3d 593c 82be f4aa 7abe
000000d0: f102 8bbe 1e70 10be 0117 283e 0c4b 8fbe
000000e0: 456d 363e bc32 0e3d 2ef1 36be 4e71 bd3d
000000f0: 93a3 83be ebbb 9d3e 925e f7bd 01ee 3d3c
00000100: 9c2d 7bbe 7a73 42be d9a3 55bc 80ea 69bd
00000110: af72 4dbe 733b 8cbd 1b9d 793e 9ca5 53be
00000120: 044e 533d c229 4b3d 580d 88bd 91db 27bb
00000130: 6ad6 dbbd 9ded f1bc 3cb3 7ebe 288b dfbd
00000140: 739c 4cbe 38d1 173e e2f8 c83a ca2b 68be
00000150: 372f 2dbe a524 69bd b4f4 643e 36fc debd
00000160: c16f bd3d dad9 08bd bb3e 0bbe caf9 bebd
00000170: 8f4e 01be dad8 353e 2568 5bbd 76a8 91bd
00000180: 74fc 20be 2313 403d 3f1c b3bd 86c2 273e
00000190: 196f 3b3e 619c 55be 48f5 4c3e e553 88bd
000001a0: a04f 883e 2674 a13d 71f8 003d b10d ccbd
000001b0: ee44 3cbe 5581 2d3e 2a99 a1bd 8c91 bc3c
000001c0: 157b 783b 06bf 8a3e 989a fa3c 3c84 043e
000001d0: ec10 74bd 6b75 d23d c6a3 993e 3254 bdbd
000001e0: fca4 7c3e 1458 d3bd 0e67 5cbe cbbb 05be
000001f0: 0abc 3e3e 6ed1 d43e 5b6d 66be c5d2 a23c
00000200: 0035 f3bc e2ed 173d f089 403d 98a2 4f3e
00000210: f998 41be 1bf0 68bc b324 153e a9a1 e9bd
00000220: 4e44 903e c857 0abd df71 7e3d 5bec 18bc
00000230: 29c4 f1bd fd0f 953e 5a6a ce3d 753c d7bd
00000240: 7ec0 44bd 739f d5bd 668b c83d 8c14 e3bd
00000250: 6bfb 583e 6715 cfbc 2abc afbd 1c40 563e
00000260: e694 85be a75a 03bd f5ed c93d 6d5b 1d3e
00000270: b822 343e 7a5d b4bd 98b2 2c3d 0f91 89bd
00000280: 0ed2 85be 7fe2 143c 76ad 063e 00ca 08be
00000290: 4b77 963d 1f61 dcbd 6f0a 6b3e 64c3 6e3d
000002a0: 37d3 883e 2d59 2cbc 6fa2 aabd 24b0 13bd
000002b0: 3354 e3bd 25d3 9e3e 2367 d5bd 43b0 a83d
000002c0: 0d5f 65be 2f82 cdbe ceaa 5c3e c05f c9bb
000002d0: 5064 333d b6a1 e5bc e9c5 15be c3ac a9bd
000002e0: eccc 79be 25de 9e3d 0736 8e3d 9c6f 4f3d
000002f0: 503b 173e a96a f8be 50d5 acbd 5cb1 7d3d
00000300: 9cac c63e 4060 66bd 4a81 7e3e 7cde c4bd
00000310: 89ca 44bd 3d18 c33d e773 3dbe f401 9abd
00000320: 7022 22be d039 e63c 0806 513e 1ee5 9fbd
00000330: 1b15 04be 6148 9bbe a743 673e 475b 613e
00000340: 2d99 483e e0f9 a2be ba29 e6bd 1c33 b3bd
00000350: ace5 bdbc d883 bb3d f9db 2abe f675 8d3e
00000360: 6e59 ccbd 18d6 f03d 4804 333e aaf9 2b3e
00000370: 4e52 bebc f651 4cbd 44b3 4b3c da9f 6ebd
00000380: d3b4 a03e c912 f1be ffc5 f93d 8a1a 7cbe
00000390: 24be f63d f4a1 24bd c80b 42bd 7ff8 afbd
000003a0: f515 2ebe 5d35 1f3e 5ac2 b8bc f333 d23d
000003b0: ae96 17bc 8a88 f0bd 4ebe 143e 03c7 303e
000003c0: c07f 2cbe 9373 a6be e525 d83d 00e8 13bb
000003d0: 0154 2abd 41b1 383e 79a1 ba3d e013 7d3d
000003e0: 8810 4fbe 07fa 963d 5319 84bd cee6 3f3c
000003f0: 3d49 d13d 2519 76be b312 1e3e f88b 513d

model.encoder_gnn.lin_skipsum.0.0.bias f4 [16]
0.09092571 -0.18481141 -0.011399461 -0.028671352 0.075714774 0.038171712 -0.07854687 -0.20650747
-0.18683502 -0.006478935 -0.16685846 0.09192032 0.0020745543 -0.12452404 -0.15703335 -0.114840016
00000000: 4237 ba3d 343f 3dbe cec4 3abc 2fe0 eabc
00000010: 5910 9b3d f159 1c3d 2edd a0bd b276 53be
00000020: ae51 3fbe 3f4d d4bb f2dc 2abe b940 bc3d
00000030: 3ff5 073b 7606 ffbd 5acd 20be 3e31 ebbd

model.encoder_gnn.gnn.0.0.edge_encoder.weight f4 [16, 9]
-0.13248147 -0.13992964 0.12965135 0.6189069 -0.11978835 -0.33186415 0.15823416 0.023010094
0.23186482 -0.3077542 -0.37217033 0.21926567 0.47235546 -0.060383666 -0.28383532 -0.0013516119
0.25545582 0.020706875 0.11459609 0.02407971 0.3205769 0.07570733 -0.056748 -0.18272457
-0.26924765 0.07542157 -0.106541134 0.20541365 0.327029 -0.0562419 -0.39142022 0.18723336
0.352377 0.3281872 -0.21022032 -0.051795345 0.13617128 0.20320357 0.19155182 0.12354103
-0.18711321 0.24311028 -0.07175186 0.21713056 -0.043667622 -0.13614923 -0.05327648 -0.010548122
-0.11858009 0.06802534 0.33834222 -0.0978757 0.23785755 -0.16319224 -0.023092184 -0.07266318
-0.1555379 -0.13933939 -0.020233588 0.06763923 0.3310354 0.09273773 -0.016457906 -0.20064925
0.013027441 -0.021634147 0.17160763 0.036509264 0.18237048 0.10376222 -0.13581808 -0.045750324
-0.049635146 0.38916346 0.19600998 -0.4563602 0.34565008 0.14911707 -0.1589054 -0.035180915
0.13564709 0.26172584 -0.15415686 -0.24676222 -0.2038046 0.0007787237 0.10045311 0.091243066
0.6441219 -0.07760406 0.10947206 0.16384098 -0.050438467 -0.389056 -0.1424099 0.020226562
0.14069435 -0.111000225 0.048049323 -0.30246678 0.13815755 0.1401351 0.005083679 -0.1981557
-0.1615542 0.046095654 0.26656893 0.15247191 -0.012174225 0.047007274 0.0038954117 0.3551342
-0.21492063 -0.04652223 -0.013672655 0.45416892 0.009668176 0.2325023 -0.14915769 -0.28134996
-0.18402982 -0.14121467 0.026147297 0.20916502 0.20722109 -0.10356613 -0.10906525 -0.32580817
-0.46680933 0.09472481 -0.028043779 -0.3236963 0.250658 0.12956475 -0.25193992 0.1966801
0.19514892 -0.059601992 -0.110236354 -0.2552361 -0.11390456 0.18209761 0.3505096 -0.02059351
00000000: 39a9 07be b749 0fbe 53c3 043e af70 1e3f
00000010: 9853 f5bd 19ea a9be 2308 223e aa7f bc3c
00000020: f96d 6d3e f591 9dbe 1c8d bebe 2e87 603e
00000030: 93d8 f13e dd54 77bd dd52 91be 9228 b1ba
00000040: 1bcb 823e 77a1 a93c 5bb1 ea3d d042 c53c
00000050: a822 a43e 720c 9b3d 9770 68bd 261c 3bbe
00000060: d4da 89be a076 9a3d 3d32 dabd f557 523e
00000070: 5870 a73e e85d 66bd 3b68 c8be 1aba 3f3e
00000080: c26a b43e 2708 a83e ff43 57be 5b27 54bd
00000090: 7c70 0b3e 9914 503e 2926 443e 1403 fd3d
000000a0: 9b9a 3fbe e7f1 783e a4f2 92bd 7957 5e3e
000000b0: d2dc 32bd b46a 0bbe 7038 5abd 08d2 2cbc
000000c0: 1eda f2bd df50 8b3d 313b ad3e 0e73 c8bd
000000d0: ee90 733e de1b 27be d22b bdbc 6fd0 94bd
000000e0: 5445 1fbe fcae 0ebe e9c0 a5bc 7086 8a3d
000000f0: 797d a93e 47ed bd3d bbd2 86bc ff76 4dbe
00000100: 0c71 553c 183a b1bc e9b9 2f3e bd8a 153d
00000110: 54bf 3a3e 4981 d43d e513 0bbe b164 3bbd
00000120: 394e 4bbd 6f40 c73e d7b6 483e 0ba8 e9be
00000130: 0cf9 b03e 25b2 183e 19b8 22be dd19 10bd
00000140: 12e7 0a3e ee00 863e 4cdb 1dbe 3caf 7cbe
00000150: 27b2 50be 4323 4c3a 5cba cd3d a5dd ba3d
00000160: 2ce5 243f e1ee 9ebd e332 e03d eec5 273e
00000170: 9198 4ebd 5932 c7be e7d3 11be 2db2 a53c
00000180: 2e12 103e 1654 e3bd 5ecf 443d eddc 9abe
00000190: 2c79 0d3e 937f 0f3e fe94 a63b 54e9 4abe
000001a0: 776e 25be ccce 3c3d b97b 883e 9921 1c3e
000001b0: 6776 47bc b38a 403d 2a4a 7f3b 26d4 b53e
000001c0: 2714 5cbe 188e 3ebd 4603 60bc d488 e83e
000001d0: 4567 1e3c 1515 6e3e cbbc 18be 1a0d 90be
000001e0: 5072 3cbe 949a 10be db32 d63c 5b2f 563e
000001f0: c431 543e 7b1a d4bd 9a5d dfbd 54d0 a6be
00000200: a201 efbe 15ff c13d 11bc e5bc 85bb a5be
00000210: 3f56 803e 9fac 043e 45fe 80be 8266 493e
00000220: 1ed5 473e 3821 74bd 99c3 e1bd 4eae 82be
00000230: cb46 e9bd cc77 3a3e ff75 b33e b8b3 a8bc

model.encoder_gnn.gnn.0.0.edge_encoder.bias f4 [16]
-0.1923994 0.18853526 0.022185115 -0.052610617 0.24391218 0.004084642 0.097677134 -0.12999687
-0.017613476 -0.19791983 0.06259541 0.03330657 -0.01336596 0.05880488 0.098730475 -0.020518161
00000000: 5904 45be 630f 413e 8fbd b53c 3b7e 57bd
00000010: 1dc4 793e 76d8 853b f30a c83d e61d 05be
00000020: 234a 90bc 7fab 4abe 0632 803d 786c 083d
00000030: e6fc 5abc 63dd 703d 3433 ca3d b415 a8bc

model.encoder_gnn.gnn.0.0.pre_nns.0.0.weight f4 [16, 48]
-0.03535722 0.17660841 -0.1696677 -0.03046527 0.108676605 -0.12268868 0.017430115 -0.047721006
0.04678183 0.08561108 -0.1391667 0.024978545 -0.1307172 -0.074307285 -0.12137124 0.15572001
-0.0022664932 -0.20225784 -0.0350296 0.098651186 -0.0012048929 -0.013980598 -0.057518654 -0.119509615
-0.105175465 0.0591845 0.04046137 0.048460305 -0.06312659 -0.13457544 0.0032804636 0.0024634001
-0.11151479 -0.0875204 -0.15493803 0.2538224 -0.040660642 0.0055854507 0.11738607 0.02275465
-0.062267877 0.18702745 0.14706741 -0.10205129 -0.0915486 0.077008136 0.14121018 -0.0022936012
-0.097891726 0.16697836 -0.04858169 0.07453155 0.006576558 -0.17992677 0.070159376 0.07705396
0.08243975 -0.057205793 0.050483745 0.07873142 0.12955353 -0.20669052 0.019364204 0.12384982
0.09339087 0.17910956 -0.02588066 0.11009895 -0.027671257 -0.080117114 0.09802053 0.015536603
-0.08824624 -0.08638011 -0.13406755 -0.02987572 -0.008177502 -0.07288442 -0.0034388343 0.047515392
-0.012388758 -0.03650501 0.06567864 -0.0038108118 -0.13114807 0.0050070025 -0.01332334 -0.0051989076
-0.24579622 -0.0880872 -0.17571247 0.033037506 -0.08362985 -0.07875004 0.0060832947 -0.04551736
0.08995138 -0.28708753 0.12273085 -0.07894627 0.027229533 0.07344562 0.18050025 0.00084132096
0.06368321 0.05479328 -0.037413616 0.00034282863 0.03299994 -0.17137724 0.10765653 -0.11575785
0.13040006 -0.10920229 0.00979749 -0.12794971 0.04721674 0.092979506 -0.008309399 -0.13172007
0.032805096 0.07847902 0.14358073 -0.054335106 0.0484459 0.08162978 -0.027214058 0.09943605
0.02065307 -0.07703566 0.0926218 0.050666388 -0.07601107 -0.042043623 -0.043396022 0.074573815
-0.11340667 0.017762026 0.10455557 -0.032202795 -0.08658015 -0.080094256 0.076598585 0.091604516
0.24655613 0.34394363 0.020382553 0.14143811 -0.010435005 0.1166363 -0.008792454 -0.014098027
-0.0020299354 -0.1035785 0.039750833 -0.02120373 0.13127016 -0.0057815765 0.08822296 -0.18847048
0.01723638 -0.022954592 0.048179675 0.028827688 -0.14205097 -0.09312999 -0.047251742 -0.029297138
-0.09291034 -0.041802354 -0.053793523 0.10068183 -0.05158067 0.0012499512 0.11884345 -0.1062766
-0.05381301 -0.008892792 0.05165191 -0.07788516 0.062784575 -0.1325976 -0.023883313 -0.07078041
-0.0646497 -0.14082496 0.09633462 -0.13145041 -0.03184661 -0.049031112 -0.030895935 0.07413648
0.01209475 -0.21631166 -0.13816516 0.033201292 -0.06445492 -0.09508427 -0.025931152 -0.18155311
-0.3361219 0.010467939 -0.039952345 -0.0028450312 -0.011645363 0.014738135 -0.10109655 0.3403233
0.009587023 0.35130522 -0.044788234 0.07061315 0.13161767 -0.048249938 0.13099119 0.02224649
0.18787895 -0.02821231 -0.056161497 -0.012012789 -0.029671237 0.24289562 -0.033745304 0.027085135
-0.20075472 -0.19413005 0.096337326 0.04600386 0.0074001197 0.20920019 -0.08614517 -0.050655305
0.30625436 0.096849725 0.07378422 -0.014898339 0.031856507 0.0702106 -0.08864356 0.1669274
-0.12692913 -0.3454745 0.076958604 0.064722255 -0.053012993 0.0113858115 0.12019288 -0.13150358
0.08732748 -0.025662798 0.013375874 -0.068071425 -0.061328467 0.22656634 -0.026664538 0.452546
00000000: bbd2 10bd d6d8 343e 5fbd 2dbe 4d92 f9bc
00000010: d791 de3d 3444 fbbd 9ac9 8e3c 1a77 43bd
00000020: 4e9e 3f3d dd54 af3d b781 0ebe ce9f cc3c
00000030: bbda 05be 6b2e 98bd 7c91 f8bd 1175 1f3e
00000040: 7289 14bb ae1c 4fbe 337b 0fbd a209 ca3d
00000050: 7fed 9dba e10e 65bc ae98 6bbd 75c1 f4bd
00000060: 3c66 d7bd 726b 723d d2ba 253d 507e 463d
00000070: 8348 81bd 25ce 09be 0cfd 563b ff70 213b
00000080: de61 e4bd e53d b3bd 13a8 1ebe 02f5 813e
00000090: c68b 26bd 2806 b73b 1c68 f03d f667 ba3c
000000a0: 9a0c 7fbd 2084 3f3e d798 163e 4400 d1bd
000000b0: d57d bbbd 71b6 9d3d 6799 103e 3e50 16bb
000000c0: 757b c8bd 60fc 2a3e 98fd 46bd ffa3 983d
000000d0: 2b80 d73b b93e 38be b8af 8f3d 77ce 9d3d
000000e0: 2cd6 a83d 9f50 6abd 0bc8 4e3d f03d a13d
000000f0: aea9 043e aea6 53be aea1 9e3c f9a4 fd3d
00000100: b643 bf3d 7f68 373e ae03 d4bc 8f7b e13d
00000110: d5ae e2bc 7114 a4bd fdbe c83d 3c8d 7e3c
00000120: 72ba b4bd 0ee8 b0bd 0149 09be edbd f4bc
00000130: eefa 05bc 6d44 95bd 115e 61bb 809f 423d
00000140: 38fa 4abc 4786 15bd 8682 863d d0be 79bb
00000150: ae4b 06be c811 a43b 234a 5abc 995b aabb
00000160: 01b2 7bbe 1067 b4bd f8ed 33be 5652 073d
00000170: 2046 abbd b347 a1bd 6056 c73b 6970 3abd
00000180: 6e38 b83d 23fd 92be 505a fb3d 95ae a1bd
00000190: 7810 df3c a86a 963d 0fd5 383e 188c 5c3a
000001a0: 586c 823d eb6e 603d 053f 19bd aebd b339
000001b0: f22a 073d 847d 2fbe 077b dc3d 7412 edbd
000001c0: 9887 053e 73a5 dfbd a785 203c 4005 03be
000001d0: 5766 413d 0a6c be3d 2524 08bc a0e1 06be
000001e0: a35e 063d 9cb9 a03d d406 133e 7d8e 5ebd
000001f0: 356f 463d 842d a73d 04f0 debc 21a5 cb3d
00000200: a130 a93c dfc4 9dbd 80b0 bd3d 8f87 4f3d
00000210: b1ab 9bbd ef35 2cbd 07c0 31bd 28ba 983d
00000220: c241 e8bd ab81 913c 3b21 d63d 14e7 03bd
00000230: ef50 b1bd 7508 a4bd b8df 9c3d 269b bb3d
00000240: 3679 7c3e 6119 b03e 50f9 a63c 27d5 103e
00000250: 95f7 2abc 03df ee3d 3a0e 10bc 69fb 66bc
00000260: aa08 05bb f720 d4bd c5d1 223d 72b3 adbc
00000270: af6b 063e 6173 bdbb 3dae b43d 68fe 40be
00000280: 4f33 8d3c 450b bcbc 0d58 453d 0b28 ec3c
00000290: cf75 11be f0ba bebd 0b8b 41bd 8d00 f0bc
000002a0: c747 bebd f238 2bbd 9956 5cbd 4632 ce3d
000002b0: 4146 53bd 67d5 a33a 3264 f33d 8ca7 d9bd
000002c0: 086b 5cbd 13b3 11bc f490 533d 4182 9fbd
000002d0: 3395 803d aac7 07be f0a6 c3bc 52f5 90bd
000002e0: 1067 84bd 6b34 10be 164b c53d f09a 06be
000002f0: 9771 02bd d9d4 48bd 7919 fdbc ded4 973d
00000300: 0f29 463c ce80 5dbe 2b7b 0dbe 14fe 073d
00000310: f100 84bd 8bbb c2bd 916d d4bc 0fe9 39be
00000320: 2b18 acbe b881 2b3c 12a5 23bd b473 3abb
00000330: 31cc 3ebc 3878 713c b50b cfbd db3e ae3e
00000340: e412 1d3c 47de b33e de73 37bd a19d 903d
00000350: c8c6 063e baa1 45bd 8e22 063e 453e b63c
00000360: 5763 403e 811d e7bc 9909 66bd 4ad1 44bc
00000370: 1811 f3bc a1b9 783e 8438 0abd a5e1 dd3c
00000380: a592 4dbe 07ca 46be 814c c53d 8b6e 3c3d
00000390: b47c f23b 9338 563e e16c b0bd f07b 4fbd
000003a0: 5fcd 9c3e 2659 c63d 2e1c 973d 2a18 74bc
000003b0: f87b 023d 93ca 8f3d c18a b5bd 04ef 2a3e
000003c0: b6f9 01be 09e2 b0be 799c 9d3d 1a8d 843d
000003d0: 2724 59bd 8e8b 3a3c af27 f63d e0a8 06be
000003e0: c0d8 b23d ca3a d2bc 7b26 5b3c 0869 8bbd
000003f0: 8f33 7bbd 0201 683e 976f dabc 1cb4 e73e

model.encoder_gnn.gnn.0.0.pre_nns.0.0.bias f4 [16]
0.0751459 0.08742897 -0.1676484 0.059599545 -0.007821791 -0.14336759 -0.08402859 0.116908245
0.023278408 0.10120192 -0.009040171 0.11046749 0.07732722 -0.0865148 0.1347471 0.039764512
00000000: 18e6 993d f60d b33d 06ac 2bbe a71e 743d
00000010: f826 00bc f4ce 12be 2e17 acbd 976d ef3d
00000020: 5cb2 be3c f442 cf3d 3a1d 14bc c83c e23d
00000030: bc5d 9e3d ac2e b1bd 25fb 093e 1de0 223d

model.encoder_gnn.gnn.0.0.post_nns.0.0.weight f4 [16, 416]
0.25694063 0.3246528 -0.076340176 -0.016537338 -0.016015902 0.067817114 -0.46349037 0.039010245
-0.3888285 0.021692522 -0.044841815 -0.05637688 0.033551455 -0.07109249 0.05981814 -0.008138436
-0.0771531 -0.12915176 -0.04754826 0.035544068 0.03282499 -0.06726583 0.025593048 0.037405122
0.018117223 -0.012668786 0.020159995 0.07093826 0.022245808 -0.01801845 -0.012476517 0.0021057841
-0.0015777713 -0.14736773 -0.018070342 0.0074161226 -0.06208455 -0.08249595 0.06451791 0.11697503
-0.11077301 -0.0038997566 -0.011169071 0.065344825 -0.022907084 0.014688224 0.00044424224 0.06233847
-0.069827065 0.040771894 -0.035581257 0.06814591 -0.031080201 -0.048810367 0.07890088 0.08501776
0.07768313 0.025102068 0.021229122 0.0080099935 -0.02290976 -0.09549483 0.0010181391 -0.0233037
0.17499895 -0.046141475 -0.0044680354 0.11355934 -0.05246302 -0.031963058 0.11235483 0.0037723877
-0.08875949 -0.053669434 0.051140834 0.06428055 0.04045002 0.025666965 -0.056945134 0.048978634
0.1364555 -0.050150897 0.04314373 0.08248075 -0.007855822 0.069866 -0.04694198 -0.051512368
-0.10235197 -0.111197226 0.04192553 0.0964663 0.07669159 0.10246592 -0.05619049 0.045228757
-0.018548489 -0.048105016 -0.038963508 0.0011534942 0.11657903 -0.047076363 -0.06551794 -0.030630792
0.06817325 0.06543802 0.029046299 0.048891265 -0.032969534 -0.117890276 -0.0007043978 -0.015769066
-0.010345992 -0.12812717 -0.044949166 0.047611352 0.005649218 -0.0119218165 0.09331222 0.09428382
-0.021968141 -0.009578513 0.07290422 0.013585923 -0.028016575 0.026086254 -0.006602335 -0.023574937
-0.17266043 0.020531775 -0.041427605 0.025415404 0.10723714 -0.012204895 0.041096717 0.0036003997
0.086123504 0.012994291 0.050134744 -0.003959751 0.036128495 -0.07933159 0.02953002 0.014699516
0.17458348 -0.011562677 0.0062280125 0.043868124 0.013024291 -0.025157984 0.056272943 0.0039756414
-0.04349265 -0.032419544 0.040019453 0.093916975 0.04969993 0.006000716 -0.0052204174 0.039775826
0.16318396 0.020903016 0.03994821 0.06117979 -0.0662124 0.051416114 -0.11477643 0.016816974
-0.12508552 -0.00980579 0.03260044 0.10703212 0.06824745 0.033007577 -0.05352304 0.051910277
-0.044016264 -0.10001347 0.028990103 0.019367278 -0.045622244 -0.074994795 0.03175595 0.11956807
-0.052503113 0.012934201 0.04450352 0.06535316 0.013384961 -0.057961237 -0.0245369 0.061656397
-0.0016811662 -0.06736353 -0.08106506 0.03963475 -0.0683097 -0.124450594 0.07370247 0.068707205
-0.113454565 0.075177714 -0.025806991 0.082334794 -0.07297905 0.022024198 0.07109565 0.0797587
-0.02670429 0.085664675 -0.116960794 0.03208587 -0.005849365 -0.11329828 0.08617793 0.0905612
0.026418624 0.078053065 -0.022900257 0.05877377 -0.10056324 -0.112590164 0.092788376 0.021301022
0.102281585 -0.007893736 -0.045029387 0.08685006 -0.097610235 -0.074280374 0.11741495 0.10881656
-0.15934145 0.015286552 0.0012475797 0.120199695 0.015383975 -0.011058088 0.025948947 0.068977244
0.19636737 -0.010586574 0.061139256 0.078608304 -0.019223582 0.098342836 -0.09551776 -0.042118266
-0.1974493 -0.03138633 -0.002957751 0.035150185 -0.0119581595 0.15518285 -0.024889188 0.007119285
00000000: b98d 833e e438 a63e 3d58 9cbd 5079 87bc
00000010: c833 83bc b3e3 8a3d 9c4e edbe 35c9 1f3d
00000020: 8714 c7be 84b4 b13c 0dac 37bd 71eb 66bd
00000030: 406d 093d f098 91bd de03 753d 1357 05bc
00000040: 7202 9ebd 5c40 04be f7c1 42bd a896 113d
00000050: 7f73 063d abc2 89bd 83a8 d13c 1d36 193d
00000060: 926a 943c bd90 4fbc 9326 a53c 1448 913d
00000070: d73c b63c 6e9b 93bc 4e6a 4cbc 3201 0a3b
00000080: 38cd ceba 91e7 16be 4108 94bc f202 f33b
00000090: 5e4c 7ebd a3f3 a8bd f721 843d 9b90 ef3d
000000a0: f6dc e2bd 0f93 7fbb 7bfe 36bc 82d3 853d
000000b0: a3a7 bbbc e0a6 703c 2fe9 e839 a056 7f3d
000000c0: 7e01 8fbd 6e00 273d a7bd 11bd 1590 8b3d
000000d0: e89b febc 61ed 47bd c996 a13d cb1d ae3d
000000e0: 5518 9f3d daa2 cd3c b2e8 ad3c 593c 033c
000000f0: 40ad bbbc cb92 c3bd 1473 853a 67e7 bebc
00000100: ed32 333e d8fe 3cbd 9968 92bb cd91 e83d
00000110: 77e3 56bd b2eb 02bd 4a1a e63d 2a3a 773b
00000120: 89c7 b5bd 7bd4 5bbd 0d79 513d 85a5 833d
00000130: ecae 253d 8743 d23c 4d3f 69bd d29d 483d
00000140: feba 0b3e 076b 4dbd 7bb7 303d abeb a83d
00000150: b5b5 00bc e815 8f3d 3c46 40bd a2fe 52bd
00000160: e99d d1bd 5fbb e3bd 1bba 2b3d 2090 c53d
00000170: 7b10 9d3d a7d9 d13d 0028 66bd ca41 393d
00000180: 00f3 97bc c409 45bd 3398 1fbd d830 973a
00000190: fdc0 ee3d 25d3 40bd 452e 86bd 6ded fabc
000001a0: 6b9e 8b3d 5e04 863d 81f2 ed3c 3542 483d
000001b0: 100b 07bd 7570 f1bd 56a7 38ba 212e 81bc
000001c0: 3c82 29bc c533 03be 9e1c 38bd 1f04 433d
000001d0: 131d b93b b953 43bc 7a1a bf3d e017 c13d
000001e0: 88f6 b3bc 32ef 1cbc cf4e 953d 7e97 5e3c
000001f0: 0483 e5bc d7b2 d53c 6658 d8bb 3a20 c1bc
00000200: e5cd 30be 4132 a83c feaf 29bd f733 d03c
00000210: 259f db3d 0af7 47bc 0855 283d aff4 6b3b
00000220: 8561 b03d 02e6 543c 175a 4d3d cdc0 81bb
00000230: 79fb 133d 9a78 a2bd f1e8 f13c 3dd6 703c
00000240: 03c6 323e 6271 3dbc 5b14 cc3b 10af 333d
00000250: d663 553c 1e18 cebc 757e 663d 1946 823b
00000260: 5925 32bd 5bca 04bd 70eb 233d 8b57 c03d
00000270: 2792 4b3d a7a1 c43b 0910 abbb faeb 223d
00000280: b219 273e cd3c ab3c bca0 233d a997 7a3d
00000290: 5e9a 87bd b499 523d e80f ebbd c0c3 893c
000002a0: 6b16 00be 77a8 20bc 0a88 053d a833 db3d
000002b0: 52c5 8b3d f432 073d fa3a 5bbd df9f 543d
000002c0: 664a 34bd ddd3 ccbd a77c ed3c 20a8 9e3c
000002d0: 64de 3abd df96 99bd 8712 023d 1be0 f43d
000002e0: 810d 57bd f9e9 533c 5349 363d e1d7 853d
000002f0: 984c 5b3c c368 6dbd 9c01 c9bc 6b8b 7c3d
00000300: 945a dcba e4f5 89bd 7005 a6bd 0c58 223d
00000310: f5e5 8bbd f4df febd 52f1 963d 5db6 8c3d
00000320: de5a e8bd c6f6 993d 2f69 d3bc 259f a83d
00000330: 0a76 95bd 176c b43c 999a 913d 8858 a33d
00000340: f5c2 dabc f670 af3d 2489 efbd 796c 033d
00000350: 08ac bfbb ee08 e8bd 0e7e b03d 2778 b93d
00000360: df6b d83c 49da 9f3d 5299 bbbc c4bc 703d
00000370: 1af4 cdbd ac95 e6bd d507 be3d 7b7f ae3c
00000380: 0279 d13d ba54 01bc bc70 38bd 72de b13d
00000390: e0e7 c7bd 4f20 98bd 4077 f03d 37db de3d
000003a0: 682a 23be 7274 7a3c d485 a33a 422b f63d
000003b0: 110d 7c3c fc2c 35bc e392 d43c f143 8d3d
000003c0: 8714 493e 4f73 2dbc 286d 7a3d 64fd a03d
000003d0: c67a 9dbc f867 c93d d19e c3bd 3484 2cbd
000003e0: 2630 4abe f48e 00bd d4d6 41bb a4f9 0f3d
000003f0: 28ec 43bc 41e8 1e3e 69e4 cbbc e448 e93b

model.encoder_gnn.gnn.0.0.post_nns.0.0.bias f4 [16]
-0.04589019 0.057579927 0.014161766 0.0055573382 -0.07627014 -0.06333111 -0.03300823 -0.18901847
0.035071988 -0.089675955 -0.13211288 0.017943302 0.05723636 -0.04918096 0.0564171 -0.16492791
00000000: 5af7 3bbd eed8 6b3d c006 683c 551a b63b
00000010: 8533 9cbd beb3 81bd a333 07bd 0f8e 41be
00000020: a5a7 0f3d 07a8 b7bd 9948 07be d5fd 923c
00000030: ac70 6a3d f971 49bd 9e15 673d dde2 28be

model.encoder_gnn.gnn.0.0.lin.weight f4 [16, 16]
0.10277104 -0.059283335 -0.15813209 -0.19409187 -0.055716734 0.059104487 0.06760951 0.2808104
-0.31742826 -0.2513227 -0.2973925 -0.26606193 0.22269633 -0.07576458 0.3267266 -0.076760806
-0.0014479426 0.047625255 -0.17543797 -0.025608249 -0.01924635 0.20849873 -0.12608533 -0.12622984
-0.10281236 -0.13378353 -0.18786962 -0.20414005 -0.16516137 0.06958047 -0.15933077 0.3315968
-0.014219926 -0.22259152 -0.12941957 -0.015880585 0.03175686 -0.23623954 0.0758132 -0.07786662
-0.17922461 0.20412049 0.1854791 0.2790271 -0.097948164 0.013483566 0.061016984 0.08159351
-0.10087258 -0.09689115 0.041371603 0.07509107 -0.11644726 -0.16787845 0.21251297 -0.12774941
-0.16869734 -0.03423346 0.19509378 0.08095631 0.15556431 -0.07143061 0.10941912 -0.024520976
-0.05815403 0.20090553 0.0026858104 -0.018759368 -0.27095 -0.06684389 -0.00027183257 -0.08611748
0.15329553 -0.07417232 -0.11765902 0.049608793 -0.042343117 0.19067594 -0.1667182 -0.28183576
-0.2497214 -0.26764312 -0.026576668 0.320634 -0.009749789 -0.18645315 -0.050428864 0.261651
-0.05850211 0.21246275 -0.13553247 -0.14797224 -0.37915775 0.021718051 -0.07470689 -0.18224883
-0.016364357 -0.15453139 -0.0066385968 -0.20575967 0.1493515 -0.090751976 0.09707272 -0.15615869
-0.09534837 -0.091396034 -0.07535288 -0.1134797 0.22375917 0.12923919 -0.024684291 -0.047578823
-0.078258075 -0.1924922 -0.13112743 0.2594834 0.07248566 0.10318858 -0.032378193 0.43832698
-0.21660712 0.11406103 0.006593553 0.0020246794 0.027396116 -0.18997565 -0.40975028 -0.013110507
0.592707 -0.7494021 -0.110877976 -0.019407505 -0.1460829 0.26213855 -0.016109144 -0.15004998
-0.087961115 -0.062625505 0.21892914 0.07139838 -0.034385912 0.084144145 -0.16858698 -0.07983647
0.04853375 0.11764794 0.07829824 0.12171449 -0.108344 -0.116760455 -0.008068867 0.31660452
0.0012294156 0.028951446 0.24216937 -0.10793788 0.18629076 0.34567216 0.074128844 0.23783475
0.05900031 -0.1714339 -0.32517102 -0.27295473 0.029779587 -0.014589378 0.30698377 -0.06253768
0.15906243 0.10782165 0.14745583 -0.054447766 -0.13724688 -0.03235859 -0.19939049 0.21425752
-0.016200762 0.14140782 -0.05038747 0.045403905 0.0732122 0.09945567 -0.15429956 -0.09505045
-0.010454144 -0.0546315 0.18718378 -0.099069454 -0.1876566 0.0629931 0.16207384 -0.18460415
0.080227494 -0.1812872 0.039254013 0.06941627 0.20096202 0.15433623 -0.06574993 -0.12360796
0.0726838 0.061690077 0.012975338 -0.17554916 -0.05321635 0.036178883 0.12841293 0.10264721
-0.14993393 -0.09127798 0.21296519 -0.24192423 -0.10587284 0.19896804 -0.10625995 0.03511484
0.058159526 0.103543796 -0.047339957 -0.1551578 -0.062063042 -0.051998634 -0.10036732 0.08209
-0.020100234 0.040101647 0.25106752 -0.29526442 -0.06265315 0.34551254 0.0013184494 0.19101566
-0.19272141 0.14989056 0.049503725 0.14365545 -0.16435702 -0.083564535 -0.08007317 -0.115929216
0.13919286 0.2231637 -0.025732476 -0.06402678 0.022074413 -0.12279575 0.046150092 0.08835356
0.16746274 -0.050075073 0.12508373 -0.0883461 -0.12800537 -0.21595524 -0.04907896 -0.09969965
00000000: 9f79 d23d 15d3 72bd 61ed 21be 05c0 46be
00000010: 3b37 64bd 8c17 723d db76 8a3d 61c6 8f3e
00000020: f585 a2be 5ead 80be d443 98be 4539 88be
00000030: 820a 643e 762a 9bbd b548 a73e c534 9dbd
00000040: e4c8 bdba b312 433d 03a6 33be 64c8 d1bc
00000050: 85aa 9dbc b180 553e 831c 01be 6542 01be
00000060: 498f d2bd 8dfe 08be e560 40be 170a 51be
00000070: 1020 29be 3580 8e3d 9b27 23be 0ec7 a93e
00000080: b1fa 68bc 08ef 63be 9086 04be 0018 82bc
00000090: 7b13 023d c7e8 71be f343 9b3d 8978 9fbd
000000a0: a886 37be f604 513e 3cee 3d3e a4dc 8e3e
000000b0: 0c99 c8bd 2dea 5c3c f2ec 793d 801a a73d
000000c0: 4996 cebd de6e c6bd 4575 293d 59c9 993d
000000d0: e77b eebd 54e8 2bbe 009d 593e bed0 02be
000000e0: ffbe 2cbe 6238 0cbd aac6 473e 6ccc a53d
000000f0: 404c 1f3e 364a 92bd 2217 e03d 37e0 c8bc
00000100: ec32 6ebd 2eba 4d3e 6c04 303b 3fad 99bc
00000110: f5b9 8abe 73e5 88bd c084 8eb9 5d5e b0bd
00000120: 81f9 1c3e a8e7 97bd 36f7 f0bd 9732 4b3d
00000130: fa6f 2dbd 8e40 433e 2db8 2abe c74c 90be
00000140: f7b6 7fbe 8508 89be 50b7 d9bc 242a a43e
00000150: 94bd 1fbc 93ed 3ebe 7f8e 4ebd 1ff7 853e
00000160: e99f 6fbd d68f 593e 06c9 0abe 0986 17be
00000170: f720 c2be 0eea b13c edff 98bd 709f 3abe
00000180: 8b0e 86bc 7a3d 1ebe 9688 d9bb aab2 52be
00000190: 9aef 183e 2cdc b9bd 10ce c63d 10e8 1fbe
000001a0: 0246 c3bd d82d bbbd 9c52 9abd 0c68 e8bd
000001b0: 2021 653e 4757 043e b636 cabc 03e2 42bd
000001c0: c545 a0bd ad1c 45be 4546 06be 02db 843e
000001d0: 5d73 943d 8954 d33d ff9e 04bd 656c e03e
000001e0: 42ce 5dbe d498 e93d bb0e d83b 7cb0 043b
000001f0: d26d e03c fa88 42be caca d1be 74cd 56bc
00000200: a5bb 173f d1d8 3fbf fe13 e3bd 7dfc 9ebc
00000210: c196 15be 0637 863e 53f7 83bc b4a6 19be
00000220: f524 b4bd cd41 80bd f62e 603e 5039 923d
00000230: 3ed8 0cbd c453 ac3d 11a2 2cbe 4e81 a3bd
00000240: 53cb 463d 67f1 f03d d45a a03d 7245 f93d
00000250: 76e3 ddbd 1b20 efbd 4833 04bc fd19 a23e
00000260: 5824 a13a 952b ed3c 3ffb 773e 890e ddbd
00000270: 01c3 3e3e f1fb b03e ddd0 973d f48a 733e
00000280: 4faa 713d 5e8c 2fbe d17c a6be b9c0 8bbe
00000290: 52f4 f33c 4908 6fbc fa2c 9d3e c113 80bd
000002a0: 43e1 223e 99d1 dc3d a9fe 163e 9f04 5fbd
000002b0: 728a 0cbe 718a 04bd 052d 4cbe 5366 5b3e
000002c0: 76b7 84bc 36cd 103e 1763 4ebd 72f9 393d
000002d0: 47f0 953d 6aaf cb3d b400 1ebe cfa9 c2bd
000002e0: dc47 2bbc 48c5 5fbd 1bad 3f3e ede4 cabd
000002f0: 0d29 40be 8702 813d aff6 253e df08 3dbe
00000300: 504e a43d 5aa3 39be d1c8 203d 1e2a 8e3d
00000310: fdc8 4d3e 510a 1e3e e6a7 86bd 2c26 fdbd
00000320: 3edb 943d bcae 7c3d 8396 543c 29c3 33be
00000330: 63f9 59bd 4f30 143d ae7e 033e b338 d23d
00000340: 4888 19be f3ef babd 8c13 5a3e fcba 77be
00000350: dcd3 d8bd 47be 4b3e d19e d9bd 94d4 0f3d
00000360: af38 6e3d c50e d43d 8be7 41bd b0e1 1ebe
00000370: d135 7ebd 85fc 54bd 628d cdbd cd1e a83d
00000380: 3fa9 a4bc a041 243d ec8b 803e e62c 97be
00000390: 4b50 80bd 05e7 b03e d2cf ac3a 9c99 433e
000003a0: c358 45be e97c 193e 6bc4 4a3d 6a1a 133e
000003b0: 354d 28be e223 abbd 67fd a3bd 4c6c edbd
000003c0: 9388 0e3e 0685 643e eacc d2bc 7920 83bd
000003d0: 66d5 b43c 577c fbbd e107 3d3d b6f2 b43d
000003e0: 5a7b 2b3e 851b 4dbd f315 003e cdee b4bd
000003f0: d713 03be 5f23 5dbe 0507 49bd 552f ccbd

model.encoder_gnn.gnn.0.0.lin.bias f4 [16]
-0.30374503 -0.30115438 -0.041586477 0.07706446 -0.0109023815 -0.2708695 -0.09790945 -0.0077258646
-0.30596432 0.018488774 0.09138763 0.010289234 0.11029096 0.044364545 -0.11087408 -0.22106059
00000000: 7884 9bbe e830 9abe 9556 2abd f9d3 9d3d
00000010: e79f 32bc 68af 8abe c084 c8bd 4029 fdbb
00000020: 5ba7 9cbe c575 973c 7029 bb3d 2d94 283c
00000030: 3ae0 e13d 99b7 353d f311 e3bd b55d 62be

model.encoder_gnn.post_nn.fc_layers.0.0.weight f4 [8, 16]
-0.0012648897 6.603659e-07 0.002489685 -0.001736398 0.0052454355 -0.0029737703 0.0023245907 -0.0011568684
0.00048379938 0.0008789994 -0.006572443 -0.0019443053 0.0027184165 0.00056601973 0.0025564765 0.00440889
0.12685345 -0.11331837 0.11662438 0.08677448 0.051754676 0.09892507 0.11403847 0.068443365
0.11939967 -0.12276723 0.083284885 -0.06131842 -0.090412825 -0.10214306 -0.10695479 -0.12138013
0.001994949 0.004481131 0.008193357 0.0056489385 0.0024391797 0.0064078816 0.009701585 0.004853033
0.003262975 0.003757561 0.002379303 0.0020006432 0.0028032525 0.0014374027 0.0034602222 0.0062783007
-0.12825392 0.101284124 -0.11249692 -0.0930684 -0.05832964 -0.08196216 -0.09627816 -0.07457779
-0.13378847 0.1299926 -0.08941432 0.08165319 0.0862824 0.100650534 0.09551223 0.11419399
0.001330728 -6.890278e-05 0.0028383264 0.0009003874 -0.0012932952 0.0013563441 -0.00028657014 -0.0005664735
-0.0015761374 0.00030502368 -0.0012945465 -2.6295289e-05 -0.0018909551 -0.0020976677 -0.00081716257 0.0008768503
-0.012429058 0.08208675 -0.031592224 -0.06344696 -0.18048571 -0.041070685 0.0077967634 0.09837855
0.048401576 0.0050984765 0.12930207 -0.13433795 -0.00056830706 0.051176403 -0.0055164937 0.028624428
0.00025136524 0.0009212941 0.0018361193 -0.00031982374 -0.0002939946 -0.0012544374 0.002735782 0.0011311366
9.153562e-05 0.00044514987 -0.0014597314 -0.0012139096 0.00090771366 -0.0004718581 0.0009153907 -0.00017066125
0.0005812532 0.07366564 -0.03960757 -0.060104765 -0.18985292 -0.04653072 -0.0021514348 0.103839114
0.080580026 0.028851928 0.13581753 -0.14040916 -0.0126091475 0.037719313 0.025464412 0.008748598
00000000: a8ca a5ba 0044 3135 fc29 233b d997 e3ba
00000010: e7e1 ab3b 96e3 42bb 2958 183b 10a2 97ba
00000020: 74a6 fd39 a76c 663a a65d d7bb 0fd8 feba
00000030: 7627 323b f160 143a 8f8a 273b 7378 903b
00000040: dfe5 013e 7613 e8bd c3d8 ee3d d2b6 b13d
00000050: b6fc 533d 3a99 ca3d 008d e93d 092c 8c3d
00000060: d087 f43d 636d fbbd 4491 aa3d 0629 7bbd
00000070: 5c2a b9bd 6130 d1bd 1d0b dbbd 2596 f8bd
00000080: b1bd 023b 74d6 923b 6e3d 063c bb1a b93b
00000090: a5da 1f3b 35f9 d13b 66f3 1e3c 3106 9f3b
000000a0: a3d7 553b 6a41 763b 15ee 1b3b 391d 033b
000000b0: c6b6 373b 3b67 bc3a e5c4 623b 34ba cd3b
000000c0: ff54 03be 0d6e cf3d c964 e6bd a59a bebd
000000d0: 10eb 6ebd c7db a7bd 7c2d c5bd 3ebc 98bd
000000e0: d8ff 08be c81c 053e db1e b7bd ca39 a73d
000000f0: d4b4 b03d de21 ce3d eb9b c33d 8ade e93d
00000100: d26b ae3a e67f 90b8 3703 3a3b fa07 6c3a
00000110: c983 a9ba 5bc7 b13a cb3e 96b9 657f 14ba
00000120: 6596 ceba 96eb 9f39 c6ad a9ba b494 dcb7
00000130: edd9 f7ba 0679 09bb da36 56ba 6ddc 653a
00000140: 3fa3 4bbc 191d a83d d966 01bd 7bf0 81bd
00000150: 3fd1 38be bc39 28bd fe7b ff3b b17a c93d
00000160: bb40 463d 1f11 a73b c367 043e e38f 09be
00000170: 71fa 14ba 599e 513d b4c3 b4bb c77d ea3c
00000180: acc9 8339 0083 713a f1a9 f03a 04ae a7b9
00000190: 4a23 9ab9 ef6b a4ba ce4a 333b a542 943a
000001a0: d0f6 bf38 0163 e939 7554 bfba 0c1c 9fba
000001b0: a2f3 6d3a b963 f7b9 d4f6 6f3a 88f3 32b9
000001c0: 3e5f 183a 03de 963d 8c3b 22bd 6a30 76bd
000001d0: ce68 42be ff96 3ebd 16ff 0cbb 9aa9 d43d
000001e0: 2407 a53d e15a ec3c c013 0b3e 6bc7 0fbe
000001f0: 9996 4ebc 917f 1a3d be9a d03c 4856 0f3c

model.encoder_gnn.post_nn.fc_layers.0.0.bias f4 [8]
-0.0039946022 0.07379174 -0.010082777 -0.06873156 -0.0022795908 -1.1648545 -0.001476595 -1.1565629
00000000: 27e5 82bb 2020 973d 3b32 25bc 22c3 8cbd
00000010: 3065 15bb f419 95bf 4e8a c1ba 410a 94bf

model.decoder_gnn.pre_nn.fc_layers.0.0.weight f4 [16, 4]
-0.029844074 -0.28594938 -0.013888607 0.36514503 0.0038759515 -0.27416378 -0.00630171 0.26102826
-0.009969797 -0.39512098 0.00085016456 0.4454233 0.015774984 -0.27296606 -0.018547883 0.29267368
-0.01618968 0.45513994 -0.0014811995 -0.39937106 -0.009793281 -0.2087403 -0.004188479 0.22223866
0.013244269 -0.28637555 0.015532247 0.31382588 0.004171136 -0.025907977 -0.0034805816 -0.37399608
-0.006977112 -0.46944633 -0.015411976 0.37145573 -0.011869985 0.2951937 0.0022022515 -0.24442151
0.020098606 0.5234647 -0.021132717 0.02396209 0.010495958 0.35323122 0.049147468 -0.54699683
0.006575103 -0.539846 -0.009775623 -0.029485196 0.0019261998 0.31597528 0.02783851 0.5269167
-0.01079824 -0.5431864 -0.008336086 -0.37385285 0.0040759584 -0.4747614 0.0034330091 0.49229386
00000000: 8f7b f4bc f567 92be 0a8d 63bc 4af4 ba3e
00000010: ad03 7e3b 325f 8cbe 937e cebb 7fa5 853e
00000020: 5c58 23bc 4c4d cabe 94dd 5e3a 860e e43e
00000030: 8a3a 813c 35c2 8bbe bbf1 97bc 53d9 953e
00000040: 38a0 84bc 1a08 e93e cf24 c2ba 5d7a ccbe
00000050: ff73 20bc 04c0 55be 823f 89bb 8892 633e
00000060: 7efe 583c d19f 92be f77a 7e3c c9ad a03e
00000070: 06ae 883b f73c d4bc 781a 64bb 6a7c bfbe
00000080: 42a0 e4bb 455b f0be 8382 7cbc 722f be3e
00000090: 537a 42bc a123 973e a653 103b a249 7abe
000000a0: d5a5 a43c c801 063f 851e adbc 254c c43c
000000b0: 3df7 2b3c b9da b43e db4e 493d fc07 0cbf
000000c0: f673 d73b 5933 0abf ef29 20bc f08a f1bc
000000d0: 8a78 fc3a 83c7 a13e 960d e43c 03e4 063f
000000e0: 1aeb 30bc 440e 0bbf 1494 08bc a469 bfbe
000000f0: 9e8f 853b ed13 f3be 56fc 603b f10d fc3e

model.decoder_gnn.pre_nn.fc_layers.0.0.bias f4 [16]
0.10545004 0.28903615 -0.16930701 0.07238044 0.13155866 0.2930161 0.057818674 -0.23916818
-0.06009575 -0.04348368 -0.3371727 -0.20873009 -0.3244962 -0.34019965 -0.4346135 0.3741847
00000000: 31f6 d73d 8cfc 933e d15e 2dbe 323c 943d
00000010: 50b7 063e 3506 963e 46d3 6c3d 81e8 74be
00000020: f626 76bd f11b 32bd e6a1 acbe 57bd 55be
00000030: 5e24 a6be a62e aebe a985 debe 2395 bf3e

model.decoder_gnn.lin_skipsum.0.0.weight f4 [16, 16]
0.25997096 0.13050629 0.1372095 0.23197083 -0.26445395 0.15678535 -0.1614664 -0.12358678
0.168737 -0.3849321 -0.053485826 -0.23574111 0.07015787 0.11554441 -0.059984647 0.0065241656
0.0026134683 0.09158965 0.28832698 0.24536586 -0.18427995 0.22181588 0.32912597 -0.19762205
-0.010233559 -0.09882746 -0.3861501 -0.19385569 0.15029866 0.0791839 -0.116346374 0.060527768
0.12773804 -0.020512316 0.08563471 -0.03837214 -0.29186353 0.016423954 0.19945462 -0.27451006
0.18968 -0.2667569 -0.1896739 -0.1733315 0.07019094 0.15155695 -0.016647426 0.09673934
-0.18521248 -0.03973213 -0.20541544 -0.28435025 0.25226086 -0.09388893 -0.1695801 0.27695176
0.027272645 0.29994386 0.051640335 0.1583204 -0.017937712 0.14582081 -0.07148919 -0.12170318
0.2654388 0.099290326 0.03158785 0.09909437 -0.3212516 0.18123733 0.16205856 -0.050841644
0.03756083 -0.2610627 -0.17642447 0.049419068 0.30139914 0.26264387 -0.0045493897 -0.027442325
0.10330118 -0.11172629 -0.05353694 -0.18901785 0.07908408 -0.20565882 -0.1751965 0.08707011
-0.14699255 0.15593803 0.12939149 0.20153959 -0.18360531 0.107921496 0.07470425 -0.15306956
-0.06147735 -9.791664e-06 0.18162294 -0.03856262 -0.06942095 0.09297522 -0.0028143101 -0.26832974
0.18487957 -0.091771245 -0.1546942 -0.109022826 0.14730103 -0.045547497 0.045281902 0.24619219
-0.24802122 -0.02241445 0.037088476 -0.009413226 0.23038925 -0.05409804 -0.119100474 0.110397495
-0.12400883 -0.036603976 -0.008226723 0.079972796 -0.2600263 0.07778751 0.05815242 -0.036915842
-0.13738188 -0.122609705 -0.1006276 -0.14090039 0.16986449 -0.24893671 -0.21701069 0.100615725
-0.1938331 0.23148024 0.07806322 0.06856753 0.050091274 -0.05986426 -0.09795368 0.09973899
-0.113604546 -0.17766155 -0.124084026 -0.21959546 0.21766537 -0.08150563 -0.11274569 0.029680287
0.043164622 0.11456128 0.20289195 0.13209163 0.024657963 0.24556907 -0.07828916 -0.21022828
-0.054039422 -0.06193195 0.25718024 0.12950249 -0.36821017 0.23256521 0.14903542 0.002013119
0.19263005 0.0015824162 -0.019242987 -0.14088193 -0.008646837 0.043286428 -0.13610232 -0.045609802
0.19531724 -0.019293083 0.18582562 0.37475532 -0.33065388 -0.042680487 -0.058986288 -0.102998
-0.06776188 -0.23966043 -0.31394717 -0.10499784 -0.028943334 0.13388784 0.07311338 0.24365874
0.19583087 0.22176683 -0.08231337 0.17746447 -0.25821102 0.24557146 -0.036448404 -0.15731305
0.011083843 -0.03398927 -0.14373049 -0.06470211 0.22715037 0.15831248 -0.0009358212 0.0019879176
0.013948833 -0.23536213 0.04273674 -0.068147354 0.29994294 -0.114964396 -0.09113824 -0.063115135
-0.12304697 0.22983675 -0.033814665 0.14972563 -0.2396954 -0.08789636 -0.110579714 0.0026294177
0.08607022 0.13806273 0.042732093 0.14523835 -0.021908117 -0.1030307 0.09103475 -0.10776196
-0.07876027 -0.11410781 -0.17577653 -0.13180247 -0.001660474 -0.075871855 0.11656952 0.25154755
-0.21700849 -0.24678929 -0.19694012 0.0020477609 0.48593387 0.088976085 0.05031053 -0.044548742
-0.12575926 0.058239516 0.11723393 0.2584572 -0.008606376 -0.15999132 -0.12396523 -0.20097245
00000000: ea1a 853e 71a3 053e a680 0c3e c389 6d3e
00000010: 8266 87be 578c 203e 7357 25be 111b fdbd
00000020: 64c9 2c3e d215 c5be f413 5bbd 1e66 71be
00000030: eeae 8f3d 8ca2 ec3d 76b2 75bd abc8 d53b
00000040: b946 2b3b 5b93 bb3d 989f 933e 3041 7b3e
00000050: e2b3 3cbe b423 633e 3383 a83e 6f5d 4abe
00000060: a8aa 27bc 0d66 cabd 77b5 c5be 1b82 46be
00000070: e4e7 193e 2b2b a23d 0247 eebd f7eb 773d
00000080: c3cd 023e 7209 a8bc 4061 af3d 1b2c 1dbd
00000090: 236f 95be 878b 863c d53d 4c3e 958c 8cbe
000000a0: 793b 423e 5c94 88be e039 42be d07d 31be
000000b0: 44c0 8f3d bf31 1b3e 2f60 88bc 461f c63d
000000c0: 57a8 3dbe 28be 22bd 6d58 52be 5b96 91be
000000d0: 5628 813e d748 c0bd 68a6 2dbe 9fcc 8d3e
000000e0: e26a df3c 3e92 993e d184 533d be1e 223e
000000f0: 1cf2 92bc 0d52 153e ed68 92bd 843f f9bd
00000100: 98e7 873e ba58 cb3d 4362 013d fdf1 ca3d
00000110: 177b a4be 4796 393e aef2 253e 543f 50bd
00000120: 63d9 193d 03aa 85be 9ea8 34be a66b 4a3d
00000130: fd50 9a3e 4279 863e 0c13 95bb bace e0bc
00000140: 928f d33d c1d0 e4bd 8d49 5bbd e58d 41be
00000150: d6f6 a13d 3a98 52be b666 33be d051 b23d
00000160: 3785 16be 38ae 1f3e 347f 043e 6560 4e3e
00000170: 0803 3cbe f205 dd3d 8bfe 983d 44be 1cbe
00000180: accf 7bbd e046 24b7 5dfb 393e d6f3 1dbd
00000190: 922c 8ebd cb69 be3d 4a70 38bb 8462 89be
000001a0: 1251 3d3e 90f2 bbbd 2868 1ebe 5c47 dfbd
000001b0: 15d6 163e 0390 3abd 8479 393d ce19 7c3e
000001c0: 46f9 7dbe 829e b7bc 16ea 173d ee39 1abc
000001d0: 29eb 6b3e e895 5dbd f3ea f3bd 1518 e23d
000001e0: 57f8 fdbd 0dee 15bd 61c9 06bc c7c8 a33d
000001f0: 2b22 85be 0f4f 9f3d 3b31 6e3d 1135 17bd
00000200: d6ad 0cbe cc1a fbbd d815 cebd 3148 10be
00000210: f5f0 2d3e 44e9 7ebe 0d38 5ebe 9e0f ce3d
00000220: 2f7c 46be 2809 6d3e 9cdf 9f3d 226d 8c3d
00000230: 822c 4d3d 3a34 75bd f09b c8bd f543 cc3d
00000240: 80a9 e8bd e9ec 35be c41f febd a2dd 60be
00000250: ace3 5e3e 6cec a6bd 36e7 e6bd 1324 f33c
00000260: 63cd 303d 1b9f ea3d e8c2 4f3e 0743 073e
00000270: 7fff c93c 7576 7b3e 1156 a0bd 1546 57be
00000280: 7158 5dbd 5bac 7dbd 21ad 833e 4d9c 043e
00000290: 0b86 bcbe 9325 6e3e be9c 183e 88ee 033b
000002a0: d040 453e 1469 cf3a 78a3 9dbc 5a43 10be
000002b0: 77ab 0dbc 1c4d 313d 685e 0bbe 58d1 3abd
000002c0: 3e01 483e 870c 9ebc 1249 3e3e eedf bf3e
000002d0: 774b a9be bcd1 2ebd 9b9b 71bd 9ef0 d2bd
000002e0: bec6 8abd 8b69 75be afbd a0be 1c09 d7bd
000002f0: 921a edbc e519 093e 78bc 953d ad81 793e
00000300: e387 483e d816 633e ea93 a8bd 3fb9 353e
00000310: 3c34 84be 1677 7b3e ec4a 15bd ac16 21be
00000320: 0299 353c 5538 0bbd 162e 13be 8a82 84bd
00000330: 1b9a 683e ab1c 223e e651 75ba b947 023b
00000340: a589 643c c502 71be b80c 2f3d d790 8bbd
00000350: 1f92 993e 7472 ebbd b0a6 babd 8242 81bd
00000360: 0d00 fcbd 535a 6b3e 3f81 0abd ad51 193e
00000370: b672 75be 0203 b4bd 9e77 e2bd 4f52 2c3b
00000380: 9545 b03d 5160 0d3e d907 2f3d 5db9 143e
00000390: a778 b3bc c201 d3bd 6d70 ba3d 4db2 dcbd
000003a0: 104d a1bd 5bb1 e9bd c3fe 33be 3af7 06be
000003b0: 43a4 d9ba b462 9bbd 00bc ee3d d7ca 803e
000003c0: 7937 5ebe 55b6 7cbe acaa 49be ba33 063b
000003d0: 53cc f83e 1839 b63d 6a12 4e3d be78 36bd
000003e0: 09c7 00be 8f8c 6e3d 5818 f03d 8154 843e
000003f0: c201 0dbc c4d4 23be 7ce1 fdbd b9cb 4dbe

model.decoder_gnn.lin_skipsum.0.0.bias f4 [16]
-0.022143535 -0.1979289 0.064706236 0.13804926 -0.1387473 0.20481633 -0.17129159 0.10258423
0.14900957 0.2040923 -0.0031105878 -0.05785651 -0.112025104 -0.020042427 -0.14199223 -0.016109671
00000000: 5c66 b5bc e0ad 4abe b484 843d c95c 0d3e
00000010: c613 0ebe 5fbb 513e 1067 2fbe ae17 d23d
00000020: f795 183e 92fd 503e 01db 4bbb f3fa 6cbd
00000030: 6b6d e5bd 0430 a4bc 6966 11be 6ef8 83bc

model.decoder_gnn.lin_skipsum.1.0.weight f4 [16, 16]
0.029460626 -0.13546139 -0.117585585 0.070120536 0.15348573 -0.0069137956 -0.11282068 -0.15539345
-0.04556748 -0.08911497 -0.1438164 -0.2239547 0.2721971 -0.10689447 0.3244426 0.022907685
0.035581816 -0.22644375 -0.18146878 -0.024838833 0.12897356 -0.06627436 -0.25712466 -0.09301636
-0.11826416 -0.2790615 -0.053796347 -0.1871894 0.26877373 -0.07325304 0.18677297 0.25656688
0.17162034 -0.094555646 -0.115861066 0.16192812 0.13667612 -0.03176051 -0.07019909 -0.0055369693
-0.17180575 -0.010826315 -0.09177766 -0.10419462 0.0310172 -0.19965275 0.27172562 0.0436003
-0.19618718 0.25752908 0.03418388 0.15207615 -0.06965357 -0.15865268 -0.0027358471 -0.069936424
0.05777342 0.08396649 0.28002414 0.14769962 -0.2678905 0.11111049 -0.19628711 -0.106292844
0.08408346 -0.22926275 -0.12658882 0.11961924 0.0106234 -0.026578454 -0.2136785 -0.06463988
-0.071106754 -0.025654022 -0.12459585 0.11009597 0.17028198 -0.09729304 0.09969581 0.028692998
-0.13866709 0.2827286 -0.027805746 0.2604915 -0.076695986 -0.16271368 0.053339314 -0.05052094
0.17939553 0.37382084 0.15311834 0.12806027 -0.13796994 0.0126242945 -0.23185724 -0.24982783
0.19359407 -0.09898145 -0.14875253 0.040561233 -0.0043585873 -0.15322183 -0.14129464 -0.04352825
-0.2102179 0.029408244 -0.09060159 0.10910552 0.19327301 -0.053223997 0.0828065 0.04368669
-0.14960869 0.17897354 0.030341115 0.1480262 -0.051218946 -0.15050372 0.23839541 0.082963616
0.07625496 0.23108318 -0.013035133 0.1116803 -0.103932224 -0.011174023 -0.07212339 0.008578842
-0.23131953 0.08980739 0.18283033 0.10188166 -0.13992931 0.00046668653 0.24052212 0.028418366
0.09264161 0.057020977 0.07958587 0.14806606 -0.062381063 -0.1455899 -0.20631449 0.12905015
-0.12430047 0.23853825 0.19682825 0.04258065 -0.076687776 -0.07607002 0.2018267 -0.024383448
-0.09430109 -0.060241234 0.17601512 0.092428714 -0.040111218 -0.08852227 -0.1524399 -0.017197272
-0.009994951 -0.1633911 -0.046512596 -0.09823638 0.11921663 0.034359567 0.0048415344 0.042656437
-0.12238978 -0.045173634 -0.17454395 -0.1997227 0.15249094 -0.115742624 0.1446793 0.116596945
0.17187338 -0.12512526 -0.17138314 -0.10100382 -0.017136319 0.050785884 -0.23466955 0.02684786
0.11137524 -0.23001124 -0.12232537 -0.13440587 0.17654842 -0.042218205 0.34538576 -0.0922859
0.109202065 -0.0679854 -0.054415695 -0.02178859 0.05085744 0.12644455 -0.113998584 -0.07198101
-0.095966466 -0.17742148 -0.06533543 -0.13962899 0.15573232 -0.10171184 0.10815306 0.1836221
-0.09781597 0.10027927 0.039183717 0.029624885 0.014908399 -0.2277215 0.23213457 0.101459876
0.099807955 0.13563663 -0.035699196 0.081743166 -0.017384138 0.16720517 -0.20440267 -0.023350468
0.15203081 -0.07285638 -0.007289011 0.0063928044 0.012672933 0.11090069 -0.052391548 -0.11990842
-0.17294234 -0.21899816 -0.011032227 -0.06757829 0.21753687 -0.12871422 0.10695723 0.22654082
-0.2766646 0.18257618 0.24587761 0.036638718 -0.11114495 0.023006523 0.311992 0.13446102
0.37420854 0.25881216 0.004981518 0.028396606 -0.21039069 0.023098258 -0.13909823 0.07528966
00000000: 6957 f13c 64b6 0abe b6d0 f0bd 5b9b 8f3d
00000010: 5d2b 1d3e 1f8d e2bb 870e e7bd 761f 1fbe
00000020: f7a4 3abd e981 b6bd 9b44 13be 6254 65be
00000030: 6b5d 8b3e 7deb dabd 571d a63e e6a8 bb3c
00000040: 3dbe 113d dfe0 67be f4d2 39be cf7a cbbc
00000050: a511 043e daba 87bd d8a5 83be 5d7f bebd
00000060: 7b34 f2bd 26e1 8ebe 8f59 5cbd 94ae 3fbe
00000070: b69c 893e b105 96bd 6a41 3f3e bc5c 833e
00000080: 3ebd 2f3e 64a6 c1bd 9148 edbd 7cd0 253e
00000090: d3f4 0b3e 4f17 02bd 8ac4 8fbd 776f b5bb
000000a0: d9ed 2fbe db60 31bc edf5 bbbd fd63 d5bd
000000b0: c817 fe3c c571 4cbe 9f1f 8b3e 3a96 323d
000000c0: 4be5 48be dada 833e 6504 0c3d dab9 1b3e
000000d0: 88a6 8ebd d975 22be e64b 33bb d43a 8fbd
000000e0: d2a3 6c3d a0f6 ab3d 535f 8f3e 923e 173e
000000f0: f228 89be e68d e33d 7dff 48be 10b0 d9bd
00000100: f333 ac3d dbc3 6abe 80a0 01be effa f43d
00000110: c50d 2e3c 0fbb d9bc 89ce 5abe ea61 84bd
00000120: 6ba0 91bd 6228 d2bc 1c2c ffbd ff79 e13d
00000130: 665e 2e3e 9341 c7bd 512d cc3d 940d eb3c
00000140: bffe 0dbe cec1 903e e0c8 e3bc 245f 853e
00000150: c912 9dbd 6a9e 26be 537a 5a3d 0cef 4ebd
00000160: 76b3 373e 7265 bf3e 0ecb 1c3e 3b22 033e
00000170: fe47 0dbe 21d6 4e3c fc6b 6dbe ded2 7fbe
00000180: 863d 463e c9b6 cabd 9552 18be 8923 263d
00000190: 7bd2 8ebb 2fe6 1cbe 8baf 10be ae4a 32bd
000001a0: 5c43 57be 8fe9 f03c 548d b9bd b772 df3d
000001b0: 5ce9 453e 6801 5abd 7496 a93d d1f0 323d
000001c0: 0533 19be d744 373e ee8d f83c 2e94 173e
000001d0: f5ca 51bd a61d 1abe ed1d 743e d4e8 a93d
000001e0: 8f2b 9c3d 12a1 6c3e 4f91 55bc a4b8 e43d
000001f0: 6bda d4bd 4013 37bc 6eb5 93bd 458e 0c3c
00000200: 07df 6cbe f0ec b73d e037 3b3e 55a7 d03d
00000210: a149 0fbe 9bad f439 6e4b 763e a2cd e83c
00000220: e2ba bd3d d48e 693d ebfd a23d a19e 173e
00000230: 4983 7fbd 8515 15be 1b44 53be b925 043e
00000240: 3f91 febd 5f43 743e 588d 493e 0c69 2e3d
00000250: 7b0e 9dbd 99ca 9bbd a9ab 4e3e ccbf c7bc
00000260: ee20 c1bd 83bf 76bd 4f3d 343e 444b bd3d
00000270: a94b 24bd 2a4b b5bd 3519 1cbe 4be1 8cbc
00000280: ddc1 23bc ff4f 27be fe83 3ebd 2830 c9bd
00000290: d927 f43d 9ebc 0c3d bca5 9e3b 84b8 2e3d
000002a0: 7ea7 fabd fd07 39bd a6bb 32be 1c84 4cbe
000002b0: 9626 1c3e 780a edbd cf26 143e 61ca ee3d
000002c0: 93ff 2f3e d620 00be 107f 2fbe 17db cebd
000002d0: 7761 8cbc dc04 503d 374d 70be 0bf0 db3c
000002e0: b418 e43d 1188 6bbe b985 fabd b1a1 09be
000002f0: 1cc9 343e ffec 2cbd 67d6 b03e 6400 bdbd
00000300: 55a5 df3d ee3b 8bbd fee2 5ebd fc7d b2bc
00000310: e44f 503d ae7a 013e 1778 e9bd c86a 93bd
00000320: 118a c4bd faad 35be 95ce 85bd e7fa 0ebe
00000330: 4b78 1f3e 4c4e d0bd 5a7f dd3d 6f07 3c3e
00000340: bd53 c8bd 385f cd3d 1b7f 203d e3af f23c
00000350: 5c42 743c d32f 69be afb4 6d3e 32ca cf3d
00000360: 1d68 cc3d 54e4 0a3e 5239 12bd f668 a73d
00000370: 2e69 8ebc d537 2b3e ef4e 51be 7b49 bfbc
00000380: f7ad 1b3e ba35 95bd a8d8 eebb bb7a d13b
00000390: 22a2 4f3c e71f e33d 8598 56bd 8c92 f5bd
000003a0: cc17 31be 0e41 60be 84c0 34bc 7d66 8abd
000003b0: fcc1 5e3e a9cd 03be 640c db3d 51fa 673e
000003c0: fca6 8dbe 40f5 3a3e 57c7 7b3e 7b12 163d
000003d0: f79f e3bd 2d78 bc3c 6abd 9f3e 26b0 093e
000003e0: 4398 bf3e 0783 843e 003c a33b 00a0 e83c
000003f0: a870 57be 8f38 bd3c c46f 0ebe 7731 9a3d

model.decoder_gnn.lin_skipsum.1.0.bias f4 [16]
0.06278023 0.18347451 -0.030615196 -0.116889834 0.08465632 -0.09392471 0.083584815 -0.09773753
0.023639664 -0.0043190205 0.14841504 0.14956473 0.13299006 -0.15288185 0.09220764 -0.21361344
00000000: ec92 803d bee0 3b3e b8cc fabc f063 efbd
00000010: 4b60 ad3d 995b c0bd 842e ab3d 9d2a c8bd
00000020: f8a7 c13c 9286 8dbb 1dfa 173e 7f27 193e
00000030: 8c2e 083e 0f8d 1cbe 5cd7 bc3d 7bbd 5abe
