_models_trained/vaca/collidersens_non-linear/last-v1.ckpt (torch, 121569 bytes, 37 tensors)

model.encoder_gnn.pre_nn.fc_layers.0.0.weight f4 [16, 1]
-0.25913185 0.3905445 -0.27981487 -0.03862989 -0.08774532 -0.4387017 0.6876859 -0.6494646
0.6392278 -0.9829297 -0.27845898 -0.9017549 -0.49608657 0.6212133 -0.40683866 -0.8261584
00000000: eeac 84be 73f5 c73e e543 8fbe 603a 1ebd
00000010: d1b3 b3bd 829d e0be 2f0c 303f 5043 26bf
00000020: 6fa4 233f 48a1 7bbf 2d92 8ebe 69d9 66bf
00000030: 0fff fdbe d607 1f3f 284d d0be 1e7f 53bf

model.encoder_gnn.pre_nn.fc_layers.0.0.bias f4 [16]
0.02480024 -0.119104534 0.07283945 -0.14779937 -0.37720373 0.07331077 0.088965535 -0.17914101
-0.0632897 0.38436487 0.13703021 0.23454201 -0.037643366 -0.03914446 0.038721748 0.13516082
00000000: df29 cb3c 14ed f3bd d92c 953d b858 17be
00000010: d920 c1be f523 963d 9033 b63d be70 37be
00000020: 089e 81bd 79cb c43e a651 0c3e c82b 703e
00000030: ee2f 1abd f155 20bd b29a 1e3d 9967 0a3e

model.encoder_gnn.lin_skipsum.0.0.weight f4 [16, 16]
-0.24506617 0.15922302 -0.27419823 0.23961082 0.15602307 -0.08151803 0.17776242 -0.17782007
0.23530021 -0.094620496 -0.10576587 -0.047874022 0.048944138 0.2669011 -0.17598376 -0.12430932
0.13445121 -0.20681 0.35969043 0.18936667 0.05435058 0.13756 -0.18930107 0.01680571
-0.15020771 0.0828916 0.11220341 0.10673382 0.17410569 -0.21465582 0.064114146 0.070034266
-0.25626215 0.26306835 -0.020856297 0.1555219 -0.25167483 -0.09057033 0.15932459 -0.10496431
0.28732333 -0.11681516 -0.08145425 -0.021178175 -0.27377418 0.17507645 -0.2336037 0.010402263
-0.14935577 0.17955403 -0.30963892 -0.24479276 -0.27150682 -0.18336494 0.20836817 -0.27299622
0.21056236 -0.0001560706 -0.24699382 0.023575274 -0.26112738 0.30772546 -0.18794408 0.006332646
-0.43738285 0.0074159894 -0.13499495 -0.057108402 -0.2006328 -0.17145862 0.25567085 -0.26842937
0.13873883 -0.0069985776 -0.20224585 -0.051555555 -0.1965444 -0.020331968 -0.35881695 -0.08301678
-0.3143113 0.25461528 -0.10468077 -0.22672954 -0.16912542 -0.12455522 0.22641386 -0.15051721
0.16951308 -0.052609265 -0.21883222 -0.12240809 -0.18027654 0.20339157 -0.13485913 -0.06992844
-0.27377915 0.14792988 -0.1608431 0.16382799 0.18304099 -0.22992389 0.25606966 -0.10774414
0.30917227 0.022045135 -0.062420376 -0.09570313 -0.19375189 0.22350468 -0.13154711 -0.0120387515
-0.008826467 0.32418695 -0.04399531 0.12941068 -0.05958645 0.07110008 0.34536764 -0.1018766
0.32381937 -0.08980361 -0.23616318 -0.10618041 0.13287152 0.48934695 -0.21043795 0.022939539
-0.16730829 0.054941293 -0.036739603 0.20276868 -0.1890601 -0.06911488 0.18654345 -0.17080843
0.2635026 -0.023343641 -0.00836801 -0.043774437 -0.123230234 0.25503564 0.026193956 -0.09051884
0.080841236 -0.22464736 0.18592897 -0.110879034 0.21189658 0.058321208 -0.17489198 0.23674713
-0.29401624 0.0062754867 0.19325644 0.14211588 0.20732167 -0.1515668 0.12159042 -0.02367613
-0.25258106 0.13058491 0.055491008 -0.13358307 0.07346972 -0.1045355 0.27909693 0.03545778
0.31041822 -0.031589456 -0.13414344 -0.050590307 -0.100150086 0.38919488 -0.12056634 0.057035584
-0.12212624 -0.46648392 0.27165812 -0.0061454475 0.043796837 0.022614913 -0.20992456 -0.0011664784
-0.30372295 0.082386136 0.12253931 0.093354836 0.1568949 -0.51685977 -0.02812921 0.08094429
0.4921745 -0.15313002 0.3175063 -0.09612748 -0.048044715 0.15427318 -0.21618304 0.03811071
-0.2140811 0.035608128 0.2576803 -0.027844464 -0.021253983 -0.29106534 0.2795791 0.2052379
0.28843808 -0.43347132 0.004231935 -0.08749983 -0.023180805 0.16009398 -0.18730034 0.267551
-0.16447356 0.10670461 0.25925127 0.163266 0.03796199 -0.1069408 0.1009514 -0.02756407
0.34282452 -0.5893815 0.19354112 -0.24619499 0.12047985 0.024915101 -0.13186002 -0.035637315
-0.25526726 0.14131624 0.081165045 0.10602332 0.021734053 -0.19037992 0.16336973 0.13771261
-0.018967256 -0.41846484 0.21111758 -0.0022568703 -0.04158402 0.22373375 -0.03425341 0.11601751
-0.25143126 0.08842065 0.048588622 0.07981311 0.14029826 -0.24126294 0.21967298 0.08764394
00000000: a0f2 7abe 5c0b 233e b663 8cbe 8a5c 753e
00000010: 83c4 1f3e edf2 a6bd 5a07 363e 7716 36be
00000020: 8af2 703e 64c8 c1bd c79b d8bd 8d17 44bd
00000030: a679 483d 43a7 883e 1635 34be e295 febd
00000040: 94ad 093e 00c6 53be 5829 b83e 56e9 413e
00000050: b79e 5e3d 87dc 0c3e 24d8 41be 21ac 893c
00000060: 0dd0 19be 12c3 a93d e7ca e53d 4397 da3d
00000070: c348 323e bcce 5bbe 474e 833d 206e 8f3d
00000080: cb34 83be e5b0 863e d3da aabc 2241 1f3e
00000090: 86db 80be f07c b9bd fc25 233e 87f7 d6bd
000000a0: 0b1c 933e c93c efbd 7cd1 a6bd da7d adbc
000000b0: 212c 8cbe 3e47 333e cf35 6fbe 416e 2a3c
000000c0: b8f0 18be 03dd 373e fe88 9ebe f4aa 7abe
000000d0: f102 8bbe 05c4 3bbe 775e 553e 29c6 8bbe
000000e0: a99d 573e e2a6 23b9 f3eb 7cbe ef20 c13c
000000f0: 7db2 85be 318e 9d3e 6a74 40be 1682 cf3b
00000100: a5f0 dfbe d401 f33b 1e3c 0abe 80ea 69bd
00000110: af72 4dbe d992 2fbe 4ae7 823e 936f 89be
00000120: 8d11 0e3e 5354 e5bb 8919 4fbe eb2b 53bd
00000130: ef42 49be 3a8f a6bc dbb6 b7be b404 aabd
00000140: 69ed a0be ef5c 823e df62 d6bd ca2b 68be
00000150: 372f 2dbe cf16 ffbd 09d9 673e 2f21 1abe
00000160: d694 2d3e d07c 57bd 8e15 60be 18b1 fabd
00000170: 6a9a 38be e145 503e 8318 0abe a436 8fbd
00000180: c82c 8cbe ee7a 173e 0eb4 24be 86c2 273e
00000190: 196f 3b3e 2b71 6bbe 901b 833e f6a8 dcbd
000001a0: d44b 9e3e 0098 b43c 82ac 7fbd 0100 c4bd
000001b0: e566 46be 69de 643e 49b4 06be 2f3e 45bc
000001c0: e39c 10bc d5fb a53e 6d34 34bd 3c84 043e
000001d0: ec10 74bd eb9c 913d 07d4 b03e aea4 d0bd
000001e0: a7cb a53e f5ea b7bd c3d4 71be 1d75 d9bd
000001f0: 790f 083e af8b fa3e 0c7d 57be b3eb bb3c
00000200: dd52 2bbe 1f0a 613d 447c 16bd 98a2 4f3e
00000210: f998 41be 1a8c 8dbd 3f05 3f3e 68e8 2ebe
00000220: d0e9 863e 2a3b bfbc fa19 09bc d34c 33bd
00000230: 2260 fcbd 0894 823e b594 d63c f161 b9bd
00000240: 1790 a53d f509 66be 2a64 3e3e 8c14 e3bd
00000250: 6bfb 583e 38e2 6e3d e216 33be d76d 723e
00000260: 4c89 96be 99a2 cd3b 04e5 453e d386 113e
00000270: 224c 543e 5434 1bbe 6604 f93d 72f4 c1bc
00000280: 4e52 81be 0db8 053e 8a4a 633d 00ca 08be
00000290: 4b77 963d b516 d6bd cbe5 8e3e 2d3c 113d
000002a0: 23ef 9e3e f263 01bd e65c 09be c837 4fbd
000002b0: 7d1b cdbd 8d44 c73e 7ceb f6bd 259e 693d
000002c0: 521d fabd fbd6 eebe c616 8b3e c05f c9bb
000002d0: 5064 333d e942 b93c 77f6 56be 85e4 98ba
000002e0: 9381 9bbe 10ba a83d e4f5 fa3d d230 bf3d
000002f0: 0fa9 203e ec50 04bf 3b6f e6bc 1fc6 a53d
00000300: 4cfe fb3e 1ece 1cbe 3090 a23e 7cde c4bd
00000310: 89ca 44bd caf9 1d3e 165f 5dbe fa19 1c3d
00000320: 1338 5bbe d4d9 113d acee 833e 131a e4bc
00000330: d51c aebc 8406 95be fe24 8f3e e229 523e
00000340: 28ae 933e f4ef ddbe 0bac 8a3b 1c33 b3bd
00000350: ace5 bdbc adef 233e a9cb 3fbe 72fc 883e
00000360: c26b 28be f287 da3d 95bc 843e 342f 273e
00000370: 087e 1b3d c703 dbbd 9cbf ce3d 0bce e1bc
00000380: b286 af3e b5e1 16bf a52f 463e 8a1a 7cbe
00000390: 24be f63d c11a cc3c 5006 07be 6ff8 11bd
000003a0: 64b2 82be 34b5 103e dc39 a63d c122 d93d
000003b0: 9d0b b23c f4f2 42be 654a 273e 8904 0d3e
000003c0: 3861 9bbc 0641 d6be 352f 583e 00e8 13bb
000003d0: 0154 2abd 761a 653e 4e4d 0cbd 979a ed3d
000003e0: 99bb 80be e315 b53d dd04 473d 0e75 a33d
000003f0: 59aa 0f3e a20d 77be f4f1 603e aa7e b33d

model.encoder_gnn.lin_skipsum.0.0.bias f4 [16]
0.07340431 -0.13082913 0.033627503 0.0061455946 0.12088511 0.053118378 -0.00049612 -0.14174357
-0.06226604 -0.05247986 -0.1200316 0.04464373 -0.063056745 -0.09956179 -0.13096 -0.09272181
00000000: 0055 963d 12f8 05be febc 093d fc60 c93b
00000010: 9d92 f73d a892 593d 0d0e 02ba 3a25 11be
00000020: ad0a 7fbd 1ff5 56bd 21d3 f5bd 58dc 363d
00000030: e523 81bd 0de7 cbbd 611a 06be efe4 bdbd

model.encoder_gnn.gnn.0.0.edge_encoder.weight f4 [16, 9]
-0.12201962 -0.08115892 0.1578556 0.6051486 -0.10457214 -0.18939048 0.11552738 0.032493237
0.27119696 -0.2747764 -0.3855961 0.20717643 0.38972756 -0.11656351 -0.32117873 -0.072553664
0.15331937 -0.038616695 0.19821523 -0.09070337 0.26464888 0.05726866 -0.039845426 -0.1522345
-0.28534818 0.060361188 -0.09952001 0.21513583 0.3279689 -0.08045235 -0.49694863 0.20545349
0.31304255 0.3956017 -0.24155612 0.0439941 -0.049016323 0.08594645 0.22537942 -0.041944094
-0.22662483 0.11426718 -0.18571137 0.13171777 -0.0924141 -0.1193368 0.008136195 -0.015435022
-0.032078274 0.017529413 0.11872093 -0.06736889 0.11167464 -0.042200983 -0.048178993 0.016377531
-0.25525582 -0.148805 -0.0814378 -0.008149882 0.30891073 0.055514295 0.028089315 -0.14419088
0.028248 -0.015183686 0.11563206 0.10584291 0.14214085 0.031459592 -0.05056295 0.07902368
-0.057236873 0.40536338 0.21262191 -0.45053074 0.26088694 0.22049654 -0.15577771 -0.03711709
0.15033883 0.38787684 -0.036069773 -0.2714984 -0.12543336 0.05968527 0.16398492 0.14073214
0.66451365 -0.07536739 0.12091205 0.07881622 -0.041042138 -0.35095888 -0.11888678 0.04269796
0.13033529 -0.12799177 -0.0003825915 -0.24358349 0.16717842 -0.006381078 0.048801374 -0.15935092
-0.04040224 0.012310451 0.11220531 0.09151524 -0.04293736 -0.010374146 0.01946326 0.26513714
-0.15483636 -0.034490258 -0.019451378 0.38202372 0.047601976 0.20796399 -0.12726837 -0.23627299
-0.18849751 -0.1728378 0.0069530085 0.23745087 0.14473134 -0.022877363 -0.05859241 -0.23791926
-0.5147731 0.06847625 -0.03938275 -0.3064575 0.25682434 0.117524855 -0.19146757 0.15433909
0.11409016 -0.014035306 -0.081119835 -0.22881585 0.012649851 0.17603782 0.26016003 -0.00016914771
00000000: 6ce5 f9bd a636 a6bd e6a4 213e 05eb 1a3f
00000010: eb29 d6bd 94ef 41be 9e99 ec3d a117 053d
00000020: 54da 8a3e 7eaf 8cbe da6c c5be 0f26 543e
00000030: 5f8a c73e d9b8 eebd 8a71 a4be 0497 94bd
00000040: c1ff 1c3e 8a2c 1ebd eff8 4a3e b0c2 b9bd
00000050: 0f80 873e 8b92 6a3d f534 23bd 5ce3 1bbe
00000060: 2819 92be 4b3d 773d 26d1 cbbd 914c 5c3e
00000070: 8aeb a73e 34c4 a4bd 0d70 febe 6662 523e
00000080: 1d47 a03e 4e8c ca3e 7d5a 77be 2833 343d
00000090: 57c5 48bd b104 b03d ddc9 663e 92cd 2bbd
000000a0: 5710 68be e904 ea3d 1f2b 3ebe 06e1 063e
000000b0: 9b43 bdbd da66 f4bd ad4d 053c 2de3 7cbc
000000c0: 8264 03bd d899 8f3c f523 f33d b3f8 89bd
000000d0: acb5 e43d f0da 2cbd 5657 45bd 2c2a 863c
000000e0: e4b0 82be 5760 18be dcc8 a6bd 1587 05bc
000000f0: 8c29 9e3e f562 633d 901b e63c c6a6 13be
00000100: 5a68 e73c ffc4 78bc 80d0 ec3d 2bc4 d83d
00000110: 5f8d 113e c6db 003d 191b 4fbd 2bd7 a13d
00000120: 3671 6abd ca8b cf3e 8fb9 593e f7ab e6be
00000130: f992 853e d8c9 613e 3184 1fbe 1708 18bd
00000140: 6cf2 193e cb97 c63e e6bd 13bd d701 8bbe
00000150: 9a71 00be 8b78 743d aaeb 273e 161c 103e
00000160: 911d 2a3f 385a 9abd bda0 f73d 666a a13d
00000170: cd1b 28bd e2b0 b3be ea7a f3bd 0ee4 2e3d
00000180: 9d76 053e 4610 03be 9096 c8b9 f36d 79be
00000190: d230 2b3e 5d18 d1bb f3e3 473d e32c 23be
000001a0: d27c 25bd c6b1 493c e6cb e53d 586c bb3d
000001b0: 16df 2fbd 52f8 29bc 6a71 9f3c 0ec0 873e
000001c0: 6c8d 1ebe a845 0dbd 7f58 9fbc 9d98 c33e
000001d0: 4afa 423d 83f4 543e a452 02be 8cf1 71be
000001e0: 7e05 41be 64fc 30be 10d6 e33b 5226 733e
000001f0: 7434 143e 4f69 bbbc 98fe 6fbd 1ba1 73be
00000200: 2bc8 03bf 473d 8c3d ce4f 21bd ffe7 9cbe
00000210: 7b7e 833e dfb0 f03d 1310 44be 110b 1e3e
00000220: 1aa8 e93d 57f4 65bc 2822 a6bd b44e 6abe
00000230: 5241 4f3c 4243 343e b233 853e 3e5d 31b9

model.encoder_gnn.gnn.0.0.edge_encoder.bias f4 [16]
-0.14663501 0.075437896 0.00030840276 -0.03510035 0.07413849 0.012756481 0.061505795 -0.057019424
-0.007904389 -0.093328245 0.05243457 0.007701013 -0.04567208 0.06719057 0.10689569 -0.009036121
00000000: 7d27 16be 2f7f 9a3d 1eb1 a139 62c5 0fbd
00000010: ecd5 973d 8f00 513c 80ed 7b3d 338d 69bd
00000020: 6981 01bc e122 bfbd a2c5 563d c758 fc3b
00000030: a612 3bbd 369b 893d 21ec da3d 3d0c 14bc

model.encoder_gnn.gnn.0.0.pre_nns.0.0.weight f4 [16, 48]
-0.21236438 0.21182719 -0.26266575 -0.03046527 0.108676605 -0.19096066 -0.0016658602 -0.12618418
0.0051440177 0.11974033 -0.25777814 0.117115915 -0.20477708 -0.07160353 -0.18727499 0.19936755
-0.07459897 -0.19919594 -0.0018144811 0.098651186 -0.0012048929 -0.012570383 -0.0815111 -0.103597455
-0.13330998 0.033125903 0.05421192 0.03576338 -0.0403912 -0.12518601 -0.026678197 -0.009180465
-0.15492792 -0.13444506 -0.20058693 0.31662434 -0.07425374 -0.0025215575 0.14920007 0.025103558
-0.024716357 0.21800701 0.15016522 -0.09633745 -0.1244112 0.11876111 0.20463896 0.010870487
-0.11461801 0.26174283 -0.020953178 0.07453155 0.006576558 -0.16978435 0.04963975 0.088936
0.057640687 -0.10530343 0.035176694 0.16867402 0.0861233 -0.25642136 0.0038135627 0.114098124
-0.030058246 0.10755718 -0.089251444 0.11009895 -0.027671257 -0.081400424 0.026038524 0.030516148
-0.016999066 -0.061270155 -0.18692821 -0.043456648 -0.06909176 0.005656541 -0.049043987 -0.02136942
0.015019105 -0.048928134 -0.071391314 0.0025622337 -0.1124322 0.04934193 0.05393906 0.0610359
-0.25191212 -0.08584899 -0.17493734 0.12930216 -0.006384059 -0.09528858 0.103840865 0.0026689516
0.11565123 -0.33405885 0.16433924 -0.07894627 0.027229533 0.07049608 0.24993803 -0.010537741
0.12520505 0.06688338 0.029168652 -0.07885812 0.059056275 -0.25910738 0.12627529 -0.1465288
0.14612979 -0.06617463 0.021459289 -0.12794971 0.04721674 0.06749053 0.024751866 -0.112733215
0.054543074 0.06438712 0.16952832 -0.060556315 0.025465028 0.029360125 -0.004050135 0.08441938
0.015758956 -0.04392891 0.11931727 -0.06007905 -0.047786493 0.0074664494 -0.01956621 0.018787598
-0.1268836 0.049657576 0.064922035 0.013835881 -0.002809421 0.03778426 0.04087446 0.12655383
0.4119744 0.47051093 0.09713876 0.14143811 -0.010435005 0.16230446 -0.015332672 0.07491208
-0.12682366 -0.14323096 0.115516946 -0.029913666 0.17547059 -0.0338113 0.13142127 -0.17582968
0.015640676 0.038357105 0.017401181 0.028827688 -0.14205097 -0.13661614 -0.018339345 -0.027109131
-0.017799642 -0.093085185 -0.035114605 0.18138938 -0.09370565 -0.013228656 0.08208529 -0.06509618
-0.043202337 -0.025753722 0.023512578 -0.009211537 0.0420309 -0.044431552 -0.010759859 -0.031632494
-0.096682325 -0.10775987 0.118747115 -0.09727416 -0.04324347 -0.028996563 0.026063075 0.09633823
-0.14601368 -0.005196755 -0.17866544 0.033201292 -0.06445492 -0.13244934 -0.002402672 -0.22312367
-0.4200042 0.026517278 -0.14146183 0.05189469 -0.11105493 -0.022829508 -0.16551927 0.38404092
-0.030807756 0.39590624 -0.05180221 0.07061315 0.13161767 -0.046584193 0.12249891 0.041535493
0.22021668 0.005693611 -0.07210469 0.0018008716 -0.034922704 0.20049395 -0.04910655 0.003522177
-0.1990858 -0.18041676 0.10025436 0.030166095 0.038620755 0.06796421 -0.049393397 -0.040678035
0.29089794 0.1372343 0.068633266 0.033171825 0.057938192 0.06622848 -0.0878563 0.1367776
-0.17844549 -0.33135346 0.046494883 0.064722255 -0.053012993 -0.021009851 0.14957088 -0.1420737
0.04568932 -0.034228817 0.015219369 -0.086658485 -0.09132971 0.25228572 -0.029752634 0.4794399
00000000: 0c76 59be 3ae9 583e 207c 86be 4d92 f9bc
00000010: d791 de3d 318b 43be fe58 daba 6d36 01be
00000020: 268f a83b 6b3a f53d 7ffb 83be 78da ef3d
00000030: 15b1 51be dfa4 92bd 04c5 3fbe 0227 4c3e
00000040: 58c7 98bd 05fa 4bbe e2d3 edba a209 ca3d
00000050: 7fed 9dba 02f4 4dbc 4bef a6bd e72a d4bd
00000060: 6982 08be 07af 073d 510d 5e3d 9f7c 123d
00000070: 3e71 25bd c330 00be 3c8c dabc a969 16bc
00000080: 6da5 1ebe f7ab 09be a966 4dbe 961c a23e
00000090: 5812 98bd b740 25bb e7c7 183e faa5 cd3c
000000a0: f579 cabc 3b3d 5f3e e9c4 193e 924c c5bd
000000b0: 4dcb febd 0639 f33d e08c 513e 211a 323c
000000c0: d9bc eabd 2803 863e 00a6 abbc ffa3 983d
000000d0: 2b80 d73b f3db 2dbe 0d53 4b3d 1424 b63d
000000e0: a418 6c3d 53a9 d7bd 7015 103d e2b8 2c3e
000000f0: 6a61 b03d a949 83be f7ec 793b 47ac e93d
00000100: b63c f6bc f046 dc3d 76c9 b6bd 8f7b e13d
00000110: d5ae e2bc 44b5 a6bd be4e d53c 00fd f93c
00000120: a041 8bbc 6af6 7abd 1c6a 3fbe 99ff 31bd
00000130: fb7f 8dbd 815a b93b 59e2 48bd ec0e afbc
00000140: b112 763c de68 48bd 9c35 92bd 26eb 273b
00000150: da42 e6bd c31a 4a3d 34ef 5c3d c800 7a3d
00000160: a0fa 80be 98d1 afbd c622 33be c967 043e
00000170: 5e31 d1bb a926 c3bd 85aa d43d 94e9 2e3b
00000180: 8dda ec3d c309 abbe 8c48 283e 95ae a1bd
00000190: 7810 df3c 4060 903d c1ef 7f3e 7da6 2cbc
000001a0: c135 003e 27fa 883d 19f3 ee3c 5e80 a1bd
000001b0: fee4 713d b9a9 84be 4f4e 013e a50b 16be
000001c0: 0ca3 153e 9086 87bd 64cb af3c 4005 03be
000001d0: 5766 413d 7a38 8a3d 6dc4 ca3c ace0 e6bd
000001e0: 8f68 5f3d 65dd 833d d598 2d3e e609 78bd
000001f0: 099c d03c a584 f03c ffb6 84bb 11e4 ac3d
00000200: ed18 813c cdee 33bd 9d5c f43d 7315 76bd
00000210: c5bb 43bd 1ea9 f43b 5149 a0bc 73e8 993c
00000220: c6ed 01be be65 4b3d d8f5 843d e4af 623c
00000230: 431e 38bb abc3 1a3d fa6b 273d 5497 013e
00000240: 4fee d23e cfe6 f03e b0f0 c63d 27d5 103e
00000250: 95f7 2abc 2433 263e e335 7bbc 816b 993d
00000260: 10de 01be 23ab 12be 2694 ec3d 810d f5bc
00000270: 90ae 333e b87d 0abd 4c93 063e b20c 34be
00000280: e020 803c 571c 1d3d ec8c 8e3c 0b28 ec3c
00000290: cf75 11be 1ae5 0bbe 653c 96bc f813 debc
000002a0: 8ed0 91bc 72a3 bebd 55d4 0fbd 23be 393e
000002b0: bfe8 bfbd 01bd 58bc 551c a83d 2551 85bd
000002c0: eff4 30bd 78f9 d2bc 739d c03c fdeb 16bc
000002d0: 9828 2c3d dcfd 35bd 1f4a 30bc 1391 01bd
000002e0: 6201 c6bd 35b1 dcbd b031 f33d ad37 c7bd
000002f0: 1120 31bd 338a edbc 3b82 d53c fa4c c53d
00000300: 9c84 15be 8a49 aabb 13f4 36be 14fe 073d
00000310: f100 84bd cda0 07be 2676 1dbb 887a 64be
00000320: ca0a d7be c33a d93c 5fdb 10be 878f 543d
00000330: c470 e3bd f304 bbbc e27d 29be 03a1 c43e
00000340: 8c60 fcbc 39b4 ca3e 8e2e 54bd a19d 903d
00000350: c8c6 063e 11cf 3ebd b5e0 fa3d 1f21 2a3d
00000360: 7b80 613e 7991 ba3b a0ab 93bd 390b ec3a
00000370: 1c0b 0fbd 494e 4d3e f323 49bd 53d4 663b
00000380: 26dd 4bbe 2cbf 38be 2852 cd3d e31e f73c
00000390: cc30 1e3d d230 8b3d bb50 4abd 039e 26bd
000003a0: 93f0 943e 2687 0c3e 998f 8c3d 2edf 073d
000003b0: 9950 6d3d cca2 873d 01ee b3bd 6d0f 0c3e
000003c0: 6aba 36be 29a7 a9be 6b71 3e3d 1a8d 843d
000003d0: 2724 59bd da1c acbc 1c29 193e c57b 11be
000003e0: b924 3b3d 8433 0cbd a95a 793c 017a b1bd
000003f0: 120b bbbd 982b 813e ccbb f3bc 2679 f53e

model.encoder_gnn.gnn.0.0.pre_nns.0.0.bias f4 [16]
0.04380591 0.06927859 -0.15933654 0.032822605 -0.021105131 -0.15609531 -0.1600797 0.04541536
0.011515319 0.09063354 -0.020062154 0.16067237 0.067676194 -0.09169173 0.18352011 0.096867695
00000000: d36d 333d efe1 8d3d 1e29 23be ff70 063d
00000010: abe4 acbc 73d7 1fbe efeb 23be 7505 3a3d
00000020: c0aa 3c3c 149e b93d 6359 a4bc 4c87 243e
00000030: d199 8a3d e0c8 bbbd b2ec 3b3e 9262 c63d

model.encoder_gnn.gnn.0.0.post_nns.0.0.weight f4 [16, 416]
0.3755997 0.4949317 -0.031690147 -0.016537338 -0.016015902 0.12803912 -0.6909243 0.13436523
-0.6071308 0.13210788 -0.02145294 -0.016600747 0.065459445 -0.14538153 0.08341024 0.027162045
-0.087384485 -0.12386143 -0.060258385 0.04381568 0.040315747 -0.08898742 0.023674073 0.14852779
0.023808535 -0.0028540795 0.0096082175 0.08483337 0.023848485 -0.02692338 -0.041041456 0.023240909
0.02936152 -0.14931715 -0.07088999 0.06424566 -0.07955275 -0.102970704 0.09875917 0.26417816
-0.17608023 0.045073025 -0.033454575 0.11236551 -0.03580468 -0.024252225 -0.05551545 0.10876983
-0.06806274 0.048748925 -0.14514141 0.09168466 -0.032300387 -0.028402869 0.065679014 0.28036654
0.12152573 0.037808843 -0.038625564 0.013690325 0.025765633 -0.07591613 -0.020621328 -0.0027124344
0.19896153 0.03170837 -7.32991e-05 0.24040769 -0.018827533 -0.10524999 0.15110967 0.03862548
-0.16583963 -0.013120271 0.0073069045 0.08648992 -0.011734872 -0.035002384 -0.11043902 0.093124114
0.14844732 -0.0030176581 0.16089542 0.20528585 0.045842357 -0.07775963 -0.018815203 -0.20506947
-0.15877363 -0.09630885 0.050231375 0.1077397 -0.10897242 0.047629897 -0.07346049 0.058347233
-0.04099212 -0.04825254 -0.030251952 -0.041836202 0.13829051 -0.075217314 -0.10718721 0.015764788
0.12787627 0.041354943 0.0055938456 0.047373936 -0.0069844676 -0.11760912 0.011287198 -0.02271057
-0.0094151795 -0.119978674 -0.07544066 0.09435637 0.0011867693 -0.028866043 0.12214681 0.2509189
-0.059458986 0.024398105 0.07042605 0.040505737 -0.044116262 0.008800671 -0.06298039 0.019110318
-0.1971717 0.05335045 -0.10685426 0.056545697 0.13902219 0.018583875 0.033068195 0.18942451
0.15522489 0.0125213135 -0.00883002 -0.019444222 0.0892347 -0.021676252 0.010840592 0.03702181
0.17526712 0.07090774 0.019313904 0.14938284 0.03865034 -0.10736368 0.06909164 0.036199708
-0.10393739 -0.020743636 0.003929772 0.08418296 -0.0058465614 -0.05129205 -0.054186683 0.07054486
0.18754233 0.052964438 0.1260057 0.1369792 -0.039043907 -0.09171152 -0.1065615 -0.111611925
-0.17790602 -0.0005885528 0.046583667 0.11707409 -0.098957896 -0.037723262 -0.066531636 0.059175607
-0.029417038 -0.0979131 -0.00774043 0.05939833 -0.0528371 -0.09531889 0.053731736 0.25924075
-0.09223723 0.048370298 0.028988764 0.09881059 0.0044525363 -0.084235825 -0.07330781 0.099928245
0.060587347 -0.086718716 -0.15020336 0.06508749 -0.09286038 -0.1558911 0.07909265 0.14651546
-0.17424121 0.123482525 -0.085881926 0.14755222 -0.059603147 -0.042726003 0.044330433 0.104850955
0.009825159 0.062232234 -0.24990752 0.020057721 -0.039405186 -0.11401819 0.051114704 0.22084859
0.052345075 0.09726462 -0.10102848 0.08951874 -0.035903215 -0.13605061 0.08527284 0.02728381
0.15739483 0.049242042 -0.05332406 0.17991872 -0.05940582 -0.14277606 0.15289998 0.10457941
-0.23767105 0.06537169 -0.06742899 0.17199257 -0.009532665 -0.08269102 -0.012233573 0.10716418
0.19607608 0.049299512 0.2055643 0.2406506 0.060305394 -0.052554857 -0.049556065 -0.21676597
-0.25650728 -0.012612497 -0.001251789 0.046651836 -0.21411672 0.11217256 -0.046701465 0.024291398
00000000: 9b4e c03e b067 fd3e 87cd 01bd 5079 87bc
00000010: c833 83bc b01c 033e 6ae0 30bf 0a97 093e
00000020: ed6c 1bbf 4a47 073e 13be afbc 4afe 87bc
00000030: 9a0f 863d e5de 14be fdd2 aa3d f082 de3c
00000040: a3f6 b2bd 10ab fdbd 7fd1 76bd 1278 333d
00000050: 2022 253d 093f b6bd 21f0 c13c ab17 183e
00000060: 1e0a c33c 820b 3bbb c96b 1d3c 1ebd ad3d
00000070: e65d c33c 6c8e dcbc 161b 28bd b863 be3c
00000080: 9287 f03c 98e6 18be c52e 91bd 3b93 833d
00000090: 8dec a2bd 4ee2 d2bd 3f42 ca3d 5c42 873e
000000a0: 604e 34be 7e9e 383d aa07 09bd e31f e63d
000000b0: eea7 12bd 9aac c6bc 2b64 63bd b7c2 de3d
000000c0: 7a64 8bbd f4ac 473d f39f 14be 2bc5 bb3d
000000d0: 694d 04bd 22ad e8bc b882 863d 348c 8f3e
000000e0: 7be2 f83d 72dd 1a3d d735 1ebd 634d 603c
000000f0: 7312 d33c ea79 9bbd 0fee a8bc 19c3 31bb
00000100: 92bc 4b3e a3e0 013d 28b8 99b8 6f2d 763e
00000110: 333c 9abc 4f8d d7bd 7ebc 1a3e c035 1e3d
00000120: ddd1 29be 68f6 56bc c26e ef3b a121 b13d
00000130: 9f43 40bc a95e 0fbd da2d e2bd dbb7 be3d
00000140: 9302 183e e7c3 45bb c5c1 243e 7436 523e
00000150: 32c5 3b3d 7140 9fbd 5722 9abc bbfd 51be
00000160: 8e95 22be 933d c5bd 6abf 4d3d a2a6 dc3d
00000170: ef2c dfbd 9117 433d 7472 96bd 82fd 6e3d
00000180: 5ae7 27bd 75a4 45bd f1d2 f7bc 705c 2bbd
00000190: 079c 0d3e 890b 9abd f884 dbbd 2825 813c
000001a0: fff1 023e cd63 293d 944c b73b 2c0b 423d
000001b0: f6dd e4bb 0ddd f0bd f1ed 383c 840b babc
000001c0: 2042 1abc 61b7 f5bd a280 9abd ea3d c13d
000001d0: 5f8d 9b3a 7b78 ecbc 1b28 fa3d 7178 803e
000001e0: 448b 73bd 89de c73c 883b 903d 58e9 253d
000001f0: 41b3 34bd b130 103c ddfb 80bd 3e8d 9c3c
00000200: 61e7 49be 0086 5a3d 68d6 dabd 769c 673d
00000210: d55b 0e3e 363d 983c 8472 073d 80f8 413e
00000220: 46f3 1e3e 3226 4d3c caab 10bc 7d49 9fbc
00000230: afc0 b63d 6592 b1bc bd9c 313c 2ea4 173d
00000240: 3979 333e 1438 913d 3138 9e3c d1f7 183e
00000250: d24f 1e3d 7de1 dbbd eb7f 8d3d 2546 143d
00000260: 20dd d4bd 8fee a9bc 51c5 803b 1e68 ac3d
00000270: 8394 bfbb 9d17 52bd dbf2 5dbd d379 903d
00000280: 190b 403e 3df1 583d a307 013e 4744 0c3e
00000290: 81ec 1fbd 40d3 bbbd ea3c dabd cb94 e4bd
000002a0: ff2c 36be 1c49 1aba 84ce 3e3d 8ac4 ef3d
000002b0: 70aa cabd b583 1abd bd41 88bd 1f62 723d
000002c0: 00fc f0bc aa86 c8bd 6fa3 fdbb aa4b 733d
000002d0: b76b 58bd 8d36 c3bd cf15 5c3d 34bb 843e
000002e0: dfe6 bcbd ef1f 463d d879 ed3c 355d ca3d
000002f0: 95e6 913b d583 acbd 6822 96bd 2ea7 cc3d
00000300: 702a 783d 9599 b1bd e9ce 19be 974c 853d
00000310: 952d bebd eba1 1fbe 54fb a13d 2608 163e
00000320: 4a6c 32be 68e4 fc3d dde2 afbd ee17 173e
00000330: 6e22 74bd 7601 2fbd d493 353d 19bc d63d
00000340: b4f9 203c 3ae7 7e3d c2e7 7fbe 1750 a43c
00000350: 5567 21bd 5e82 e9bd a75d 513d 2226 623e
00000360: ca67 563d ac32 c73d 05e8 cebd 9a55 b73d
00000370: 400f 13bd da50 0bbe 87a3 ae3d 4c82 df3c
00000380: 1c2c 213e 06b2 493d 546a 5abd 9d3c 383e
00000390: 8453 73bd e333 12be d091 1c3e bb2d d63d
000003a0: 0a60 73be 98e1 853d 3618 8abd d21e 303e
000003b0: e52e 1cbc e959 a9bd 536f 48bc e578 db3d
000003c0: 2bc8 483e 49ee 493d 737f 523e 1c6d 763e
000003d0: ca02 773d c343 57bd 4dfb 4abd e6f7 5dbe
000003e0: ec54 83be a6a4 4ebc 1213 a4ba ff15 3f3d
000003f0: 6a41 5bbe baba e53d 094a 3fbd c1fe c63c

model.encoder_gnn.gnn.0.0.post_nns.0.0.bias f4 [16]
-0.098724596 0.107407644 0.027776262 -0.029366605 -0.1046037 -0.10909967 -0.012966783 -0.22974987
0.007266953 -0.13075942 -0.1576084 0.02647142 0.06112031 -0.079558246 0.1408296 -0.22149123
00000000: 1f30 cabd 8af8 db3d 0b8b e33c 3c92 f0bc
00000010: 773a d6bd a66f dfbd a172 54bc 8d43 6bbe
00000020: 9f1f ee3b cce5 05be 1964 21be 97da d83c
00000030: 4a59 7a3d 6fef a2bd a235 103e 99ce 62be

model.encoder_gnn.gnn.0.0.lin.weight f4 [16, 16]
0.07329024 -0.043616474 -0.096109 -0.17369165 -0.054226264 0.046205923 0.033700027 0.1851336
-0.1283205 -0.12309304 -0.28373858 -0.2131048 0.20900854 -0.0913347 0.22734849 -0.035277788
-0.05193715 0.06264235 -0.20973107 0.047130316 -0.059743427 0.17328753 -0.10517417 -0.17605737
-0.17424199 -0.15495746 -0.21848066 -0.079721175 -0.16759934 0.038193375 -0.14765444 0.3433392
-0.085038364 -0.05499886 -0.10884417 -0.13818048 0.053335138 -0.26757044 0.051042352 -0.04054738
-0.19986935 0.14285594 0.11703096 0.2797831 -0.06467689 -0.03136925 0.12480507 0.1616527
-0.08210219 -0.2325809 0.038121734 0.05655318 -0.07263778 -0.12966007 0.16810569 -0.13972822
-0.101712644 -0.06658222 0.17178883 0.039060697 0.055902794 -0.05024466 -0.017314075 -0.029410291
-0.03681907 0.09579919 -0.015458731 -0.050084773 -0.2492534 -0.114160344 0.031045835 -0.108257785
0.10250266 0.008157194 -0.104645126 0.068595424 -0.0003666263 0.2046493 -0.11253297 -0.26200035
-0.19714019 -0.18595482 0.059284415 0.30045706 -0.004523157 -0.14212011 -0.10014144 0.19395733
0.024584372 0.1210148 -0.096408576 -0.10127212 -0.39480522 0.042302784 -0.06609144 -0.13981606
0.01696845 -0.08587933 0.0025371285 -0.15184249 0.13583593 -0.033606987 0.025367469 0.006754481
-0.13910557 -0.1151157 -0.11518278 -0.2116516 0.19721049 0.06890037 0.06924071 -0.0726081
-0.093025684 -0.22395068 -0.1181086 0.22021902 0.063293666 0.12779401 -0.032846976 0.3390809
-0.10262342 0.09253697 -0.045344714 -0.015226252 0.026568208 -0.14223148 -0.34955114 0.07253677
0.6238541 -0.90158916 -0.10743967 -0.007924243 -0.18548535 0.26378533 -0.085358866 -0.12297212
-0.20303349 -0.050743625 0.34003535 0.09790388 -0.02849859 0.07201852 -0.14276108 -0.10024085
0.058308285 0.09715866 0.086572476 0.10748067 -0.11279963 -0.10264679 -0.009605871 0.300882
-0.0016155359 0.012800644 0.20612888 -0.088634856 0.20389347 0.2435648 0.036628842 0.27794662
-0.045755688 -0.14002636 -0.27362216 -0.286599 0.048191357 -0.012231745 0.33056742 -0.061322812
0.24794969 0.11696718 0.13506627 -0.022156974 -0.06433599 0.0691299 -0.046379484 0.27047187
-0.016446987 0.1304784 -0.06133119 0.013589629 0.057801135 0.09713438 -0.14094432 -0.09930544
-0.013759099 -0.015993059 0.21936731 -0.14548084 -0.17521416 0.070786946 0.16862828 -0.16325247
0.10547547 -0.13969797 0.035455912 0.043614894 0.18566313 0.12657802 -0.043768253 -0.06992549
0.12604524 0.07335404 -0.020982958 -0.15746564 -0.026424604 -0.009246088 0.06827292 0.14916056
-0.089981765 -0.10802461 0.22933096 -0.2728963 -0.076927885 0.15997274 -0.09983102 0.060962357
0.04653359 0.090669945 -0.054937623 0.010989009 0.033425298 -0.12996699 -0.10026208 0.08498567
-0.09557785 0.059519082 0.21617442 -0.25001273 -0.053958524 0.29763496 0.022238344 0.09995641
-0.1624555 0.040522978 0.053567927 0.080888025 -0.17140645 -0.019208804 -0.040399496 -0.12982489
0.1794947 0.22387183 -0.01827994 -0.046601318 0.021681432 -0.11469495 0.024090601 0.05411435
0.11761042 -0.070333496 0.10260202 -0.11407131 -0.15482146 -0.13355781 -0.013886646 -0.07370284
00000000: 3119 963d 30a7 32bd ccd4 c4bd 39dc 31be
00000010: 5c1c 5ebd 6c42 3d3d 0a09 0a3d aa93 3d3e
00000020: 7366 03be 3418 fcbd 2f46 91be 2538 5abe
00000030: 5606 563e b00d bbbd 0bce 683e 717f 10bd
00000040: 0dbc 54bd a24a 803d bec3 56be b80b 413d
00000050: 86b5 74bd 4972 313e 8e65 d7bd 6248 34be
00000060: 7e6c 32be 2bad 1ebe 65b9 5fbe db44 a3bd
00000070: 299f 2bbe a870 1c3d ba32 17be 28ca af3e
00000080: 9828 aebd 7c46 61bd b1e9 debd 2f7f 0dbe
00000090: f275 5a3d fefe 88be c911 513d 0215 26bd
000000a0: 8daa 4cbe d448 123e eead ef3d bb3f 8f3e
000000b0: 5175 84bd 0b7d 00bd cd99 ff3d 4988 253e
000000c0: 3125 a8bd b029 6ebe 8925 1c3d 4fa4 673d
000000d0: 1ec3 94bd 9cc5 04be e623 2c3e ea14 0fbe
000000e0: b84e d0bd 425c 88bd 69e9 2f3e 1cfe 1f3d
000000f0: 54fa 643d 58cd 4dbd 3fd6 8dbc daed f0bc
00000100: 98cf 16bd 5e32 c43d 9e46 7dbc b125 4dbd
00000110: 493c 7fbe e6cc e9bd d653 fe3c 42b6 ddbd
00000120: eaec d13d c0a5 053c 2f50 d6bd c27b 8c3d
00000130: c037 c0b9 968f 513e b077 e6bd e924 86be
00000140: 1edf 49be f16a 3ebe 37d4 723d 82d5 993e
00000150: fe36 94bb ef87 11be f516 cdbd c09c 463e
00000160: 2a65 c93c 9cd6 f73d dc71 c5bd c267 cfbd
00000170: e923 cabe af45 2d3d f35a 87bd f12b 0fbe
00000180: 6b01 8b3c 81e1 afbd f445 263b 997c 1bbe
00000190: 9318 0b3e 7ba7 09bd 70cf cf3c b154 dd3b
000001a0: b171 0ebe c8c1 ebbd f3e4 ebbd 32bb 58be
000001b0: 8cf1 493e a31b 8d3d 13ce 8d3d 8eb3 94bd
000001c0: 4084 bebd 5453 65be ece2 f1bd 1881 613e
000001d0: 1ca0 813d 6fdc 023e 8d8a 06bd 039c ad3e
000001e0: 3a2c d2bd 0684 bd3d 61bb 39bd 8877 79bc
000001f0: 92a5 d93c 21a5 11be 5ef8 b2be 288e 943d
00000200: e7b4 1f3f 8cce 66bf 5409 dcbd afd4 01bc
00000210: dfef 3dbe df0e 873e a1d0 aebd cfd8 fbbd
00000220: 03e8 4fbe 8cd8 4fbd 1d19 ae3e d481 c83d
00000230: e075 e9bc 727e 933d f62f 12be 134b cdbd
00000240: abd4 6e3d 1ffb c63d e94c b13d d31e dc3d
00000250: 7e03 e7bd 7b38 d2bd f161 1dbc 350d 9a3e
00000260: 64c0 d3ba cbb9 513c 7313 533e 3186 b5bd
00000270: 73c9 503e 0d69 793e 2008 163d 054f 8e3e
00000280: 516a 3bbd 1263 0fbe 3418 8cbe 1bbd 92be
00000290: 4d64 453d a867 48bc 2240 a93e a12d 7bbd
000002a0: 86e6 7d3e 7d8c ef3d d04e 0a3e 8b82 b5bc
000002b0: 96c2 83bd fa93 8d3d 6af8 3dbd 4a7b 8a3e
000002c0: d5bb 86bc 219c 053e 6a36 7bbd 09a7 5e3c
000002d0: e2c0 6c3d 64ee c63d b553 10be a760 cbbd
000002e0: d86d 61bc e003 83bc d3a1 603e eef8 14be
000002f0: 576b 33be bff8 903d e4ac 2c3e a82b 27be
00000300: 8603 d83d fc0c 0fbe 383a 113d 88a5 323d
00000310: 7a1e 3e3e ab9d 013e 5746 33bd 1835 8fbd
00000320: 0112 013e a53a 963d 74e4 abbc ac3e 21be
00000330: 6978 d8bc e77c 17bc acd2 8b3d 8cbd 183e
00000340: 5c48 b8bd 023c ddbd bcd5 6a3e 10b9 8bbe
00000350: 5e8c 9dbd e5cf 233e 3574 ccbd aab3 793d
00000360: 019a 3e3d 2ab1 b93d 4606 61bd 3f0b 343c
00000370: f7e8 083d 1116 05be 3556 cdbd f80c ae3d
00000380: 52be c3bd 48ca 733d d45c 5d3e ab01 80be
00000390: 9d03 5dbd 9c63 983e 302d b63c f2b5 cc3d
000003a0: bc5a 26be 6cfb 253d 0b6a 5b3d 9fa8 a53d
000003b0: 2c85 2fbe c85b 9dbc f179 25bd d1f0 04be
000003c0: 75cd 373e a83e 653e d0bf 95bc 06e1 3ebd
000003d0: 429d b13c 30e5 eabd a759 c53c 02a7 5d3d
000003e0: bbdd f03d 020b 90bd 0221 d23d 389e e9bd
000003f0: 8489 1ebe 61c3 08be d184 63bc 84f1 96bd

model.encoder_gnn.gnn.0.0.lin.bias f4 [16]
-0.30118793 -0.35532913 -0.09534279 0.12154358 0.0062838583 -0.33148566 -0.1135467 -0.017596584
-0.6190057 -0.09299438 0.06741796 -0.06815394 0.10593532 -0.027695559 -0.1553144 -0.25098094
00000000: 4e35 9abe b3ed b5be 1543 c3bd d7eb f83d
00000010: d3e8 cd3b 7db8 a9be 2c8b e8bd b626 90bc
00000020: 2877 1ebf d673 bebd 6d12 8a3d 4b94 8bbd
00000030: 9ef4 d83d cce1 e2bc bd0a 1fbe 9380 80be

model.encoder_gnn.post_nn.fc_layers.0.0.weight f4 [8, 16]
-0.004752088 0.006640886 -0.0047954908 -0.002525921 -0.001222984 -0.0048324293 -0.0003674588 -0.0032163758
0.000120347875 0.0037307008 -0.0010530634 0.0007378834 0.0018754405 0.0020488536 0.002190707 0.0043735583
0.07237222 -0.08471446 0.08322813 0.07475193 0.045647062 0.07068723 0.08458791 0.05594353
0.10310963 -0.08817821 0.07760933 -0.055520587 -0.077178545 -0.07954103 -0.06811849 -0.08427587
-0.0018754188 0.00013139682 0.0010741255 0.00222995 -0.0005236321 -0.00014976946 0.0026609746 0.0010119325
-0.0028846355 -0.0015551376 -0.00069536694 -0.00083564635 -0.0013496306 0.0012561792 -0.00015042537 0.004492078
-0.062190503 0.0892871 -0.08928218 -0.07896287 -0.05532909 -0.0732075 -0.088793166 -0.057600845
-0.11064122 0.08602145 -0.07824369 0.06414648 0.07553925 0.08082147 0.06787468 0.077262565
0.001175677 0.0007500887 -0.0007753008 -0.0004279496 0.0027706807 0.00016662123 0.0009830693 1.9268482e-06
-0.00040797953 0.003033916 0.0004989895 0.0021669702 0.0015639638 -0.0010760345 0.00048347807 0.0030336876
0.008097783 0.02783467 -0.04788833 -0.01374463 -0.12610978 -0.03339003 -0.0019065228 0.10236941
0.042474296 0.031365406 0.10711851 -0.080359034 0.054664847 0.0563144 -0.02981984 -0.0043449174
-0.002084917 3.8723905e-05 0.0008601458 -0.0007661625 -0.00078133546 0.0010899327 0.001613843 -0.0010505499
-0.00057127257 0.0008914718 -0.001048969 0.0003817582 0.00028559452 0.00076893193 0.00061996595 0.0006259318
0.009566898 0.036866758 -0.042955466 -0.016328251 -0.1302038 -0.037795678 -0.0034894561 0.11058891
0.028218234 0.03617583 0.120603435 -0.06640233 0.07044834 0.076127835 -0.023831742 -0.011930207
00000000: 67b7 9bbb ca9b d93b 7e23 9dbb ec89 25bb
00000010: 894c a0ba 5b59 9ebb 7ca7 c0b9 d5c9 52bb
00000020: 4663 fc38 c67e 743b f206 8aba 846e 413a
00000030: 57d1 f53a 0f46 063b f791 0f3b 1150 8f3b
00000040: e337 943d c67e adbd 8373 aa3d 8a17 993d
00000050: 6af8 3a3d 77c4 903d 6d3c ad3d 0b25 653d
00000060: 242b d33d c796 b4bd a4f1 9e3d 8e69 63bd
00000070: c90f 9ebd 68e6 a2bd b581 8bbd d498 acbd
00000080: 9dd0 f5ba 91c7 0939 acc9 8c3a 5a24 123b
00000090: 5b44 09ba 6f0b 1db9 bf63 2e3b d2a2 843a
000000a0: 270c 3dbb c2d5 cbba 4949 36ba 470f 5bba
000000b0: 17e6 b0ba 61a6 a43a 81bb 1db9 4832 933b
000000c0: 78bb 7ebd 28dc b63d 93d9 b6bd 49b7 a1bd
000000d0: c2a0 62bd d0ed 95bd 31d9 b5bd ddee 6bbd
000000e0: dd97 e2bd 042c b03d 3a3e a0bd 3b5f 833d
000000f0: 53b4 9a3d ba85 a53d e101 8b3d d63b 9e3d
00000100: 2d19 9a3a 9aa1 443a 8e3d 4bba 6c5e e0b9
00000110: 4f94 353b 0cb7 2e39 55da 803a 004f 0136
00000120: 16e6 d5b9 aad4 463b 9ece 023a ba03 0e3b
00000130: ebfd cc3a ba09 8dba 547b fd39 d5d0 463b
00000140: 90ac 043c 8905 e43c 8e26 44bd 2831 61bc
00000150: ec22 01be fcc3 08bd 4ae4 f9ba 0ea7 d13d
00000160: 87f9 2d3d 0379 003d f360 db3d 4793 a4bd
00000170: 3fe8 5f3d eea9 663d bd48 f4bc cf5f 8ebb
00000180: 1aa3 08bb 7a6b 2238 687b 613a 4cd8 48ba
00000190: 89d2 4cba 13dc 8e3a 9687 d33a 9bb2 89ba
000001a0: 74c1 15ba a9b1 693a 8f7d 89ba b826 c839
000001b0: d9bb 9539 2692 493a 3685 223a 9215 243a
000001c0: 7bbe 1c3c 9901 173d 12f2 2fbd d3c2 85bc
000001d0: 2554 05be a4cf 1abd 5caf 64bb 707c e23d
000001e0: ed29 e73c 1b2d 143d effe f63d f2fd 87bd
000001f0: 3847 903d e9e8 9b3d c93a c3bc ea76 43bc

model.encoder_gnn.post_nn.fc_layers.0.0.bias f4 [8]
-0.0032832213 0.054426588 -0.00022465375 -0.04621133 -0.0025684596 -1.2892836 -0.00038255853 -1.2874247
00000000: 502b 57bb 6aee 5e3d 0891 6bb9 1748 3dbd
00000010: 9a53 28bb 3f07 a5bf 2392 c8b9 55ca a4bf

model.decoder_gnn.pre_nn.fc_layers.0.0.weight f4 [16, 4]
0.0024547814 -0.2576127 0.00018050981 0.27653074 0.019267803 -0.20126954 -0.008785963 0.22217792
0.024708088 -0.01734438 -0.02870112 0.5908222 0.007005667 -0.26024264 0.00036774564 0.22609943
-0.0037491778 0.4407711 -0.0016324203 -0.44345728 0.0015691533 -0.1760531 0.0032454655 0.20541261
0.018314235 -0.2628153 -0.0037983495 0.2931393 -0.011312295 -0.034524262 -0.00070905726 -0.44831833
0.005204761 -0.41327584 0.012109776 0.35350087 -0.0077969665 0.28151295 -0.012515429 -0.24094582
0.0018551841 0.52577114 0.009473963 0.043113027 -0.020121235 0.42481816 -0.007944434 -0.43411094
-0.009267961 -0.56122905 0.01379157 0.007141712 -0.003270385 0.3444322 -0.004626017 0.50465935
0.028102078 -0.5503158 0.012286872 -0.36018404 0.0027084372 -0.5183459 0.008167697 0.5324339
00000000: 66e0 203b d0e5 83be 3c47 3d39 7095 8d3e
00000010: 83d7 9d3c 9a19 4ebe 00f3 0fbc 9c82 633e
00000020: 9e68 ca3c cd15 8ebc 9c1e ebbc 2040 173f
00000030: cb8f e53b 863e 85be fccd c039 9c86 673e
00000040: c4b4 75bb c0ac e13e f0f6 d5ba d50c e3be
00000050: 0cac cd3a 4447 34be e0b1 543b af57 523e
00000060: bc07 963c ba8f 86be bbed 78bb 5b16 963e
00000070: 3457 39bc 5069 0dbd 07e0 39ba fb89 e5be
00000080: b38c aa3b e498 d3be 1568 463c 11fe b43e
00000090: b27d ffbb 7722 903e 840d 4dbc 80ba 76be
000000a0: a629 f33a f098 063f ae38 1b3c 4997 303d
000000b0: 4ad5 a4bc c481 d93e 5f29 02bc ca43 debe
000000c0: a5d8 17bc b5ac 0fbf 0af6 613c 0605 ea3b
000000d0: f553 56bb 6b59 b03e d895 97bb 5b31 013f
000000e0: 5436 e63c 7fe1 0cbf e04e 493c 0b6a b8be
000000f0: 0980 313b 51b2 04bf ced1 053c 974d 083f

model.decoder_gnn.pre_nn.fc_layers.0.0.bias f4 [16]
0.12190493 0.24627098 -0.3685339 0.052466854 0.205044 0.25442386 0.018471044 -0.28181615
-0.12925425 0.0020617691 -0.35019478 -0.1518748 -0.33834258 -0.4634809 -0.45697474 0.40183848
00000000: 4ba9 f93d 762e 7c3e 7ab0 bcbe 7ce7 563d
00000010: 0ef7 513e d843 823e 9650 973c 354a 90be
00000020: 3a5b 04be bf1e 073b bb4c b3be 1185 1bbe
00000030: 3d3b adbe 5e4d edbe 98f8 e9be c6bd cd3e

model.decoder_gnn.lin_skipsum.0.0.weight f4 [16, 16]
0.26474938 0.12948574 0.24865876 0.23595166 -0.29967508 0.15081228 -0.08784518 -0.24376582
0.2112837 -0.40639 -0.15601493 -0.18471083 0.229075 -0.01814691 -0.10471039 0.11277377
0.029717812 0.110469095 0.3619799 0.24358885 -0.25637046 0.22710255 0.33833036 -0.3722478
0.031819977 -0.17749707 -0.46688586 -0.17906456 0.2749859 -0.07377231 -0.15546316 0.16148879
0.16500111 0.014047823 0.21703595 0.01766621 -0.3421475 0.046088867 0.237534 -0.35438502
0.23239408 -0.31831378 -0.2525905 -0.15255825 0.22855687 0.09870865 -0.03757538 0.18063979
-0.2066119 -0.08537219 -0.31726357 -0.28721946 0.31027883 -0.12424502 -0.2079135 0.44059718
-0.027787367 0.36645034 0.18339857 0.15402682 -0.14602162 0.18703218 0.012193998 -0.19969803
0.2662746 0.13048156 0.13426352 0.108254574 -0.33647904 0.19549508 0.18533067 -0.23325086
0.07238558 -0.3150428 -0.26559845 -0.013182199 0.38511506 0.16904745 -0.034326963 0.08640128
0.039155804 -0.14692548 -0.15820448 -0.2031325 0.19788611 -0.23093216 -0.20298423 0.25287512
-0.17249265 0.25347143 0.24234556 0.23685369 -0.26433012 0.11244789 0.08854736 -0.22281466
-0.00993744 0.041089058 0.23677565 0.000378317 -0.16484424 0.12713365 0.036602926 -0.38535714
0.18547666 -0.16838124 -0.22096653 -0.13073376 0.2053566 -0.06956939 -0.010456978 0.26685503
-0.23816365 -0.04903263 -0.066906765 -0.028185917 0.28492272 -0.067744836 -0.14017674 0.25477287
-0.1328235 0.08469668 0.16269314 0.13114119 -0.30578855 0.076540135 0.05634381 -0.10840789
-0.17706819 -0.16622926 -0.19352743 -0.17619987 0.2682379 -0.28754723 -0.25361875 0.22865771
-0.22645548 0.3114009 0.19458759 0.12898391 -0.094998814 -0.0142563265 -0.09343957 -0.031732205
-0.15870489 -0.1911208 -0.22791566 -0.23007998 0.28055465 -0.107267305 -0.1519601 0.22179586
-0.0044236598 0.19311738 0.26108742 0.15051432 -0.098901734 0.23392288 -0.028376756 -0.26302898
-0.0080586625 -0.0084353015 0.31831673 0.15029582 -0.38239804 0.2386344 0.18367133 -0.15858577
0.23018837 -0.112880565 -0.120962664 -0.16733158 0.18230712 -0.008387857 -0.045600023 0.07150368
0.21221782 0.020203063 0.31923142 0.3732124 -0.3526915 -0.0036218264 0.013206619 -0.29461083
0.015400507 -0.28893027 -0.34432766 -0.101979956 0.15919867 0.060394697 0.021425912 0.2810078
0.20496817 0.217721 0.068902776 0.19745952 -0.3125455 0.22500494 0.01680294 -0.32940477
0.0733908 -0.1326196 -0.23839615 -0.10168159 0.32904622 0.10726254 -0.059272967 0.096764244
-0.017594036 -0.22373421 -0.09284918 -0.08434287 0.32612327 -0.10998835 -0.1206028 0.08893898
-0.14898603 0.27163672 0.07072145 0.13096406 -0.30568013 -0.028955383 0.017733524 -0.08061022
0.10204314 0.1496278 0.14633712 0.14470254 -0.12198823 -0.045853365 0.11143476 -0.2632186
-0.0169889 -0.19590636 -0.23213086 -0.13463446 0.101733156 -0.10258391 0.04157861 0.24843766
-0.24442974 -0.24158086 -0.31531537 -0.043749854 0.5240183 0.057673793 -0.012435435 0.18506725
-0.19315745 0.15815037 0.20251873 0.25974292 -0.18790646 -0.047809 -0.09720117 -0.2742359
00000000: 3b8d 873e e997 043e 67a0 7e3e 509d 713e
00000010: 036f 99be 896e 1a3e 2ce8 b3bd bf9d 79be
00000020: c15a 583e 5a12 d0be 61c2 1fbe d624 3dbe
00000030: a392 6a3e d4a8 94bc 6772 d6bd eff5 e63d
00000040: c572 f33c 9f3d e23d 6e55 b93e 5b6f 793e
00000050: fd42 83be 928d 683e a339 ad3e 4397 bebe
00000060: aa55 023d cbc1 35be aa0b efbe b35c 37be
00000070: f4ca 8c3e f015 97bd bc31 1fbe 515d 253e
00000080: 0df6 283e d728 663c ac3e 5e3e bab8 903c
00000090: f52d afbe aec7 3c3d 1d3c 733e f471 b5be
000000a0: b7f8 6d3e 06fa a2be 8b53 81be 3b38 1cbe
000000b0: d00a 6a3e c327 ca3d a4e8 19bd a3f9 383e
000000c0: 1292 53be 9dd7 aebd 5f70 a2be 6e0e 93be
000000d0: dedc 9e3e 2c74 febd 47e7 54be f495 e13e
000000e0: 55a2 e3bc 619f bb3e d6cc 3b3e 35b9 1d3e
000000f0: b186 15be 5d85 3f3e 56c9 473c a47d 4cbe
00000100: 2555 883e f59c 053e 607c 093e 93b4 dd3d
00000110: fb46 acbe dd2f 483e 53c7 3d3e 50d9 6ebe
00000120: e43e 943d 4a4d a1be 85fc 87be 26fa 57bc
00000130: cd2d c53e c61a 2d3e 6e9a 0cbd 27f3 b03d
00000140: d661 203d a273 16be 5b00 22be f701 50be
00000150: a8a2 4a3e 7b79 6cbe 19db 4fbe d978 813e
00000160: eaa1 30be 02c7 813e 6f29 783e c689 723e
00000170: 4756 87be 144b e63d 5158 b53d 8729 64be
00000180: a5d0 22bc 004d 283d 5175 723e d958 c639
00000190: eecc 28be 532f 023e f3ec 153d 884d c5be
000001a0: 98ed 3d3e 226c 2cbe 0d45 62be 12df 05be
000001b0: 0049 523e 657a 8ebd bf53 2bbc 39a1 883e
000001c0: 2ce1 73be 70d6 48bd 6a06 89bd 27e6 e6bc
000001d0: 64e1 913e cebd 8abd 7e8a 0fbe 9771 823e
000001e0: e202 08be 7475 ad3d 0899 263e e049 063e
000001f0: 5190 9cbe 13c1 9c3d c4c8 663d f504 debd
00000200: 5d51 35be 0138 2abe 0e2c 46be bd6d 34be
00000210: 7a56 893e 6439 93be 51da 81be 3f25 6a3e
00000220: f2e3 67be f06f 9f3e f841 473e 5c14 043e
00000230: bd8e c2bd 5e93 69bc 3f5d bfbd a1f9 01bd
00000240: 8983 22be 2cb5 43be b962 69be 169a 6bbe
00000250: dca4 8f3e f6ae dbbd 6e9b 1bbe 741e 633e
00000260: 59f4 90bb 90c0 453e 40ad 853e 6d20 1a3e
00000270: fe8c cabd 7b89 6f3e 5f76 e8bc bcab 86be
00000280: 7b08 04bc 3834 0abc 69fa a23e 26e7 193e
00000290: adc9 c3be 935c 743e 5614 3c3e 4f64 22be
000002a0: 80b6 6b3e ed2d e7bd 46bb f7bd f858 2bbe
000002b0: b8ae 3a3e 396d 09bc 17c7 3abd 8570 923d
000002c0: a14f 593e e580 a53c 4d72 a33e b215 bf3e
000002d0: fb93 b4be 2a5c 6dbb 9360 583c 3bd7 96be
000002e0: 6852 7c3c abee 93be b74b b0be deda d0bd
000002f0: fa04 233e 6e60 773d 6585 af3c 41e0 8f3e
00000300: 2de3 513e 41f2 5e3e e61c 8d3d d432 4a3e
00000310: f705 a0be b267 663e 52a6 893c bea7 a8be
00000320: ea4d 963d 6fcd 07be 1f1e 74be 703e d0bd
00000330: bf78 a83e 76ac db3d 36c8 72bd 552c c63d
00000340: 5e21 90bc 951a 65be b627 bebd f4bb acbd
00000350: a1f9 a63e 9241 e1bd 9afe f6bd a425 b63d
00000360: cb8f 18be f813 8b3e 68d6 903d 711b 063e
00000370: 1b82 9cbe d733 edbc e545 913c f916 a5bd
00000380: fefb d03d 0838 193e 66d9 153e e72c 143e
00000390: f7d4 f9bd bdd0 3bbd e837 e43d 97c4 86be
000003a0: 4e2c 8bbc ad9b 48be b6b3 6dbe 9edd 09be
000003b0: 7959 d03d 8317 d2bd 554e 2a3d 7166 7e3e
000003c0: ca4b 7abe f960 77be 0471 a1be 0c33 33bd
000003d0: 1026 063f 5b3b 6c3d ffbd 4bbc 4582 3d3e
000003e0: 11cb 45be 2cf2 213e 1261 4f3e 06fd 843e
000003f0: 8d6a 40be 5fd3 43bd 6811 c7bd a668 8cbe

model.decoder_gnn.lin_skipsum.0.0.bias f4 [16]
-0.07348101 -0.19277121 -0.009062044 0.13096264 -0.12177286 0.17728259 -0.13109508 0.08838506
0.1260784 0.18593565 -0.0144026745 -0.08793385 -0.14104876 0.027528364 -0.13747923 0.053287264
00000000: 367d 96bd d165 45be f878 14bc 121b 063e
00000010: 0d64 f9bd 9189 353e ca3d 06be 3a03 b53d
00000020: b21a 013e ea65 3e3e 32f9 6bbc aa16 b4bd
00000030: 166f 10be 2a83 e13c 5bc7 0cbe bf43 5a3d

model.decoder_gnn.lin_skipsum.1.0.weight f4 [16, 16]
0.15991239 -0.17645821 -0.12926029 0.040155858 0.10632227 0.0677462 -0.16400687 -0.08796449
-0.1622836 -0.14700025 -0.092538066 -0.1458715 0.2505113 -0.088114746 0.21766096 0.1111462
0.10346947 -0.14410715 -0.1458349 -0.055834666 0.07156352 0.025447719 -0.18131821 -0.07908524
-0.20547469 -0.18636294 -0.044282123 -0.093501374 0.25080693 -0.07496345 0.18817148 0.19670768
0.19094571 -0.117733754 -0.12707011 0.09200532 0.092032194 0.051536765 -0.13168052 -0.020687167
-0.2596059 -0.083087236 -0.08330249 -0.08390071 0.14744046 -0.15227564 0.24336511 0.08354467
-0.17055304 0.23989816 0.074554026 0.11494925 -0.06529891 -0.13274552 0.12250211 -0.026364494
0.22150375 0.072724156 0.1686828 0.09001413 -0.2795031 0.11170229 -0.23306465 -0.12372422
0.15789571 -0.13544275 -0.11815388 0.054347117 0.01994845 0.043564804 -0.12584393 -0.06519192
-0.22751795 -0.09508132 -0.08390222 -0.011092974 0.21042897 -0.10338201 0.19390228 0.08548859
-0.13504116 0.1578849 0.024760498 0.18401597 -0.07646182 -0.15264256 0.08441662 -0.010117346
0.24771544 0.27917686 0.11916444 0.059034098 -0.21031587 0.058616184 -0.21621424 -0.17711732
0.15287736 -0.1144837 -0.13284422 0.0026063353 0.018490465 -0.0008351463 -0.11674444 -0.027984764
-0.27093622 -0.029504813 -0.06795008 0.008096742 0.20487508 -0.07138136 0.14880526 0.03990925
-0.14529215 0.06343535 0.06238699 0.11386759 -0.043898694 -0.11294695 0.14487937 0.058329396
0.17588475 0.16926217 0.025452863 0.055788033 -0.12494599 0.033091 -0.16369824 -0.048334654
-0.24932204 0.13983123 0.15516795 0.084428445 -0.09815587 -0.08281487 0.18528162 0.038849805
0.22766462 0.018772865 0.06034678 0.10864125 -0.15711997 -0.04006782 -0.2374456 0.048581913
-0.17517486 0.19187921 0.16956082 0.060658865 -0.07880613 -0.079073146 0.12927945 0.019232633
0.13557287 -0.019038828 0.11183001 0.0993011 -0.16230434 0.0010478954 -0.21862124 -0.053989056
0.08961716 -0.1491431 -0.067654625 -0.07199765 0.07902078 0.060965605 -0.08540997 0.021872181
-0.14199108 -0.10466132 -0.106412396 -0.07861123 0.20413119 -0.10376403 0.16393802 0.15043984
0.22621918 -0.10729467 -0.15558274 -0.09181022 0.013727151 0.0722519 -0.21900526 0.002758773
-0.10243137 -0.1658027 -0.07421027 -0.10084405 0.2248054 -0.07848436 0.2235049 0.04470674
0.11402909 -0.1132398 -0.073571436 -0.048106816 0.07487419 0.15081751 -0.12219534 -0.05711361
-0.1886482 -0.15187863 -0.06222243 -0.06878607 0.19777957 -0.11524506 0.17181195 0.14900927
-0.14954627 0.0548123 0.08122454 0.047722712 -0.019493155 -0.16051146 0.1866281 0.06604456
0.16882436 0.14658566 0.018966544 0.04214968 -0.14151599 0.12499055 -0.16509178 -0.05338614
0.07655068 -0.07033462 -0.04569002 -0.01764947 0.032927677 0.077115305 -0.12094115 -0.077229284
-0.20597206 -0.15222166 -0.03756353 -0.011683021 0.14953227 -0.104338504 0.13607384 0.13758914
-0.28266096 0.105727434 0.20300406 0.06859478 -0.08513264 -0.031160804 0.3007149 0.109633565
0.4059503 0.16783005 0.02551203 0.037300706 -0.26596412 0.067800716 -0.23895885 -0.004246663
00000000: 13c0 233e 76b1 34be cf5c 04be 787a 243d
00000010: 7ebf d93d 85be 8a3d 6bf1 27be ba26 b4bd
00000020: ac2d 26be 3c87 16be 9984 bdbd 575f 15be
00000030: 0443 803e 8175 b4bd 84e2 5e3e 9ea0 e33d
00000040: cde7 d33d d390 13be be55 15be e4b2 64bd
00000050: e58f 923d bc77 d03c 7bab 39be 71f7 a1bd
00000060: f567 52be edd5 3ebe 2c61 35bd a67d bfbd
00000070: c469 803e 7086 99bd 06b0 403e bd6d 493e
00000080: 4687 433e 651e f1bd ab1e 02be 496d bc3d
00000090: 607b bc3d 3718 533d 42d7 06be 2278 a9bc
000000a0: 11eb 84be a429 aabd 7f9a aabd 23d4 abbd
000000b0: a2fa 163e 25ee 1bbe b434 793e 7819 ab3d
000000c0: 75a5 2ebe dda7 753e c8af 983d 836a eb3d
000000d0: 6fbb 85bd 71ee 07be 63e2 fa3d 5afa d7bc
000000e0: e1d1 623e 67f0 943d 2fbb 2c3e 5459 b83d
000000f0: 081b 8fbe 2cc4 e43d 80a8 6ebe 2063 fdbd
00000100: 6aaf 213e 81b1 0abe a9fa f1bd 159b 5e3d
00000110: ef6a a33c 0271 323d 3bdd 00be 5783 85bd
00000120: 77fa 68be ffb9 c2bd edd4 abbd 4ebf 35bc
00000130: b17a 573e f2b9 d3bd 528e 463e a414 af3d
00000140: 3b48 0abe 94ac 213e 87d6 ca3c af6e 3c3e
00000150: 0498 9cbd 554e 1cbe 9fe2 ac3d 3ac3 25bc
00000160: 1ea9 7d3e 45f0 8e3e 7c0c f43d bdcd 713d
00000170: 0b5d 57be 8617 703d 4467 5dbe 3e5e 35be
00000180: e28b 1c3e 6e76 eabd 5108 08be 0dcf 2a3b
00000190: 5179 973c b8ed 5aba b517 efbd 4e40 e5bc
000001a0: 27b8 8abe 14b4 f1bc 6929 8bbd 33a8 043c
000001b0: c6ca 513e 6430 92bd 6860 183e e277 233d
000001c0: 77c7 14be 65ea 813d 8089 7f3d 6933 e93d
000001d0: 1ecf 33bd bb50 e7bd 425b 143e ceea 6e3d
000001e0: 221b 343e 1053 2d3e 8682 d03c fe81 643d
000001f0: afe3 ffbd 6e8a 073d 83a0 27be 8ffa 45bd
00000200: 474e 7fbe eb2f 0f3e 59e4 1e3e d2e8 ac3d
00000210: f205 c9bd d89a a9bd 77ba 3d3e f920 1f3d
00000220: ea20 693e 8dc9 993c 2f2e 773d 4e7f de3d
00000230: 0fe4 20be 281e 24bd f024 73be d4fd 463d
00000240: 0a61 33be fc7b 443e 5aa1 2d3e 6e75 783d
00000250: 1c65 a1bd 1af1 a1bd d561 043e c18d 9d3c
00000260: 9dd3 0a3e 51f7 9bbc 2207 e53d 605e cb3d
00000270: 1c33 26be 8959 893a 3fde 5fbe a123 5dbd
00000280: 3489 b73d f8b8 18be 828e 8abd 8173 93bd
00000290: a6d5 a13d 12b7 793d 6ceb aebd 4a2d b33c
000002a0: 1c66 11be ad58 d6bd beee d9bd edfe a0bd
000002b0: c407 513e 3c82 d4bd 5edf 273e e70c 1a3e
000002c0: 00a6 673e 4fbd dbbd 1551 1fbe ff06 bcbd
000002d0: d8e7 603c cef8 933d ea42 60be 88cc 343b
000002e0: 8ac7 d1bd 2fc8 29be 8efb 97bd 5387 cebd
000002f0: 6333 663e 68bc a0bd 78de 643e 6a1e 373d
00000300: 1588 e93d 45ea e7bd 9fac 96bd a70b 45bd
00000310: a457 993d e86f 1a3e 8d41 fabd f6ef 69bd
00000320: fe2c 41be 1286 1bbe f2dc 7ebd b6df 8cbd
00000330: ba86 4a3e 9a05 ecbd 79ef 2f3e e395 183e
00000340: a822 19be dd82 603d 0d59 a63d e478 433d
00000350: 1cb0 9fbc 1e5d 24be 701b 3f3e 5f42 873d
00000360: 4be0 2c3e 8d1a 163e ba5f 9b3c 25a5 2c3d
00000370: 91e9 10be 0cfb ff3d d20d 29be 6dab 5abd
00000380: 9ac6 9c3d 990b 90bd 7525 3bbd 9f95 90bc
00000390: 2cdf 063d a1ee 9d3d feaf f7bd 632a 9ebd
000003a0: 57ea 52be ffdf 1bbe 37dc 19bd 246a 3fbc
000003b0: fd1e 193e 6daf d5bd f156 0b3e 2be4 0c3e
000003c0: f0b8 90be a087 d83d 4ce0 4f3e 6c7b 8c3d
000003d0: 065a aebd f144 ffbc 4ef7 993e 9087 e03d
000003e0: b8d8 cf3e a4db 2b3e 9bfe d03c a0c8 183d
000003f0: 732c 88be 1adb 8a3d a1b1 74be 9727 8bbb

model.decoder_gnn.lin_skipsum.1.0.bias f4 [16]
0.112772875 0.1812521 0.037128385 -0.18305239 0.13255405 -0.16011444 0.096377 -0.14521301
-0.070349745 -0.08758833 0.16450067 0.16780488 0.1513563 -0.16857447 0.11563117 -0.23114903
00000000: 77f5 e63d 279a 393e ef13 183d 1672 3bbe
00000010: 40bc 073e 0af5 23be 4e61 c53d b8b2 14be
00000020: 8713 90bd 8361 b3bd dd72 283e 0bd5 2b3e
00000030: 25fd 1a3e c99e 2cbe 09d0 ec3d 55b2 6cbe
