_models_trained/causal_nf/loan_non-linear/last.ckpt (torch, 11915 bytes, 6 tensors)

model.flow.transforms.0.hyper.0.weight f4 [64, 7]
-0.13687256 0.08584413 -0.044012696 -0.1829064 -0.17203818 0.041378703 -0.04460001 -0.1207562
-0.8229282 0.07343477 -0.10797101 -0.014600724 -0.05921662 -0.28320333 -0.15228376 -0.27840397
0.13745895 -0.6246367 -0.010866404 -0.35828727 -0.36807746 0.14094308 -0.2896735 -0.34099537
-0.082050204 -0.043070674 0.11918795 -0.055862904 -0.11634514 0.1374394 0.23661557 -0.20513512
0.110612005 1.3154 0.284959 0.685722 0.61999965 0.075722456 -0.11314407 0.0694904
-0.060999155 -0.37540317 -0.11228256 0.28781465 0.33808717 0.27606478 0.31138358 -0.35121244
0.10622898 0.03729105 0.3792577 0.5049223 0.29852715 0.18105099 -0.1837683 -0.25892133
-0.3667419 0.11889064 0.26180407 0.2862955 0.06334135 -0.042008463 -0.019208163 -0.4786363
0.062187236 0.041808367 -0.3125586 -0.056062907 0.09454882 0.012711585 -0.35600057 0.09390627
0.12762049 0.143968 0.33294865 0.235127 -0.31803355 0.18414965 -0.0014932865 0.21554694
0.16614434 -0.2643719 0.109353185 0.23292562 -0.37184718 -0.10734314 -0.19593099 0.26206532
0.24558577 0.25703934 -0.24017076 -0.3657172 -0.6220851 -0.093096435 0.16552827 -0.3698995
0.10180357 0.18752548 -0.015470879 0.30204448 -0.3473047 0.31255016 -0.061895877 0.18041894
0.05178806 0.17528409 0.21759313 -0.08555146 -0.36382878 -0.008191913 0.29718545 0.048030496
0.33174255 0.22820637 -0.21591191 0.089126766 0.12628296 0.8248775 -0.26971236 -0.064098485
-0.11166813 -0.11236584 0.28355083 -0.34278286 -0.34808326 -0.04272157 0.30928102 -0.07443739
-0.2376085 -0.07935258 -0.07605192 -0.21607444 -0.17533875 -0.16548163 -0.006939842 -0.027552351
0.3057104 -0.15206839 0.0764958 0.24768463 0.3611736 -0.33464792 0.24683872 0.14498857
0.29843113 0.25942317 0.2057881 0.3138108 -0.68618834 -0.06967822 0.07744682 0.21395245
-0.020083576 -0.13888308 0.34819868 0.35514927 -0.06340346 0.4471131 0.26331183 -0.3419658
-0.3013415 -0.2078021 -0.05695724 -0.3907443 0.35574844 0.16336551 -0.31011993 0.058216274
0.30955008 0.03450668 0.17759618 0.30655745 -0.30647278 0.28630045 0.07788059 -0.3531316
0.15865989 -0.23686652 0.18292895 -0.10690144 -0.15551327 0.27502516 0.16880772 0.18913376
-0.2961306 0.2886325 0.03773415 -0.16763334 0.23499379 -0.30547908 0.069645256 0.2884644
-0.1287731 -0.123967916 0.20046648 0.30211404 0.28199348 0.26499864 0.032014698 -0.2383711
-0.2696599 0.43159136 0.32710686 -0.3842436 -0.007410821 -0.17091136 0.32568607 0.15834841
0.042237878 -0.0633454 -0.07552653 0.041969724 -0.16829424 0.19342212 -0.17575574 0.21197161
-0.21280795 0.17687088 0.23764934 -0.023254164 0.08198553 -0.2483471 0.031469762 0.03726384
0.36153743 0.081997216 -0.23856777 -0.0323039 0.31290528 0.19385873 -0.20109028 0.18145487
0.7903846 0.050370604 0.25388935 -0.14533108 -0.16763388 0.03181669 -0.50421154 -0.10630722
-0.093278736 0.13751201 0.14751866 -0.27665 -0.37409732 -0.2474568 0.24541505 0.48677072
0.096027285 -0.2689178 -0.34774676 -0.13228731 -0.113937855 0.02707535 -0.10276526 0.37694135
00000000: 5228 0cbe 0ccf af3d a846 34bd d14b 3bbe
00000010: c72a 30be b77c 293d 80ae 36bd 074f f7bd
00000020: 6cab 52bf f864 963d e81f ddbd e037 6fbc
00000030: 208d 72bd 0700 91be 46f0 1bbe f78a 8ebe
00000040: 0ac2 0c3e 31e8 1fbf 0009 32bc 6e71 b7be
00000050: a674 bcbe 6253 103e 1650 94be f296 aebe
00000060: f009 a8bd e06a 30bd d018 f43d 80d0 64bd
00000070: 5c46 eebd eabc 0c3e 5a4b 723e f10e 52be
00000080: 8c88 e23d 075f a83f 25e6 913e 7a8b 2f3f
00000090: 4cb8 1e3f 6014 9b3d 14b8 e7bd fc50 8e3d
000000a0: 40da 79bd d834 c0be 66f4 e5bd 715c 933e
000000b0: c319 ad3e 5d58 8d3e ab6d 9f3e 1ed2 b3be
000000c0: 948e d93d 80be 183d 112e c23e 9642 013f
000000d0: 8dd8 983e 6e65 393e c22d 3cbe 5691 84be
000000e0: 98c5 bbbe f07c f33d 2f0b 863e 5395 923e
000000f0: 1cb9 813d 1111 2cbd 705a 9dbc d10f f5be
00000100: 0bb8 7e3d 403f 2b3d ae07 a0be 38a2 65bd
00000110: d0a2 c13d 4044 503c b545 b6be ee51 c03d
00000120: f2ae 023e 596c 133e 3f78 aa3e 22c5 703e
00000130: 4bd5 a2be ba91 3c3e 61ba c3ba 56b8 5c3e
00000140: be21 2a3e c15b 87be 90f4 df3d 0e84 6e3e
00000150: c162 bebe b8d6 dbbd 22a2 48be 6d2d 863e
00000160: d67a 7b3e a99a 833e 53ef 75be 493f bbbe
00000170: f840 1fbf 58a9 bebd 3e80 293e 7863 bdbe
00000180: 647e d03d ae06 403e 9279 7dbc 93a5 9a3e
00000190: ecd1 b1be 9306 a03e 8886 7dbd bebf 383e
000001a0: b81f 543d ac7d 333e bcd0 5e3e 9b35 afbd
000001b0: c447 babe 6037 06bc b128 983e a0bb 443d
000001c0: 29da a93e eeae 693e 0318 5dbe 1888 b63d
000001d0: 5250 013e 2c2b 533f bd17 8abe 1146 83bd
000001e0: 43b2 e4bd 1020 e6bd 932d 913e 3c81 afbe
000001f0: f837 b2be d0fc 2ebd 155a 9e3e a172 98bd
00000200: a54f 73be 9b83 a2bd 1cc1 9bbd 9e42 5dbe
00000210: 008c 33be 0474 29be 9d67 e3bb 78b5 e1bc
00000220: 1386 9c3e d1b7 1bbe d4a9 9c3d 0aa1 7d3e
00000230: bfeb b83e f956 abbe 4ac3 7c3e e277 143e
00000240: f7cb 983e 1dd3 843e 1eba 523e cfab a03e
00000250: 0aaa 2fbf 74b3 8ebd 709c 9e3d 5a16 5b3e
00000260: 5086 a4bc 5e37 0ebe 1947 b23e 20d6 b53e
00000270: acd9 81bd 02ec e43e cfd0 863e 2416 afbe
00000280: 6f49 9abe 13ca 54be ff4b 69bd a30f c8be
00000290: a924 b63e 4a49 273e 0ac8 9ebe 3074 6e3d
000002a0: 597d 9e3e e056 0d3d c6db 353e 19f5 9c3e
000002b0: 00ea 9cbe f995 923e dc7f 9f3d aacd b4be
000002c0: bd77 223e 238d 72be ba51 3b3e 24ef dabd
000002d0: df3e 1fbe 19d0 8c3e eedb 2c3e 48ac 413e
000002e0: 6e9e 97be a4c7 933e 208f 1a3d 13a8 2bbe
000002f0: 36a2 703e c167 9cbe 2ca2 8e3d 9bb1 933e
00000300: 18dd 03be e4e2 fdbd 1647 4d3e b1ae 9a3e
00000310: 7361 903e e7ad 873e d821 033d 8e17 74be
00000320: dd10 8abe 8bf9 dc3e 8d7a a73e 94bb c4be
00000330: 79d6 f2bb 6303 2fbe 53c0 a63e 1626 223e
00000340: a001 2d3d 3cbb 81bd a7ad 9abd 72e8 2b3d
00000350: 5355 2cbe 7310 463e 50f9 33be 160f 593e
00000360: 54ea 59be a41d 353e 595a 733e 847f bebc
00000370: 08e8 a73d b44e 7ebe 70e6 003d f8a1 183d
00000380: 6f1b b93e 28ee a73d 1c4b 74be 1851 04bd
00000390: 1f35 a03e e782 463e 9cea 4dbe 4ecf 393e
000003a0: a556 4a3f 6851 4e3d c9fd 813e acd1 14be
000003b0: 37a8 2bbe 3852 023d 0214 01bf 9ab7 d9bd
000003c0: ec08 bfbd f3cf 0c3e 220f 173e 12a5 8dbe
000003d0: af89 bfbe 5165 7dbe 154e 7b3e 033a f93e
000003e0: f4a9 c43d 98af 89be dd0b b2be 5376 07be
000003f0: 4058 e9bd 20cd dd3c 9876 d2bd 75fe c03e

model.flow.transforms.0.hyper.0.bias f4 [64]
0.112902075 -0.46836153 0.2687681 -0.12416433 -0.33245665 -0.44750947 0.21325359 0.07938294
0.08482375 -0.43966803 0.13121608 -0.29575282 0.14414002 0.12392212 0.45740157 -0.17425323
-0.23312615 0.36305362 -0.2930838 0.24069928 0.2654842 -0.03831239 0.40350837 -0.32999092
-0.08614145 -0.18146597 0.24208538 -0.33467042 -0.26193088 0.09700286 0.5555553 0.28664154
0.08734251 -0.81781256 0.1623232 -0.37025076 -0.21570873 0.03308317 0.45061523 0.15220967
-0.0059791976 -0.25284907 0.23570831 -0.31021348 -0.24979377 0.5516705 -0.108090736 -0.08667117
-0.041437667 0.19686517 0.4035875 -0.06490429 0.3893393 -0.29557043 0.07112269 -0.11863023
-0.38123593 -0.4301698 -0.36599642 -0.18883044 -0.32475355 0.2111419 0.19710375 0.34314254
00000000: 3439 e73d 15cd efbe f99b 893e de49 febd
00000010: c237 aabe f61f e5be 265f 5a3e 8693 a23d
00000020: 13b8 ad3d 2b1c e1be 825d 063e ea6c 97be
00000030: 7199 133e e1ca fd3d 8a30 ea3e 706f 32be
00000040: 9fb8 6ebe 2ae2 b93e 140f 96be df79 763e
00000050: 8ced 873e 74ed 1cbd a698 ce3e 92f4 a8be
00000060: ee6a b0bd 37d2 39be 3be5 773e ec59 abbe
00000070: ce1b 86be 6fa9 c63d df38 0e3f aec2 923e
00000080: a1e0 b23d 2a5c 51bf 0e38 263e 8291 bdbe
00000090: c0e2 5cbe 3882 073d 0ab7 e63e dadc 1b3e
000000a0: 25ed c3bb 6f75 81be 855d 713e 4dd4 9ebe
000000b0: f0c9 7fbe 473a 0d3f ad5e ddbd a880 b1bd
000000c0: 8bba 29bd 0697 493e 05a3 ce3e 8aec 84bd
000000d0: 7b57 c73e 0255 97be c6a8 913d 68f4 f2bd
000000e0: 5b31 c3be 373f dcbe e263 bbbe c45c 41be
000000f0: 1946 a6be 9535 583e 91d5 493e 61b0 af3e

model.flow.transforms.0.hyper.2.weight f4 [14, 64]
0.08074534 0.021500945 -0.0318484 0.044573367 -0.05461526 0.03454511 -0.0020604879 0.057456955
-0.019086793 -0.107336596 -0.07598969 0.089301646 -0.034613073 0.018774822 0.08090423 0.03169599
0.046836674 -0.041244835 -0.11353764 0.08933477 -0.08201188 -0.10193449 0.008829206 -0.121860266
-0.00046746433 -0.054413795 0.12411277 -0.050789833 -0.010997862 -0.08838092 -0.024893343 0.119086966
-0.033186346 -0.036237806 0.10905065 -0.07906371 0.06804213 0.022874221 0.02149877 -0.040391713
-0.1041878 -0.0644159 0.10091792 0.11396952 -0.026138201 -0.021646097 -0.097451374 0.06774065
0.1013179 0.003946796 -0.07200633 -0.06785829 -0.03135225 0.035307974 0.07987593 0.08891025
0.010345936 -0.06315781 -0.022846326 -0.055464715 0.058009565 -0.123125955 0.087341994 0.046783254
-0.07327159 0.10637097 -0.02724871 -0.006356016 0.12051757 0.03900981 -0.026219249 0.099662125
0.005553037 0.06622328 -0.05845864 -0.09119636 -0.018770516 -0.11680493 -0.011314824 0.05661416
0.034575954 -0.10841414 -0.10653801 0.08681071 -0.071858406 -0.11012249 0.10323629 0.07011686
0.069383726 0.07704724 -0.11919634 0.06863618 0.06106694 0.118193686 -0.07650302 -0.05449064
0.011311829 0.032815874 0.04909113 0.12384723 0.00348185 0.035285383 0.07995075 0.11325599
0.09254196 0.10098611 -0.010988802 0.07778692 -0.051331908 0.10780193 -0.117687464 -0.060407892
-0.11783002 0.03181292 -0.115902126 -0.116128564 0.042122766 0.10850942 0.08416253 0.06953855
0.08642618 -0.0821476 -0.016271338 0.11419475 -0.1193852 -0.020475939 -0.023091048 -0.06393024
-0.02750732 -0.08122744 -0.013145849 -0.020383611 0.058379054 0.08411728 0.10765122 -0.04876679
0.05347228 -0.09730455 -0.023783162 -0.09387477 -0.024326533 -0.052173167 -0.09397787 -0.101397336
-0.013929278 0.11130284 0.11100541 0.0592227 -0.056153595 0.06456968 -0.08070907 0.022605807
-0.0002400279 -0.12305558 -0.100889534 0.029301703 0.011056751 0.0063741803 0.046937034 -0.07662983
0.0015288889 -0.03628996 0.0007413924 0.0075944513 -0.0057902336 -0.03156665 -0.06795959 0.07081434
0.11764583 -0.09586823 -0.057800367 -0.07664834 0.019893065 -0.06564011 0.024108171 -0.08066298
-0.11658235 -0.062176287 -0.124804765 0.10834113 0.06493211 0.07957013 -0.0825192 -0.08596864
-0.0562682 0.043516353 0.0053159446 0.018696547 0.03450486 0.040597513 -0.122338146 -0.103557676
-0.07749337 -0.020146564 0.0035302192 -0.10455504 -0.08563362 -0.0459954 0.079630405 0.044630438
-0.005190864 -0.09253216 0.111625284 0.017001659 -0.037986383 0.019669324 -0.009903535 0.0442193
0.01461266 0.039016366 0.11349532 0.08909762 -0.1216076 0.002290666 -0.035545483 -0.096580446
-0.099555984 0.040028766 0.057956696 -0.056596324 -0.093678966 -0.047499955 0.10261047 0.09332618
0.117596895 -0.008848548 0.050598994 -0.123349845 0.10150315 -0.11281799 -0.07936512 -0.06584835
0.109249964 0.007659033 -0.1125976 -0.06436163 0.10886276 -0.04444416 -0.0009057969 -0.08037159
-0.088873476 -0.08226991 -0.022673905 0.10259317 0.050836638 0.0984005 -0.10232961 0.069055974
0.096046045 0.05809307 -0.0858587 0.07673311 -0.05678886 -0.1010609 -0.097007334 0.07168117
00000000: d05d a53d c022 b03c 7873 02bd 9092 363d
00000010: 40b4 5fbd 2c7f 0d3d 4009 07bb fc57 6b3d
00000020: e85b 9cbc 4ad3 dbbd 7ca0 9bbd c8e3 b63d
00000030: 70c6 0dbd a8cd 993c 1eb1 a53d a8d3 013d
00000040: d0d7 3f3d 58f0 28bd 6c86 e8bd 26f5 b63d
00000050: d8f5 a7bd 08c3 d0bd 60a8 103c e091 f9bd
00000060: 0016 f5b9 00e1 5ebd d62e fe3d 0009 50bd
00000070: 6030 34bc 0e01 b5bd 20ed cbbc dee3 f33d
00000080: 68ee 07bd 186e 14bd f255 df3d 28ec a1bd
00000090: ac59 8b3d b862 bb3c 301e b03c c871 25bd
000000a0: 6a60 d5bd 7cec 83bd 0eae ce3d da68 e93d
000000b0: c81f d6bc 2853 b1bc 9694 c7bd 9cbb 8a3d
000000c0: c27f cf3d 2054 813b 0e78 93bd 4af9 8abd
000000d0: 386b 00bd 189f 103d fe95 a33d 9416 b63d
000000e0: 0082 293c e258 81bd 3828 bbbc f82e 63bd
000000f0: 709b 6d3d 7629 fcbd 5ce0 b23d cc9f 3f3d
00000100: 6a0f 96bd 06d9 d93d b038 dfbc 2046 d0bb
00000110: ead1 f63d c0c8 1f3d c0c9 d6bc a81b cc3d
00000120: 40f6 b53b 12a0 873d 5472 6fbd 28c5 babd
00000130: a0c4 99bc 6c37 efbd d061 39bc 40e4 673d
00000140: 849f 0d3d 3c08 debd 9a30 dabd d0c9 b13d
00000150: 802a 93bd e687 e1bd 8c6d d33d 6e99 8f3d
00000160: 0e19 8e3d f2ca 9d3d 361d f4bd 2091 8c3d
00000170: 5421 7a3d 880f f23d 9ead 9cbd 9431 5fbd
00000180: 4055 393c f069 063d c813 493d 9ea3 fd3d
00000190: c02f 643b 6887 103d 38bd a33d c2f2 e73d
000001a0: a486 bd3d ced1 ce3d 600a 34bc c04e 9f3d
000001b0: 6841 52bd 42c7 dc3d 2006 f1bd 446e 77bd
000001c0: de50 f1bd 444e 023d 185e edbd d0d4 edbd
000001d0: ec88 2c3d 303a de3d 685d ac3d 3a6a 8e3d
000001e0: 3600 b13d 003d a8bd 784b 85bc f0de e93d
000001f0: 3a80 f4bd 28bd a7bc 7029 bdbc dced 82bd
00000200: 0857 e1bc 925a a6bd b061 57bc 88fb a6bc
00000210: e01e 6f3d ae45 ac3d 3e78 dc3d b0bf 47bd
00000220: c005 5b3d 9c47 c7bd e8d4 c2bc 6a41 c0bd
00000230: 7048 c7bc 88b3 55bd 7877 c0bd 68a9 cfbd
00000240: a037 64bc bef2 e33d ce56 e33d 8093 723d
00000250: 5001 66bd 1c3d 843d cc4a a5bd d02f b93c
00000260: 00b0 7bb9 9004 fcbd 2c9f cebd 200a f03c
00000270: 6027 353c 80de d03b 0c41 403d 1af0 9cbd
00000280: 0065 c83a c8a4 14bd 005a 423a e0da f83b
00000290: 00bc bdbb 084c 01bd 662e 8bbd 1c07 913d
000002a0: 4cf0 f03d 9056 c4bd 14c0 6cbd cef9 9cbd
000002b0: c8f6 a23c 526e 86bd 807e c53c a232 a5bd
000002c0: bac2 eebd 90ac 7ebd a499 ffbd f4e1 dd3d
000002d0: 20fb 843d aaf5 a23d d4ff a8bd 5410 b0bd
000002e0: 7c79 66bd 343e 323d 6031 ae3b 8029 993c
000002f0: f854 0d3d 9449 263d 6c8c fabd 0c16 d4bd
00000300: d8b4 9ebd 680a a5bc 405b 673b f420 d6bd
00000310: ae60 afbd ac65 3cbd 4415 a33d 68ce 363d
00000320: 2018 aabb 8081 bdbd cc9b e43d 1047 8b3c
00000330: 9c97 1bbd 9021 a13c 7042 22bc 4c1f 353d
00000340: f069 6f3c a0cf 1f3d 3c70 e83d d078 b63d
00000350: 680d f9bd 001f 163b 2498 11bd f8cb c5bd
00000360: 02e4 cbbd 34f5 233d 0064 6d3d 8cd1 67bd
00000370: c2da bfbd 508f 42bd 7025 d23d cc21 bf3d
00000380: a4d6 f03d 80f9 10bc e440 4f3d d89e fcbd
00000390: e2e0 cf3d 1e0d e7bd 2e8a a2bd 80db 86bd
000003a0: 72be df3d a0f8 fa3b 9299 e6bd 08d0 83bd
000003b0: 70f3 de3d 140b 36bd 0073 6dba dc99 a4bd
000003c0: 4c03 b6bd 207d a8bd a0be b9bc 5e1c d23d
000003d0: 143a 503d 3486 c93d 3092 d1bd 386d 8d3d
000003e0: cab3 c43d 00f3 6d3d b0d6 afbd 4026 9d3d
000003f0: 709b 68bd 04f9 cebd c8ab c6bd 94cd 923d

model.flow.transforms.0.hyper.2.bias f4 [14]
6.206269e-05 3.8778315e-05 4.13344e-05 7.8922814e-05 -0.03176915 0.094739296 0.0017319077 0.2658917
-0.01222214 0.031367656 -0.04415847 0.109143466 -0.1713803 0.085822925
00000000: a727 8238 e6a5 2238 795e 2d38 5d83 a538
00000010: 5e20 02bd ad06 c23d 2e01 e33a f522 883e
00000020: 5f3f 48bc 5f7b 003d 83df 34bd 9c86 df3d
00000030: 517e 2fbe eec3 af3d

model.flow.base._0 f4 [7]
0.0 0.0 0.0 0.0 0.0 0.0 0.0
00000000: 0000 0000 0000 0000 0000 0000 0000 0000
00000010: 0000 0000 0000 0000 0000 0000

model.flow.base._1 f4 [7]
1.0 1.0 1.0 1.0 1.0 1.0 1.0
00000000: 0000 803f 0000 803f 0000 803f 0000 803f
00000010: 0000 803f 0000 803f 0000 803f
