_models_trained/causal_nf/chainsens_non-linear/epoch=993-step=4970.ckpt (torch, 19320 bytes, 10 tensors)

model.flow.transforms.0.hyper.0.weight f4 [32, 4]
0	0xbe7dfeeb	-0.24804275
1	0x3de892b8	0.113561094
2	0xbd6e7b90	-0.058223307
3	0xbe77c500	-0.24196243
4	0xbe3d9441	-0.18513586
5	0x3e012578	0.1261195
6	0xbec79d80	-0.3898735
7	0xbe09f3fc	-0.13471979
8	0xbe3b2168	-0.18274462
9	0x3ece1f08	0.4025805
10	0xbe12429c	-0.14283222
11	0xbc9e3a60	-0.019314945
12	0xbe2a6392	-0.16639546
13	0xbebfd12e	-0.3746428
14	0x3e3a2570	0.18178344
15	0xbee2be4a	-0.44285804
16	0x3e7b2fff	0.24530028
17	0xbee7ca88	-0.45271707
18	0x3ea876d1	0.3290315
19	0xbef2ac22	-0.47396952
20	0xbebba628	-0.36650205
21	0x3eeba4ac	0.46024072
22	0xbedb08ae	-0.4278006
23	0xbecb7e38	-0.39744735
24	0xbe794be8	-0.24345362
25	0xbd6960e0	-0.056977153
26	0x3e217478	0.15767086
27	0xbd9758b8	-0.07389969
28	0xbd2b2328	-0.041781574
29	0x3e3a2dc8	0.18181527
30	0x3f183b29	0.5946527
31	0xbe8af0c8	-0.27136827
32	0x3d7053a7	0.058673527
33	0x3f84ceb9	1.0375587
34	0x3ec1019a	0.37696534
35	0x3efc45a4	0.49271882
36	0xbe646a6a	-0.22306219
37	0x3dcd26a8	0.10017139
38	0xbe19448c	-0.14967555
39	0x3dbc4450	0.09192717
40	0xbda2a622	-0.079418436
41	0xbefe43e4	-0.4966117
42	0xbec60db6	-0.38682336
43	0x3ef55c8a	0.47922164
44	0x3eb651b4	0.3560921
45	0x3f053f26	0.5204948
46	0x3ed2e768	0.41192174
47	0xbeede16a	-0.4646104
48	0x3e232871	0.15933396
49	0xbe002130	-0.1251266
50	0x3ef96664	0.4871093
51	0x3e90a22a	0.2824872
52	0x3ee47a3d	0.4462451
53	0x3e754190	0.23950791
54	0xbf1edf8c	-0.62059855
55	0xbeaf5ee0	-0.3425207
56	0xbf043032	-0.5163604
57	0x3e74e291	0.23914553
58	0x3eb152b8	0.34633422
59	0x3ec1e956	0.37873334
60	0x3ea10769	0.31450966
61	0xbe47aa14	-0.19498473
62	0xbcd028a0	-0.025409997
63	0xbef44c00	-0.47714233
64	0x3dbd8ef5	0.092557825
65	0x3d6289e0	0.05530727
66	0xbf2072f5	-0.6267541
67	0xbd97e370	-0.07416427
68	0x3ddc3fc8	0.10754353
69	0x3f02a74d	0.5103653
70	0xbebf7aa4	-0.37398255
71	0xbd654650	-0.05597526
72	0x3e4dab78	0.20084941
73	0x3d1bfd70	0.038083494
74	0x3ee1829e	0.44044966
75	0x3e9f4122	0.3110438
76	0xbeb4ae1e	-0.3528909
77	0x3df825b0	0.12116563
78	0xbee42d24	-0.4456569
79	0x3e170c2c	0.14750737
80	0x3e392293	0.18079595
81	0xbf3e6f08	-0.7438817
82	0x3e1421ec	0.14466065
83	0x3e9dc36e	0.30813164
84	0xbf188aa2	-0.59586537
85	0xbe1168e0	-0.14200163
86	0xbe84b4dc	-0.25919235
87	0x3eb18004	0.3466798
88	0x3e8ed841	0.27899364
89	0xbcea28a0	-0.028583825
90	0xbf17aad6	-0.5924505
91	0xbefaaaf4	-0.48958552
92	0xbebbb1fa	-0.36659223
93	0xbec0f92f	-0.37690112
94	0x3e603a8c	0.21897334
95	0xbefa899a	-0.48933107
96	0x3da8bab5	0.082387365
97	0x3e7e06d4	0.24807292
98	0xbe66bf44	-0.225339
99	0x3ef56c70	0.47934294
100	0xbf0b97ac	-0.5452831
101	0x3edbe182	0.42945486
102	0x3e87cea5	0.26524845
103	0x3e746664	0.23867184
104	0x3d3640c9	0.044495378
105	0x3f20863b	0.6270482
106	0x3bf16400	0.0073666573
107	0xbde9ea80	-0.114216805
108	0xbf09a200	-0.5376282
109	0xbc318d40	-0.010836899
110	0x3ec94992	0.39313942
111	0x3d822068	0.06353837
112	0x3ed2a44d	0.41140977
113	0x3e9a9126	0.30188864
114	0xbf128a07	-0.57241863
115	0x3df17778	0.11790365
116	0x3da118b4	0.0786604
117	0x3f3bd618	0.73373556
118	0xbeb6adf4	-0.3567959
119	0xbdb3d170	-0.087801814
120	0x3d967df2	0.07348241
121	0xbe1836ac	-0.14864606
122	0x3ec00d70	0.37510252
123	0xbee82bca	-0.45345908
124	0xbeb81b10	-0.35958147
125	0xbd677ca0	-0.056515336
126	0x3f20f0d0	0.6286745
127	0xbe1c54a8	-0.15266669

model.flow.transforms.0.hyper.0.bias f4 [32]
0	0xbf12a8a0	-0.5728855
1	0x3e7e4a45	0.24833019
2	0xbd4d4034	-0.050110057
3	0xbf174e73	-0.5910408
4	0xbb8af89d	-0.004241063
5	0x3d539bcf	0.051662263
6	0xbd22c5e3	-0.0397395
7	0x3df89e4e	0.12139569
8	0x3eedd803	0.46453866
9	0xbeea660c	-0.4578098
10	0x3eaa74b0	0.3329215
11	0x3ee90275	0.45509687
12	0x3f4ae537	0.79256004
13	0xbe6a8006	-0.229004
14	0x3edcf9fa	0.43159467
15	0x3f213512	0.62971604
16	0x3f204dec	0.626189
17	0x3e82c450	0.255404
18	0x3f1976b8	0.59946775
19	0x3d8836ae	0.06651054
20	0xbd6cc856	-0.057808243
21	0x3d72fc5b	0.059322696
22	0x3ea2e7ba	0.31817418
23	0x3ed6459c	0.41849983
24	0xbe981b04	-0.2970811
25	0xbc3f715b	-0.011684741
26	0x3e808c8f	0.25107238
27	0x3ef17820	0.4716196
28	0x3e282337	0.16419683
29	0x3eab3f02	0.3344651
30	0x3f247433	0.64239806
31	0xbe8eea8b	-0.27913317

model.flow.transforms.0.hyper.2.weight f4 [32, 32]
0	0xbec6b306	-0.3880846
1	0xbe06ea6e	-0.13175365
2	0xbce1a9b0	-0.027546734
3	0xbed865fe	-0.42265314
4	0x3e2a611f	0.16638611
5	0x3d9c7b62	0.07640721
6	0xbe0e87e3	-0.13919024
7	0x3cdf0da0	0.027228177
8	0x3e1440e3	0.14477877
9	0xbe69058d	-0.22756024
10	0x3daa1cf2	0.08306302
11	0x3e12d1f9	0.1433791
12	0x3de836b9	0.113385625
13	0x3c8eb300	0.017419338
14	0x3d1532b4	0.036425307
15	0x3e2b57a6	0.16732654
16	0x3d63f400	0.05565262
17	0xbde2e2d0	-0.11078417
18	0x3eb3b927	0.35102198
19	0xbd4ccb4c	-0.049998567
20	0xbd94f5ea	-0.07273467
21	0x3e164e71	0.1467836
22	0x3e23e953	0.16006975
23	0xbdd56d0c	-0.1042119
24	0xbec902b2	-0.3925987
25	0x3d8e712c	0.069551796
26	0x3c9093a8	0.017648533
27	0x3dd3c04c	0.10339412
28	0x3de11796	0.10990827
29	0xbd9d91b6	-0.07693808
30	0x3e98af9b	0.29821476
31	0x3e27fe3f	0.16405581
32	0xbe7d0291	-0.2470801
33	0x3e67230a	0.2257196
34	0x3dc0050a	0.09375961
35	0xbde6c529	-0.11268074
36	0xbd36c6f0	-0.044623315
37	0x3dfdd52e	0.123941764
38	0x3ceef0a9	0.02916749
39	0xbe86b498	-0.26309657
40	0xbe012618	-0.12612188
41	0xbe11308c	-0.14178675
42	0x3eee31d3	0.46522388
43	0xbdc172ee	-0.09445749
44	0x3eab2ed2	0.3343416
45	0x3e0365fb	0.12831871
46	0x3e1bfb45	0.1523257
47	0x3e79a1fa	0.24378195
48	0x3ea27587	0.3173029
49	0xbcf2b488	-0.0296271
50	0x3e1e11f4	0.15436536
51	0x3e04d45e	0.12971637
52	0xbda133fa	-0.07871242
53	0x3d896d07	0.067102484
54	0x3e4c8a26	0.19974574
55	0x3dcb0a3e	0.09914063
56	0xbea232d7	-0.31679413
57	0xbdcd3c76	-0.10021298
58	0x3d93231e	0.071844324
59	0x3e6e213a	0.23254862
60	0x3e9b994c	0.30390394
61	0xbdede200	-0.11615372
62	0x3e9caf8b	0.3060268
63	0xbe1d2091	-0.15344454
64	0x3e84a202	0.25904852
65	0x3d1d159c	0.038350686
66	0x3a89ce04	0.0010513668
67	0x3daaef89	0.08346469
68	0x3e15dc43	0.14634804
69	0x3d312b09	0.043253932
70	0xbd8637c7	-0.065536074
71	0x3a8bbb00	0.0010660589
72	0x3e8fe502	0.28104407
73	0x3dee1f02	0.11627008
74	0x3df3310a	0.11874588
75	0xbd163b32	-0.036677547
76	0xbe2e4c42	-0.17021278
77	0x3c73cf00	0.014880896
78	0xbe25e607	-0.1620103
79	0xbe776412	-0.24159268
80	0xbd32b25c	-0.043627128
81	0x3c8541b9	0.01626669
82	0xbcc1c7ab	-0.02365478
83	0xbe047f20	-0.1293912
84	0xbebb4a70	-0.3658023
85	0xbe330bfc	-0.1748504
86	0x3de82ba2	0.11336447
87	0xbaed8e4d	-0.0018124074
88	0x3e14ded8	0.14538133
89	0xbe00cb1c	-0.1257748
90	0xbd57af05	-0.052657146
91	0xbde66e1a	-0.11251469
92	0xbd5a4624	-0.053289548
93	0x3e0338dc	0.12814659
94	0xbe14a77c	-0.14517015
95	0x3e348783	0.17629819
96	0xbdaf0180	-0.08545208
97	0x3dba112e	0.09085308
98	0x3e0aafb5	0.1354359
99	0xbdeb4369	-0.11487467
100	0xbd8c1275	-0.06839458
101	0x3db235a6	0.08701639
102	0x3c7b52d0	0.015339568
103	0xbe032516	-0.12807116
104	0x3e11c405	0.14234932
105	0xbe8a5140	-0.27015114
106	0x3d999bae	0.07500397
107	0xbe3243a3	-0.17408614
108	0x3ea6b0d5	0.32556787
109	0xbdc00366	-0.09375648
110	0x3e1a04c3	0.15040879
111	0x3be9dd06	0.0071369438
112	0x3dce268e	0.100659475
113	0x3e34e761	0.17666389
114	0x3e2e3530	0.17012477
115	0x3dabd1ba	0.083896115
116	0xbc988d60	-0.0186221
117	0x3e75aa87	0.23990832
118	0x3dd27296	0.10275762
119	0x3e15b66d	0.14620371
120	0xbea7f473	-0.32803687
121	0xbdbfd1cb	-0.09366187
122	0x3cac3190	0.021019727
123	0x3e8a731a	0.2704094
124	0xbd297688	-0.041372806
125	0x3e089e39	0.13341607
126	0x3eefa1ca	0.46803123
127	0x3e0d8b39	0.1382264
128	0xbe37a28b	-0.17933099
129	0xbe527174	-0.20551091
130	0xbe1e6d82	-0.15471461
131	0xbe3e2c7b	-0.18571655
132	0x3f0754a5	0.5286353
133	0xbd2ebb50	-0.042659104
134	0xbad06e3d	-0.0015901994
135	0x3eb0be9e	0.3452043
136	0x3e306a99	0.17228164
137	0xbe85e272	-0.26149327
138	0xbe9c2453	-0.30496463
139	0xbd25d5b4	-0.040487006
140	0x3c8da307	0.017289652
141	0xbe38a175	-0.18030341
142	0xbdc1b73e	-0.09458779
143	0x3e0c24bd	0.1368589
144	0xbeae54b2	-0.34048992
145	0x3d8ed3e4	0.06974009
146	0x3d8322dc	0.06403133
147	0xbeaf4935	-0.3423554
148	0xbd94b449	-0.07260949
149	0xbe4defad	-0.2011096
150	0xbe84f301	-0.25966647
151	0xbe10c890	-0.14139009
152	0x3dd672b0	0.10471094
153	0xbd92e73e	-0.07173012
154	0xbd25f650	-0.040518105
155	0xbd1c9e68	-0.038237005
156	0xbebfa757	-0.37432358
157	0x3df6548e	0.12027846
158	0x3eb29348	0.34877992
159	0x3e8fd5ba	0.28092748
160	0x3e2e3efc	0.17016214
161	0xbdded5e2	-0.10880639
162	0x3ebff75e	0.37493414
163	0x3de40bd3	0.11135068
164	0xbb60ef40	-0.0034322292
165	0x3e03fd6e	0.12889645
166	0xbc8a45ad	-0.016878927
167	0x3d5cbf6c	0.05389349
168	0x3f11c326	0.569384
169	0x3d97e5ab	0.074168526
170	0xbdb51f4d	-0.08843861
171	0x3f1af18e	0.60524833
172	0x3d4cede7	0.05003157
173	0xba9a6800	-0.0011780262
174	0x3e3844df	0.17995022
175	0x3cf9562f	0.030436603
176	0xbdbeebf6	-0.0932235
177	0x3f2aa2a7	0.6665444
178	0xbe385dbe	-0.1800451
179	0x3d98b03a	0.074554875
180	0xbf1e596c	-0.61855197
181	0x3d992efe	0.07479666
182	0x3dc08d56	0.09401958
183	0xbed8587d	-0.4225501
184	0x3d93d615	0.07218567
185	0xbdb810d8	-0.08987588
186	0x3f300176	0.6875223
187	0x3e4d8274	0.20069295
188	0x3d9e5ab2	0.077321425
189	0x3f2d8d4c	0.67793727
190	0x3e0354b6	0.12825283
191	0xbe0e7b12	-0.13914135
192	0x3e6b5896	0.22983012
193	0x3c8c15a0	0.017100155
194	0x3ddb48ae	0.10707222
195	0x3ee893de	0.45425314
196	0x3d9b2c5a	0.07576819
197	0xbe2d6743	-0.16933922
198	0x3d929baf	0.071586005
199	0x3d5bec50	0.053692162
200	0x3e14c973	0.14529972
201	0x3ea3966b	0.31950697
202	0x3cc74cf8	0.024328694
203	0x3d412268	0.047151953
204	0xbe61b544	-0.22041804
205	0x3d97837a	0.07398124
206	0xbd8aa22d	-0.06769214
207	0xbde2ab87	-0.110678725
208	0x3dd4dece	0.10394059
209	0xbe010cf5	-0.12602599
210	0xbe876a05	-0.26448074
211	0xbe0869fa	-0.13321677
212	0x3e2d3e75	0.16918357
213	0xbdf93a3a	-0.12169309
214	0x3e2b1f6d	0.16711207
215	0x3d8bce46	0.06826453
216	0x3ebae0e4	0.36499703
217	0xbb3e7580	-0.0029061735
218	0x3e0cbbb3	0.13743477
219	0xbd93f5ba	-0.07224603
220	0xbe3488e4	-0.17630345
221	0xbe2161c8	-0.15759957
222	0xbea7e25a	-0.3278988
223	0xbd44a640	-0.04801011
224	0xbe23dda7	-0.16002522
225	0xbe408532	-0.1880081
226	0xbd618bbc	-0.0550649
227	0xbdb1c34d	-0.08679829
228	0x3e4e804a	0.20166126
229	0x3dfa73e2	0.12229134
230	0x3ad62a1e	0.0016339456
231	0x3e02a606	0.12758645
232	0x3dd2b832	0.10289039
233	0x3d3c018e	0.04589992
234	0xbe8d65ee	-0.2761683
235	0x3ca8fdd8	0.020628855
236	0xbd2812bc	-0.04103349
237	0xbe366425	-0.1781164
238	0x3de70246	0.112797305
239	0xbe036707	-0.1283227
240	0xbe7e7363	-0.24848704
241	0x3d208518	0.039189428
242	0x3e3d6343	0.18494897
243	0xbe8291e3	-0.25501928
244	0xbdb59b38	-0.08867496
245	0x3ddc0bab	0.10744413
246	0xbe849a11	-0.25898793
247	0xbdd4255c	-0.10358688
248	0xbe93fea3	-0.2890521
249	0x3e91b3a7	0.28457376
250	0x3df4c9a2	0.11952521
251	0x3e38bbef	0.18040441
252	0xbed0097f	-0.40632245
253	0xbdc3cc6f	-0.09560477
254	0x3e02aeb6	0.1276196
255	0x3eb76528	0.35819364

model.flow.transforms.0.hyper.2.bias f4 [32]
0	0x3ea959e8	0.33076406
1	0x3e948a4e	0.29011768
2	0x3db0f8b0	0.086411834
3	0x3e5bbfd8	0.21459901
4	0x3dc6aa92	0.097005025
5	0x3ddc20e6	0.107484624
6	0xbe93dc7f	-0.28879163
7	0x3e7f3822	0.24923757
8	0x3e054823	0.13015799
9	0x3eceacf8	0.4036634
10	0xbda785f9	-0.0817985
11	0xbb23c24a	-0.0024987631
12	0x3ed6ff59	0.4199169
13	0x3d178e2e	0.037000827
14	0xbcec462a	-0.02884205
15	0x3e6bdc6c	0.23033303
16	0x3e711783	0.23544125
17	0xbc153255	-0.009106238
18	0x3e645a36	0.22300038
19	0x3eaa67b8	0.33282256
20	0x3d8f2d22	0.0699103
21	0xbe99ab64	-0.30013573
22	0x3c1645e5	0.009171938
23	0x3e5e9d33	0.21739654
24	0x3ebb30d9	0.36560705
25	0x3e156ce7	0.14592324
26	0xbd73aea4	-0.059492722
27	0x3f1256e9	0.57163864
28	0x3ea29d4b	0.3176063
29	0x3e469a49	0.19394793
30	0x3e86e03d	0.26342955
31	0x3c233233	0.009960699

model.flow.transforms.0.hyper.4.weight f4 [32, 32]
0	0x3da77b9b	0.08177873
1	0x3d1fb994	0.03899534
2	0x3ce8c6f8	0.028415188
3	0xbca916a6	-0.020640682
4	0xbe008f1d	-0.12554593
5	0x3d17a364	0.037021056
6	0xbcd4b306	-0.025964271
7	0x3d9cd5a6	0.07657938
8	0xbc33a5b0	-0.010964796
9	0xbdc3fe22	-0.09569956
10	0xbd0acda0	-0.033887506
11	0xbde4e47b	-0.11176392
12	0xbe70d5ad	-0.23519011
13	0xbda60cc9	-0.08107907
14	0x3d1ac018	0.03778085
15	0x3e94f644	0.29094136
16	0xbd4ce31c	-0.050021276
17	0xbc450320	-0.012024671
18	0x3dd458ec	0.10368523
19	0xbdf8661c	-0.12128851
20	0xbdc22072	-0.09478845
21	0xbd9d873e	-0.07691811
22	0xbd869679	-0.06571669
23	0xbe00a0b0	-0.12561297
24	0x3e514ba2	0.20439008
25	0x3e0ab6e3	0.13546328
26	0xbd3a33c4	-0.045459524
27	0xbe4f076f	-0.2021768
28	0x3e081495	0.13289101
29	0x3da8cee2	0.08242585
30	0xbc2969e1	-0.010340185
31	0x3d5f19a8	0.054467827
32	0xbee6e57d	-0.4509696
33	0xbf17ea20	-0.5934162
34	0x3de41f3a	0.111387685
35	0xbe8c2f23	-0.27379712
36	0x3e520bda	0.20512334
37	0x3de3dd8a	0.111262396
38	0x3e92f395	0.28701463
39	0x3e49018f	0.19629501
40	0xbcb65fe0	-0.022262514
41	0xbe876710	-0.26445818
42	0x3e055eaa	0.13024393
43	0xbe22158a	-0.15828529
44	0xbe933c60	-0.28757
45	0x3e3999c4	0.18125063
46	0xbd7a4cc2	-0.06110836
47	0xbeb8fb76	-0.3612935
48	0x3e8eb723	0.27874097
49	0x3ca12698	0.019671723
50	0xbdfc3dd9	-0.12316484
51	0x3e7a302a	0.24432436
52	0xbcc8e8e0	-0.024525106
53	0x3e7824b5	0.24232753
54	0xbe916516	-0.28397435
55	0x3b296d40	0.0025852472
56	0xbecda93c	-0.40168178
57	0x3e9b4307	0.30324575
58	0xbc93dd18	-0.018049762
59	0xbe99a53c	-0.30008876
60	0x3e5a416d	0.2131402
61	0xbe06894f	-0.13138317
62	0x3bd109c9	0.0063793403
63	0xbe15ce8f	-0.14629577
64	0x3e07b1c9	0.13251413
65	0xbe26238d	-0.16224499
66	0xbe9ba838	-0.30401778
67	0xbcbdce5d	-0.02316969
68	0x3d1da3c0	0.038486242
69	0xbe632af2	-0.22184351
70	0x3e136c48	0.14396775
71	0x3e1242d3	0.14283304
72	0xbe5df6d4	-0.21676189
73	0xbe6df326	-0.23237285
74	0xbd93ab22	-0.07210375
75	0xbca19fdf	-0.019729553
76	0xbe118001	-0.14208986
77	0x3e1a6d55	0.1508077
78	0xbe6994dc	-0.22810692
79	0xbd14c4b1	-0.036320392
80	0xbdaafb3c	-0.083487004
81	0xbec302be	-0.3808803
82	0x3e50f04e	0.20404169
83	0xbdb29a08	-0.087207854
84	0x3e13f0fb	0.14447396
85	0xbb6ed9bc	-0.0036445698
86	0x3e00cda1	0.12578441
87	0xbb2f41b4	-0.0026742043
88	0x3cada2c3	0.021195775
89	0x3e16cbb1	0.1472614
90	0xbec76121	-0.3894129
91	0xbc579b0c	-0.013159525
92	0xbd896c41	-0.06710101
93	0x3d93fa3c	0.07225463
94	0x3a21ae26	0.0006167613
95	0xbddc3657	-0.10752552
96	0xbd8a58e7	-0.06755238
97	0xba02f800	-0.00049960613
98	0x3e00dee1	0.12585022
99	0xbdc1c431	-0.09461249
100	0xbd9d6c4d	-0.07686672
101	0xbe16e65f	-0.14736317
102	0xbe5cf3c1	-0.2157736
103	0x3d1b14a4	0.03786148
104	0x3e132e41	0.14373113
105	0xbda54094	-0.08068958
106	0xbcff14c8	-0.031137839
107	0x3ddb51ee	0.10708986
108	0x3e040cd3	0.12895517
109	0xbdb95eee	-0.090513095
110	0xbd0fd9e8	-0.03511992
111	0xbedba0c8	-0.42896104
112	0xbe220a3b	-0.15824215
113	0x3cb492e0	0.022042692
114	0xbe9fb4f2	-0.31192738
115	0xbe02d878	-0.12777889
116	0xbe2677fa	-0.16256705
117	0xbe64e14b	-0.22351567
118	0xbd826a3f	-0.06367921
119	0xbd6bfe40	-0.05761552
120	0x3c22df75	0.009940972
121	0x3bc4a2e0	0.0060008615
122	0xbc96ec38	-0.018423185
123	0x3e8af80b	0.27142367
124	0xbe11b17e	-0.14227864
125	0xbe1aa4a6	-0.15101871
126	0x3d3e4583	0.04645301
127	0xbb9fdb20	-0.0048784167
128	0x3ee2a562	0.44266802
129	0xbcbcfe7b	-0.023070564
130	0x3da0c1fa	0.07849498
131	0x3ea9fdff	0.33201596
132	0x3e31cc54	0.17363101
133	0xbe26ec51	-0.16301085
134	0xbeb1bf13	-0.3471609
135	0x3ed64024	0.4184581
136	0x3dba71ee	0.091037616
137	0x3ece42fa	0.40285474
138	0x3e2af982	0.16696742
139	0xbdf44b35	-0.11928407
140	0x3e1fc4cd	0.15602417
141	0x3e81a95b	0.2532452
142	0xbdf0ade2	-0.117519155
143	0x3ebf1a93	0.37324962
144	0x3ecb3f40	0.39696693
145	0xbdb54012	-0.08850111
146	0x3eb8eac4	0.36116612
147	0x3eb9b451	0.36270383
148	0xbe189ace	-0.14902803
149	0xbec03ac0	-0.37544823
150	0xbe864312	-0.26223046
151	0xbdde88a7	-0.10865908
152	0x3ee4c182	0.44678885
153	0x3e99b601	0.3002167
154	0xbe152476	-0.1456469
155	0x3e502680	0.20327187
156	0x3e995fd6	0.2995593
157	0xbd8e0a8c	-0.069356054
158	0x3e03b55f	0.12862156
159	0xbeb4bb39	-0.3529909
160	0x3e02a0bc	0.12756628
161	0xbdbe721b	-0.09299108
162	0x3e310a1f	0.17289017
163	0xbe37d52f	-0.17952417
164	0x3d8bdd0e	0.06829272
165	0xbe6a6c69	-0.22892918
166	0x3d0241e0	0.031801105
167	0xbe1c1b1c	-0.15244716
168	0xbc021bc5	-0.007941191
169	0xbdc8220c	-0.09772119
170	0x3e1254a7	0.14290105
171	0x3dcfea94	0.10152164
172	0xbdcd543f	-0.10025834
173	0x3dd913aa	0.10599454
174	0x3e10bfae	0.1413562
175	0xbc09bf47	-0.0084074205
176	0xbdc4863a	-0.09595914
177	0x3de2a922	0.11067416
178	0xbd865384	-0.06558898
179	0xbe33bc3c	-0.17552274
180	0xbdebd485	-0.11515144
181	0xbe41732d	-0.18891592
182	0x3dee2366	0.116278455
183	0xbe947400	-0.2899475
184	0x3ce9aee4	0.028525777
185	0xbe2ac842	-0.16677955
186	0xbd2a46cb	-0.04157142
187	0x3d216c28	0.039409786
188	0xbda606e8	-0.08106786
189	0xbe1f9c94	-0.15587074
190	0x3e2b0e48	0.16704667
191	0xbe023028	-0.12713683
192	0xbd35211f	-0.04422104
193	0x3d86c7a4	0.06581047
194	0x3e0313b5	0.12800486
195	0xbe5525a6	-0.20815143
196	0x3e1b97b7	0.15194593
197	0xbd429444	-0.04750468
198	0x3cd0c420	0.025484145
199	0xbb2cf600	-0.0026391745
200	0x3d7ce820	0.06174481
201	0xbdc4366f	-0.09580695
202	0xbd01270c	-0.03153138
203	0x3e1b3563	0.15157084
204	0x3de8de93	0.11370578
205	0x3e0d072b	0.13772266
206	0xbd1af5b0	-0.037831962
207	0xbdd796b2	-0.1052679
208	0xbdfe535d	-0.12418244
209	0xbc790bd0	-0.01520057
210	0xbe18b7e6	-0.14913902
211	0xbdf01747	-0.1172319
212	0x3e2c3ae5	0.16819341
213	0x3db44aa4	0.08803299
214	0x3e1d96ab	0.15389507
215	0xbe057858	-0.13034189
216	0xbe30f8e4	-0.17282444
217	0x3d980e02	0.07424547
218	0x3db8920e	0.09012233
219	0x3d89f7eb	0.0673674
220	0xbdda5ce6	-0.1066225
221	0xbe15550b	-0.14583223
222	0xbd03878c	-0.03211169
223	0xbdbf0b73	-0.09328356
224	0xbdf9f295	-0.12204472
225	0xbe3ac7e9	-0.18240322
226	0x3e2a17e3	0.16610675
227	0x3d33c627	0.043890145
228	0x3d4327a0	0.04764521
229	0xbe2282e2	-0.1587024
230	0xbe010580	-0.12599754
231	0x3dbd894b	0.09254702
232	0xbbb9f4c0	-0.0056749284
233	0xbc47bdc5	-0.012191241
234	0x3dbe4a63	0.09291532
235	0xbe10ccf0	-0.14140677
236	0x3e0c8c5e	0.13725421
237	0x3ddce354	0.10785547
238	0xbe16c583	-0.14723782
239	0x3e7362fd	0.2376823
240	0x3e88e784	0.26739132
241	0xbca2ab80	-0.019857168
242	0xbc05497f	-0.008135199
243	0x3eddb7d3	0.4330431
244	0xbe1be61e	-0.15224501
245	0xbe7f3185	-0.24921234
246	0xbe36ff35	-0.17870791
247	0x3d87097a	0.065936044
248	0xbe216201	-0.15760042
249	0x3dde01a4	0.10840157
250	0x3dad217e	0.08453654
251	0x3e65f385	0.22456177
252	0x3e4104c5	0.18849476
253	0xbe2f47d2	-0.17117241
254	0x3e6b02b9	0.22950257
255	0xbe32ae73	-0.1744936

model.flow.transforms.0.hyper.4.bias f4 [32]
0	0x3e3dc058	0.18530405
1	0xbdf4f20e	-0.11960231
2	0xbcd70add	-0.026250297
3	0x3e056aea	0.13029066
4	0x3ececc26	0.40390128
5	0xbddb89f7	-0.10719674
6	0xbe66e9a6	-0.22550067
7	0xbe14c187	-0.1452695
8	0x3d366fe8	0.044540316
9	0xbd075a3c	-0.03304504
10	0x3e3df807	0.18551646
11	0xbe15c604	-0.14626318
12	0x3e29d4fa	0.1658515
13	0x3e8c7a89	0.27437237
14	0x3e5f92f7	0.21833406
15	0xbe22ba77	-0.15891443
16	0x3ef3cc13	0.47616634
17	0x3de8f6ae	0.113751754
18	0x3e43a3af	0.19105409
19	0xbe8f5b23	-0.2799922
20	0x3dc55b6a	0.096365765
21	0x3d973e24	0.07384899
22	0x3e33229b	0.1749367
23	0x3dcf95e2	0.1013601
24	0xbbf8e3b7	-0.007595505
25	0x3dcb1f78	0.099181116
26	0x3df80498	0.12110251
27	0x3e080e39	0.13286676
28	0x3c9d18fb	0.01917695
29	0x3e035a6b	0.1282746
30	0x3d9cc088	0.0765391
31	0x3f0bb941	0.5457955

model.flow.transforms.0.hyper.6.weight f4 [8, 32]
0	0x3d0df770	0.034659803
1	0x3bfa2420	0.007633701
2	0xbd1d2d98	-0.03837356
3	0x3d822f60	0.06356692
4	0x3dd3e936	0.10347216
5	0xbe3428b9	-0.1759366
6	0x3d724cb4	0.05915518
7	0x3d81974e	0.06327687
8	0xbdf9b8df	-0.121934645
9	0xbd8acd8a	-0.06777485
10	0xbd8c7261	-0.068577535
11	0xbdd94787	-0.10609346
12	0x3d092c24	0.03348936
13	0xbe2412ab	-0.16022746
14	0x3e1ab35f	0.15107487
15	0xbe0467cf	-0.12930225
16	0xbe098d32	-0.13432768
17	0xbe324fbf	-0.17413233
18	0xbce2cd30	-0.027685732
19	0x3e0bc409	0.13649
20	0xbda8fb86	-0.08251099
21	0xbdbd2975	-0.09236423
22	0x3e2456d3	0.16048746
23	0xbe2c8475	-0.16847403
24	0xbe0373d9	-0.12837161
25	0xbdeece22	-0.116604105
26	0xbd2a1c14	-0.041530684
27	0x3df19182	0.117953315
28	0xbd29a590	-0.04141766
29	0xbe23e87d	-0.16006656
30	0x3d9d48de	0.07679914
31	0x3ddddd16	0.108331844
32	0xbbf59b60	-0.007495329
33	0x3e1a1a69	0.15049137
34	0x3e2a4d89	0.1663114
35	0xbe19f1ca	-0.15033641
36	0x3e2c68c3	0.16836838
37	0xbd800e96	-0.06252782
38	0x3d70e8c4	0.058815733
39	0x3e225fe3	0.1585689
40	0xbe02204b	-0.12707631
41	0x3e03301f	0.12811325
42	0xbd75b1da	-0.059984066
43	0x3c95dfb0	0.01829514
44	0xbe143a4a	-0.1447536
45	0xbd7ad03c	-0.061233744
46	0xbd73d4b6	-0.05952903
47	0xbde2063a	-0.11036344
48	0xbdbd72bb	-0.09250399
49	0x3e277a53	0.16355257
50	0x3d8a2376	0.06745045
51	0xbcd92fa0	-0.026511967
52	0x3d3fcc84	0.0468259
53	0xbe2652a5	-0.16242464
54	0xbdc029ac	-0.09382948
55	0xbc811728	-0.015758112
56	0x3c9437d8	0.018093035
57	0x3d7238b0	0.059136093
58	0x3de5f592	0.112284794
59	0xbda444db	-0.08020946
60	0xbd22e7d4	-0.03977187
61	0x3d64ae48	0.05583027
62	0x3a09bb00	0.00052540004
63	0xbe28db30	-0.16489863
64	0xbd0f89e4	-0.035043612
65	0x3c3ccbc0	0.011523187
66	0x3d0fb4e4	0.03508462
67	0xbdf73bd2	-0.12071957
68	0xbe1c5ff0	-0.15270972
69	0xbe1568ad	-0.14590712
70	0xbe49644f	-0.19667171
71	0x3e06ae05	0.1315232
72	0x3d9b794a	0.075914934
73	0x3e1b75b0	0.15181613
74	0xbd81a368	-0.063299954
75	0x3ce38200	0.02777195
76	0xbc340627	-0.010987795
77	0xbd3322a8	-0.043734223
78	0x3de80f66	0.11331062
79	0x3e3887ee	0.18020603
80	0xbdfd2ab0	-0.123616576
81	0xbd2bbf1c	-0.041930303
82	0x3e574fb6	0.21026501
83	0x3de82b1e	0.11336349
84	0xbde82163	-0.11334493
85	0xbdf14ede	-0.11782621
86	0xbd646f02	-0.055769928
87	0x3b9cc680	0.004784405
88	0xbe5362cf	-0.20643161
89	0x3d4e9040	0.050430536
90	0xbcdd2f38	-0.027000055
91	0x3e986bd8	0.29769778
92	0x3ddb424a	0.10706003
93	0x3dde3fae	0.1085199
94	0xbc768391	-0.015046016
95	0xbdb83c7c	-0.089959115
96	0xbe032b63	-0.1280952
97	0xbbdddbe0	-0.006770596
98	0x3e048bc9	0.12943949
99	0xbda6c2de	-0.08142637
100	0xbc93e438	-0.01805316
101	0xbda432ec	-0.08017525
102	0x3e17ada2	0.1481233
103	0x3dbbbfd2	0.09167446
104	0xbe119565	-0.14217146
105	0xbe3651af	-0.17804597
106	0xbe1ee096	-0.1551536
107	0xbdfffa4e	-0.12498914
108	0x3d4286e3	0.04749192
109	0xbe0d33aa	-0.1378924
110	0xbd635c30	-0.05550784
111	0x3da2dd42	0.07952358
112	0xbd973e70	-0.07384956
113	0x3dc9b852	0.098496094
114	0x3d8c108a	0.06839092
115	0xbd88f21c	-0.06686804
116	0xbdd2c6b0	-0.10291803
117	0x3d16e5b6	0.036840163
118	0x3d5b72b0	0.05357617
119	0x3aba6d80	0.0014223307
120	0xbdb456ed	-0.08805642
121	0xbe1522c8	-0.14564049
122	0xbdf84412	-0.121223584
123	0xbd4388c5	-0.047737855
124	0x3dff38f2	0.12462033
125	0x3c071990	0.008245841
126	0xbde487c2	-0.11158706
127	0x3c7e4fc0	0.015521944
128	0x3e827930	0.25483084
129	0xbe140976	-0.14456734
130	0x3e2139e4	0.1574474
131	0xbecf5b61	-0.40499404
132	0x3b247b80	0.0025098026
133	0xbd576952	-0.052590676
134	0xbd9296ce	-0.0715767
135	0x3ddc5a8e	0.107594594
136	0xbdc1e7f0	-0.09468067
137	0x3e0d6e34	0.1381157
138	0x3dbd0c6a	0.092308834
139	0x3c508d77	0.01272904
140	0xbbe7e753	-0.0070771365
141	0x3ace8a80	0.0015757829
142	0x3ea4c0f1	0.32178453
143	0x3de93f9d	0.113890864
144	0xbd57cb3a	-0.052684046
145	0xbb8cdd2f	-0.004298828
146	0x3db6c538	0.08924335
147	0xbe1e5251	-0.15461089
148	0x3d29b850	0.04143554
149	0x3dbb42c4	0.09143594
150	0x3db22a62	0.0869949
151	0x3d862d64	0.06551626
152	0xbd480faf	-0.048843082
153	0xbd93542e	-0.071937904
154	0x3ea5a1fb	0.32350144
155	0x3e7346b6	0.23757443
156	0x3e2cb243	0.16864876
157	0x3ea9dfed	0.33178654
158	0xbe748e73	-0.23882465
159	0xbe12b6f4	-0.14327604
160	0xbcc9d518	-0.024637744
161	0x3e19f769	0.15035786
162	0xbde987c9	-0.11402852
163	0xbd882e05	-0.066494025
164	0x3aa7c900	0.0012800992
165	0x3d04ebbf	0.032451387
166	0xba88797d	-0.0010412183
167	0xbc3183c0	-0.010834634
168	0x3e0c15a5	0.13680132
169	0x3d80ba67	0.062855534
170	0xbdc6b1a3	-0.0970185
171	0xbe13eafa	-0.14445105
172	0x3d834ae5	0.064107694
173	0x3dd9af12	0.10629095
174	0xbde219e8	-0.110400975
175	0xbe3acb7f	-0.1824169
176	0xbcde2188	-0.027115598
177	0x3e313383	0.17304806
178	0x3e4088fd	0.18802257
179	0xbe1a15ad	-0.15047331
180	0x3e917ff0	0.2841792
181	0x3d8838b7	0.066514425
182	0x3e2380d1	0.15967108
183	0x3d55b362	0.052173026
184	0xbd4150c2	-0.047196157
185	0xbc818eb8	-0.015815124
186	0xbd93989e	-0.07206844
187	0x3e11be75	0.1423281
188	0x3d204adc	0.03913389
189	0x3e81c6e6	0.2534706
190	0x3e4f4a81	0.20243265
191	0xbdae1e8d	-0.08501921
192	0xbe14b0dd	-0.14520593
193	0xbe9ef43d	-0.31045714
194	0x3e2e4e6b	0.17022102
195	0x3e0bbb18	0.1364559
196	0xbed813c3	-0.42202577
197	0xbcceb038	-0.025230512
198	0xbc98c6aa	-0.018649418
199	0xbec59922	-0.38593394
200	0x3de54c0e	0.11196147
201	0x3dd1aae5	0.10237674
202	0xbe5eaf70	-0.21746612
203	0xbdd26bb4	-0.10274449
204	0x3e3908b6	0.18069729
205	0x3f59a445	0.8501628
206	0xbe08cb18	-0.13358724
207	0xbe755210	-0.23957086
208	0xbeabe241	-0.33571056
209	0xbd94d9d1	-0.07268108
210	0x3e029613	0.12752561
211	0xbeefda9e	-0.4684648
212	0xbe284b29	-0.16434921
213	0xbdb74321	-0.08948351
214	0xbed03f3e	-0.4067325
215	0x3e2c8a9d	0.16849752
216	0xbe7b7e30	-0.24559855
217	0xbecffee3	-0.4062415
218	0x3d03678c	0.032081172
219	0xbdb35fa0	-0.087584734
220	0xbee58c98	-0.44833827
221	0x3d832634	0.06403771
222	0x3e35f10d	0.17767735
223	0x3f5edd92	0.8705684
224	0x3c472df4	0.012156952
225	0xbe8aaee9	-0.2708657
226	0xbe3368e6	-0.17520484
227	0x3d9f6854	0.07783571
228	0x3ea02477	0.3127782
229	0x3bd48300	0.006485343
230	0xbea00226	-0.3125164
231	0xbe98ed4e	-0.2986855
232	0x3da5a4aa	0.08088048
233	0x3df16204	0.11786273
234	0x3e7d80ff	0.2475624
235	0x3d51b4a0	0.051197648
236	0x3e3d6b5b	0.18497984
237	0xbde8ea0d	-0.11372767
238	0x3e153db1	0.14574315
239	0xbe959702	-0.29216772
240	0x3e1cfef3	0.1533163
241	0xbd16e548	-0.036839753
242	0x3e1e2a3c	0.15445799
243	0xbe8f77db	-0.2802113
244	0x3ddf7732	0.109114066
245	0xbe42569c	-0.18978351
246	0xbe1915de	-0.14949748
247	0xbcdea630	-0.027178854
248	0xbd38a3a9	-0.045077953
249	0x3d3d5571	0.04622406
250	0x3dca862a	0.09888871
251	0xbd0cde56	-0.034391724
252	0xbda6a0f1	-0.08136166
253	0xbd285fd0	-0.041107
254	0xbd6a90da	-0.057267047
255	0xbda13eb1	-0.078732856

model.flow.transforms.0.hyper.6.bias f4 [8]
0	0xb8ade08f	-8.29111e-05
1	0x380cb36a	3.3545693e-05
2	0xbdb9d936	-0.09074633
3	0x3dc952b0	0.098302245
4	0x3e0a3b07	0.1349908
5	0x3d81f43d	0.06345413
6	0x3e83e6b7	0.2576196
7	0x3d9b4415	0.07581345

model.flow.base._0 f4 [4]
0	0x00000000	0.0
1	0x00000000	0.0
2	0x00000000	0.0
3	0x00000000	0.0

model.flow.base._1 f4 [4]
0	0x3f800000	1.0
1	0x3f800000	1.0
2	0x3f800000	1.0
3	0x3f800000	1.0
