_models_trained/causal_nf/chainsens_non-linear/last.ckpt (torch, 19320 bytes, 10 tensors)

model.flow.transforms.0.hyper.0.weight f4 [32, 4]
00000000: e91d 7ebe b892 e83d 907b 6ebd 00c5 77be
00000010: 4b95 3dbe 7825 013e 42a9 c7be fcf3 09be
00000020: 8a66 3bbe fe7f ce3e 9c42 12be 603a 9ebc
00000030: 67a4 2abe 2ed1 bfbe 7025 3a3e 4abe e2be
00000040: d54c 7b3e 88ca e7be 0c7b a83e 22ac f2be
00000050: 7ead bbbe 8401 ec3e ae08 dbbe 387e cbbe
00000060: 5442 79be e060 69bd 7874 213e b858 97bd
00000070: 636a 2bbd c82d 3a3e c43c 183f c8f0 8abe
00000080: 2a29 6f3d bdf1 843f 9a01 c13e a445 fc3e
00000090: f398 64be a826 cd3d 8c44 19be 5044 bc3d
000000a0: e298 a2bd e443 febe 6614 c6be 8a5c f53e
000000b0: cb2b b63e bc7e 053f 68e7 d23e 6ae1 edbe
000000c0: df4f 233e 3021 00be 6466 f93e 2aa2 903e
000000d0: dc8d e43e 9041 753e 4ef2 1ebf e05e afbe
000000e0: 703a 04bf 899d 743e b852 b13e 56e9 c13e
000000f0: 7713 a13e 14aa 47be a028 d0bc 004c f4be
00000100: c8c1 bd3d e089 623d 6d69 20bf 70e3 97bd
00000110: 4fa2 db3d 53f6 023f a47a bfbe 5046 65bd
00000120: 1ce1 4d3e 70fd 1b3d 9e82 e13e 2241 9f3e
00000130: eec4 b4be b025 f83d a935 e4be 2c0c 173e
00000140: ed1d 393e b376 3ebf ec21 143e 6ec3 9d3e
00000150: 6284 18bf e068 11be dcb4 84be 0480 b13e
00000160: 9efe 8e3e a028 eabc 08ab 17bf f4aa fabe
00000170: 9da2 bbbe 4c07 c1be 8c3a 603e 9a89 fabe
00000180: ac63 a83d d406 7e3e 44bf 66be 706c f53e
00000190: 20bd 0bbf 82e1 db3e a6fa 873e 6466 743e
000001a0: 6870 353d d2d6 203f 0064 f13b 80ea e9bd
000001b0: fc9a 09bf 408d 31bc 9249 c93e 6820 823d
000001c0: f4cc d23e 2691 9a3e 198b 12bf 7877 f13d
000001d0: 9098 a03d 1c18 3c3f f4ad b6be 70d1 b3bd
000001e0: 40df 963d ac36 18be 700d c03e ca2b e8be
000001f0: 6f2e b8be a07c 67bd 8ef3 203f a854 1cbe
-0.24816097 0.113561094 -0.058223307 -0.24196243 -0.18513982 0.1261195 -0.3899632 -0.13471979
-0.18300834 0.40332025 -0.14283222 -0.019314945 -0.16664277 -0.3746428 0.18178344 -0.44285804
0.24541028 -0.45271707 0.32906377 -0.47396952 -0.36655802 0.46094906 -0.4278006 -0.39744735
-0.24341708 -0.056977153 0.15767086 -0.07389969 -0.041849505 0.18181527 0.5946772 -0.27136827
0.058388866 1.0386273 0.37696534 0.49271882 -0.2232397 0.10017139 -0.14967555 0.09192717
-0.07939316 -0.4966117 -0.38687438 0.47922164 0.35580286 0.52146506 0.41192174 -0.4646104
0.15948437 -0.1251266 0.4871093 0.2824872 0.4463948 0.23950791 -0.6208848 -0.3425207
-0.5165167 0.2388822 0.34633422 0.37873334 0.31460163 -0.19498473 -0.025409997 -0.47714233
0.092654765 0.05530727 -0.62660867 -0.07416427 0.10724317 0.5115711 -0.37398255 -0.05597526
0.20105404 0.038083494 0.44044966 0.3110438 -0.35306495 0.12116563 -0.4457219 0.14750737
0.18077822 -0.7439987 0.14466065 0.30813164 -0.59577 -0.14200163 -0.25919235 0.3466798
0.27928632 -0.028583825 -0.5924535 -0.48958552 -0.36647502 -0.3770088 0.21897334 -0.48933107
0.08222136 0.24807292 -0.225339 0.47934294 -0.54585457 0.42945486 0.26558417 0.23867184
0.044296652 0.6282779 0.0073666573 -0.114216805 -0.5375211 -0.010836899 0.39313942 0.06353837
0.41171992 0.30188864 -0.57243496 0.11790365 0.07841599 0.7347429 -0.3567959 -0.087801814
0.073668 -0.14864606 0.37510252 -0.45345908 -0.35972926 -0.056515336 0.62871635 -0.15266669

model.flow.transforms.0.hyper.0.bias f4 [32]
00000000: 39b5 12bf 7a4f 7e3e 2015 4dbd f758 17bf
00000010: 271a 8cbb 50b2 523d fd3e 23bd 0eb8 f83d
00000020: 0dfa ed3e e87d eabe a476 aa3e 0403 e93e
00000030: 61ef 4a3f 1ea2 6abe c906 dd3e 4857 213f
00000040: 5a58 203f efc8 823e e87d 193f 012f 883d
00000050: e5bc 6cbd 88da 723d 3bf4 a23e c441 d63e
00000060: c923 98be 15cb 39bc e89e 803e e47e f13e
00000070: ee39 283e fd56 ab3e 707b 243f f1f5 8ebe
-0.57307774 0.24835005 -0.050068974 -0.59120125 -0.0042755785 0.051439583 -0.039854992 0.12144481
0.46479836 -0.45799184 0.3329364 0.45510113 0.79271513 -0.22913405 0.4316924 0.63023806
0.62634814 0.25543925 0.5995774 0.0664959 -0.05779733 0.05929044 0.31826958 0.4184705
-0.29714802 -0.011339922 0.25121236 0.47167122 0.16428348 0.33464804 0.6425085 -0.27922013

model.flow.transforms.0.hyper.2.weight f4 [32, 32]
00000000: 6cb9 c6be 6eea 06be b0a9 e1bc 9c6a d8be
00000010: 1f61 2a3e 627b 9c3d e6ba 0ebe a00d df3c
00000020: e340 143e 1714 69be f21c aa3d f9d1 123e
00000030: 7748 e83d 00b3 8e3c b432 153d bc68 2b3e
00000040: 00f4 633d d0e2 e2bd 7abf b33e 4ccb 4cbd
00000050: eaf5 94bd cc04 163e 53e9 233e 0c6d d5bd
00000060: b5fd c8be 2c71 8e3d a893 903c 54e8 d23d
00000070: 9617 e13d b691 9dbd 9fb2 983e 3ffe 273e
00000080: b507 7dbe d235 673e 0a05 c03d c0ca e6bd
00000090: 43a2 36bd 2ed5 fd3d d6fd ed3c 86b6 86be
000000a0: 1826 01be d036 11be 9e3f ee3e ee72 c1bd
000000b0: 1b30 ab3e 4ea1 033e 45fb 1b3e e4a9 793e
000000c0: 988b a23e 88b4 f2bc f816 1e3e bbdf 043e
000000d0: fa33 a1bd 4016 893d 5fca 4c3e 3e0a cb3d
000000e0: 182e a2be 86d2 cebd 1e23 933d 0fec 6d3e
000000f0: 7fbf 9b3e 00e2 edbd e7af 9c3e 183b 1dbe
00000100: 88b8 843e 9c15 1d3d 2178 a93a 0940 ab3d
00000110: 43dc 153e ee0c 323d 69b5 85bd 00bb 8b3a
00000120: 76df 8f3e ec7d ee3d 0a31 f33d d71c 17bd
00000130: b873 2ebe 00cf 733c 6fbf 25be 7498 77be
00000140: 5cb2 32bd e80a 843c f62b c3bc 207f 04be
00000150: 3050 bbbe b4d5 32be a22b e83d 98ec eeba
00000160: 02f0 143e 1ccb 00be 50fe 57bd 1c3c e6bd
00000170: 2446 5abd 2823 033e 5bcb 14be 8387 343e
00000180: d026 afbd 2e11 ba3d b5af 0a3e 5765 ebbd
00000190: 7512 8cbd a635 b23d 3e0a 793c 1625 03be
000001a0: 05c4 113e 025b 8abe ae9b 993d a343 32be
000001b0: 31b9 a63e 6603 c0bd c304 1a3e 407d ec3b
000001c0: 8e26 ce3d 61e7 343e b147 2e3e bad1 ab3d
000001d0: 608d 98bc 207d 753e 9672 d23d 6db6 153e
000001e0: 1af8 a7be cbd1 bfbd 9031 ac3c c159 8a3e
000001f0: 8876 29bd 399e 083e 77a9 ef3e 398b 0d3e
00000200: beb7 37be 4c6c 52be 826d 1ebe 873d 3ebe
00000210: 3a5d 073f 50bb 2ebd 9c5c efba 65c5 b03e
00000220: 996a 303e 25ee 85be e81b 9cbe b4d5 25bd
00000230: 4c28 8e3c f679 38be 3eb7 c1bd 043f 0c3e
00000240: 1a41 aebe e4d3 8e3d 124d 833d 9d4a afbe
00000250: 49b4 94bd f23b 4ebe 57d7 84be 90c8 10be
00000260: 0778 d63d fc56 93bd 50f6 25bd 4b84 1dbd
00000270: 3a8d bfbe 8e54 f63d 069a b23e 95e1 8f3e
00000280: 205d 2e3e e2d5 debd ef4f c03e 323b e43d
00000290: 40ef 60bb 5a93 043e 340b 88bc 6cbf 5c3d
000002a0: afe4 113f 1b28 983d 4d1f b5bd 0df6 1a3f
000002b0: 0992 4c3d 0068 9aba a096 383e e426 f83c
000002c0: f6eb bebd 69b9 2a3f 6f7b 38be 3ab0 983d
000002d0: ee83 1ebf c3bc 993d 568d c03d 8767 d8be
000002e0: 51cc 933d d810 b8bd d722 303f 15b5 4d3e
000002f0: b25a 9e3d 23ab 2d3f 8b42 033e 127b 0ebe
00000300: f98b 6b3e a015 8c3c ae48 db3d 1cb0 e83e
00000310: 5a2c 9b3d 4367 2dbe fb84 923d 50ec 5b3d
00000320: 73c9 143e fcae a33e f84c c73c 6822 413d
00000330: d3ed 61be 7a83 973d 2da2 8abd 2f0a e3bd
00000340: cede d43d f50c 01be a083 87be fa69 08be
00000350: 753e 2d3e c0a5 f9bd 6d1f 2b3e 46ce 8b3d
00000360: 8108 bb3e 8075 3ebb b3bb 0c3e a6ef 94bd
00000370: e488 34be c861 21be 9500 a8be 40a6 44bd
00000380: 48c8 23be 238f 40be bc8b 61bd bb95 b1bd
00000390: 419e 4e3e e273 fa3d 904d d33a 01bf 023e
000003a0: 32b8 d23d 4f53 3c3d e171 8dbe d8fd a83c
000003b0: ac6d 28bd 9a66 36be 4602 e73d c67a 03be
000003c0: 7894 7ebe 1885 203d 194e 3d3e b28c 82be
000003d0: 389b b5bd dde9 db3d 1eab 84be 5c25 d4bd
000003e0: 5df1 93be 01c3 913e a2c9 f43d 5fa1 383e
000003f0: 6b23 d0be 6fcc c3bd 0697 023e 4293 b73e
-0.3881334 -0.13175365 -0.027546734 -0.42268836 0.16638611 0.07640721 -0.13938484 0.027228177
0.14477877 -0.2276157 0.08306302 0.1433791 0.113419466 0.017419338 0.036425307 0.16739172
0.05565262 -0.11078417 0.35107023 -0.049998567 -0.07273467 0.14650267 0.16006975 -0.1042119
-0.39256063 0.069551796 0.017648533 0.10298219 0.10990827 -0.07693808 0.29823777 0.16405581
-0.24709971 0.22579125 0.09375961 -0.1126914 -0.04458834 0.123941764 0.029051702 -0.2631113
-0.12612188 -0.14181066 0.4653291 -0.09445749 0.3343514 0.12854502 0.1523257 0.24381214
0.31747127 -0.0296271 0.1543845 0.12975971 -0.07871242 0.06693697 0.19999073 0.09914063
-0.31675792 -0.10098748 0.071844324 0.2323458 0.30419537 -0.11615372 0.30602953 -0.15354574
0.25922036 0.038350686 0.0012929478 0.08361823 0.14634804 0.043469362 -0.06528742 0.0010660589
0.28100175 0.116451114 0.11874588 -0.03689274 -0.1703633 0.014880896 -0.16186307 -0.2417925
-0.043627128 0.016118482 -0.023824673 -0.1293912 -0.36584616 -0.17464334 0.11336447 -0.0018228469
0.1454468 -0.1257748 -0.052732766 -0.11241934 -0.053289548 0.1280638 -0.14530699 0.17629819
-0.08552325 0.09085308 0.1354359 -0.114939384 -0.06839458 0.08701639 0.015200196 -0.12807116
0.14234932 -0.27022558 0.07500397 -0.17408614 0.32563165 -0.09375648 0.15040879 0.0072170794
0.100659475 0.17666389 0.17019536 0.083896115 -0.0186221 0.23973513 0.10275762 0.14620371
-0.32806474 -0.09366187 0.021019727 0.27021602 -0.041372806 0.13341607 0.4680898 0.1382264
-0.17941186 -0.20549124 -0.15471461 -0.18578158 0.5287663 -0.042659104 -0.0018261853 0.345256
0.17228164 -0.26158252 -0.3049004 -0.040487006 0.0173532 -0.18015274 -0.09458779 0.13695914
-0.34034044 0.06974009 0.06411184 -0.34236613 -0.07260949 -0.20140055 -0.2594554 -0.14139009
0.10472112 -0.07194325 -0.040518105 -0.038456243 -0.37412435 0.12027846 0.34883136 0.28101793
0.17027712 -0.10880639 0.37560984 0.11144103 -0.0034322292 0.12946835 -0.016606905 0.05389349
0.5698957 0.074295245 -0.08843861 0.60531694 0.049943957 -0.0011780262 0.18026209 0.030291982
-0.0932235 0.66689163 -0.18015836 0.074554875 -0.6192006 0.075067066 0.09401958 -0.42266485
0.07216705 -0.08987588 0.6880316 0.20088609 0.077321425 0.6783926 0.12818353 -0.13914135
0.23002614 0.017100155 0.10707222 0.4544686 0.07576819 -0.16933922 0.0715427 0.053692162
0.14529972 0.3196944 0.024328694 0.047151953 -0.22063379 0.07398124 -0.06769214 -0.11085927
0.10394059 -0.12602599 -0.2646761 -0.13321677 0.16918357 -0.121898174 0.16711207 0.06826453
0.36529925 -0.0029061735 0.13743477 -0.07272272 -0.17630345 -0.15759957 -0.32812944 -0.04801011
-0.1599437 -0.18804602 -0.0550649 -0.08671137 0.20177557 0.12229134 0.0016121138 0.12768175
0.10289039 0.045977887 -0.27625945 0.020628855 -0.041120216 -0.17812577 0.112797305 -0.12839803
-0.24861324 0.039189428 0.18486823 -0.25497967 -0.08867496 0.10737965 -0.25911802 -0.10358688
-0.28895083 0.2846909 0.11952521 0.18030308 -0.40652022 -0.09560477 0.12752923 0.35854536

model.flow.transforms.0.hyper.2.bias f4 [32]
00000000: e85a a93e 6a89 943e 13bd b03d 2bcd 5b3e
00000010: ccbb c63d 940a dc3d f8fc 93be 7f1f 7f3e
00000020: b637 053e 8db7 ce3e 78c6 a7bd bcab 37bb
00000030: d521 d73e 0f46 173d 04c4 edbc a2db 6b3e
00000040: 2236 713e 7dec 19bc 995c 643e 427a aa3e
00000050: 3918 8f3d 6cb6 99be c99f 143c bf5d 5e3e
00000060: 0736 bb3e 886b 153e 959a 72bd 0d67 123f
00000070: 7faf a23e 4fc8 463e b809 873e d029 1f3c
0.33077168 0.2901109 0.08629813 0.21464984 0.09703788 0.10744205 -0.28903937 0.24914359
0.13009533 0.40374413 -0.08192152 -0.0028025946 0.42018 0.036932047 -0.029024132 0.23033002
0.23555806 -0.009394762 0.22300948 0.332964 0.06987042 -0.3002199 0.009071299 0.21715449
0.36564657 0.14591801 -0.059229452 0.57188493 0.31774518 0.19412349 0.26374602 0.009714559

model.flow.transforms.0.hyper.4.weight f4 [32, 32]
00000000: 9cba a73d 94b9 1f3d f8c6 e83c 5110 a8bc
00000010: 1d8f 00be 64a3 173d f2b8 d5bc a6d5 9c3d
00000020: b0a5 33bc e2bd c3bd a0cd 0abd 7be4 e4bd
00000030: a8b5 70be c90c a6bd 18c0 1a3d ef06 953e
00000040: 1ce3 4cbd 2003 45bc ca99 d43d 1c66 f8bd
00000050: 7220 c2bd 84c7 9dbd 7996 86bd b0a0 00be
00000060: e86b 513e e3b6 0a3e c433 3abd 92e7 4ebe
00000070: 9514 083e e2ce a83d 557d 27bc a819 5f3d
00000080: ebd9 e6be bcfa 17bf 3a1f e43d c527 8cbe
00000090: a137 523e 8add e33d 42e9 923e 5f22 493e
000000a0: e05f b6bc 9e5b 87be b09a 053e 8a15 22be
000000b0: 682e 93be c9ca 393e c24c 7abd 8119 b9be
000000c0: aecb 8e3e 9826 a13c fa3a fcbd 4556 7a3e
000000d0: e0e8 c8bc 790d 783e c36d 91be 406d 293b
000000e0: 5c9f cdbe b454 9b3e 18dd 93bc 4597 99be
000000f0: 9465 5a3e 4f89 06be cabe d43b 57e0 15be
00000100: 1a93 073e 8d23 26be faa5 9bbe 7f23 bebc
00000110: c0a3 1d3d aeb6 63be e484 133e d342 123e
00000120: 473a 5ebe 9d10 6ebe 22ab 93bd 847d a1bc
00000130: 0dae 11be 556d 1a3e 289c 69be 6c20 14bd
00000140: 3cfb aabd 2b06 c3be 06f9 503e 089a b2bd
00000150: 140d 143e b7dd 66bb a1cd 003e cda6 17bb
00000160: 49f7 ac3c b1cb 163e fc5f c7be 007e 5abc
00000170: 416c 89bd 9746 943d d074 d839 5736 dcbd
00000180: 8827 8abd 00f8 02ba e1de 003e 7691 c1bd
00000190: 4d6c 9dbd 5fe6 16be dd0c 5dbe a414 1b3d
000001a0: 412e 133e 7f0e a5bd c814 ffbc ee51 db3d
000001b0: e125 043e ee5e b9bd e8d9 0fbd 7c95 dbbe
000001c0: 3b0a 22be e092 b43c 47a8 9fbe 78d8 02be
000001d0: fa77 26be f6f9 64be 3f6a 82bd 40fe 6bbd
000001e0: 3c70 243c e0a2 c43b 38ec 96bc 7c04 8b3e
000001f0: 7eb1 11be a6a4 1abe 1eaa 3e3d 20db 9fbb
00000200: ccab e23e bacd bbbc fac1 a03d 00fe a93e
00000210: fbb5 313e 51ec 26be e2c3 b1be 1f21 d63e
00000220: ee71 ba3d f148 ce3e 58f5 2a3e 354b f4bd
00000230: 7dd9 1f3e 339b 813e e2ad f0bd 79fd be3e
00000240: e330 cb3e 1240 b5bd 38e2 b83e 70a7 b93e
00000250: ce9a 18be 9241 c0be fa21 86be a788 debd
00000260: 35c5 e43e 1aa5 993e 7624 15be 463b 503e
00000270: 9452 993e 8c0a 8ebd 93cc 033e 7093 b4be
00000280: e484 023e 1b72 bebd 1337 313e 59ea 37be
00000290: 0edd 8b3d 2520 6abe c5ac 023d 1c1b 1cbe
000002a0: a774 fcbb 155a c8bd a754 123e bb47 d03d
000002b0: 8e97 cdbd aa13 d93d 87f7 103e f688 09bc
000002c0: 3a86 c4bd 0b2e e33d 266c 86bd 3cbc 33be
000002d0: 4fd7 ebbd 9856 41be 6623 ee3d d779 94be
000002e0: d6e4 e83c 42c8 2abe ce30 29bd cee5 203d
000002f0: e806 a6bd dc93 1fbe d8eb 2a3e 2830 02be
00000300: e754 35bd a4c7 863d b513 033e 3e2c 55be
00000310: b797 1b3e 4494 42bd 4b21 d13c 00f6 2cbb
00000320: 20e8 7c3d 9f4f c4bd 0c27 01bd 6335 1b3e
00000330: d1bc e83d 2b07 0d3e b0f5 1abd 1547 d7bd
00000340: 5d53 febd d00b 79bc 30b4 18be 4717 f0bd
00000350: e53a 2c3e 7b65 b43d ab96 1d3e 5878 05be
00000360: 4103 31be 020e 983d 0e92 b83d 37d6 893d
00000370: e65c dabd 0b55 15be 14cf 03bd 730b bfbd
00000380: 3bd4 f9bd 87c3 3abe e317 2a3e 5555 343d
00000390: 302c 433d e282 22be 041a 01be aedb bd3d
000003a0: c0f4 b9bb 58ae 46bc c334 be3d f0cc 10be
000003b0: 6991 0c3e 63eb dc3d 83c5 16be 1f1e 743e
000003c0: 5eeb 883e 80ab a2bc 8e19 01bc 47be dd3e
000003d0: 1ee6 1bbe 993f 7fbe a740 37be 7a09 873d
000003e0: 684a 21be 8f2b de3d 7e21 ad3d 37f8 653e
000003f0: be15 413e d247 2fbe 3c04 6b3e a10a 33be
0.0818989 0.03899534 0.028415188 -0.020515593 -0.12554593 0.037021056 -0.026089165 0.07657938
-0.010964796 -0.09557702 -0.033887506 -0.11176392 -0.23506796 -0.08107907 0.03778085 0.29106852
-0.050021276 -0.012024671 0.103808954 -0.12128851 -0.09478845 -0.0770407 -0.06571669 -0.12561297
0.20451319 0.13546328 -0.045459524 -0.20205525 0.13289101 0.08242585 -0.010222753 0.054467827
-0.45088133 -0.59366965 0.111387685 -0.27374092 0.20529033 0.111262396 0.28693587 0.19642018
-0.022262514 -0.26437086 0.1304729 -0.15828529 -0.28746343 0.18143763 -0.06110836 -0.3615227
0.2788977 0.019671723 -0.123159364 0.24446972 -0.024525106 0.2422389 -0.28404054 0.0025852472
-0.40160644 0.3033806 -0.018049762 -0.29998222 0.21327811 -0.13138317 0.0064924704 -0.1463636
0.13239709 -0.16224499 -0.30400068 -0.023210285 0.038486242 -0.22237656 0.14406163 0.14283304
-0.21701919 -0.23248525 -0.07210375 -0.01971317 -0.14226551 0.1508077 -0.22813475 -0.036163732
-0.083487004 -0.38090643 0.20407495 -0.087207854 0.14458114 -0.0035227367 0.12578441 -0.0023140192
0.021114009 0.1472614 -0.38940418 -0.013335705 -0.06710101 0.072400264 0.00041285763 -0.10752552
-0.06745821 -0.00049960613 0.12585022 -0.094515726 -0.07686672 -0.14736317 -0.21586938 0.03786148
0.14373113 -0.080594055 -0.031137839 0.10708986 0.12905075 -0.090513095 -0.03511992 -0.42887485
-0.15824215 0.022042692 -0.31183073 -0.12777889 -0.16256705 -0.22360978 -0.06367921 -0.05761552
0.010036524 0.0060008615 -0.018423185 0.2715186 -0.14227864 -0.15101871 0.046548955 -0.0048784167
0.44271696 -0.022925247 0.07849498 0.332016 0.17354576 -0.16301085 -0.3471976 0.41822144
0.091037616 0.40290025 0.16695154 -0.11928407 0.15610309 0.2531372 -0.117519155 0.3730276
0.39685735 -0.08850111 0.3611009 0.36260557 -0.14902803 -0.37550026 -0.26197797 -0.10865908
0.44681707 0.30008775 -0.1456469 0.20335111 0.29945815 -0.069356054 0.12871008 -0.35268736
0.12746006 -0.09299108 0.17306165 -0.1796049 0.06829272 -0.22863825 0.031903047 -0.15244716
-0.0077043357 -0.09782807 0.14290105 0.101699315 -0.100386724 0.10599454 0.14156924 -0.00839447
-0.09595914 0.110927664 -0.065635964 -0.17552274 -0.11515676 -0.18880689 0.116278455 -0.28999206
0.02842943 -0.16677955 -0.04130631 0.03928166 -0.08106786 -0.15583748 0.1669153 -0.12713683
-0.044270422 0.06581047 0.12800486 -0.20817658 0.15194593 -0.04750468 0.02552857 -0.0026391745
0.06174481 -0.09585499 -0.03153138 0.15157084 0.11364139 0.13772266 -0.037831962 -0.10511605
-0.12418244 -0.01520057 -0.14912486 -0.1172319 0.16819341 0.08808418 0.15389507 -0.13034189
-0.17286398 0.07424547 0.09012233 0.06730311 -0.1066225 -0.14583223 -0.032179907 -0.09328356
-0.12198683 -0.1823865 0.16610675 0.04402669 0.047649562 -0.1587024 -0.1260758 0.09270416
-0.0056749284 -0.012126528 0.09287407 -0.14140677 0.13727345 0.10787084 -0.14723782 0.23839615
0.2674207 -0.019857168 -0.007879628 0.43309233 -0.15224501 -0.24926604 -0.17895757 0.065936044
-0.1575104 0.10848152 0.08453654 0.22457968 0.1885595 -0.17117241 0.22950834 -0.17484523

model.flow.transforms.0.hyper.4.bias f4 [32]
00000000: 58e0 3d3e 5dce f4bd 13a0 d7bc 9783 053e
00000010: 56cf ce3e c4b7 dbbd a2f3 66be eba8 14be
00000020: 397d 353d 9f73 07bd e708 3e3e 9589 15be
00000030: 25ca 293e 6e87 8c3e 73c8 5f3e 1aa6 22be
00000040: 12c8 f33e 667e e83d 7d8b 433e 1b57 8fbe
00000050: 3146 c53d 5f32 973d ab4f 333e 2bd7 ce3d
00000060: e631 f3bb 389b ca3d 6773 f83d 7bda 073e
00000070: cf13 9e3c bb8d 033e 8a8c 9c3d bac6 0b3f
0.18542612 -0.11953423 -0.026321447 0.13038479 0.4039256 -0.1072841 -0.22553876 -0.14517562
0.044308875 -0.03306925 0.18558083 -0.14603265 0.16581018 0.27447075 0.21853809 -0.15883675
0.4761358 0.113522336 0.1909618 -0.27996144 0.096325286 0.073826544 0.1751086 0.10099634
-0.00742172 0.09892887 0.12131386 0.13266937 0.019296555 0.12847035 0.07643993 0.5460011

model.flow.transforms.0.hyper.6.weight f4 [8, 32]
00000000: 70f7 0d3d 2024 fa3b 982d 1dbd 602f 823d
00000010: 36e9 d33d b928 34be b44c 723d 4e97 813d
00000020: dfb8 f9bd 8acd 8abd 6172 8cbd 8747 d9bd
00000030: 242c 093d ab12 24be 5fb3 1a3e cf67 04be
00000040: 328d 09be bf4f 32be 30cd e2bc 09c4 0b3e
00000050: 86fb a8bd 7529 bdbd d356 243e 7584 2cbe
00000060: d973 03be 22ce eebd 141c 2abd 8291 f13d
00000070: 90a5 29bd 7de8 23be de48 9d3d 16dd dd3d
00000080: 609b f5bb 691a 1a3e 894d 2a3e caf1 19be
00000090: c368 2c3e 960e 80bd c4e8 703d e35f 223e
000000a0: 4b20 02be 1f30 033e dab1 75bd b0df 953c
000000b0: 4a3a 14be 3cd0 7abd b6d4 73bd 3a06 e2bd
000000c0: bb72 bdbd 537a 273e 7623 8a3d a02f d9bc
000000d0: 84cc 3f3d a552 26be ac29 c0bd 2817 81bc
000000e0: d837 943c b038 723d 92f5 e53d db44 a4bd
000000f0: d4e7 22bd 48ae 643d 00bb 093a 30db 28be
00000100: 3163 10bd c0cb 3c3c e4b4 0f3d 39f1 f6bd
00000110: f05f 1cbe ad68 15be 634d 49be 05ae 063e
00000120: 4a79 9b3d 1c3d 1b3e 68a3 81bd 0082 e33c
00000130: 823d 34bc a822 33bd 660f e83d 5c89 383e
00000140: b02a fdbd 1cbf 2bbd ba2b 573e 1e2b e83d
00000150: 6321 e8bd 0436 f1bd 026f 64bd 80c6 9c3b
00000160: c05a 53be 4090 4e3d 382f ddbc e34a 983e
00000170: 4a42 db3d ae3f de3d 49dd 74bc 7c3c b8bd
00000180: cb03 03be e0db ddbb c98b 043e b838 a7bd
00000190: 38e4 93bc ec32 a4bd f4f2 173e d2bf bb3d
000001a0: 6595 11be 0779 36be 96e0 1ebe 4efa ffbd
000001b0: 6467 413d aa33 0dbe 305c 63bd 8969 a33d
000001c0: 703e 97bd 52b8 c93d d990 8b3d 1cf2 88bd
000001d0: b0c6 d2bd e4fa 173d b072 5b3d 806d ba3a
000001e0: bcd0 b3bd c822 15be 1244 f8bd 0ee4 42bd
000001f0: f238 ff3d 9019 073c 3eff e4bd c04f 7e3c
00000200: 296e 823e 7609 14be f0ae 213e d25d cfbe
00000210: 807b 243b e8a9 56bd 8437 92bd 8e5a dc3d
00000220: 4559 c1bd 9633 0d3e 6a0c bd3d a998 503c
00000230: aa86 ecbb 808a ce3a 03e1 a43e 7c84 e93d
00000240: 3acb 57bd f286 98bb 365b b63d 5152 1ebe
00000250: e4d0 2a3d ac96 bb3d 622a b23d 64c1 853d
00000260: 3677 47bd 2e54 93bd 2dc0 a53e ba34 733e
00000270: 43b2 2c3e 9724 aa3e f996 74be f4b6 12be
00000280: 8864 c9bc 69f7 193e d61e e9bd 4e6d 88bd
00000290: 00c9 a73a e62f 053d b9ee 51ba c083 31bc
000002a0: de31 0c3e c43c 803d a3b1 c6bd 36d5 13be
000002b0: d3da 823d 12af d93d 2d19 e2bd f594 3abe
000002c0: 8821 debc 4c08 313e 0146 403e ad15 1abe
000002d0: f874 913e 88ac 883d d180 233e b51f 553d
000002e0: 5b7c 40bd b88e 81bc 543b 93bd e2b5 113e
000002f0: dc4a 203d b3df 813e 621d 4f3e 8d1e aebd
00000300: 27d4 14be 812c 9fbe 6b4e 2e3e 55ca 0b3e
00000310: ea0a d8be 38b0 cebc 5f60 97bc 4391 c5be
00000320: 0e4c e53d 4e0d d13d 64c7 5fbe b46b d2bd
00000330: 60ef 383e 85dd 593f 18cb 08be 9a3b 75be
00000340: f1e0 abbe d1d9 94bd 405c 023e 9d11 f0be
00000350: 294b 28be 9400 b7bd 4b3b d0be 9d8a 2c3e
00000360: 9761 7bbe b4e5 cfbe 8c67 033d 90ba b3bd
00000370: c38a e5be 3426 833d b4f6 353e e219 5f3f
00000380: 0089 453c 39d7 8abe e668 33be e88e 9f3d
00000390: 601d a03e 0083 d43b a9ff 9fbe 0ef8 98be
000003a0: aaa4 a53d 6704 f13d 6a80 7d3e a0b4 513d
000003b0: 4370 3d3e 9876 e8bd b13d 153e ef99 95be
000003c0: b4f0 1c3e 48e5 16bd 7c1b 1e3e c47f 8fbe
000003d0: 3277 df3d de55 42be fa26 19be 30a6 debc
000003e0: 4dab 38bd 94c2 3d3d 2a86 ca3d 3a51 0dbd
000003f0: 02c1 a6bd d05f 28bd fd4c 6abd f3b7 a0bd
0.034659803 0.007633701 -0.03837356 0.06356692 0.10347216 -0.1759366 0.05915518 0.06327687
-0.121934645 -0.06777485 -0.068577535 -0.10609346 0.03348936 -0.16022746 0.15107487 -0.12930225
-0.13432768 -0.17413233 -0.027685732 0.13649 -0.08251099 -0.09236423 0.16048746 -0.16847403
-0.12837161 -0.116604105 -0.041530684 0.117953315 -0.04141766 -0.16006656 0.07679914 0.108331844
-0.007495329 0.15049137 0.1663114 -0.15033641 0.16836838 -0.06252782 0.058815733 0.1585689
-0.12707631 0.12811325 -0.059984066 0.01829514 -0.1447536 -0.061233744 -0.05952903 -0.11036344
-0.09250399 0.16355257 0.06745045 -0.026511967 0.0468259 -0.16242464 -0.09382948 -0.015758112
0.018093035 0.059136093 0.112284794 -0.08020946 -0.03977187 0.05583027 0.00052540004 -0.16489863
-0.035250846 0.011523187 0.03508462 -0.12057728 -0.15270972 -0.14590712 -0.19658427 0.1315232
0.075914934 0.1516003 -0.063299954 0.02777195 -0.011000993 -0.043734223 0.11331062 0.18021148
-0.123616576 -0.041930303 0.21012774 0.11336349 -0.11334493 -0.11777881 -0.055769928 0.004784405
-0.20640087 0.050430536 -0.027000055 0.29744634 0.10706003 0.1085199 -0.014945337 -0.089959115
-0.12794416 -0.006770596 0.12943949 -0.08165115 -0.01805316 -0.08017525 0.14838773 0.09167446
-0.14217146 -0.17819606 -0.1551536 -0.12498914 0.04721774 -0.1378924 -0.05550784 0.079791136
-0.07384956 0.098496094 0.06814737 -0.06686804 -0.10291803 0.037104502 0.05357617 0.0014223307
-0.08780047 -0.14564049 -0.121223584 -0.04758077 0.12462033 0.008245841 -0.11181496 0.015521944
0.2547467 -0.14456734 0.1578939 -0.40501267 0.0025098026 -0.05240813 -0.07139495 0.107594594
-0.09440855 0.1378921 0.092308834 0.0127317095 -0.0072182016 0.0015757829 0.3220292 0.114022225
-0.052684046 -0.0046547586 0.08904116 -0.15461089 0.04170312 0.09159598 0.0869949 0.06531027
-0.048697673 -0.071937904 0.3237318 0.23750582 0.16864876 0.3323104 -0.23885716 -0.14327604
-0.02458407 0.15035786 -0.113828346 -0.06661473 0.0012800992 0.032516383 -0.000800829 -0.010834634
0.13690898 0.0626159 -0.0970185 -0.14436802 0.06389394 0.10629095 -0.11039958 -0.18220885
-0.027115598 0.17288321 0.18776704 -0.15047331 0.28409553 0.06673533 0.15967108 0.05203219
-0.046993595 -0.015815124 -0.0718905 0.14229539 0.03913389 0.2536598 0.20226052 -0.08501921
-0.14534055 -0.3108864 0.17022102 0.13651402 -0.42195827 -0.025230512 -0.01847857 -0.38587388
0.11196147 0.10207616 -0.21853405 -0.10274449 0.18060064 0.85103637 -0.13358724 -0.23948517
-0.33570054 -0.07268108 0.12730503 -0.46888438 -0.16434921 -0.08935657 -0.40670237 0.16849752
-0.24548946 -0.40604937 0.032081172 -0.08775818 -0.4483243 0.06403771 0.17769891 0.8714887
0.012056589 -0.27117327 -0.17520484 0.07790929 0.3127241 0.006485343 -0.3124974 -0.2987675
0.08088048 0.11768418 0.24756017 0.051197648 0.18499856 -0.11350745 0.14574315 -0.29219005
0.15326196 -0.036839753 0.15440172 -0.28027165 0.109114066 -0.18978068 -0.14956275 -0.027178854
-0.04508524 0.046328142 0.09888871 -0.03450129 -0.08142282 -0.041107 -0.057202328 -0.078475855

model.flow.transforms.0.hyper.6.bias f4 [8]
00000000: 503c dab7 6a51 e337 e4ef b9bd ccc6 c83d
00000010: 1013 0a3e c180 813d 62d6 833e 6648 9b3d
-2.601571e-05 2.709842e-05 -0.09078959 0.098035425 0.13483834 0.06323386 0.257495 0.07582168

model.flow.base._0 f4 [4]
00000000: 0000 0000 0000 0000 0000 0000 0000 0000
0.0 0.0 0.0 0.0

model.flow.base._1 f4 [4]
00000000: 0000 803f 0000 803f 0000 803f 0000 803f
1.0 1.0 1.0 1.0
