_models_trained/vaca/trianglesens_linear/epoch=131-step=2640.ckpt (torch, 25614 bytes, 25 tensors)

model.encoder_gnn.pre_nn.fc_layers.0.0.weight f4 [16, 1]
000000 ed fb a9 be b8 92 68 3e c8 02 d3 bc 76 00 fa be
       -0.33200017 0.22712219 -0.025758162 -0.48828477
000010 ff 48 2c bf cb c3 17 3f 40 aa f1 bd f2 04 0e bf
       -0.67298883 0.5928313 -0.11800051 -0.55476296
000020 be 9d f2 be 90 e7 17 3f 41 25 32 be 60 3a 1e bd
       -0.47385973 0.5933771 -0.17397024 -0.03862989
000030 66 38 a5 bd a5 d0 46 bf d2 bf 11 3f a4 c2 76 bf
       -0.08067398 -0.77662116 0.5693332 -0.9639075

model.encoder_gnn.pre_nn.fc_layers.0.0.bias f4 [16]
000000 42 75 5f 3e 88 ca 67 bf 36 62 c8 bd a8 56 68 bf
       0.21822074 -0.90543413 -0.09784357 -0.90757227
000010 f2 bd 2c bf 43 81 e9 3d ae 08 5b bf 63 22 0f bf
       -0.67477334 0.11401608 -0.8556012 -0.55911845
000020 0c e1 cf 3d ae 28 42 be 83 8a 6b 3e b8 58 17 be
       0.10150346 -0.1896083 0.23002057 -0.14779937
000030 7b dd c2 be a6 f6 0e 3e 5a 26 6b 3e 02 f5 ab be
       -0.380596 0.13961276 0.22963849 -0.33585364

model.encoder_gnn.lin_skipsum.0.0.weight f4 [16, 16]
000000 6d ea 0b 3e e8 51 75 3e b4 08 75 3e d5 4f ab bd
       0.13663645 0.23957026 0.23929101 -0.08364836
000010 3b 73 af 3d cb 3a a5 bd 8c 44 99 bd fb 1e 2a 3e
       0.085669 -0.080678545 -0.074837774 0.1661338
000020 1b 37 15 3e 7d e5 38 be ae 8e c2 3d 8a 5c 75 3e
       0.14571802 -0.18056293 0.0949987 0.23961082
000030 55 dc 89 3e 26 9a 95 3d 1c 4b c7 bc b1 d7 08 3d
       0.26925912 0.07304792 -0.024327807 0.033408824
000040 34 cd da bd 30 21 80 bd 2c 14 21 3e cb ec f6 3d
       -0.10683671 -0.0625633 0.15730351 0.120568834
000050 a2 37 e2 3d 92 52 62 3e e4 ef f8 bd c3 c8 8c be
       0.11045767 0.2210181 -0.121551305 -0.2749692
000060 e1 7c 92 be b3 88 9c 3e 62 2e 5c bd 56 e9 41 3e
       -0.286109 0.30573043 -0.05375517 0.18936667
000070 48 1b 01 bd 19 4f e1 bd f7 ca 85 3d 0b cc 30 be
       -0.031520158 -0.11001415 0.06532853 -0.17265336
000080 e4 b2 25 3e e0 89 e2 3c 38 1c f9 bd 2b 89 c7 3d
       0.16181523 0.027653635 -0.121635854 0.097429596
000090 d2 e3 f9 3d 9c 76 9b bd a4 7a 3f be 84 f0 27 3c
       0.122016564 -0.07590982 -0.18699127 0.0102502145
0000a0 58 e8 b0 3d 65 69 42 be 2b ca 9a 3e 22 41 1f 3e
       0.08638066 -0.18985517 0.30232367 0.1555219
0000b0 1e 6c 10 be 81 48 88 3d 96 f9 c9 bd 66 d9 b4 3d
       -0.14103743 0.06654454 -0.09862058 0.08830528
0000c0 de 1f 21 3e f6 0f 33 be 2d c5 1d 3e 06 d8 d8 3e
       0.15734813 -0.17486557 0.15407248 0.42352313
0000d0 41 ad 5c be 65 76 19 be dc b4 04 be 22 84 06 be
       -0.21550466 -0.1498657 -0.12959617 -0.13136342
0000e0 a2 5b 20 3e ce d9 b9 be c1 9e f1 3d f4 aa 7a be
       0.15659955 -0.36298984 0.11797858 -0.24479276
0000f0 94 97 24 be 45 76 52 3d 9d 7a 21 bd 25 03 39 bd
       -0.16073447 0.051382322 -0.039423574 -0.045169014
000100 06 55 cc bd d4 06 fe 3d 0b 7c 41 be 69 30 81 3e
       -0.099771544 0.12403646 -0.18894975 0.25232247
000110 0a a5 44 be 87 ce 11 3e 00 b1 27 bd 11 19 52 bd
       -0.19203582 0.1423894 -0.040940285 -0.051293436
000120 11 6a 17 be 35 f8 a4 3d 8d 5a 2e be 80 ea 69 bd
       -0.14786555 0.08055154 -0.1702673 -0.057108402
000130 7e 1c 99 be fd a5 a0 bd 86 ab ab 3d 46 ba 45 bd
       -0.2990455 -0.0784416 0.08382325 -0.048273347
000140 e2 ca 0b 3d 26 91 1a 3e 46 19 5a be 48 af 13 3d
       0.03412903 0.15094432 -0.21298704 0.036055833
000150 38 59 69 bd 27 85 38 3e f4 ad 36 be ea ec 1c be
       -0.05696985 0.18019544 -0.17839795 -0.1532475
000160 00 95 a4 bd 59 00 2f 3e 39 62 83 3c ca 2b 68 be
       -0.08036232 0.17089976 0.016038047 -0.22672954
000170 ad d3 94 be 25 ec 80 bd 5a 6a 49 3e 40 b2 ca bd
       -0.29067746 -0.06295041 0.19669476 -0.0989728
000180 5f 6d 80 be 40 69 8e bb 33 97 05 be 73 94 b1 bc
       -0.25083444 -0.004346043 -0.13045959 -0.021677231
000190 b0 49 14 be 53 58 96 3d 80 34 69 3c 11 1a b5 bd
       -0.14481235 0.07341065 0.014233708 -0.088428624
0001a0 a4 c2 c7 bc 4a b9 05 3e 50 30 24 be 86 c2 27 3e
       -0.024384804 0.13058963 -0.16034055 0.16382799
0001b0 b3 18 3b 3e ad 0d 4d be 92 de 01 3e db 7e 08 bd
       0.18271141 -0.20024748 0.1268256 -0.033324104
0001c0 e0 c4 e4 3d 24 11 4e 3e d0 f1 ca 3d 69 66 31 3e
       0.111703634 0.20123726 0.09909403 0.17324223
0001d0 4c 9b 81 3d c8 32 5b be a0 d2 51 3d 6f 72 ec 3d
       0.06328449 -0.2140609 0.05122626 0.11545264
0001e0 5a ee 10 bc 75 9f ce be 8a 2b 5b 3e 3c 84 04 3e
       -0.00884589 -0.4035603 0.21403328 0.12941068
0001f0 f3 9e c0 bd f1 a8 28 3e ef 5a 31 be 09 87 f0 3d
       -0.09405317 0.16470696 -0.17319845 0.11744506
000200 3d 6f 9f bd b8 cc 3e be 79 68 05 3d 58 3b e5 bd
       -0.07784889 -0.18632782 0.032570336 -0.111929595
000210 d8 1e aa 3e 45 ad 56 be 4e 0c 52 be 8c c6 49 3d
       0.33226657 -0.20964535 -0.20512506 0.049261615
000220 cd c1 39 3e 41 8d d7 be f1 f1 d5 3d 98 a2 4f 3e
       0.18140335 -0.42099956 0.10446537 0.20276868
000230 6d 96 24 be 99 dc 89 3d b8 c7 84 be a0 ce 1a 3e
       -0.16073008 0.06731529 -0.25933623 0.15117884
000240 4e 30 08 bd c0 6e 20 be 8d eb 64 3d c2 28 83 bd
       -0.033249192 -0.15667248 0.0558887 -0.06404258
000250 1c 2b 0f be a7 2b 74 3e 46 ce 67 3e 4e 0a ae be
       -0.13981289 0.23844777 0.22637281 -0.33992237
000260 1e 1b 5b be c7 05 5d 3e 5d 64 8c bd 8c 14 e3 bd
       -0.21397063 0.21584235 -0.0685508 -0.110879034
000270 fe d1 ca 3d 2e 5e d7 bd 97 9f 06 3e 80 9b 36 bc
       0.09903334 -0.1051601 0.13146816 -0.0111454725
000280 3b 9a 09 be 14 ee a7 bd 8f 93 49 3d 21 5e 67 3e
       -0.1343774 -0.08199707 0.04921299 0.22594501
000290 54 28 d0 bc c8 3b 44 3e c0 78 ad 3c c0 5a c1 be
       -0.025409855 0.1916343 0.021175742 -0.3776455
0002a0 45 06 4b be 5f 74 ef 3d 87 7a 9d 3d 00 ca 08 be
       -0.1982661 0.11692118 0.07689386 -0.13358307
0002b0 b1 8e 19 3d f2 d4 ce bd c9 61 2d 3e 4e 1c 11 bd
       0.037489597 -0.1009921 0.16931833 -0.035427384
0002c0 10 09 8a bd 58 9e 2b bd 74 3d 0e be 74 49 14 3e
       -0.0674001 -0.041899055 -0.1389063 0.14481145
0002d0 2d 14 2e be f9 ea 97 3d 44 15 ee bd 42 4e cd bd
       -0.16999884 0.07417864 -0.1162515 -0.10024692
0002e0 91 74 3c be a4 eb 0a 3e bd f1 b2 bc c0 5f c9 bb
       -0.18403842 0.13566452 -0.021843785 -0.0061454475
0002f0 24 27 ae 3c cf 43 9a bd bc fb 4a 3d d8 e9 36 bd
       0.021258898 -0.07532465 0.04955648 -0.044656605
000300 81 65 89 3e a0 26 5e 3d 4c c7 8c bd 70 12 1f be
       0.26835254 0.054236054 -0.0687395 -0.15534377
000310 6d 38 60 3e 16 04 c9 bd 70 33 08 be 52 77 81 3d
       0.21896525 -0.098152325 -0.13300872 0.06321587
000320 26 c3 5b 3e 93 fe 8a bd 12 7e 90 3e 7c de c4 bd
       0.21461162 -0.067868374 0.28221184 -0.09612748
000330 73 6e 2d bd cc c2 52 3d 14 12 df bd 80 8c a4 bc
       -0.04234166 0.051455304 -0.1089212 -0.020086527
000340 9e 7b 30 3d 98 89 2c bd dc 98 30 3e 48 39 5a be
       0.04308664 -0.042123407 0.17245811 -0.21310914
000350 97 55 8c bd 1c 21 2f be 58 2b 24 3e 4a 7d 8a 3e
       -0.068522625 -0.17102474 0.1603216 0.27048713
000360 7d 16 03 3e b5 f9 15 be c4 f2 0c bd 1c 33 b3 bd
       0.12801547 -0.14646037 -0.034411207 -0.08749983
000370 92 20 b6 bc 09 5b 2a 3d 02 76 7e bd f8 51 41 3e
       -0.022232328 0.041590724 -0.06212426 0.18878925
000380 ce 67 87 bc c0 91 03 3e f4 86 b8 3d 98 39 f2 3d
       -0.01652899 0.12848568 0.09010115 0.118273914
000390 72 db 5a be 34 f4 3a 3e 68 9f c0 bd 6e 48 61 be
       -0.21372774 0.18257219 -0.09405404 -0.22000286
0003a0 0c 9f 9d 3c d4 da 93 3d 4e 68 bd bb 8a 1a 7c be
       0.019240879 0.072194725 -0.0057802564 -0.24619499
0003b0 ea ba 08 3c de b6 d4 bd b5 20 73 3e d4 3c e5 bd
       0.008345345 -0.10386442 0.23742945 -0.11193243
0003c0 ab 31 52 3e 2e d6 7f 3e 9d 3b 2e 3d 92 f2 0f 3e
       0.2052676 0.24984047 0.04253732 0.14057377
0003d0 36 37 27 bd d0 eb a1 bd 16 cf 14 3e d6 f5 ae 3d
       -0.040824138 -0.07906306 0.14532122 0.08542983
0003e0 6d 6e 30 3d af 61 dd be 8f 52 14 3e 00 e8 13 bb
       0.04307406 -0.4323859 0.14484619 -0.0022568703
0003f0 2a a6 e4 3b 9c df 30 3e 84 a7 10 bd f6 7d 40 3e
       0.006977816 0.172728 -0.035316005 0.1879805

model.encoder_gnn.lin_skipsum.0.0.bias f4 [16]
000000 3a d6 8f bd 13 46 96 3d 63 b6 c5 bd 84 83 03 bd
       -0.07023282 0.07337584 -0.09653928 -0.032107845
000010 e5 bf 4c 3d a9 23 a3 bd 0b 81 eb 3d 61 41 20 3d
       0.049987692 -0.07965786 0.11499222 0.03912485
000020 76 13 cd 3d 1f a9 cd bc 82 60 28 bc 8a 74 1b 3d
       0.100134775 -0.025105057 -0.0102769155 0.037952937
000030 8a fd 08 be 2b 99 5f 3c e7 8c b7 bd f8 99 c9 bd
       -0.13377967 0.013647358 -0.08962422 -0.0984382

model.encoder_gnn.gnn.0.0.nn.0.weight f4 [16, 16]
000000 c7 fa d3 be b6 6a 35 be b0 4d ef bd d9 1a 06 bf
       -0.41402265 -0.17716488 -0.116847396 -0.52384716
000010 34 43 3c bf 30 36 98 3d f6 23 37 3e 87 5d 74 bf
       -0.73540044 0.074322104 0.17884812 -0.9545521
000020 11 9f 61 3e cb 38 57 bf 54 fe 32 bf 3e ec 16 3e
       0.22033335 -0.84071034 -0.69919324 0.14738557
000030 20 b9 48 3d c7 f3 00 3e c5 23 cd 3e 23 51 09 3e
       0.049004674 0.12592994 0.40066352 0.13409857
000040 0b 11 30 3e 9e 70 5e 3e b9 82 80 3e 0d 67 00 3f
       0.17194001 0.21722648 0.25099733 0.50157243
000050 52 22 81 3f 6e b2 09 3e 36 08 60 be fc 4c a1 3e
       1.0088599 0.13446972 -0.21878132 0.31504047
000060 ea f9 9e be c4 7e 65 3e a8 7f 6d 3e c2 a2 08 3e
       -0.31050044 0.22411638 0.23193228 0.13343337
000070 81 9d bf bd ca 91 82 be 87 21 84 3e 92 84 6a bf
       -0.09356213 -0.25501853 0.2580683 -0.91608536
000080 3f c1 7f be 80 41 2e be 04 74 20 3e 39 fc 1a 3f
       -0.24976061 -0.17017174 0.15669256 0.6054111
000090 fa 17 4e be a0 49 9f 3e cc 3e 5b 3e cf 50 e6 be
       -0.20126334 0.3111086 0.21410674 -0.44983527
0000a0 f5 73 4b 3d 16 c7 87 3c 1e 3b a8 be 08 4a 5b bd
       0.049671132 0.016574424 -0.32857603 -0.0535374
0000b0 34 85 fe 3d 61 a1 5b bd 52 56 17 3d af c8 f1 3e
       0.1242775 -0.0536207 0.036947556 0.47223422
0000c0 2e c3 14 3e 48 35 9c 3d e1 ae 95 3d 94 b7 de bd
       0.1452758 0.0762735 0.07308746 -0.108748585
0000d0 f0 3a 09 3e 7a 6a 97 3e d4 17 5e be 47 b4 38 3e
       0.13401389 0.29573423 -0.21688777 0.1803752
0000e0 3f bb af 3b 4b 33 ae be b0 60 b7 3d fe ae 76 be
       0.0053628976 -0.34023508 0.089539886 -0.24090192
0000f0 be 69 8c be a0 9a a9 3d ce 1b 0e be 15 a4 40 3e
       -0.27424425 0.082814455 -0.13877794 0.18812592
000100 00 50 a9 bd 44 f9 ea 3d 76 15 d5 bc b3 d2 26 3e
       -0.08267212 0.11473325 -0.02601121 0.16291313
000110 d2 b2 75 bc 1d 8e 40 3f e4 7c c6 3d 74 c4 f7 bd
       -0.014996247 0.7521685 0.0969179 -0.12098017
000120 57 b8 33 bd f0 fc 76 3d cf 2c 88 bc 98 d1 be bd
       -0.043876972 0.060299814 -0.016622929 -0.093173206
000130 44 4d f3 3c 1a 5a bc bc 13 95 ff 3d d3 2c 36 bd
       0.029699929 -0.022992183 0.124796055 -0.04447634
000140 db 5d d2 bc 24 7a 20 3e 2d e3 3f be 76 78 cd bd
       -0.02567952 0.15671593 -0.18739004 -0.10032742
000150 8f 6a 99 3e 07 be 13 be 08 53 7f 3e 46 5b 3f 3f
       0.2996411 -0.14427958 0.24934018 0.7474865
000160 77 e7 65 be 04 d4 47 3e f1 6d 56 bd ce d9 57 be
       -0.22451578 0.19514471 -0.052350942 -0.2107918
000170 26 c5 83 3d 55 99 10 be 28 5f ce 3e 5a 58 85 3d
       0.064340875 -0.14120992 0.40306973 0.06510992
000180 74 2d 13 be 0c b0 45 3e 15 b2 42 3d 58 9b ff 3d
       -0.14372808 0.19305438 0.047533114 0.12480801
000190 a0 e2 d9 3e 79 4a 82 bd 0e 7e 38 3e 70 fe 61 bf
       0.42555714 -0.06361861 0.18016836 -0.88278866
0001a0 a3 52 28 be e0 0d 41 3c 2c af 34 3e 20 c5 79 3e
       -0.16437773 0.011783093 0.17644948 0.24391603
0001b0 06 dc f8 bd 0a 56 14 be 26 3b 92 bd b6 2a 81 3e
       -0.12151341 -0.14485946 -0.07140188 0.25227898
0001c0 d9 98 1f bd 98 14 2e 3e d9 7d d3 bd f5 95 d4 be
       -0.038964126 0.17000043 -0.10326738 -0.41520658
0001d0 bc 6d 98 bf 6b ee 7c be 54 13 5d be 0b 04 8c bf
       -1.1908488 -0.24700324 -0.21589404 -1.0938734
0001e0 9f d2 83 be 23 15 24 3f 0c 2f a8 3c e0 00 1b 3d
       -0.2574663 0.6409475 0.020530246 0.03784263
0001f0 e4 f3 36 be d4 41 1e be b0 8f a9 be 5d 5f 3e 3e
       -0.17866474 -0.15454799 -0.33117437 0.18591066
000200 b8 82 9c bd 28 02 70 bd 1f 1c 37 3b bf ee 92 be
       -0.0764212 -0.058595806 0.0027940345 -0.28697774
000210 d8 2c 0b bf 83 fa 25 bf ac 88 3e be 2a da 30 bf
       -0.543653 -0.64835376 -0.18606824 -0.6908289
000220 ff e1 15 be e5 7e f1 bd 8a 33 be bd 24 b9 46 3e
       -0.14636992 -0.11791781 -0.09287174 0.19406563
000230 2c c9 bb bd 80 41 67 bb e1 18 00 3f bf c9 f1 3d
       -0.0916923 -0.0035286844 0.5003796 0.11806058
000240 f2 72 0b bc 00 1e ce bd 0c 5a 5e 3d 72 f1 5b be
       -0.008511292 -0.10064316 0.054285094 -0.21478823
000250 0c 41 06 be ed 0f 2f 3e 6c 1c 44 be 36 d8 ff 3e
       -0.13110751 0.17095919 -0.19151467 0.49969643
000260 1f d4 13 bc 03 c3 66 3f ad 90 0a bc 00 9f ab 3a
       -0.009022742 0.90141314 -0.008457345 0.001309365
000270 7f 50 e4 bd 58 6f 8f 3d 60 ab 70 3e 64 4c be bd
       -0.11148166 0.07003659 0.23502874 -0.09291914
000280 da 2c 8a 3d 20 aa 28 3c 4b 21 47 3e 45 c4 15 be
       0.06746836 0.010294467 0.19446294 -0.14625652
000290 e6 de ad 3e 1d 6c d2 bd 68 b1 2d be 9a 4c 38 3d
       0.3395912 -0.10274527 -0.16962206 0.044994928
0002a0 a9 b3 1d 3e c9 9a b2 bc 25 61 20 3e 0c 72 42 3e
       0.15400566 -0.021802323 0.15662058 0.18988818
0002b0 78 b8 2a 3b 0b ae 9c 3e 05 26 6d 3d 3b 7b 92 3e
       0.0026049893 0.30601534 0.057897586 0.28609642
0002c0 24 c3 51 be 68 c7 44 be 32 4b 82 bc 99 ed 97 3d
       -0.20484596 -0.19216692 -0.015904997 0.07418365
0002d0 2b a8 01 3e d5 d1 8c bd 2c 7a 19 be 9f db f3 bd
       0.12661807 -0.0687596 -0.14988011 -0.11907124
0002e0 c3 63 68 be 39 94 6d bc 5c 4e 61 be 62 d4 5c 3e
       -0.22694306 -0.014500671 -0.22002548 0.21565393
0002f0 bd 73 49 be f1 6c dd 3e 45 55 8f 3c 5b 7a 6c be
       -0.19673057 0.43247178 0.017496714 -0.2309355
000300 6b 1b 7d bd 80 01 a4 bb f3 8e 1e be bc 42 8d 3d
       -0.061793726 -0.0050050616 -0.15484218 0.06897494
000310 f0 a6 22 bd cd 57 b9 bb e0 89 20 3d 72 e3 68 3c
       -0.039709985 -0.0056562186 0.039193988 0.014214383
000320 ab fc 48 3f 62 ad d7 3c ee 55 b7 bd f4 31 89 3d
       0.7851054 0.026327793 -0.08951937 0.06698981
000330 d3 fa 0c be 89 fe d5 be b3 51 4c bd ef 44 21 be
       -0.13767557 -0.41795757 -0.049882602 -0.15748952
000340 97 f4 87 3e f0 7c fb 3c e0 eb a9 bd 61 c3 c6 3c
       0.26553795 0.030699223 -0.08296943 0.024263086
000350 0c 31 42 be 98 ed 42 be e0 d2 52 3d d7 83 02 3d
       -0.18964022 -0.19035947 0.051470637 0.031864014
000360 22 1b 2c bf 46 c5 5c 3e b0 8d fe 3d e2 70 04 be
       -0.672289 0.21559629 0.124293685 -0.12933686
000370 8f 42 7f 3e b7 4a 27 be 4f a0 60 be 01 dc b7 3e
       0.24927734 -0.16337095 -0.21936153 0.35910037
000380 cb c3 de bd 32 9c 70 3e d6 0f 1f 3e 14 fd 1f 3e
       -0.10877188 0.23497084 0.15533385 0.15623885
000390 03 95 27 bf 22 bd cd be 8c 51 bc 3d df ff 46 bf
       -0.6546175 -0.4018336 0.09195241 -0.7773418
0003a0 78 7b 3f bd 08 6b 0a 3f 7c f7 e5 bd 50 91 56 be
       -0.04674861 0.54069567 -0.112288445 -0.2095387
0003b0 c9 30 1f be d8 46 0e bd 07 d1 07 3e 73 59 63 bd
       -0.15545954 -0.03473553 0.13263331 -0.055505227
0003c0 3f af 72 3e ce c9 2e be 75 3f 79 bb 1f 62 4f 3c
       0.23699664 -0.1706917 -0.0038032208 0.012657671
0003d0 fb c5 a4 be 17 51 0d bd 00 ae 39 3c 43 e7 5a 3e
       -0.32182297 -0.03450116 0.011332989 0.21377282
0003e0 c0 6b a5 3e dc df ff be d0 6c 57 3e e4 c2 26 be
       0.3230877 -0.4997548 0.21037602 -0.16285282
0003f0 25 06 21 3d 60 b0 35 3d c7 29 11 3f 92 d2 6d 3e
       0.0393125 0.044357657 0.5670437 0.23224857

model.encoder_gnn.gnn.0.0.nn.0.bias f4 [16]
000000 59 bd b9 be f6 1b e5 3d 88 22 01 3f 37 f3 08 3e
       -0.36277273 0.11186974 0.50443316 0.13374029
000010 50 d4 fb be f3 b4 bf 3e 43 4d 8c bd 0d b1 a3 3e
       -0.4918542 0.3744274 -0.06850674 0.31971017
000020 4d ed 4c be 7b 0a 7c bd eb 96 cc 3d c5 e6 ea 3d
       -0.20012398 -0.061533432 0.09989723 0.11469797
000030 9f 12 7d be 3e 6c cb bc dc 4f 06 3e eb 20 20 bf
       -0.24714135 -0.024831887 0.13116401 -0.6255023

model.encoder_gnn.gnn.0.0.nn.2.weight f4 [16, 16]
000000 f7 10 9b bf 5f 43 14 3e 30 66 a4 be 84 57 8e be
       -1.2114552 0.14478825 -0.32109213 -0.27801144
000010 7d 53 45 3e 5e 72 8d 3e d5 2e 31 3f 8e 14 01 3e
       0.1927013 0.27626318 0.69212085 0.12605497
000020 e6 64 8b be 7b b9 a7 3c 88 83 dd be 0c 86 a7 be
       -0.27225417 0.020474186 -0.43264413 -0.32719457
000030 c5 15 9c 3e 64 01 a7 3f 0c e3 d7 be dc b6 dc 3e
       0.3048536 1.3047299 -0.4216541 0.4310826
000040 27 ee 2c 3f ef 33 55 bd 06 83 9c bd 86 12 91 3e
       0.6755089 -0.05205148 -0.07642178 0.28334445
000050 a9 dc 73 3e 56 fb d0 bd 32 1e 16 be 08 00 05 3f
       0.23814644 -0.102041885 -0.14659956 0.5195317
000060 11 dd 48 3f a6 22 20 be 32 6d bb 3d d8 1e 28 bf
       0.7846232 -0.15638217 0.09151687 -0.65672064
000070 07 09 50 bf 00 49 4a bf 6b 4d cd 3e a7 d9 3e 3d
       -0.81263775 -0.7901764 0.40098128 0.04659429
000080 d4 a7 ce be a7 72 7c 3e a5 aa 09 be 3d 2e 24 be
       -0.40362418 0.24653111 -0.13444002 -0.16033264
000090 00 a8 21 bd 7c 09 46 3e a9 32 67 3e a0 32 65 bf
       -0.039466858 0.19339556 0.22577919 -0.8953037
0000a0 3f 37 3f bf 0e c5 13 3e a4 bc 4c be 40 29 3a 3f
       -0.74693674 0.14430639 -0.19993836 0.7271919
0000b0 41 85 51 3f e9 27 96 3e 46 2f 80 be a4 75 36 be
       0.81843954 0.29327324 -0.25036067 -0.17818314
0000c0 74 1b 25 bc 29 17 33 3e f2 f4 b2 3e 2e 84 3c be
       -0.010077346 0.17489304 0.34952503 -0.18409798
0000d0 d9 13 e7 be 60 85 a9 3e 78 ce 87 3e 5e 96 a9 bb
       -0.4513233 0.3310957 0.2652471 -0.005175396
0000e0 1e c1 e6 be 87 97 ef bd 68 63 31 3d b2 a6 dc bd
       -0.45069212 -0.116988234 0.04330769 -0.10773982
0000f0 35 45 f1 3d 8b c8 0c 3e e1 d7 a9 be bd a8 cf be
       0.11780778 0.13748376 -0.33172515 -0.40558425
000100 e1 ad 25 3f 11 ad 18 bf 7e 17 d9 3e 68 e5 8a be
       0.64718443 -0.5963908 0.42400736 -0.27128148
000110 53 f8 14 be 52 59 39 3e 55 5a 91 be a3 47 0a 3f
       -0.14547853 0.18100479 -0.2838923 0.5401556
000120 70 bc 9b 3e 7b 5f f5 3c 8c 0d 09 be 01 f7 52 bf
       0.30417204 0.029952755 -0.13384074 -0.8240815
000130 ac 15 cb bf 3b 63 4f bf d2 f9 b8 bd 01 e5 0e 3c
       -1.5865989 -0.8101079 -0.090320244 0.008721591
000140 f1 de ef 3e 2a 6b e8 3d 2b 8b 2c bf cc 3a 4c 3e
       0.46849778 0.11348565 -0.67399853 0.19944304
000150 ae 2d 4e be 8b 8e dc be bb 9f 3c bd ab 42 d9 3e
       -0.20134613 -0.43077502 -0.04605077 0.42433676
000160 e2 a5 ed bc e8 28 b8 bd 62 7c 55 3e 02 a8 af be
       -0.029009763 -0.08992177 0.2084823 -0.34307867
000170 63 21 5a 3e b3 6d d3 3d 1a 7b 6d be ef 32 15 3e
       0.21301799 0.10323658 -0.23191491 0.14570211
000180 6c e3 9e 3e 9a ee 2c 3d 5c 1a 35 be 0f be 7d bd
       0.31032884 0.042219736 -0.17685837 -0.061948832
000190 5a 23 13 bd f0 ee 8d 3e 5d a9 4c bf 35 a3 30 3f
       -0.035922386 0.27721357 -0.7994593 0.68999034
0001a0 d2 d0 40 3e 71 ba 8f be 14 33 01 3e 73 1b cc be
       0.18829659 -0.2807193 0.12617141 -0.39864692
0001b0 f4 a5 85 bf c2 cd 52 bf f2 2b 1c 3e 35 48 43 3e
       -1.044127 -0.8234521 0.15251139 0.19070514
0001c0 c8 d5 44 be b4 24 fe bd 8e 68 3c be a5 c5 ce be
       -0.19222176 -0.12409344 -0.1839926 -0.40385166
0001d0 3d 60 08 be ff a7 a8 be fc 55 be bd 65 4d c1 be
       -0.13317962 -0.3294067 -0.09293744 -0.3775436
0001e0 99 0c 6b 3c 53 89 f4 3d 83 fa 7b be d2 eb 85 be
       0.014346265 0.11940255 -0.24607281 -0.2615648
0001f0 7d 50 0e 3e 39 7a 8a 3d 83 aa b9 bd 5b 2c c6 bd
       0.13897891 0.06761593 -0.09065726 -0.09676429
000200 84 c7 a2 be 33 42 88 be 02 9b 72 be 69 9b f4 be
       -0.31792843 -0.26613006 -0.23691943 -0.4777482
000210 31 4e 76 3e 29 8a 28 be cc 55 da be 5d 9e c5 3f
       0.24053265 -0.16458954 -0.42643583 1.5438954
000220 22 71 72 bf 83 46 d1 be fb 12 3b c0 b4 ac f2 bf
       -0.94703877 -0.4087411 -2.9230335 -1.8958955
000230 49 ff f0 bf 2f 9b 70 bf 7c ef b5 bf 0d 9c 5e bf
       -1.8827907 -0.9398679 -1.421371 -0.86956865
000240 77 0b 41 3e 32 fc 58 bf 4e 94 05 3e d1 d6 1b bc
       0.1885203 -0.8475982 0.13044855 -0.009511665
000250 be 01 8f be 55 4c 54 bd b1 19 b5 be 31 2e 63 3f
       -0.27931017 -0.05183061 -0.35371163 0.8874236
000260 5e f9 b2 be ea 34 59 3e d2 8a 4b bd 50 cc 17 bf
       -0.34955877 0.21211591 -0.049692936 -0.5929613
000270 a7 c4 65 bf f6 9d 0a bf 57 fd 2a 3f 77 05 95 bd
       -0.8975319 -0.5414728 0.66792816 -0.07276433
000280 7e b0 c0 3e b4 d0 0d bf 97 9c 7c be 0b 36 bb 3d
       0.37634653 -0.5539658 -0.2466911 0.09141167
000290 dc ab 88 3e 2b d8 ab 3e ba 8a db be bb 23 15 3f
       0.26693618 0.3356336 -0.42879277 0.58257645
0002a0 5c f1 58 3f 6c 9e 03 bf 3d ec 8e 3d 82 cc 10 bf
       0.84743285 -0.5141361 0.069786526 -0.56562054
0002b0 50 4f 95 bf 59 fc 54 bf d6 b1 b8 bd 41 e5 a0 3d
       -1.1664829 -0.8319755 -0.090182945 0.07856227
0002c0 f9 e3 10 be 65 12 52 bf b7 f7 e8 3d 0c 37 84 3e
       -0.14149465 -0.8205932 0.11375373 0.25823247
0002d0 15 5b 41 3e 18 ad da 3d 40 af 7b bf e3 2d 86 3d
       0.18882401 0.10677546 -0.98314285 0.06551721
0002e0 51 36 8f 3e e5 ab be be 26 5f 45 be 27 a1 10 bf
       0.27971128 -0.3724052 -0.19274577 -0.564959
0002f0 c1 7c d1 bf 77 cd 47 bf 04 45 11 3f a4 c7 a6 be
       -1.6366197 -0.7804789 0.56745934 -0.3257419
000300 62 74 c3 bd 55 a5 a8 bd ea 30 1a 3f 15 58 2b 3e
       -0.09543683 -0.082346596 0.60230887 0.1673282
000310 31 39 f9 bf 73 6d a0 3d 6f 57 fb 3e 32 a8 ed be
       -1.9470578 0.07833376 0.49090144 -0.46417385
000320 3a d0 75 be e7 3f 16 3f b2 fb 65 bd a0 cc b5 3e
       -0.24005213 0.5869126 -0.05614824 0.3550768
000330 5c 5c c7 3e 01 64 58 3e 43 44 90 be 34 81 be be
       0.38937652 0.21131898 -0.2817708 -0.3720795
000340 9f 3e a3 3e b8 6c 30 be f6 19 ae 3e e4 d1 91 be
       0.31883714 -0.17228973 0.34004182 -0.28480446
000350 1f df b2 bf 3f 6f 83 bc 50 55 12 be 17 47 88 bf
       -1.3974341 -0.016044257 -0.14290357 -1.0646695
000360 c1 2c 95 bf 21 0a 24 3f a6 37 c8 bd 57 a6 70 3f
       -1.1654283 0.64077955 -0.09776239 0.94003814
000370 16 a1 86 3f c2 99 b9 3e ce db 38 be e8 c2 29 be
       1.051791 0.3625012 -0.18052599 -0.16578257
000380 90 5f cc 3d 8d 6e 5f be 3c 6c 87 3e 4c 61 02 3f
       0.099791646 -0.21819516 0.26449764 0.50929713
000390 fd ef c6 3e cc b1 36 bf f4 98 ab be f9 ac 98 3e
       0.38854972 -0.71365047 -0.3351513 0.29819468
0003a0 53 41 39 be 76 73 73 be 8b c6 ab be 23 67 06 bf
       -0.18091325 -0.23774514 -0.33549914 -0.52501124
0003b0 f8 e6 76 bf f7 79 e4 be 25 b8 48 3f fe 44 cc be
       -0.9644618 -0.44624302 0.7840598 -0.39896387
0003c0 c4 d9 3a 3e e5 4e 35 be d5 43 c3 3d d1 1a 4f 3d
       0.18247133 -0.17705877 0.09534422 0.050562683
0003d0 1d 9a 91 be de 2f 35 be 9a 2c c7 bd af fc 4d be
       -0.28437892 -0.17694041 -0.09725304 -0.20115922
0003e0 7d ac 51 3e 21 27 ad bc 33 40 87 be 1d 0e 75 bd
       0.20475955 -0.021136822 -0.26416168 -0.059827913
0003f0 8d be a2 bd 68 e0 c8 bd bb 57 7b be 75 52 3a be
       -0.07946501 -0.09808427 -0.24545185 -0.18195517

model.encoder_gnn.gnn.0.0.nn.2.bias f4 [16]
000000 ab cd 86 bd 84 a4 7d bd ee db a6 bd d5 42 a7 3e
       -0.06582197 -0.061924472 -0.08147417 0.32668176
000010 f3 65 e6 3d 56 79 f4 be 94 92 1b 3d 1c 51 c2 be
       0.11249914 -0.47748822 0.037981585 -0.37952507
000020 f1 37 d1 3e b3 7d 0a be 6f 82 36 3e 11 b2 05 3f
       0.40862992 -0.13524513 0.17823194 0.5222483
000030 4d 16 88 be da 51 2d 3d a8 d6 28 3e e2 3f ce 3b
       -0.26579514 0.042314388 0.16488135 0.0062942365

model.encoder_gnn.post_nn.fc_layers.0.0.weight f4 [8, 16]
000000 a3 c6 79 bc 53 e6 81 3b bf 51 45 ba fe 92 94 bb
       -0.015245113 0.0039642244 -0.0007527135 -0.0045341244
000010 72 86 b6 39 d9 7e 0c 3c a4 b7 7d 3a 15 c2 7b bb
       0.00034813915 0.008575165 0.00096785487 -0.0038415242
000020 6c df 0b bc bf 16 6d 3b a0 6c 68 3b 9a c8 9d 3b
       -0.008537155 0.0036176888 0.0035465136 0.0048151733
000030 9b d8 b4 b9 98 e9 86 ba d9 7e 2b 3b 00 4d 4e bb
       -0.0003449366 -0.0010293005 0.0026168136 -0.0031479
000040 4f 47 97 bc a5 c7 97 3b 07 87 83 bb 9e ca 7f 3b
       -0.01846662 0.004631954 -0.0040138992 0.0039030681
000050 c1 62 d0 3b 58 61 99 3c 95 5b 0d 3c 49 4c 1b 39
       0.0063594286 0.018723175 0.008627792 0.0001481037
000060 bc a2 a1 3b ea 39 93 3a e6 57 cf 3b 2f ed a4 ba
       0.0049327295 0.001123247 0.006327617 -0.0012582893
000070 53 6c 9d bb a1 bb b4 bb 12 4f d1 3a f8 16 a1 ba
       -0.004804173 -0.005515531 0.0015968999 -0.001229017
000080 c9 e7 9d be 1e fa 32 3e e6 e5 87 be 61 73 1e be
       -0.308409 0.17478225 -0.26542586 -0.15473701
000090 80 4f 9e 3e 20 15 8b 3e 95 b7 67 3e ab eb 3b be
       0.3092003 0.27164555 0.22628625 -0.18351619
0000a0 b0 ad 2c be 34 5f 59 3e 20 fe 6d 3e 35 24 b4 3e
       -0.16863132 0.21227723 0.23241472 0.35183874
0000b0 28 7d 7d be 37 ce 8d be 3a 47 8b 3e 5d 06 4a be
       -0.24754775 -0.27696392 0.2720278 -0.1972899
0000c0 e5 aa 97 3e 53 4a 2a be 1e a9 82 3e 32 71 08 3e
       0.2962257 -0.16629915 0.2551965 0.1332443
0000d0 48 b6 9d be 37 bc 87 be 62 8a 63 be b2 e1 2e 3e
       -0.30803132 -0.26510784 -0.22220758 0.17078283
0000e0 b3 ba 2a 3e 40 ee 58 be a0 a8 72 be 2f 27 ad be
       0.16672783 -0.21184635 -0.23697138 -0.33818957
0000f0 de 83 67 3e 01 3b 96 3e 90 43 85 be 08 90 4c 3e
       0.22608897 0.2934189 -0.2602811 0.19976819
000100 94 b1 04 b9 90 f3 ef ba 86 2e 04 38 8b 0a 4d bb
       -0.00012654654 -0.001830684 3.151458e-05 -0.0031286802
000110 fe df e4 3a 37 24 20 bb e9 f7 d7 3a 89 8e f0 ba
       0.0017461774 -0.0024435648 0.0016477081 -0.0018353026
000120 e3 d9 07 3a cd c9 66 ba 86 a8 a3 ba 9e 11 15 bb
       0.0005182309 -0.00088038744 -0.0012486137 -0.0022746096
000130 cc 67 00 3a 7b d4 1d 3a 5b ff bc ba 78 9f 60 3a
       0.00048982794 0.0006020737 -0.0014419364 0.00085686846
000140 52 d5 64 3b da 3d 1e 3a bf 1e 70 b8 db a9 b7 bb
       0.0034917188 0.0006036438 -5.7249094e-05 -0.005604965
000150 e3 dd 16 3b 55 f6 03 bb 7f e8 3e bb 2b a6 88 bb
       0.0023020438 -0.002013584 -0.0029130278 -0.0041701994
000160 1c de e7 ba 3e 94 b4 ba ec 60 28 ba 57 0d be 3a
       -0.0017690095 -0.001377709 -0.0006423134 0.0014499825
000170 2f 3a 14 ba 38 84 97 3a dd d2 46 bb d3 47 0c bb
       -0.0005654422 0.001155979 -0.0030338087 -0.0021405115
000180 47 8f 3c 3e 79 98 ae 3d a0 00 0d bd 4e 30 c7 be
       0.18414031 0.085251756 -0.034424424 -0.3890404
000190 a2 f0 90 bd a7 00 1e 3e df 0c 88 3d d2 b9 18 3c
       -0.07077147 0.15429936 0.0664308 0.009321647
0001a0 90 6f 45 3a b9 a8 f1 3b 9b a3 9b bd 37 a2 ac be
       0.0007531578 0.0073748496 -0.07599565 -0.3371751
0001b0 33 e5 d1 bc f5 6f 90 3d 9c 94 44 3c 29 05 c1 3b
       -0.025621986 0.07052604 0.011998322 0.0058905077
0001c0 07 df 42 3e 06 90 9f 3d 4e b1 37 bc f1 b9 d2 be
       0.1903039 0.07791142 -0.011211706 -0.41157487
0001d0 ce ce 73 bd 6d c1 1e 3e 8d ff b3 3d 23 b3 fd bb
       -0.059523396 0.15503474 0.08788977 -0.007742302
0001e0 eb 5a 1d 3c 12 87 0d 3a 70 aa 56 bd db ee b6 be
       0.009604196 0.000539885 -0.052408636 -0.35729107
0001f0 6e 35 71 bc 8a 1d 8a 3d 34 c7 87 bc 98 af c3 bc
       -0.014722211 0.067439154 -0.01657448 -0.02388744

model.encoder_gnn.post_nn.fc_layers.0.0.bias f4 [8]
000000 ca 40 59 ba 9f 4e 6c bb db 37 40 bd cb f7 23 3d
       -0.00082875474 -0.0036057604 -0.046928268 0.040031236
000010 0c 70 47 ba 13 01 03 bb 02 8c 91 bf d5 74 8d bf
       -0.0007607944 -0.0019989654 -1.1370852 -1.1051279

model.decoder_gnn.pre_nn.fc_layers.0.0.weight f4 [16, 4]
000000 3d 18 1a bc 63 9b c2 bb 94 d1 a7 be 39 c2 a6 3e
       -0.009405193 -0.0059389337 -0.32777083 0.32570055
000010 4d 0c 5d bc 34 36 64 3b 5f 32 11 3e dc 14 09 be
       -0.013491702 0.0034822347 0.14179371 -0.13386863
000020 0d 17 10 bb ca d7 9f 3c 5c 6d 96 3e 24 be 8e be
       -0.0021986396 0.019512076 0.2938031 -0.2787944
000030 68 89 00 3b 5e a9 c7 3c 8a f6 0a 3f 67 b5 b9 3e
       0.001961315 0.024372753 0.5428244 0.36271212
000040 75 25 5c 3b 6a f8 55 3c 26 e6 af be 63 95 a0 3e
       0.0033591662 0.013059715 -0.34355277 0.31363973
000050 48 91 2e bb f4 5d 95 bb 99 09 88 3e 34 c4 83 be
       -0.0026636887 -0.004558319 0.26569822 -0.2573563
000060 e8 b5 9b 3b 2a e4 55 bb c9 92 59 3e 0f 4d 4f be
       0.0047519095 -0.0032637217 0.212474 -0.2024424
000070 ac d3 f1 bb 3a d7 b8 bb ad e4 14 3e 80 25 1b be
       -0.0073799696 -0.0056408914 0.14540358 -0.15151024
000080 11 48 37 3c 0a 0e 85 bc 32 21 72 3e 65 25 78 be
       0.011186616 -0.016242046 0.23645476 -0.24233015
000090 7b d1 07 be 60 14 2d bd 93 7f 31 3d ff 72 33 3d
       -0.13263504 -0.04225576 0.043334555 0.04381084
0000a0 a3 bb 41 bc c2 c1 c7 bb 4a ce b3 be 56 25 b5 3e
       -0.011824521 -0.006096096 -0.35118324 0.35380048
0000b0 9e 44 a1 3b a7 d0 bc bb 32 2d 53 3d c3 ea 87 bd
       0.00492151 -0.005762178 0.051556773 -0.06636574
0000c0 37 29 2e 3a 8d a3 fc bb 52 bc 5b 3e a2 c5 4e be
       0.0006643715 -0.0077099265 0.21458557 -0.20192578
0000d0 11 0c 0c 3e 39 59 f5 3d fd ff 1a 3e 8c c3 eb 3d
       0.13676478 0.119799085 0.15136714 0.11511907
0000e0 30 e0 8b 3b e0 4a a3 3b 72 61 cd 3e 1f 93 cc be
       0.0042686686 0.004983291 0.40113407 -0.39955994
0000f0 ce d6 8a 3c 2f cd a9 bc 10 f9 7e be 95 3e bf be
       0.01694813 -0.020727722 -0.24899697 -0.37352434

model.decoder_gnn.pre_nn.fc_layers.0.0.bias f4 [16]
000000 09 1d 8d 3e 51 cb 64 3e 43 de 9a 3e 50 c0 c1 be
       0.27561215 0.22343184 0.30247697 -0.37842035
000010 eb ff e4 3e 5e 93 01 bf cd ef 1a 3e 59 98 bf 3e
       0.447265 -0.5061549 0.15130539 0.3742092
000020 40 07 f7 bd d9 d6 e9 be 3c 1d c3 3d d3 57 97 3e
       -0.1206193 -0.45671728 0.095270604 0.29559192
000030 79 f3 16 be 6f 5f 1d bf b1 83 90 3e db 07 9d be
       -0.14741315 -0.61473745 0.28225473 -0.30670056

model.decoder_gnn.lin_skipsum.0.0.weight f4 [16, 16]
000000 dd eb a4 bd 32 33 1f be 96 57 8d 3d f9 30 2b 3d
       -0.080528 -0.15546873 0.06901471 0.04179475
000010 1b 26 61 3e 54 27 11 be a1 8e 90 be 75 d1 0c 3e
       0.21987192 -0.14175159 -0.28233817 0.13751777
000020 d7 b9 9d 3c b3 08 23 3d 19 a6 d2 3d 03 db e7 bd
       0.019253654 0.039803218 0.10285587 -0.1132107
000030 f1 27 98 3d e2 93 77 3a 81 06 a8 bd 48 e7 98 bd
       0.07429493 0.00094443385 -0.082043655 -0.074659884
000040 e2 a5 43 3e 46 6d 45 be 98 a3 5f bd f4 ee 9b bd
       0.19106248 -0.19279966 -0.054599375 -0.07613936
000050 02 88 56 3d 2d 5a b4 3d 20 ad 05 3c d2 38 6b bd
       0.0523758 0.08806262 0.008158952 -0.057427235
000060 ae 54 85 bb 91 96 07 be 1f 0e d6 bd ea fc 5e bd
       -0.0040689325 -0.1324103 -0.10451912 -0.054440416
000070 02 b9 5f be 79 0f 75 3d dc 37 f3 bb 1a 80 af bd
       -0.21847919 0.05982921 -0.0074224304 -0.08569355
000080 ab 8a 92 bd b5 19 c0 3d 92 79 f4 ba 57 3d 83 3d
       -0.07155355 0.09379903 -0.0018651953 0.06408184
000090 01 f5 82 bb 73 bc 23 3d 4b 80 98 3d c7 45 bc bc
       -0.003996492 0.03997464 0.07446345 -0.022982491
0000a0 45 e4 40 bd 47 15 7f bd 42 88 35 be 6d d2 2a 3d
       -0.047092695 -0.06227615 -0.1772776 0.041704584
0000b0 9b 74 a3 3e 8d 7e d5 3d 18 a3 f7 3c 87 49 96 3c
       0.319249 0.10424528 0.030229136 0.018345607
0000c0 44 af 49 3d bc 1a a6 bc c7 f0 20 bc e6 56 04 bd
       0.049239412 -0.02027642 -0.009823031 -0.032309435
0000d0 c7 cb 03 3e 78 17 96 bd 5e 57 67 3d ac a6 cc 3c
       0.12870704 -0.07328695 0.056479804 0.02498182
0000e0 7c bd 64 be 47 81 9c 3c 00 59 23 3d e3 d0 13 3d
       -0.22337908 0.019104613 0.0398798 0.03608788
0000f0 b1 87 98 bc 33 03 0c be ca f9 c5 bd 1e aa e0 ba
       -0.01861939 -0.13673095 -0.09666784 -0.0017140543
000100 71 cc ea bd 32 9c 05 be 4f ae e0 3d f9 fa c5 bd
       -0.11464775 -0.13047865 0.10970747 -0.0966701
000110 62 8f e1 bd 56 d5 d2 3a f2 64 fb 3d 34 59 8f 3d
       -0.11013676 0.0016085308 0.12275113 0.06999436
000120 e5 c9 f1 3d 5e d5 51 be a8 d8 d0 bc c3 74 d5 3d
       0.118060865 -0.2049155 -0.025493935 0.10422661
000130 24 fc 31 3d c1 dd d1 3d c5 f8 19 bd 73 8d 0f be
       0.04345335 0.10247374 -0.03759076 -0.14018802
000140 fb 34 14 bd f5 f7 53 be 7d ff 19 be 43 bd 4f bd
       -0.03618334 -0.20700057 -0.15038867 -0.050717603
000150 9d fa f7 3d 45 f8 dd bd 26 14 b0 3d 71 0e 17 3e
       0.121083476 -0.10838369 0.08597593 0.14751603
000160 2f 0a 64 be c5 30 08 be 61 16 6e 3e 6b 30 89 3d
       -0.2226951 -0.13299854 0.23250724 0.06698688
000170 89 e5 52 be fc 51 bd 3d 2d 18 c6 3d 6f be b5 3d
       -0.20595373 0.09244153 0.0967258 0.08874213
000180 4a a2 17 be 6a b8 40 3e ab 66 ad bd 94 0a ce 3d
       -0.14808002 0.18820348 -0.08466848 0.10060611
000190 d1 07 10 bd 1e 74 a1 3e 5d 68 81 3e 69 5e 33 3e
       -0.035163704 0.31533903 0.25274935 0.17516483
0001a0 6e 5b 83 3e cd 03 42 be 5e 98 38 be 47 ae d0 3c
       0.25655693 -0.18946762 -0.18026873 0.025473727
0001b0 7a 94 a4 bd 95 99 23 be c4 66 4e bd 54 8a d8 3d
       -0.08036132 -0.15976556 -0.050390974 0.10573259
0001c0 43 da 0b be 0a 28 d8 3d ef 67 5e 3d c3 d9 b6 3d
       -0.13657479 0.10554512 0.054298338 0.089282535
0001d0 75 7a 9f bb d7 4e e8 3d 6f 16 28 3d 8e 89 35 3e
       -0.004866893 0.113431625 0.04103702 0.17728254
0001e0 68 50 e5 3d 62 b6 c5 3d a8 dd 42 bd c8 51 bc 3d
       0.11196977 0.096539274 -0.04757467 0.09195286
0001f0 0a 50 b5 3d 68 53 75 3c bc 7c 6d bd 60 8e 1b 3e
       0.08853157 0.014973499 -0.057980284 0.1519103
000200 1d 7b ba bc 5d 3e bb bd 07 e9 53 bd ba 5c f3 bd
       -0.022763783 -0.09142754 -0.051735904 -0.118829206
000210 b0 ef 39 3e 5c 3d 39 be 0d 28 02 bb 2c ad 09 be
       0.1815784 -0.18089813 -0.0019860298 -0.13444966
000220 4f 73 c1 bc 24 35 e5 bd 5b 06 69 bb 2d cc 93 3d
       -0.023614554 -0.111917764 -0.0035556767 0.07216678
000230 e6 0d 42 3d 21 58 c2 3d ce 8b 32 be 23 c9 9d 3d
       0.047376536 0.094894655 -0.17436144 0.077043794
000240 87 c5 bd 3d 45 0c c8 3c 9d 15 b1 3d 04 c9 77 3d
       0.09266191 0.024419913 0.086467005 0.060494438
000250 47 44 29 3e 4a ea 65 bc 30 14 73 3c 9d b7 89 be
       0.16529952 -0.01403291 0.014836356 -0.26897898
000260 8f d5 34 be 43 44 ca 3d 13 ee 66 bd 5b a4 76 be
       -0.17659591 0.09876301 -0.05637939 -0.24086134
000270 27 0c 08 bd 5b 52 4c be f5 8f de bb 28 1a ce 3b
       -0.033214714 -0.19953291 -0.0067920634 0.006289739
000280 eb 98 cc 3d 29 e5 2b 3e 3f 13 83 bd 67 9f 74 bd
       0.09990104 0.16786636 -0.06400155 -0.05972233
000290 27 19 db 3d 1c 4f ce bd 3e bf 98 3c 9d 5c a5 bb
       0.10698157 -0.10073683 0.018645879 -0.0050464408
0002a0 2c c0 4b bd 14 02 8a 3d ef b2 bd 3c 85 d6 b0 3d
       -0.049743816 0.067386776 0.023156611 0.08634666
0002b0 8c cf d1 bd 91 6d 18 3e 4d 1a bb bd 08 73 1d be
       -0.102446645 0.14885546 -0.09135876 -0.15375912
0002c0 18 f1 8f bc 73 96 5f 3e 94 3a 05 be 6a 80 86 3c
       -0.017571017 0.21834736 -0.13010627 0.016418654
0002d0 31 a7 8b bd 23 e3 20 3d 14 6e c2 bc d0 f2 0e 3e
       -0.068189986 0.039279114 -0.02373413 0.13959813
0002e0 8b fd 14 3e dc 9c ed 3c 27 a4 07 be e3 a2 7e 3b
       0.14549844 0.02900546 -0.13246213 0.0038854412
0002f0 dd 21 ee 3d 2e 9a 30 3e ab 51 63 3d 9c 0e 07 3e
       0.11627553 0.17246315 0.055497807 0.13189167
000300 d2 24 f3 bd 4a 69 0b 3d 57 44 85 bd 92 66 70 bd
       -0.11872257 0.03403596 -0.065071754 -0.05869157
000310 51 b9 d4 bd bd 9c e2 3c c5 5c 57 3c 07 37 09 3e
       -0.10386909 0.02766263 0.013144677 0.13399898
000320 5e a2 b7 bd 77 94 be 3d 4d e4 57 3d 86 17 01 be
       -0.08966516 0.09305661 0.05270796 -0.1260663
000330 9c 91 94 bc 7c 76 2c bd f6 29 23 3e e2 19 5d 3b
       -0.018135838 -0.042105183 0.15933976 0.0033737351
000340 18 88 26 bd 01 74 0f be 1d 73 f8 bd fe aa 30 bd
       -0.040657133 -0.14009096 -0.12131331 -0.04313182
000350 85 28 62 3d 94 63 f1 bd e1 cb e8 3d e4 93 c1 3b
       0.055214424 -0.11786571 0.11367012 0.0059075225
000360 7b 78 e2 3c 33 16 24 3e 96 b7 33 3e 8e 42 1d be
       0.02764534 0.16024093 0.17550501 -0.1535742
000370 84 e4 07 3d 93 69 50 bd 4b 12 55 bd 86 40 de 3d
       0.033176914 -0.050881933 -0.0520194 0.108521506
000380 4a 78 9c 3d 8c 5f ad bc 6e 0b 9c bd 3f 49 14 3d
       0.07640131 -0.021163724 -0.076193675 0.036202665
000390 62 cc 65 bd ab 9c ca 3d 79 83 22 be 4f 00 0b bc
       -0.056103118 0.09893163 -0.15870465 -0.00848396
0003a0 bf bf f2 bd ec 36 79 bd b1 93 0a 3e 5a ee 33 be
       -0.11852979 -0.060843393 0.13532902 -0.17571393
0003b0 a3 3e 89 bd 0f f4 45 3e 34 57 53 bd 33 80 8b bd
       -0.067014 0.19331382 -0.051596835 -0.068115614
0003c0 7e 89 50 3e 6c 39 b2 3d 6e a7 22 be ac a5 d8 bc
       0.20364949 0.087023586 -0.15884182 -0.026446186
0003d0 7e a3 48 bb e4 b9 84 3d b4 f8 8a bd ae 03 41 be
       -0.0030615027 0.06480768 -0.067857176 -0.1884906
0003e0 da 66 98 3d 10 e0 cc bd 89 23 1b bd 98 9f 49 be
       0.074414924 -0.10003674 -0.037875686 -0.19689786
0003f0 0f 1e 49 be e4 42 00 be 8b 53 ae 3c 47 5e 6a be
       -0.19640373 -0.12525517 0.02128007 -0.22887526

model.decoder_gnn.lin_skipsum.0.0.bias f4 [16]
000000 5d f8 1d bd c5 06 73 3d 91 ae e2 3c 01 50 81 bd
       -0.038566936 0.059332628 0.02767113 -0.06314088
000010 31 d0 31 3d b5 28 fc bd c5 bb 4b bc 36 45 ae bd
       0.043411437 -0.12312452 -0.012434904 -0.08509295
000020 e2 cd ba 3d 84 37 21 3d ad e2 9d bd a0 6c 6d bc
       0.091213 0.039359584 -0.077092506 -0.01449123
000030 01 35 25 3d 6f 9b 86 3c 95 c7 04 3e c6 66 ff 3d
       0.04033375 0.016431538 0.1296676 0.12470774

model.decoder_gnn.lin_skipsum.1.0.weight f4 [16, 16]
000000 32 74 2d 3d 8a c4 81 be 7b 6e 7c 3d 99 7f e8 3d
       0.04234714 -0.2534526 0.0616288 0.11352462
000010 4e c3 f9 bc dd f4 9f 3d 8d 77 54 3e d3 a7 fc bd
       -0.030488636 0.07810376 0.2074873 -0.123366974
000020 b6 a2 10 3c 84 41 ec 3e c6 ca d6 3d b6 c9 b9 3e
       0.008827856 0.46143734 0.10487895 0.36286706
000030 75 2a 64 be 41 eb c7 3d 7a 93 26 3e 7d 17 1c 3d
       -0.22281821 0.09761668 0.16267195 0.038108338
000040 e3 e0 6d 3e 3e 57 13 3c 5c a3 1d bd 61 61 dd 3d
       0.23230319 0.008992968 -0.03848587 0.10809589
000050 fc 83 34 3e 28 19 36 be 85 54 82 bd 63 d7 a2 bd
       0.17628473 -0.17783034 -0.06363777 -0.07951238
000060 83 3c 8d bc 8c c8 1c 3f 52 4b 74 3d a2 52 b1 3e
       -0.017240768 0.6124351 0.059642144 0.34633356
000070 e6 ee f9 bd c7 58 fe bc f3 ea c0 3c 5c a1 44 be
       -0.122037694 -0.031048192 0.023549533 -0.19202179
000080 77 a2 ad be 1c 56 e0 3d f2 68 1b bd 41 44 0d be
       -0.33913013 0.10953924 -0.03794188 -0.13795568
000090 3d 6a 38 be 9a 4d 77 3e c3 4b 5a 3d fe b6 60 3d
       -0.18009277 0.24150696 0.05329491 0.054862015
0000a0 cd ba 10 bd 58 c2 4e bf 96 5c c7 3c de a6 6d be
       -0.035334397 -0.80765295 0.02433614 -0.23208186
0000b0 0b ed e4 3d c1 e8 b4 3d e4 23 12 be 13 59 15 3e
       0.11178025 0.08833457 -0.14271504 0.1458476
0000c0 e9 eb 0d 3f ed 83 17 bd 39 e8 79 3d 27 73 3d 3e
       0.55438095 -0.03699105 0.06101248 0.18500958
0000d0 ce 9f 77 3d e3 72 cd bd 85 d6 53 3e 60 8e b6 bd
       0.060455136 -0.100316785 0.20687301 -0.089138746
0000e0 ec a2 e0 3d e5 2c 32 3f a6 23 85 3d fe 04 82 3e
       0.10968575 0.69599754 0.0650094 0.25394434
0000f0 55 e9 0f bd df cb dd bc 50 77 62 bc be 46 25 be
       -0.035134632 -0.027074752 -0.013822392 -0.16140267
000100 fd 1d 7e be 3d 6c 11 3e a1 ce be bd 15 5e 1b be
       -0.24816127 0.14201446 -0.09316755 -0.15172608
000110 df 6d 63 bd ce e6 34 3e e5 cd 95 3d 08 8f 84 bc
       -0.055524703 0.1766617 0.07314662 -0.016181484
000120 64 94 22 be d6 f4 33 bf f7 f5 ac bd 67 32 b9 bd
       -0.15876919 -0.70295465 -0.084453516 -0.090428166
000130 30 17 95 3d 41 11 e5 3d 24 77 47 bd 21 42 d3 3d
       0.07279813 0.111849315 -0.048697606 0.103153475
000140 83 89 64 3e 10 58 e2 3d 2b a7 fe 3d 9b d8 71 bc
       0.22318082 0.11051953 0.124342285 -0.014761115
000150 93 8b 50 3e 3d a9 1f be 7a 03 95 bb 25 75 71 be
       0.20365743 -0.15591903 -0.0045475336 -0.23579843
000160 9b ac f1 3c dc 95 39 3f 4d eb 9d 3d 01 6b e1 3e
       0.02950125 0.7249429 0.07710896 0.4402695
000170 ba 9c 00 be b7 2c e1 3d d7 31 5f bd 70 89 9c 3c
       -0.12559786 0.10994857 -0.05449089 0.019108504
000180 de 77 55 be 2b f0 18 3e a3 5f 36 bd f6 02 67 be
       -0.20846507 0.14935367 -0.0445248 -0.22559723
000190 53 b4 84 bd c5 39 39 3e e3 b2 45 be b8 de a2 bd
       -0.064797066 0.18088444 -0.19306521 -0.079526365
0001a0 3f 62 6d be 0c c2 31 bf 32 62 7d be 5c ea 8e be
       -0.23182009 -0.6943672 -0.2474449 -0.27913177
0001b0 1a b8 11 3e 77 f7 29 bd 33 6b 07 3e 80 79 f0 3c
       0.14230385 -0.041495766 0.13224487 0.02935481
0001c0 d9 3d ad be cf 0d 98 3d 63 82 d3 3d 50 22 70 be
       -0.3383625 0.07424509 0.10327604 -0.23450589
0001d0 fc 57 b2 bd 8f af 26 3e 69 48 4b be ee 7b aa 3c
       -0.08708188 0.16277908 -0.19851841 0.020811047
0001e0 9d 5a 6c 3d 41 25 e2 be 7f 87 be bd 19 45 45 be
       0.057703603 -0.44169047 -0.093031876 -0.1926464
0001f0 68 c6 3b 3e c5 be 65 3e 3c 51 84 be 3f be 80 3e
       0.18337405 0.22436054 -0.25843227 0.25145146
000200 c4 b5 96 3e 08 d0 68 be e7 96 5c 3e bf 5a 93 3e
       0.2943555 -0.22735608 0.2154194 0.2878017
000210 1f 78 9c 3d 12 a6 b0 bc f7 89 8c 3e dd ea a8 3d
       0.07640099 -0.021563563 0.2744901 0.082479216
000220 5c 25 6a 3e a5 65 22 3f 2e 7f 2f bd 77 21 31 3e
       0.22865814 0.6343635 -0.042845897 0.17297922
000230 55 58 57 bd 7c 64 b2 3c 69 66 d5 bd 40 5c 5f 3e
       -0.052574474 0.02177643 -0.10419924 0.21812534
000240 5b cb 98 3e 3d 76 68 bd 8b 95 ea 3c 99 b9 85 3e
       0.29842648 -0.056753386 0.02863576 0.26118162
000250 f0 6c 35 bd dc bf 03 3c 98 06 65 3e a1 1e 95 bd
       -0.044293344 0.008041348 0.22365797 -0.072812326
000260 f9 bc 64 3d b3 86 11 3f fe a2 24 3e f1 f9 f0 3d
       0.05584428 0.5684616 0.16077802 0.117664225
000270 62 b6 2d be 24 b6 2b bc 4d c8 36 bd cf fe 87 be
       -0.16964105 -0.010480437 -0.044624615 -0.2656159
000280 2d 5b b5 3c 20 6d 15 3c f1 7f 89 bd 57 41 32 3c
       0.022138203 0.009120256 -0.06713856 0.010879836
000290 9c 30 56 3e 29 bf 08 be 11 26 63 3d 9c a5 27 bc
       0.2091698 -0.13354172 0.055456225 -0.010232355
0002a0 ce 17 8e bd 1a 43 41 3f 16 b8 90 3d 73 b9 61 3e
       -0.06938134 0.75493014 0.070663616 0.220434
0002b0 2d 17 ba bd db db 58 bd ec 7f 1b 3d c1 46 31 be
       -0.09086452 -0.052944046 0.037963793 -0.17312147
0002c0 0b ec 15 bf cd f2 c0 3d 4a 95 b6 bd d6 07 36 be
       -0.585633 0.094213106 -0.089151934 -0.17776427
0002d0 6a cb 40 3b bb f2 20 3e c8 a0 9a bc 87 e3 f9 3c
       0.002941812 0.15717594 -0.018875495 0.030504001
0002e0 b5 34 2a be 98 c9 54 bf d1 3d e3 bd ad 4e 6d be
       -0.16621669 -0.8312011 -0.11095775 -0.23174544
0002f0 31 96 0c 3d 93 6d 92 3d 81 2c 08 3d 98 5c 81 bc
       0.03432292 0.07149806 0.033245567 -0.015791222
000300 a6 db 0f be e9 6b 21 3c 6c 7f 22 be 7b 9a 59 3d
       -0.14048633 0.009852388 -0.1586892 0.05312584
000310 b4 79 05 3c 52 67 8e 3d 68 14 1c be df b5 89 3d
       0.008146692 0.069533005 -0.1524216 0.06724142
000320 01 a2 5a bd 5a cc 36 bf ae b0 c0 bd cc f7 b6 be
       -0.053377155 -0.71405566 -0.09408699 -0.3573593
000330 79 11 e2 3d 5a 3e 82 3e c1 43 9c 3d c2 26 0a 3e
       0.11038489 0.25438195 0.076301105 0.13491347
000340 60 d6 ed 3d c4 2b 06 bd e3 ca ca 3d 0d 8b a9 3d
       0.116131544 -0.032756582 0.09901979 0.08278475
000350 e8 06 b6 3d f7 c7 0c be eb 98 0a 3e 33 ac 07 be
       0.08888036 -0.13748156 0.13534896 -0.13249283
000360 2d 7c 96 3d d3 11 2f 3f cd fd c4 3d 52 eb 4d 3e
       0.073479034 0.6838657 0.09618721 0.20109299
000370 21 1e c0 3c 00 b1 4c be b1 23 f9 bc 8f a9 32 3e
       0.023451867 -0.19989395 -0.030412527 0.17447494
000380 49 8a f2 3d 4d f4 44 be f5 07 8c 3d 90 65 61 3e
       0.11842782 -0.19233818 0.06837455 0.220114
000390 d7 4c ab 3d d1 af 08 bd 55 62 8f 3b ef 27 7d bd
       0.083642654 -0.033370797 0.0043757358 -0.06180566
0003a0 13 1d 1c 3e 36 00 e8 3e 12 5a 56 3c 0d 83 ad 3e
       0.15245466 0.4531266 0.013082998 0.33889046
0003b0 cf f5 4f be d2 7b 18 3e 6f 32 82 3d 9f 7d 95 3d
       -0.20308612 0.14890984 0.06357276 0.07299351
0003c0 8d 84 3c 3e 35 39 51 bd 33 79 a4 3a f1 4f 33 3e
       0.18409939 -0.051079948 0.0012548327 0.17510964
0003d0 8d 15 c1 bb 97 59 4a be 6f 84 04 3e 11 c3 4e bd
       -0.0058924616 -0.19760738 0.12941144 -0.050479
0003e0 1d 85 f4 bc a1 90 d3 3e 43 ad 29 3e 2b be a3 3e
       -0.02984863 0.4132128 0.1657 0.31981024
0003f0 63 47 97 bd 0f 6d 3e bd fa 20 05 3e 9b 1d 83 bd
       -0.07386663 -0.046490725 0.13000861 -0.06402131

model.decoder_gnn.lin_skipsum.1.0.bias f4 [16]
000000 c3 91 74 bd 78 72 8e bd 97 79 33 3c f4 51 12 be
       -0.05970932 -0.06955427 0.010954282 -0.14289075
000010 f6 7c a3 3c 82 8e 2a be fe c3 3a 3e 25 64 32 3d
       0.019957047 -0.16655925 0.18238828 0.043552537
000020 18 c2 17 be 1f 03 22 be 35 d6 c0 bd 1f a5 6c 3d
       -0.14820135 -0.15821503 -0.09415857 0.05777466
000030 0b 41 d8 3d 34 48 15 be a4 12 4c bd 5e f7 b0 bd
       0.10559281 -0.14578325 -0.049822465 -0.086409315
