_models_trained/vaca/trianglesens_linear/last.ckpt (torch, 25614 bytes, 25 tensors)

model.encoder_gnn.pre_nn.fc_layers.0.0.weight f4 [16, 1]
0	0xbeb38240	-0.3506031
1	0x3e6892b8	0.22712219
2	0xbcd302c8	-0.025758162
3	0xbf057449	-0.5213056
4	0xbf2a2627	-0.66464466
5	0x3f1822d1	0.59428126
6	0xbdf1aa40	-0.11800051
7	0xbf082d9c	-0.53194594
8	0xbef32a8f	-0.47493407
9	0x3f1a630a	0.6030737
10	0xbe3483f1	-0.17628457
11	0xbd1e3a60	-0.03862989
12	0xbda53866	-0.08067398
13	0xbf43d1bd	-0.7649191
14	0x3f0cb162	0.54958165
15	0xbf7256bf	-0.94663614

model.encoder_gnn.pre_nn.fc_layers.0.0.bias f4 [16]
0	0x3e34e40c	0.17665118
1	0xbf67ca88	-0.90543413
2	0xbdc86236	-0.09784357
3	0xbf5a2644	-0.8521464
4	0xbf316143	-0.69289035
5	0x3ce03eb1	0.027373644
6	0xbf5b08ae	-0.8556012
7	0xbf08cbb2	-0.53435814
8	0x3de554c3	0.11197808
9	0xbe80fdd2	-0.2519365
10	0x3e52522f	0.20539163
11	0xbe1758b8	-0.14779937
12	0xbec2dd7b	-0.380596
13	0x3dc77bfd	0.09740446
14	0x3e4ad7f2	0.19808939
15	0xbeae46a1	-0.3403826

model.encoder_gnn.lin_skipsum.0.0.weight f4 [16, 16]
0	0x3e14dcff	0.14537428
1	0x3e7551e8	0.23957026
2	0x3e7508b4	0.23929101
3	0xbe00a53f	-0.12563036
4	0x3ddb7196	0.10715024
5	0xbde5429a	-0.11194344
6	0xbd99448c	-0.074837774
7	0x3e1d973e	0.15389726
8	0x3e2348d2	0.15945747
9	0xbe2456d1	-0.16048743
10	0x3dda344a	0.106545046
11	0x3e755c8a	0.23961082
12	0x3e89dc55	0.26925912
13	0x3dc31c0f	0.09526836
14	0xbdc2f9b6	-0.09520285
15	0x3dcf22a3	0.10114028
16	0xbe03788c	-0.12838954
17	0xbd802130	-0.0625633
18	0x3e21142c	0.15730351
19	0x3d95fb1e	0.073232874
20	0x3d9c6216	0.07635896
21	0x3e73e31a	0.23817101
22	0xbdf8efe4	-0.121551305
23	0xbe792d34	-0.2433365
24	0xbe666180	-0.22498131
25	0x3eac59d3	0.3366228
26	0xbe00bfd4	-0.12573177
27	0x3e41e956	0.18936667
28	0xbd011b48	-0.031520158
29	0xbdb0e771	-0.08637894
30	0x3dca1524	0.098673135
31	0xbda34256	-0.07971637
32	0x3e15f6e8	0.14644969
33	0x3ce289e0	0.027653635
34	0xbdf91c38	-0.121635854
35	0x3cbb3a24	0.022854872
36	0x3e175294	0.14777595
37	0xbdcfc3d0	-0.1014477
38	0xbe3f7aa4	-0.18699127
39	0x3d173450	0.036915123
40	0x3dddffc9	0.10839803
41	0xbe357751	-0.17721297
42	0x3e85f3f0	0.26162672
43	0x3e1f4122	0.1555219
44	0xbe106c1e	-0.14103743
45	0x3d858265	0.065190114
46	0xbdb90f49	-0.090361185
47	0x3d78e5a9	0.060765896
48	0x3e52946e	0.20564434
49	0xbe330ff6	-0.17486557
50	0x3e1dc52d	0.15407248
51	0x3e83fada	0.25777322
52	0xbddc8f5a	-0.1076953
53	0xbe2a46fe	-0.16628644
54	0xbe04b4dc	-0.12959617
55	0xbdaff4ca	-0.08591612
56	0x3e449911	0.19199015
57	0xbecfd8ef	-0.40595195
58	0x3e5b6632	0.21425703
59	0xbe7aaaf4	-0.24479276
60	0xbe249794	-0.16073447
61	0x3dabdb0b	0.083913885
62	0xbd4a26ea	-0.049353518
63	0xbd2fc40a	-0.042911567
64	0xbdebe092	-0.11517443
65	0x3dfe06d4	0.12403646
66	0xbe417c0b	-0.18894975
67	0x3e406985	0.18790253
68	0xbe35919e	-0.1773133
69	0x3e0ef2ca	0.13959804
70	0xbd27b100	-0.040940285
71	0xbd9c5ba2	-0.07634665
72	0xbe10f82e	-0.14157173
73	0x3e0be9f1	0.1366346
74	0xbe1c8f7b	-0.15289108
75	0xbd69ea80	-0.057108402
76	0xbe991c7e	-0.2990455
77	0xbd8e1be6	-0.06938915
78	0x3de10652	0.10987534
79	0xbd6fd106	-0.05854895
80	0xbd2dacf5	-0.042401273
81	0x3e1a9126	0.15094432
82	0xbe5a1946	-0.21298704
83	0x3cc69a34	0.024243452
84	0xbdae1773	-0.08500566
85	0x3e55827a	0.20850554
86	0xbe36adf4	-0.17839795
87	0xbe1abc33	-0.15110855
88	0xbdfd02a1	-0.12354017
89	0x3e58b550	0.21162915
90	0xbd234b26	-0.03986659
91	0xbe682bca	-0.22672954
92	0xbe94d3ad	-0.29067746
93	0xbd9d5ca9	-0.07683689
94	0x3e4ca529	0.19984879
95	0xbdc7ef71	-0.09762467
96	0xbe84af57	-0.25915024
97	0xbb8e6940	-0.004346043
98	0xbe059733	-0.13045959
99	0x3d966eff	0.073453896
100	0xbe185df6	-0.14879593
101	0x3e0eedd5	0.13957913
102	0x3c693480	0.014233708
103	0xbdc23871	-0.094834216
104	0xbd8b175c	-0.06791565
105	0x3e765dbc	0.24059194
106	0xbe63e080	-0.22253609
107	0x3e27c286	0.16382799
108	0x3e3b18b3	0.18271141
109	0xbe1ffc93	-0.15623693
110	0x3e12b52a	0.14326921
111	0xbc99c28c	-0.018769525
112	0x3e0cd8bc	0.13754553
113	0x3e4e1124	0.20123726
114	0x3dcaf1d0	0.09909403
115	0x3db7304c	0.08944759
116	0x3defb352	0.117041245
117	0xbe58f5de	-0.21187541
118	0x3d51d2a0	0.05122626
119	0x3e4135a9	0.18868126
120	0x3d8b55ff	0.06803512
121	0xbea9ee8d	-0.33189812
122	0x3e3984af	0.18117021
123	0x3e04843c	0.12941068
124	0xbdc09ef3	-0.09405317
125	0x3e2e5188	0.17023289
126	0xbe35fcda	-0.17772236
127	0x3e10d2b8	0.14142883
128	0x3bcea763	0.006306575
129	0xbe3eccb8	-0.18632782
130	0x3d056879	0.032570336
131	0xbdf3c0fb	-0.119020425
132	0x3eaf7ce2	0.34274966
133	0xbe624b93	-0.22099142
134	0xbe520c4e	-0.20512506
135	0x3dc017b1	0.09379519
136	0x3e6050f7	0.21905886
137	0xbea65097	-0.3248336
138	0x3dbb5649	0.09147317
139	0x3e4fa298	0.20276868
140	0xbe24966d	-0.16073008
141	0x3de1a5b0	0.110179305
142	0xbe84011c	-0.25782096
143	0x3e2c8f32	0.168515
144	0xbd458902	-0.048226364
145	0xbe206ec0	-0.15667248
146	0x3d64eb8d	0.0558887
147	0x3e14f90f	0.14548133
148	0xbe008d00	-0.12553787
149	0x3e3e2f83	0.18572812
150	0x3e67ce46	0.22637281
151	0xbe83eed7	-0.25768158
152	0xbe4b5759	-0.19857539
153	0x3e2ba877	0.16763483
154	0xbd85a209	-0.065250464
155	0xbde3148c	-0.110879034
156	0x3dcad1fe	0.09903334
157	0xbdcdce6a	-0.10049136
158	0x3e0a708d	0.13519497
159	0xbd48cec3	-0.04902531
160	0xbdef0c97	-0.11672323
161	0xbda7ee14	-0.08199707
162	0x3d49938f	0.04921299
163	0x3e80fc0e	0.25192302
164	0xbd7dcd8a	-0.061963595
165	0x3e26a6cd	0.16274567
166	0x3cad78c0	0.021175742
167	0xbe958122	-0.29200083
168	0xbe1f7cbc	-0.15574926
169	0x3df97fd7	0.12182587
170	0x3d0d6d6d	0.034528185
171	0xbe08ca00	-0.13358307
172	0x3d198eb1	0.037489597
173	0xbdaaae38	-0.08334011
174	0x3e126028	0.14294493
175	0xbd27a163	-0.040925395
176	0xbdb74234	-0.08948174
177	0xbd2b9e58	-0.041899055
178	0xbe0e3d74	-0.1389063
179	0x3e366ba2	0.17814496
180	0xbe05b593	-0.13057546
181	0x3dbbbf2d	0.09167323
182	0xbdee1544	-0.1162515
183	0xbda88f46	-0.08230452
184	0xbe1f7dce	-0.15575334
185	0x3dc54722	0.09632708
186	0xbc9e9a79	-0.019360768
187	0xbbc95fc0	-0.0061454475
188	0x3cae2724	0.021258898
189	0xbda84c34	-0.082176596
190	0x3de1b1d6	0.11020248
191	0xbdcddd4d	-0.100519754
192	0x3e69c373	0.22828464
193	0x3d5e26a0	0.054236054
194	0xbd8cc74c	-0.0687395
195	0xbe575bf0	-0.21031165
196	0x3e4694a8	0.19392645
197	0xbe03243a	-0.12806788
198	0xbe083370	-0.13300872
199	0x3d08c5b7	0.03339168
200	0x3e34655e	0.17616794
201	0xbe152880	-0.14566231
202	0x3e84a6d7	0.2590854
203	0xbdc4de7c	-0.09612748
204	0xbd2d6e73	-0.04234166
205	0x3d72b5d8	0.05925545
206	0xbdee36aa	-0.1163152
207	0x3c9d00a6	0.019165348
208	0x3d636250	0.05551368
209	0xbd2c8998	-0.042123407
210	0x3e3098dc	0.17245811
211	0xbe2b9c45	-0.16758831
212	0xbc275214	-0.01021244
213	0xbe3107e1	-0.17288162
214	0x3e242b58	0.1603216
215	0x3e7bbd0b	0.24583833
216	0x3ddc4575	0.107554354
217	0xbe2e7df9	-0.17040242
218	0x3bd388f3	0.0064555346
219	0xbdb3331c	-0.08749983
220	0xbcb62092	-0.022232328
221	0x3d825e5c	0.06365654
222	0xbdd7feb8	-0.105466306
223	0x3dd3d94a	0.10344179
224	0xbd5a9e66	-0.053373717
225	0x3e0391c0	0.12848568
226	0x3db886f4	0.09010115
227	0x3e66f416	0.22554049
228	0xbe35aaa1	-0.17740871
229	0x3e2da0c6	0.16955861
230	0xbdc09f68	-0.09405404
231	0xbe16bcf6	-0.1472052
232	0xbd219749	-0.039450917
233	0x3dcf1b75	0.10112659
234	0xbc69ba55	-0.014265616
235	0xbe7c1a8a	-0.24619499
236	0x3c08baea	0.008345345
237	0xbdc0105f	-0.093781225
238	0x3e44db89	0.19224371
239	0xbd9b80ad	-0.07592902
240	0x3e5e9c82	0.2173939
241	0x3e7fd62e	0.24984047
242	0x3d2e3b9d	0.04253732
243	0x3cb8d5bb	0.022562852
244	0x3cf93de6	0.030425023
245	0xbe1345b3	-0.14382057
246	0x3e14cf16	0.14532122
247	0x3deebcc1	0.11657096
248	0x3de5a829	0.11213715
249	0xbec420e4	-0.38306344
250	0x3e2338b0	0.15939593
251	0xbb13e800	-0.0022568703
252	0x3be4a62a	0.006977816
253	0x3e250d90	0.16118455
254	0xbdc1d171	-0.09463776
255	0x3e271eae	0.16320297

model.encoder_gnn.lin_skipsum.0.0.bias f4 [16]
0	0xbd533141	-0.051560644
1	0x3d98ce09	0.07461173
2	0xbdb2c386	-0.087286994
3	0xbdf67816	-0.12034623
4	0x3d4b5195	0.04963835
5	0xbc0b825d	-0.008514968
6	0x3dcb1b91	0.09917367
7	0xbc97e538	-0.018541917
8	0x3d083ca2	0.03326095
9	0x3c7fe2c4	0.01561803
10	0xba937781	-0.0011250825
11	0x3c68ad02	0.0142014045
12	0xbdcbd821	-0.09953333
13	0xbc3af080	-0.011409879
14	0xbd01971d	-0.031638253
15	0xbdb0612c	-0.08612284

model.encoder_gnn.gnn.0.0.nn.0.weight f4 [16, 16]
0	0xbeb9a3d1	-0.36257794
1	0xbe356ab6	-0.17716488
2	0xbdef4db0	-0.116847396
3	0xbf59bac5	-0.8505061
4	0xbf7de275	-0.9917367
5	0x3dcee7ee	0.10102831
6	0x3e3723f6	0.17884812
7	0xbf91a609	-1.1378795
8	0x3e991715	0.29900423
9	0xbf6d5e03	-0.92721575
10	0xbf833e4e	-1.0253389
11	0x3e16ec3e	0.14738557
12	0x3d48b920	0.049004674
13	0x3e2a559f	0.16634224
14	0x3ee035ba	0.4379099
15	0x3dbabfd4	0.091186196
16	0x3e18cc3a	0.14921656
17	0x3e5e709e	0.21722648
18	0x3e8082b9	0.25099733
19	0x3f318bfa	0.6935421
20	0x3fa5c09f	1.2949408
21	0x3dca6891	0.09883226
22	0xbe600836	-0.21878132
23	0x3e90928b	0.28236803
24	0xbea04470	-0.31302214
25	0x3e67655a	0.22597256
26	0x3e4f4cd1	0.20244147
27	0x3e08a2c2	0.13343337
28	0xbdbf9d81	-0.09356213
29	0xbe8961dc	-0.26832473
30	0x3e810dda	0.2520588
31	0xbf90c8a4	-1.1311231
32	0xbe933dd3	-0.28758106
33	0xbe2e4180	-0.17017174
34	0x3e207404	0.15669256
35	0x3f12c644	0.5733378
36	0xbeada417	-0.33914253
37	0x3e8fde3b	0.28099236
38	0x3e5b3ecc	0.21410674
39	0xbeebbfec	-0.46044862
40	0xbd253a66	-0.040338896
41	0xbc3db35e	-0.011578409
42	0xbea3a68f	-0.31963012
43	0xbd5b4a08	-0.0535374
44	0x3dfe8534	0.1242775
45	0xbd72806d	-0.059204508
46	0x3c8c1aa7	0.017102553
47	0x3f090b1c	0.53532577
48	0x3e0455d8	0.12923372
49	0x3d9c3548	0.0762735
50	0x3d95aee1	0.07308746
51	0xbed0a8e0	-0.4075384
52	0x3df92d99	0.121669
53	0x3ea31114	0.31848967
54	0xbe5e17d4	-0.21688777
55	0x3e8b9d46	0.27268428
56	0xbd448398	-0.04797706
57	0xbf099fc6	-0.5375942
58	0x3e58a024	0.21154839
59	0xbe76aefe	-0.24090192
60	0xbe8c69be	-0.27424425
61	0x3b9e5072	0.004831367
62	0xbdd689cb	-0.10475501
63	0x3e5a8b06	0.21342096
64	0xbdb30fe9	-0.08743269
65	0x3deaf944	0.11473325
66	0xbcd51576	-0.02601121
67	0x3dff9323	0.12479236
68	0xbd2ea406	-0.042636894
69	0x3f67efd3	0.9060032
70	0x3dc67ce4	0.0969179
71	0xbd44c057	-0.048034992
72	0xbceaf436	-0.028680902
73	0x3def2be2	0.11678292
74	0xbd7da39c	-0.06192361
75	0xbdbed198	-0.093173206
76	0x3cf34d44	0.029699929
77	0xbb35d911	-0.002774779
78	0x3e31e085	0.17370804
79	0xbd4237e5	-0.047416586
80	0xbdaee37a	-0.085394815
81	0x3e207a24	0.15671593
82	0xbe3fe32d	-0.18739004
83	0xbde15c26	-0.11003904
84	0xbe7b16f9	-0.24520482
85	0xbe1bb1da	-0.15204564
86	0x3e7f5308	0.24934018
87	0x3ec0bc2c	0.37643564
88	0xbeb71faa	-0.35766345
89	0x3e3a903f	0.18219088
90	0xbd0a1a28	-0.03371635
91	0xbe57d9ce	-0.2107918
92	0x3d83c526	0.064340875
93	0xbe4b33f0	-0.19844031
94	0x3ee74cda	0.4517582
95	0x3e457a8f	0.19285034
96	0xbea45449	-0.32095554
97	0x3e45b00c	0.19305438
98	0x3d42b215	0.047533114
99	0xbe4ea51c	-0.20180172
100	0x3ea4ba26	0.3217327
101	0xbe68c06f	-0.22729658
102	0x3e387e0e	0.18016836
103	0xbf94fb65	-1.163922
104	0xbe98a5c5	-0.29813972
105	0xbc30b944	-0.010786358
106	0x3e26fd81	0.16307642
107	0x3e79c520	0.24391603
108	0xbdf8dc06	-0.12151341
109	0xbe671045	-0.225648
110	0xbe2d81d4	-0.16944057
111	0x3f083e33	0.5321991
112	0xbdec593c	-0.115404576
113	0x3e2e1498	0.17000043
114	0xbdd37dd9	-0.10326738
115	0xbeefcca7	-0.46835825
116	0xbe9a7d1e	-0.30173582
117	0xbe10aa21	-0.14127399
118	0xbe5d1354	-0.21589404
119	0xbf869c08	-1.0516367
120	0xbeb13ba0	-0.34615803
121	0x3f1386ca	0.57627547
122	0xbc9eb4dd	-0.019373352
123	0x3d1b00e0	0.03784263
124	0xbe36f3e4	-0.17866474
125	0xbe2e43f8	-0.17018116
126	0xbef0b413	-0.47012386
127	0x3e583d4e	0.21117136
128	0xbe088818	-0.13333166
129	0xbd700228	-0.058595806
130	0x3b371c1f	0.0027940345
131	0xbf04526e	-0.5168828
132	0xbecaa53d	-0.39579192
133	0xbf3a77cb	-0.7283904
134	0xbe3e88ac	-0.18606824
135	0xbf074036	-0.52832353
136	0xbcda25d6	-0.02662937
137	0xbd8b6361	-0.068060644
138	0xbe0c4fce	-0.13702318
139	0x3e46b924	0.19406563
140	0xbdbbc92c	-0.0916923
141	0x3dcce302	0.10004236
142	0x3f130827	0.57434314
143	0x3d90aba2	0.07063986
144	0x3c049ec5	0.008094494
145	0xbdce1e00	-0.10064316
146	0x3d5e5a0c	0.054285094
147	0xbe5275c2	-0.20552734
148	0xbeac8c72	-0.337009
149	0x3eb60bd1	0.3555589
150	0xbe441c6c	-0.19151467
151	0x3ed608b5	0.41803518
152	0x3ce85185	0.028359184
153	0x3f87b2c7	1.0601434
154	0xbc76652b	-0.015038769
155	0x3aab9f00	0.001309365
156	0xbde4507f	-0.11148166
157	0x3d225d93	0.03964002
158	0x3e926dde	0.28599447
159	0xbd93683b	-0.07197615
160	0x3da9ca4b	0.082905374
161	0x3c28aa20	0.010294467
162	0x3e47214b	0.19446294
163	0xbec62a0d	-0.38703957
164	0x3e88c236	0.2671067
165	0xbdd4c295	-0.10388676
166	0xbe2db168	-0.16962206
167	0xbbeb1d7e	-0.0071751466
168	0x3eb6462d	0.35600415
169	0x3ce1ab64	0.027547546
170	0xbac29686	-0.0014845885
171	0x3e42720c	0.18988818
172	0x3b2ab878	0.0026049893
173	0x3ea7f38b	0.32802996
174	0x3dd03cff	0.10167884
175	0x3e72832c	0.2368285
176	0xbe8fdbf1	-0.2809749
177	0xbe44c768	-0.19216692
178	0xbc824b32	-0.015904997
179	0x3e3966cf	0.18105625
180	0x3dbbc45f	0.09168314
181	0xbda467e7	-0.0802763
182	0xbe197a2c	-0.14988011
183	0xbe2fdfc3	-0.17175202
184	0xbe5e4b8a	-0.21708503
185	0xbc9c9765	-0.01911516
186	0xbe5a97c4	-0.21346956
187	0x3e5cd462	0.21565393
188	0xbe4973bd	-0.19673057
189	0x3f09e6bf	0.53867716
190	0x3c894561	0.016756715
191	0xbe986d8c	-0.29771078
192	0xbd79ee13	-0.06101806
193	0xbba40180	-0.0050050616
194	0xbe1e8ef3	-0.15484218
195	0x3dc27e62	0.09496762
196	0x3bc24bc1	0.0059294407
197	0x3bc0824f	0.005874909
198	0x3d2089e0	0.039193988
199	0x3dc18ed0	0.094510674
200	0x3f59050b	0.8477332
201	0xbd7c1122	-0.061539777
202	0xbda700d3	-0.08154454
203	0x3d8931f4	0.06698981
204	0xbe0cfad3	-0.13767557
205	0xbf0188e3	-0.505995
206	0xbcdd6dc6	-0.027029883
207	0xbe1e2dec	-0.15447205
208	0x3efaa5d3	0.4895464
209	0x3cfb7cf0	0.030699223
210	0xbda9ebe0	-0.08296943
211	0xbd99edb7	-0.07516044
212	0xbdec7a4f	-0.11546766
213	0x3ca240eb	0.019806346
214	0x3d52d2e0	0.051470637
215	0x3e5afa95	0.21384652
216	0xbf47da1f	-0.780672
217	0x3dfe24d0	0.12409365
218	0x3e28a47f	0.16469
219	0xbe0470e2	-0.12933686
220	0x3e7f428f	0.24927734
221	0xbe46ee5a	-0.19426861
222	0xbead9a8b	-0.3390697
223	0x3e57eb56	0.21085867
224	0xbe625f66	-0.22106704
225	0x3e709c32	0.23497084
226	0x3e1f0fd6	0.15533385
227	0x3e2ed09c	0.17071766
228	0x3c20c997	0.009813688
229	0xbed5098c	-0.41608846
230	0x3dbc518c	0.09195241
231	0xbed9d1bf	-0.42542836
232	0xbe0bbb8c	-0.13645762
233	0x3f1966d8	0.5992255
234	0xbe1bbca4	-0.1520868
235	0xbe569150	-0.2095387
236	0xbe1f30c9	-0.15545954
237	0xbd2e3406	-0.042530082
238	0x3dcf799e	0.101306185
239	0x3d1667c8	0.036720067
240	0x3e85681d	0.26055995
241	0xbe2ec9ce	-0.1706917
242	0xbb793f75	-0.0038032208
243	0xbaa2e670	-0.0012428295
244	0xbef5098a	-0.4785884
245	0xbdbed9a7	-0.09318858
246	0x3c39ae00	0.011332989
247	0x3ce7a4a5	0.02827675
248	0x3eb9572c	0.3619932
249	0xbf0e7673	-0.5564949
250	0x3eb728ae	0.35773224
251	0xbe26c2e4	-0.16285282
252	0x3d210625	0.0393125
253	0x3dc745ea	0.09730132
254	0x3f2a6638	0.66562223
255	0x3e4d1ac2	0.20029739

model.encoder_gnn.gnn.0.0.nn.0.bias f4 [16]
0	0xbee8256f	-0.4534106
1	0x3e870fc2	0.2637921
2	0x3f103a77	0.5633921
3	0x3e1708c4	0.14749438
4	0xbf0e6a7f	-0.5563125
5	0x3ef9ecf1	0.48813584
6	0xbd0ca5cf	-0.034337815
7	0x3ed076ee	0.40715736
8	0xbee527cd	-0.44756928
9	0xbdc3a78f	-0.09553444
10	0x3cd93cd8	0.02651827
11	0x3d973200	0.073825836
12	0xbe90ba98	-0.2826736
13	0x3d4d86b6	0.0501773
14	0x3df6b109	0.120454855
15	0xbf486283	-0.78275317

model.encoder_gnn.gnn.0.0.nn.2.weight f4 [16, 16]
0	0xbfad6986	-1.3547828
1	0x3db41bf8	0.08794397
2	0xbeb467fc	-0.35235584
3	0xbda09c5f	-0.078423254
4	0x3e71dd54	0.23619586
5	0x3e668932	0.22513273
6	0x3f8a4eb6	1.0805271
7	0xbd926864	-0.07148817
8	0xbe97f335	-0.2967774
9	0x3d1b8217	0.03796586
10	0xbef46313	-0.47731838
11	0xbfe4dd35	-1.7880007
12	0xbf3e8c41	-0.7443276
13	0x3f66f204	0.90213037
14	0xbe2cfb89	-0.16892828
15	0x3f2b930f	0.6702127
16	0x3f7e19c1	0.9925805
17	0xbdc7b851	-0.097519524
18	0xbe9e64c3	-0.3093625
19	0x3e9db382	0.30801016
20	0x3eaef6df	0.34172723
21	0xbe04042a	-0.12892213
22	0xbd907c28	-0.07054931
23	0x3f5c578e	0.860711
24	0x3f56afb6	0.83861864
25	0xbdea520c	-0.114414304
26	0x3dbc94fc	0.09208104
27	0xbef8f20b	-0.48622164
28	0xbf211820	-0.62927437
29	0xbf435d04	-0.76313806
30	0x3e911a27	0.28340265
31	0x3e0eaa5f	0.13932179
32	0xbf324a71	-0.6964484
33	0x3eb7df72	0.35912663
34	0xbe4982bd	-0.19678779
35	0xbe135d26	-0.14391002
36	0x3bb6a755	0.0055741468
37	0x3e3f1d98	0.18663633
38	0xbbd014eb	-0.00635015
39	0xbf1858b5	-0.59510356
40	0xbf97ce08	-1.1859751
41	0x3db27f7f	0.08715724
42	0xbf15f320	-0.58574104
43	0x3f606ce5	0.8766616
44	0x3f7afd53	0.9804279
45	0x3f55ec1f	0.8356342
46	0xbe90bbef	-0.28268382
47	0x3d9a32ba	0.075292066
48	0xbe9fdbc2	-0.3122235
49	0x3e156b17	0.14591633
50	0x3ed8a053	0.42309818
51	0xbecb91c9	-0.39759663
52	0xbee111ff	-0.43959042
53	0x3e5e6947	0.21719848
54	0x3ecd6b1f	0.4012079
55	0xbe6fbbd1	-0.2341149
56	0xbf5447f5	-0.829223
57	0xbc9c8a2c	-0.019108854
58	0x3cf7a56b	0.030230245
59	0xbe8ce940	-0.27521706
60	0x3ea0d791	0.31414464
61	0x3ec71d07	0.38889334
62	0xbec34e9e	-0.38145918
63	0xbef39650	-0.47575617
64	0x3f062dad	0.52413446
65	0xbf27befc	-0.65525794
66	0x3ee5d099	0.4488571
67	0xbe1957d5	-0.14974912
68	0xbe7128b4	-0.23550683
69	0x3e60fab6	0.21970639
70	0xbf6ca696	-0.9244169
71	0x3f2e98cf	0.6820192
72	0x3eebcaa8	0.46053052
73	0x3d888d5e	0.06667589
74	0xbe46b02f	-0.19403146
75	0xbfaac5ce	-1.3341615
76	0xbfc2ab3a	-1.5208504
77	0xbf7d2399	-0.9888244
78	0x3e08b8a8	0.13351691
79	0xbe2fc9bc	-0.171668
80	0x3e664f80	0.22491264
81	0xbd941408	-0.07230383
82	0xbee8168b	-0.453297
83	0x3e05071b	0.12990992
84	0xbf23acde	-0.6393565
85	0xbeefc2b9	-0.4682825
86	0x3f08220a	0.5317694
87	0x3ee15b45	0.44014946
88	0xbd726bea	-0.059184946
89	0x3dbee649	0.09321267
90	0x3e491578	0.19637096
91	0xbe2d72c2	-0.16938308
92	0x3d74467e	0.05963754
93	0x3ebd7b93	0.37008342
94	0xbe6f3af0	-0.23362327
95	0x3e6a1627	0.22860013
96	0x3eea8620	0.45805454
97	0xbc947ba1	-0.018125357
98	0xbeaaa562	-0.33329302
99	0xbc24611a	-0.010032916
100	0xbc2ee9e4	-0.010675881
101	0x3edde66e	0.43339866
102	0xbf1db3a0	-0.6160221
103	0x3f46db2d	0.77678186
104	0x3dbd91f8	0.09256357
105	0xbe76e339	-0.24110116
106	0x3df7e9c1	0.12105132
107	0xbeb4b229	-0.35292175
108	0xbf2e1c1e	-0.68011653
109	0xbefe9212	-0.49720818
110	0x3e820031	0.2539077
111	0x3e77ec09	0.24211134
112	0xbe44d5c8	-0.19222176
113	0xbdfe24b4	-0.12409344
114	0xbe3c688e	-0.1839926
115	0xbecec5a5	-0.40385166
116	0xbe08603d	-0.13317962
117	0xbea8a7ff	-0.3294067
118	0xbdbe55fc	-0.09293744
119	0xbec14d65	-0.3775436
120	0x3c6b0c99	0.014346265
121	0x3df48953	0.11940255
122	0xbe7bfa83	-0.24607281
123	0xbe85ebd2	-0.2615648
124	0x3e0e507d	0.13897891
125	0x3d8a7a39	0.06761593
126	0xbdb9aa83	-0.09065726
127	0xbdc62c5b	-0.09676429
128	0xbea2c784	-0.31792843
129	0xbec47040	-0.3836689
130	0xbeaa1288	-0.33217263
131	0xbee27bcb	-0.44235072
132	0x3e98190a	0.29706603
133	0xbf0269be	-0.509426
134	0xbec0024a	-0.37501746
135	0x3fbcb369	1.4742252
136	0xbf727122	-0.94703877
137	0xbee8d642	-0.45475966
138	0xc0413380	-3.0187683
139	0xc0147f6b	-2.320277
140	0xbff500ef	-1.914091
141	0xbfafa9fb	-1.3723749
142	0xbfa7e7f2	-1.3117659
143	0xbf5e9c0d	-0.86956865
144	0xbd521fe5	-0.05129995
145	0xbf8e31a9	-1.1108905
146	0x3eefe06c	0.46850908
147	0x3d5fe805	0.05466463
148	0xbed3b4fe	-0.41349024
149	0x3ea9be1d	0.33152857
150	0xbfdc944d	-1.7232758
151	0x3f35da52	0.71036255
152	0xbec93845	-0.39300743
153	0x3d92d3ea	0.07169326
154	0xbe80522e	-0.25062698
155	0xbfb5ba17	-1.4197415
156	0xbfc0683d	-1.5031811
157	0xbf0f01e3	-0.55862254
158	0x3f2acfd5	0.66723377
159	0xbe98c979	-0.2984121
160	0x3e364faf	0.17803834
161	0xbf2c6311	-0.67338663
162	0xbe860ff5	-0.2618405
163	0x3dc35ab1	0.095387824
164	0x3f14f2cc	0.5818298
165	0x3f404ea0	0.7511997
166	0xbf7e8772	-0.99425423
167	0x3f57846c	0.84186435
168	0x3f90fc76	1.1327045
169	0xbf7dcd36	-0.9914125
170	0x3db69b3f	0.089163296
171	0xbeefaff9	-0.46813944
172	0xbf479429	-0.7796045
173	0xbf1baf81	-0.6081467
174	0xbd984ead	-0.07436881
175	0x3d9872d8	0.0744378
176	0x3e3e4891	0.1858237
177	0xbf340e04	-0.70333886
178	0x3d55044f	0.052006062
179	0x3e92ff53	0.28710422
180	0x3ed504f9	0.41605356
181	0x3e6133c2	0.219924
182	0xbfc2eb2d	-1.522802
183	0x3e03ed92	0.12883595
184	0x3ec34ecd	0.38146058
185	0xbf24abba	-0.64324534
186	0xbe1c1daa	-0.15245691
187	0xbf19c3cb	-0.6006438
188	0xbfa78a70	-1.3089123
189	0xbf3b2017	-0.7309584
190	0x3f26857d	0.65047437
191	0xbe8bdb27	-0.27315637
192	0x3d917c9e	0.07103847
193	0xbe17d420	-0.14827013
194	0x3f1d3f88	0.61425066
195	0x3e3ac079	0.18237485
196	0xbfe91922	-1.8210795
197	0xbcf025f1	-0.029314967
198	0x3f33817f	0.7011947
199	0xbe8eb030	-0.27868795
200	0xbed8e377	-0.42361042
201	0x3f219203	0.6311342
202	0xbdffc02e	-0.12487827
203	0x3f615001	0.880127
204	0x3f00cf2d	0.50316125
205	0x3e08ef99	0.13372649
206	0xbf438ed6	-0.76389825
207	0xbe861960	-0.26191235
208	0xbd80730d	-0.06271944
209	0xbe6d576e	-0.23177883
210	0x3e07fbe4	0.13279682
211	0xbef0ab3d	-0.47005644
212	0xbfdd5351	-1.7291051
213	0x3db6fc46	0.08934836
214	0xbdf28a20	-0.118427515
215	0xbf474079	-0.7783275
216	0xbfce03b2	-1.6094878
217	0x3f3f9c81	0.7484818
218	0xbd69b2af	-0.05705517
219	0x3f8691f7	1.0513295
220	0x3f8dc5d7	1.1076001
221	0x3ef50488	0.4785502
222	0xbf364936	-0.7120546
223	0xbeca4a38	-0.3950975
224	0x3c5a3b16	0.013319751
225	0xbe5bc78c	-0.2146284
226	0x3ea5d6ea	0.3239053
227	0x3f53a643	0.8267557
228	0x3f176181	0.59133154
229	0xbf6b2835	-0.91858226
230	0xbef46223	-0.47731122
231	0x3ca1035d	0.019654924
232	0xbe40f37b	-0.1884288
233	0xbe877d36	-0.26462716
234	0xbec79af2	-0.389854
235	0xbf084742	-0.5323373
236	0xbf592612	-0.84823716
237	0xbe3b6116	-0.18298754
238	0x3f1923fe	0.59820545
239	0xbf6599e8	-0.8968797
240	0x3e3ad9c4	0.18247133
241	0xbe354ee5	-0.17705877
242	0x3dc343d5	0.09534422
243	0x3d4f1acc	0.050562665
244	0xbe919a1d	-0.28437892
245	0xbe352fde	-0.17694041
246	0xbdc72c9a	-0.09725304
247	0xbe4dfcaf	-0.20115922
248	0x3e51ac7d	0.20475955
249	0xbcad2721	-0.021136822
250	0xbe874033	-0.26416168
251	0xbd750e1d	-0.059827913
252	0xbda2bf20	-0.079466105
253	0xbdc8e068	-0.09808427
254	0xbe7b57bb	-0.24545185
255	0xbe3a5275	-0.18195517

model.encoder_gnn.gnn.0.0.nn.2.bias f4 [16]
0	0xbe4bccbf	-0.19902323
1	0xbdcf41e6	-0.10119991
2	0xbe3e2a08	-0.18570721
3	0x3e807114	0.25086272
4	0x3d79fccd	0.061032105
5	0xbf1baabe	-0.60807407
6	0xbc7fbcbf	-0.015608965
7	0xbec2511c	-0.37952507
8	0x3e75a861	0.23990013
9	0x3e052e4f	0.13005947
10	0x3db99b1f	0.0906279
11	0x3f04ff84	0.51952386
12	0xbebf47d7	-0.37359497
13	0x3d486960	0.04892862
14	0x3e584457	0.2111982
15	0x3bce3fc8	0.0062942244

model.encoder_gnn.post_nn.fc_layers.0.0.weight f4 [8, 16]
0	0x3b7c2bec	0.0038478328
1	0xba10fc87	-0.00055307936
2	0x3b1b5aff	0.002370536
3	0x3bf1fb88	0.007384721
4	0xbbd7defb	-0.0065878606
5	0x3b32efdc	0.0027303612
6	0x3acdd391	0.001570331
7	0x3bdf21ab	0.0068094335
8	0x3b5d5f20	0.0033778623
9	0xbbdeb6aa	-0.0067966776
10	0xb9e5a9b0	-0.0004380471
11	0xbc36467a	-0.011125201
12	0x3b3a3379	0.0028412028
13	0x3b40a086	0.0029392554
14	0xbbe68703	-0.0070351376
15	0x3b553777	0.003253428
16	0xbbab095e	-0.0052196225
17	0xba9279f7	-0.0011175264
18	0x38721808	5.7719677e-05
19	0xbba37a3e	-0.0049889376
20	0x38c99b5c	9.613365e-05
21	0xb9d5cf68	-0.00040781056
22	0x3ad5e124	0.0016317707
23	0xbb47d881	-0.0030494037
24	0xbbc960bc	-0.006145565
25	0xb8e189d4	-0.000107545085
26	0xbb110892	-0.0022130352
27	0x3c854b97	0.016271396
28	0x3b9809ea	0.0046398537
29	0x3b747211	0.0037299434
30	0x3a806da8	0.0009798305
31	0xba76f5c0	-0.0009420775
32	0xbe772a87	-0.24137317
33	0x3e23893f	0.15970324
34	0xbe8d6363	-0.2761489
35	0xbe2b4af0	-0.16727805
36	0x3e858dd7	0.26084778
37	0x3e5a64d0	0.2132752
38	0x3e3f5868	0.18686068
39	0xbe253c1e	-0.16136214
40	0xbe20490c	-0.15652865
41	0x3e73cf0d	0.23809452
42	0x3e90affc	0.28259265
43	0x3e815e94	0.2526747
44	0xbe6cf3f9	-0.23139943
45	0xbe9385af	-0.2881293
46	0x3e882562	0.2659102
47	0xbe42bec8	-0.1901809
48	0x3e761f63	0.2403541
49	0xbe3af661	-0.18258049
50	0x3e8d6f42	0.27623945
51	0x3e2176c0	0.15767956
52	0xbe8e59d9	-0.27802923
53	0xbe65a4a8	-0.22426093
54	0xbe4824f1	-0.19545342
55	0x3e387124	0.1801191
56	0x3e205f72	0.1566141
57	0xbe667aba	-0.22507754
58	0xbe8fff8e	-0.2812466
59	0xbe8077f1	-0.25091508
60	0x3e60313a	0.21893778
61	0x3e8f496c	0.27985704
62	0xbe8ddee4	-0.27709115
63	0x3e3c55c0	0.18392086
64	0xb8f9b468	-0.000119068485
65	0x39c4510f	0.00037444427
66	0xbae4015c	-0.0017395425
67	0x3a1eb285	0.0006053823
68	0xba2d4b78	-0.0006610672
69	0xb9e00caa	-0.00042734045
70	0x3b24bced	0.0025137023
71	0xba2ee25e	-0.00066713046
72	0x39393448	0.00017662451
73	0x3a929880	0.0011184365
74	0xb93cc868	-0.00018003734
75	0x3afa8878	0.0019114157
76	0x3b03ac33	0.0020091652
77	0xbb4c8cd4	-0.003121187
78	0x3a9632ef	0.0011459271
79	0xbb73c56e	-0.0037196535
80	0xba981947	-0.0011604213
81	0x3b31d7ad	0.002713661
82	0x3adacfca	0.0016694006
83	0xbaff1905	-0.0019462412
84	0x3b3efb95	0.0029141654
85	0xbb0acc74	-0.0021178992
86	0xb92dab6e	-0.00016562428
87	0xb9c14e22	-0.00036870042
88	0xba4c5491	-0.0007794584
89	0x3b8d7ef0	0.0043181106
90	0xb839a128	-4.4257526e-05
91	0x3b09e4f9	0.002104102
92	0xbb839afd	-0.004016279
93	0x3a6dd38b	0.0009072355
94	0xba4fa19c	-0.0007920505
95	0x3ba1c92c	0.0049373116
96	0x3e582c31	0.21110608
97	0x3e0b9773	0.13631992
98	0x3c92eacd	0.017934227
99	0xbe915aef	-0.2838969
100	0xbd431543	-0.0476277
101	0x3e0594cf	0.13045047
102	0x3df2ed53	0.11861672
103	0x3d3b0a37	0.04566404
104	0xbba6eb66	-0.0050939796
105	0xbd7caa5f	-0.061685916
106	0xbdaa9a26	-0.08330183
107	0xbe93df16	-0.2888114
108	0x3b22f35e	0.0024864296
109	0xbdb04265	-0.08606414
110	0x3cfb0f20	0.03064686
111	0xbb2dfbf5	-0.0026547883
112	0x3e425326	0.18977031
113	0x3de57889	0.11204631
114	0x3bf43833	0.0074529885
115	0xbe98fdf1	-0.29881242
116	0xbd4c2288	-0.04983762
117	0x3e0b2cee	0.13591358
118	0x3dc70559	0.09717817
119	0x3cb1e24c	0.021714352
120	0x3bf70f9e	0.0075397035
121	0xbda1e621	-0.07905222
122	0xbdc7c38c	-0.097540945
123	0xbe8d49a4	-0.27595246
124	0x3b18e34c	0.002332884
125	0xbd563d5e	-0.052304618
126	0x3c90f351	0.017694147
127	0x3ca80f04	0.020514973

model.encoder_gnn.post_nn.fc_layers.0.0.bias f4 [8]
0	0x3a696493	0.00089032314
1	0x394606ce	0.00018885286
2	0xbd5ff8dc	-0.05468069
3	0x3d5b8adb	0.05359922
4	0xbac80fa8	-0.0015263455
5	0xbaccf8fc	-0.0015638168
6	0xbf95220c	-1.1651015
7	0xbf975a45	-1.1824423

model.decoder_gnn.pre_nn.fc_layers.0.0.weight f4 [16, 4]
0	0xba4468f4	-0.0007492446
1	0x39cbf5ce	0.00038902316
2	0xbe906f0d	-0.28209725
3	0x3e8caaaa	0.27473956
4	0x3b8915fc	0.004183529
5	0x3c3ffa06	0.011717325
6	0x3ddedd64	0.10882071
7	0xbdd6c2e4	-0.10486391
8	0xbb54c120	-0.0032463744
9	0xba940aa3	-0.0011294674
10	0x3e6f4a56	0.233682
11	0xbe761c93	-0.24034338
12	0xbc6eae46	-0.014567917
13	0x3b97d773	0.004633838
14	0x3f0e092b	0.5548274
15	0x3e733682	0.23751262
16	0x3bf8d662	0.007593916
17	0xbbf20324	-0.0073856283
18	0xbea1790c	-0.31537664
19	0x3e9dcc63	0.30819997
20	0x3b12fcee	0.002242859
21	0x3bfebe08	0.0077741183
22	0x3e8828e1	0.26593688
23	0xbe8c9495	-0.2745711
24	0xbb6e6895	-0.0036378254
25	0xba83b32a	-0.0010047902
26	0x3e79a782	0.24380305
27	0xbe70dfd1	-0.23522879
28	0x3ba9a7d6	0.0051774783
29	0x3b958074	0.004562432
30	0x3db9f5a7	0.090800576
31	0xbdb16aa4	-0.08662918
32	0xbc254d5c	-0.010089245
33	0x3c113d8a	0.00886477
34	0x3e5a6378	0.21327007
35	0xbe593745	-0.2121249
36	0xbdb94f61	-0.090483434
37	0xbc6041d8	-0.013687573
38	0x3b9b74b8	0.0047441386
39	0x3c648c57	0.013949475
40	0x3c359ca5	0.01108471
41	0x3b1c0e52	0.0023812247
42	0xbe99d810	-0.30047655
43	0x3e9cdaae	0.3063559
44	0xbb638fc8	-0.0034723151
45	0xbbcb495a	-0.0062038125
46	0x3d83e031	0.064392455
47	0xbd80a643	-0.06281712
48	0x3a226076	0.00061941834
49	0xbc936e50	-0.017996937
50	0x3e38220e	0.17981741
51	0xbe3395c4	-0.175376
52	0x3d9ac9b7	0.07558005
53	0x3ce6b4f7	0.028162463
54	0x3ddc3e04	0.10754016
55	0x3dac4e06	0.08413319
56	0x3c4229aa	0.011850754
57	0xbbc8bd50	-0.0061260834
58	0x3ea87209	0.32899502
59	0xbeab0403	-0.33401498
60	0x3cd4e57f	0.025988339
61	0xb971cc40	-0.0002305964
62	0xbe341f20	-0.17589998
63	0xbeda9cee	-0.42697853

model.decoder_gnn.pre_nn.fc_layers.0.0.bias f4 [16]
0	0x3ea78caa	0.32724506
1	0x3e8aca00	0.2710724
2	0x3ed0703f	0.40710637
3	0xbe5b3678	-0.21407497
4	0x3ef2807a	0.47363645
5	0xbf0f3bde	-0.55950725
6	0x3e1ab547	0.15108214
7	0x3eb50da6	0.35361975
8	0xbdc66b30	-0.09688413
9	0xbef341f0	-0.47511244
10	0x3e1ebd34	0.15501863
11	0x3e8abca5	0.2709705
12	0xbe318093	-0.17334203
13	0xbf330fcb	-0.69945973
14	0x3ead981e	0.3390512
15	0xbe2f244b	-0.17103688

model.decoder_gnn.lin_skipsum.0.0.weight f4 [16, 16]
0	0xbd1b81ae	-0.03796547
1	0xbe02a817	-0.12759434
2	0x3d4aca54	0.04950936
3	0x3b40e155	0.0029431183
4	0x3e2c8d03	0.16850667
5	0xbdf490cf	-0.119416825
6	0xbe5350c9	-0.20636286
7	0x3dee003d	0.11621139
8	0x3bcd5b14	0.006266961
9	0x3d2a723a	0.04161284
10	0x3dd33e47	0.10314613
11	0xbdd4559f	-0.103678934
12	0x3d086f6f	0.033309396
13	0xbc401a27	-0.011724985
14	0xbd982aa3	-0.07430007
15	0xbc8bd98d	-0.01707151
16	0x3e157de7	0.14598809
17	0xbe3afaa8	-0.1825968
18	0xbd79d575	-0.060994584
19	0xbd1f8b69	-0.03895131
20	0x3d60de3a	0.05489943
21	0x3db6f28c	0.08932981
22	0xbbd2f642	-0.0064380476
23	0xbd7cb58f	-0.061696585
24	0xbd1f6daf	-0.03892296
25	0xbe05ec74	-0.13078481
26	0xbd46f3b0	-0.048572242
27	0xbd81584a	-0.06315668
28	0xbe6d7d0f	-0.23192237
29	0x3d35136f	0.044207986
30	0xbd079fc9	-0.033111367
31	0xbd052a68	-0.032511145
32	0xbd87641a	-0.0661089
33	0x3dba26ec	0.09089455
34	0x3c562a97	0.013071678
35	0x3d85ca9a	0.06532784
36	0xbccc8e08	-0.02497007
37	0xbb1d4da2	-0.0024002572
38	0x3d38e8b5	0.0451438
39	0xbcb57ff1	-0.022155734
40	0xbacc6860	-0.0015595071
41	0xbd81884a	-0.06324823
42	0xbe1541b2	-0.14575842
43	0x3d0efc07	0.03490832
44	0x3e9ef73c	0.31048
45	0x3e1479b4	0.14499551
46	0x3d0228aa	0.03177706
47	0xbc949795	-0.018138686
48	0x3d9adea9	0.07562
49	0xbd2a5614	-0.041585997
50	0xbcd6e441	-0.026231887
51	0x3c97c191	0.018524917
52	0x3e02ef52	0.12786606
53	0xbd816a1f	-0.06319069
54	0x3d1faf65	0.03898563
55	0x3c96cfa6	0.018409561
56	0xbe5050a2	-0.20343259
57	0x3caaf943	0.02087081
58	0x3d8c7489	0.06858165
59	0x3c61117f	0.013737082
60	0xbd663f65	-0.0562128
61	0xbe26e35d	-0.1629767
62	0xbdbe86fd	-0.09303091
63	0x3be34c7c	0.006936608
64	0xbdb10a72	-0.086445704
65	0xbdd38f28	-0.10330039
66	0x3d9fdcb7	0.0780577
67	0xbcfb228a	-0.030656118
68	0xbd9d926d	-0.07693944
69	0x3d235e0e	0.03988462
70	0x3d8ed6b1	0.06974543
71	0x3d4dc143	0.050233137
72	0x3dead8f5	0.114671625
73	0xbe525975	-0.20541938
74	0xbce7cd2d	-0.028296078
75	0x3d9c199d	0.07622073
76	0x3d923270	0.071385264
77	0x3dec37f5	0.115341105
78	0xbb5d0a4d	-0.0033728064
79	0xbca441be	-0.02005088
80	0x3b5caa06	0.0033670678
81	0xbe22bc16	-0.15892062
82	0xbdd49355	-0.10379664
83	0x3ccb4770	0.024814337
84	0x3dcbd3a1	0.099524744
85	0xbd95fc67	-0.073235326
86	0x3d87f406	0.06638341
87	0x3e03b3e3	0.1286159
88	0xbe583437	-0.21113668
89	0xbe072044	-0.13195902
90	0x3e2ab416	0.1667026
91	0x3d8bc123	0.06823947
92	0xbe55b36d	-0.20869227
93	0x3da3d30b	0.079992376
94	0x3d0535b0	0.032521904
95	0x3d1bdcad	0.03805225
96	0xbdf0b180	-0.117526054
97	0x3e1907e8	0.14944422
98	0xbd8dd0af	-0.06924569
99	0x3ce820a5	0.028335879
100	0xbd21a414	-0.039463118
101	0x3e5a8cc6	0.21342763
102	0x3e311af3	0.17295437
103	0x3e0d2275	0.13782676
104	0x3e6d1286	0.23151597
105	0xbe422953	-0.18961076
106	0xbe13aa15	-0.1442035
107	0x3c94f3a8	0.01818259
108	0xbd8f8c40	-0.070091724
109	0xbdbea621	-0.0930903
110	0xbcb9074a	-0.022586484
111	0xbca021fd	-0.019547457
112	0xbe05593e	-0.13022324
113	0x3dd409f8	0.10353464
114	0x3d56b2e1	0.052416686
115	0x3d2b4596	0.04181441
116	0xbcc5273e	-0.024066564
117	0x3d533478	0.05156371
118	0x3d36a37b	0.0445895
119	0x3e1e1a77	0.15439783
120	0x3dd38359	0.10327787
121	0x3dc25804	0.09489444
122	0xbd774102	-0.06036473
123	0x3dc82a76	0.09773724
124	0x3dba6a15	0.09102265
125	0x3d188c72	0.037243314
126	0xbc10c859	-0.008836829
127	0x3d9026f0	0.07038677
128	0x3c98249f	0.01857215
129	0xbdec19d5	-0.115283646
130	0xbd888df7	-0.06667703
131	0xbc9071a6	-0.017632317
132	0x3e2a7cd8	0.16649187
133	0xbe086b48	-0.13322175
134	0xbc762c32	-0.015025185
135	0xbe1dd944	-0.15414912
136	0xbd09e024	-0.033661023
137	0xbde37683	-0.11106589
138	0x3d39e716	0.045386396
139	0x3d0095d1	0.031392876
140	0x3cbc0255	0.02295033
141	0x3daff253	0.085911416
142	0xbe2565f9	-0.1615218
143	0x3d383af6	0.044978105
144	0x3d83081a	0.063980296
145	0x3bf8e9f9	0.007596251
146	0x3d06aa15	0.032877047
147	0x3d0c2c70	0.034222066
148	0x3deb1484	0.114785224
149	0xbcdb92ac	-0.026803337
150	0x3c48f52d	0.012265486
151	0xbe460dde	-0.19341227
152	0xbe298e60	-0.16558218
153	0x3dc96588	0.09833819
154	0xbcf18f12	-0.029487167
155	0xbe4c59e2	-0.19956163
156	0xbd985f92	-0.074401036
157	0xbe589d3c	-0.2115373
158	0xbd2af5bd	-0.04173826
159	0x3c234791	0.009965793
160	0x3db5ffc6	0.088866755
161	0x3e00b157	0.1256765
162	0xbd4404ff	-0.047856327
163	0xbd51d031	-0.051223937
164	0x3da99fd6	0.082824394
165	0xbd9d5df6	-0.07683937
166	0x3c4c03af	0.01245205
167	0xbc31e6d4	-0.010858256
168	0xbd63cc88	-0.055614978
169	0x3d8acfc2	0.06777908
170	0x3d334855	0.043770153
171	0x3d7c3c24	0.061580792
172	0xbdd9453d	-0.10608909
173	0x3e039072	0.1284807
174	0xbd8bcb51	-0.06825889
175	0xbd7f6e84	-0.062361255
176	0xbd3a678c	-0.045508906
177	0x3e4267d9	0.18984927
178	0xbd88825f	-0.06665491
179	0x3cdadb40	0.026715875
180	0xbd99854b	-0.07496127
181	0x3ca24bdc	0.019811563
182	0xbb036977	-0.0020051876
183	0x3df8ac2e	0.12142216
184	0x3e15e662	0.14638665
185	0x3cd8faef	0.026486842
186	0xbdf5e457	-0.12006443
187	0x3c98f0f9	0.018669592
188	0x3e11d81e	0.14242598
189	0x3e531735	0.20614322
190	0x3d651bd4	0.055934742
191	0x3c144336	0.009049227
192	0xbde49ffa	-0.111633256
193	0x3d24fe4f	0.04028159
194	0xbcbd0612	-0.023074184
195	0x3bfc6483	0.0077024116
196	0xbdd0a680	-0.10188007
197	0x3db577f4	0.0886077
198	0x3cccf2ab	0.025018057
199	0x3dd979d1	0.10618938
200	0xbcd99860	-0.026561916
201	0x3dbc4e9b	0.0919468
202	0x3c072f3e	0.0082510095
203	0xbdd5de68	-0.10442811
204	0x3d40bcf1	0.04705519
205	0xbcf3720c	-0.029717468
206	0x3dff4cc7	0.12465816
207	0x3d4d2cb7	0.05009147
208	0xba890dff	-0.0010456442
209	0xbde4d3d1	-0.11173213
210	0xbdc74f6a	-0.09731944
211	0xbc67a81e	-0.014139203
212	0x3d2d4302	0.04230023
213	0xbe10362c	-0.14083165
214	0x3d716d94	0.058942392
215	0xbab8d02a	-0.0014100124
216	0xbcae002c	-0.021240316
217	0x3e252bc4	0.16129977
218	0x3e01df4f	0.12682842
219	0xbdf08740	-0.11744547
220	0xbd0b6b19	-0.034037683
221	0xbd8cd2cf	-0.06876146
222	0xbd402042	-0.046905763
223	0xbcde0d4b	-0.027105948
224	0x3d646d5b	0.055768352
225	0xbd044f52	-0.03230221
226	0xbd6b1f8e	-0.05740314
227	0x3b12a3d6	0.0022375486
228	0xbcec21a7	-0.02882464
229	0x3e017735	0.1264313
230	0xbdde7946	-0.10862975
231	0xbcda65f0	-0.026659936
232	0xbdbdb66a	-0.09263308
233	0xbd735197	-0.059403982
234	0x3dddc9dc	0.10829517
235	0xbe2bf1fe	-0.16791531
236	0xbd5f8274	-0.05456777
237	0x3e3116b2	0.17293814
238	0xbd35e43d	-0.044407118
239	0xbd2e8dd8	-0.04261574
240	0x3e2214d3	0.15828256
241	0x3d0d7b00	0.03454113
242	0xbdf55b39	-0.1198029
243	0xbcb071e4	-0.021538682
244	0x3c0fde9a	0.0087811
245	0x3d4e9da2	0.0504433
246	0xbd72ef6d	-0.059310365
247	0xbe387282	-0.18012431
248	0x3d243383	0.040088188
249	0xbdcb17ee	-0.099166736
250	0x3ad01ba6	0.001587738
251	0xbe4916b6	-0.1963757
252	0xbe578847	-0.2104808
253	0xbe15db62	-0.14634469
254	0xbc9e998f	-0.019360332
255	0xbda0592e	-0.0782951

model.decoder_gnn.lin_skipsum.0.0.bias f4 [16]
0	0xbcc1005f	-0.023559747
1	0x3d6ceb86	0.0578418
2	0x3b80ec46	0.003934416
3	0xbd1639fb	-0.03667639
4	0x3c473b8c	0.012160193
5	0xbdaf8c9a	-0.085717395
6	0xbd0e51ad	-0.03474586
7	0xbdb66a17	-0.08906954
8	0x3d9ddef4	0.077085406
9	0x3d55e267	0.052217867
10	0xbd5789ad	-0.052621532
11	0xbd0f4427	-0.034977105
12	0x3c823a80	0.015897036
13	0x3d350be2	0.044200785
14	0x3deb17ef	0.11479174
15	0x3df682bf	0.120366566

model.decoder_gnn.lin_skipsum.1.0.weight f4 [16, 16]
0	0x3de1de22	0.110286966
1	0xbe3add31	-0.1824844
2	0x3de03825	0.10948209
3	0x3e1f09fe	0.15531155
4	0xbb917f22	-0.0044402042
5	0x3ce425f9	0.027850138
6	0x3e22fdc9	0.15917124
7	0xbe64748a	-0.22310081
8	0xbd6b690f	-0.05747324
9	0x3f2dacac	0.678416
10	0x3e096028	0.13415587
11	0x3ed2f943	0.41205797
12	0xbe2609d5	-0.16214688
13	0x3d2df901	0.042473797
14	0x3de6a122	0.112612024
15	0x3d90a318	0.07062358
16	0x3e24f507	0.16109096
17	0xbc5892cb	-0.013218592
18	0x3d15c081	0.03656054
19	0x3ddc479e	0.107558474
20	0x3e15f923	0.1464582
21	0xbe0ee39b	-0.13954012
22	0x3bc214a5	0.005922871
23	0xbe71513c	-0.23566145
24	0xbcd51b70	-0.02601406
25	0x3f2d748e	0.67755973
26	0x3db45393	0.08805003
27	0x3ead1654	0.33806098
28	0xbde24d00	-0.11049843
29	0xbdc38493	-0.09546771
30	0x3d790f70	0.060805738
31	0xbe07cf4c	-0.13262671
32	0xbea35a82	-0.3190499
33	0x3db07bb9	0.08617348
34	0xbdbcb3c3	-0.09213974
35	0xbe1025da	-0.14076939
36	0xbe05b126	-0.13055858
37	0x3e39bf7f	0.18139456
38	0x3b6b05b9	0.0035861565
39	0x3e409caf	0.1880977
40	0x3c7805b8	0.015138082
41	0xbf4dbb27	-0.80363697
42	0xbcacca82	-0.021092657
43	0xbe73ae03	-0.23796849
44	0x3db3e4fe	0.08783911
45	0x3e2db908	0.16965115
46	0xbdf8d0c2	-0.121491924
47	0x3ddb622b	0.107120834
48	0x3e8f8d16	0.28037328
49	0xbd27db32	-0.040980525
50	0x3deac0aa	0.11462529
51	0x3e46f9e6	0.19431266
52	0x3d8986aa	0.06715138
53	0xbddc9480	-0.107705116
54	0x3e2a72ba	0.16645327
55	0xbe6e411d	-0.23267026
56	0x3d378201	0.044801716
57	0x3f525377	0.8215861
58	0x3dc1359f	0.094340555
59	0x3e91baa0	0.28462696
60	0xbd6556db	-0.055991035
61	0xbb35f26c	-0.0027762903
62	0xbbfb24ee	-0.0076643145
63	0xbdb43f49	-0.08801133
64	0xbe084a2d	-0.13309546
65	0x3dd7d926	0.10539465
66	0xbdc191a8	-0.0945161
67	0xbddb5f1f	-0.10711502
68	0xbd33af8a	-0.04386858
69	0x3e078970	0.13236022
70	0x3b796295	0.0038053144
71	0x3df16908	0.11787611
72	0xbdaa0fc0	-0.08303785
73	0xbf3007b9	-0.68761784
74	0xbd9354ad	-0.07193885
75	0xbe0b2f46	-0.13592252
76	0x3d4352d1	0.0476864
77	0x3e4cec00	0.20011902
78	0xbd337cc0	-0.043820143
79	0x3d8718d7	0.06596535
80	0x3e4f93d1	0.20271231
81	0x3d828129	0.063722916
82	0x3e03c76e	0.12869045
83	0x3cc40aba	0.023930896
84	0x3e1e9fad	0.15490599
85	0xbe0b0466	-0.13575897
86	0x3dbf9c74	0.09356013
87	0xbe9fd658	-0.3121822
88	0x3c1ebf1a	0.009689117
89	0x3f5381a3	0.82619685
90	0x3dbd5aea	0.09245856
91	0x3ee1463d	0.439989
92	0xbdd48e2e	-0.10378681
93	0x3d6070fd	0.054795254
94	0xbc99528c	-0.01871612
95	0x3d382d21	0.044964913
96	0xbe23d227	-0.15998136
97	0x3db92f02	0.09042169
98	0xbd99c3fb	-0.075080834
99	0xbe5eb808	-0.2174989
100	0xbd4288dc	-0.0474938
101	0x3e163e2a	0.14672151
102	0xbe32989b	-0.17441027
103	0x3e079928	0.13242018
104	0xbe2c6050	-0.16833615
105	0xbf7c642c	-0.9859035
106	0xbe644530	-0.22292018
107	0xbeb5df21	-0.35521796
108	0x3db44ceb	0.088037334
109	0xbd86a414	-0.06574264
110	0x3dae47b5	0.08509771
111	0xbd804934	-0.062639624
112	0xbe7ef42d	-0.24897833
113	0x3d67288e	0.05643516
114	0xbb846626	-0.0040404974
115	0xbe7dfcbe	-0.24803445
116	0xbd558e47	-0.05213764
117	0x3df8dc8e	0.121514425
118	0xbdd6e629	-0.10493118
119	0x3e380580	0.17970848
120	0x3dca2b4d	0.0987154
121	0xbf2efa77	-0.6835093
122	0xbddb8fc9	-0.10720784
123	0xbe9266b2	-0.28593975
124	0x3e051bba	0.12998858
125	0x3e1a97be	0.15096948
126	0xbe41f28e	-0.18940184
127	0x3e1ddca7	0.15416203
128	0x3eb973eb	0.3622125
129	0xbe482eb9	-0.19549073
130	0x3e711bbf	0.2354574
131	0x3e9d9edb	0.3078526
132	0x3da7af5f	0.08187746
133	0xbd8262a4	-0.063664705
134	0x3e886abd	0.26643935
135	0xbdeffc38	-0.11718029
136	0x3e2ba631	0.16762616
137	0x3f5b10e7	0.85572666
138	0x3c724e55	0.014789184
139	0x3e9831af	0.29725406
140	0xbdd6ae7d	-0.104825
141	0xbcc09036	-0.023506265
142	0xbd9a41a4	-0.07532051
143	0x3e6b4b74	0.22978002
144	0x3e8458dc	0.25849044
145	0xbd230a40	-0.039804697
146	0x3d97a8ce	0.07405244
147	0x3e542942	0.20718864
148	0xbca3abb1	-0.01997933
149	0xbd02ef65	-0.031966586
150	0x3e548ca9	0.20756783
151	0xbe5890d8	-0.21149004
152	0x3900fb30	0.00012300606
153	0x3f3bd981	0.7337876
154	0x3e128d93	0.14311819
155	0x3e3ddfe1	0.18542434
156	0xbdec8384	-0.11548522
157	0xbd07fe3e	-0.03320145
158	0xbc6fe7a2	-0.014642628
159	0xbe5a7722	-0.21334508
160	0x3d4f4938	0.050606936
161	0xbbc2d9ca	-0.0059463726
162	0x3c21ff14	0.0098874755
163	0x3d6d92e5	0.058001418
164	0x3e10f663	0.14156489
165	0xbdcb5cf8	-0.09929842
166	0x3d4ad9f7	0.049524274
167	0xbe2cabb0	-0.16862369
168	0xbd72248f	-0.059116896
169	0x3f477047	0.77905697
170	0x3dbdc8f1	0.09266842
171	0x3e7adc51	0.24498107
172	0xbd6ce99a	-0.057839967
173	0xbe114fea	-0.14190641
174	0x3d38612c	0.045014545
175	0xbe0e9636	-0.13924488
176	0xbee011b3	-0.43763503
177	0x3db69dd5	0.08916823
178	0xbe071e4d	-0.13195153
179	0xbe2b4da4	-0.16728836
180	0xbc769901	-0.015051127
181	0x3e136369	0.1439339
182	0xbd776825	-0.060402054
183	0x3e5dc622	0.21657613
184	0xbdccbdb6	-0.09997122
185	0xbf5167d8	-0.8179908
186	0xbdf7aca4	-0.120934755
187	0xbe5ac88b	-0.21365564
188	0x3d1314e6	0.035908602
189	0x3e2b5018	0.16729772
190	0xbc522052	-0.012825089
191	0xbd9fddeb	-0.07805999
192	0xbd9ee265	-0.07758025
193	0x3cf69699	0.030101107
194	0xbe2db15b	-0.16962187
195	0xbcc47ce6	-0.023985337
196	0xbd069f71	-0.0328669
197	0x3db92f5f	0.090422384
198	0xbe1fef9f	-0.15618752
199	0x3e40b7da	0.18820134
200	0xbc51d052	-0.012806015
201	0xbf4dea9e	-0.8043612
202	0xbdf6ea40	-0.120563984
203	0xbec64db5	-0.3873116
204	0x3de19924	0.110155374
205	0x3e3c2a1e	0.18375441
206	0x3d100412	0.03516013
207	0x3df83421	0.12119318
208	0x3dd0177e	0.10160731
209	0xbc7a9861	-0.015295119
210	0x3dbcab6a	0.09212382
211	0x3dcdbc94	0.10045734
212	0x3d50523b	0.05085967
213	0xbdf25529	-0.11832649
214	0x3e040eaa	0.12896219
215	0xbe875c06	-0.26437396
216	0x3cb78a04	0.022404678
217	0x3f51b4d8	0.8191657
218	0x3dc02bce	0.09383355
219	0x3e82d8d2	0.25556046
220	0x3c1678b0	0.009184048
221	0xbe32abcb	-0.17448346
222	0xbcd3252c	-0.02577456
223	0x3e37a97c	0.17935747
224	0x3dabb089	0.08383281
225	0xbdfb9d2e	-0.12285839
226	0x3dc99599	0.098429866
227	0x3e228942	0.15872672
228	0x3d93848d	0.072030164
229	0xbd529dc7	-0.05142
230	0x3d2f9369	0.04286519
231	0xbe2b80cf	-0.16748355
232	0x3d41433e	0.047183268
233	0x3f02e9b9	0.5113788
234	0x3ccaeb48	0.024770394
235	0x3e8c1b00	0.2736435
236	0xbdf492f8	-0.119420946
237	0xbc38adb4	-0.011271883
238	0x3d368884	0.044563785
239	0x3da9dcd7	0.08294075
240	0x3d7b0cb0	0.061291397
241	0xbd61a452	-0.05508835
242	0x3d9bc84b	0.07606562
243	0x3e3b7b04	0.18308645
244	0x3c8a0b76	0.016851168
245	0xbe170ab1	-0.14750172
246	0x3dea0f54	0.11428705
247	0xbe3fb90d	-0.18722935
248	0xbd691a3c	-0.056909785
249	0x3f28282c	0.656863
250	0x3e30b154	0.17255145
251	0x3eae8921	0.34088996
252	0xbd901be0	-0.07036567
253	0xbda4364b	-0.08018168
254	0x3e0202f9	0.12696446
255	0xbcc9c613	-0.024630582

model.decoder_gnn.lin_skipsum.1.0.bias f4 [16]
0	0xbd9479f0	-0.0724982
1	0xbd9369d8	-0.071979225
2	0x3ce1e010	0.027572662
3	0xbe072cc0	-0.13200665
4	0x3ccb79a9	0.024838286
5	0xbe007ff5	-0.12548812
6	0x3e1a433f	0.15064715
7	0x3da06056	0.078308746
8	0xbe112110	-0.14172769
9	0xbe0b39f5	-0.13596328
10	0xbdc36c87	-0.09542184
11	0x3d83ea45	0.06441168
12	0x3db7c4e2	0.08973099
13	0xbdfea768	-0.12434274
14	0xbd67b709	-0.05657104
15	0xbdbe3e7e	-0.09289263

model.decoder_gnn.gnn.0.0.nn.0.weight f4 [16, 16]
0	0x3d6baef4	0.057539895
1	0xbe5f1b81	-0.21787836
2	0xbd3ca9c8	-0.046060354
3	0x3ea7fad5	0.32808557
4	0x3eac0bb8	0.3360269
5	0xbe2956b0	-0.16536975
6	0x3c3ad739	0.011403852
7	0xbe89d223	-0.26918134
8	0x3da9e75c	0.082960814
9	0x3d71f23d	0.059068907
10	0x3c878c70	0.016546458
11	0xbe965280	-0.29359818
12	0x3dff286c	0.12458882
13	0xbcb93148	-0.022606507
14	0x3c149be2	0.0090703685
15	0x3ecfde1b	0.4059914
16	0x3e2841f9	0.16431417
17	0x3dc1864e	0.09449445
18	0x3c8772d3	0.016534245
19	0x3c8b4623	0.017001217
20	0x3e2056b9	0.15658082
21	0xbef06eb6	-0.46959466
22	0x3c4a5ec9	0.0123517
23	0x3d811106	0.06302075
24	0x3b4d8be8	0.0031363908
25	0x3e56d15e	0.20978305
26	0x3dbbfd55	0.091791786
27	0x3da36a1d	0.07979224
28	0xbce76767	-0.028247548
29	0x3dc9a96c	0.09846768
30	0x3ec57816	0.3856818
31	0x3b41d23c	0.0029574772
32	0xbef2065e	-0.47270483
33	0x3abe0e67	0.0014500142
34	0x3ab9d1b8	0.0014176881
35	0x3d37f7ba	0.044913985
36	0x3d68d177	0.056840386
37	0x3cfda1be	0.030960914
38	0xbd3977a2	-0.045280106
39	0x3cdd28e1	0.026997032
40	0xbe2c7793	-0.16842489
41	0xbba9ff18	-0.0051878802
42	0x3ee9526b	0.45570692
43	0x3da4dca4	0.08049896
44	0xbe18ac6a	-0.14909521
45	0x3ded52b4	0.1158804
46	0xbcf5e99e	-0.030018624
47	0x3da8e5dd	0.08246968
48	0x3db1c73e	0.086805806
49	0xbe0ec6bf	-0.13943003
50	0x3c6b1610	0.014348522
51	0x3e1a20ab	0.15051524
52	0xbf9c7b60	-1.2225151
53	0x3da7e7ab	0.08198484
54	0xbf1ae506	-0.6050571
55	0xbe1dc9a8	-0.15408957
56	0xbea6c772	-0.3257404
57	0x3d577cc8	0.052609235
58	0x3da9355c	0.082621306
59	0x3c914c3f	0.017736552
60	0xbf1a229d	-0.60209066
61	0x3d5d72f8	0.05406472
62	0xbe6ba777	-0.23013102
63	0xbddba76e	-0.10725294
64	0xbd35d2c0	-0.04439044
65	0x3e7f0333	0.24903564
66	0x3d404005	0.046936054
67	0x3e170b3d	0.14750381
68	0xbcce93e9	-0.025217013
69	0xbe33effb	-0.17572014
70	0x3ebd36ab	0.3695577
71	0x3e1f9060	0.15582418
72	0x3df2e191	0.1185943
73	0xbda21550	-0.07914221
74	0xbdba175b	-0.09086486
75	0x3e4ebecb	0.20189969
76	0x3e63e539	0.2225541
77	0x3d99503e	0.07486008
78	0xbf22b944	-0.6356394
79	0x3e4a848c	0.19777125
80	0x3dff30ad	0.12460456
81	0x3df18116	0.11792199
82	0xbb988afe	-0.004655241
83	0x3dbab4da	0.09116526
84	0x3d939457	0.07206028
85	0xbe860750	-0.26177454
86	0x3efeef3e	0.49791902
87	0xbee02f1b	-0.4378594
88	0xbdc88921	-0.0979178
89	0xbc892f24	-0.016746111
90	0x3ced102c	0.028938375
91	0xbed715e3	-0.42008886
92	0xbe3a53ba	-0.18196002
93	0xbe42cefe	-0.19024274
94	0x3d04fcea	0.03246776
95	0x3de0fb03	0.10985377
96	0xbe0d342e	-0.13789436
97	0xbe5fb419	-0.21846046
98	0xbddb1d90	-0.10698998
99	0x3ef37a72	0.47554356
100	0xbdec62be	-0.11542271
101	0x3e99f5e2	0.30070406
102	0xbd8e6354	-0.06952539
103	0xbe649947	-0.22324096
104	0xbeb0223c	-0.3440112
105	0xbd046eae	-0.032332115
106	0xbea25667	-0.31706545
107	0xbdee9b6c	-0.11650738
108	0xbd88bf9a	-0.0667717
109	0x3db05850	0.08610594
110	0x3e9a2a61	0.30110458
111	0x3f19016d	0.597678
112	0x3c58b534	0.013226796
113	0x3ec7aaae	0.38997406
114	0x3cd8246a	0.026384551
115	0xbe2a1ee7	-0.16613351
116	0x3d786a73	0.060648393
117	0xbf0e9110	-0.556901
118	0x3e6bf4ca	0.23042598
119	0x3e72a534	0.23695832
120	0xbdb41215	-0.087925114
121	0xbd349cc8	-0.04409483
122	0x3ccd3e74	0.025054194
123	0x3ee27da8	0.44236493
124	0xbe8fe864	-0.28106987
125	0x3cbef978	0.023312315
126	0x3e1942aa	0.14966837
127	0xbe68b2ad	-0.2272441
128	0x3edde69d	0.43340006
129	0xbe60fa62	-0.21970513
130	0xbe803dd1	-0.25047162
131	0x3e6f4066	0.2336441
132	0xbee7fe9a	-0.45311433
133	0xbdb68f9e	-0.089141116
134	0xbdec46c9	-0.11536939
135	0xbc5ed82d	-0.013601345
136	0xbed2b17d	-0.41151038
137	0x3dfebd67	0.124384694
138	0x3d0fd819	0.035118196
139	0xbb964e56	-0.004586975
140	0xbded1c16	-0.115776226
141	0xbcb25291	-0.021767886
142	0x3ecb3f23	0.39696607
143	0x3ea47c2c	0.32125986
144	0xbe711bed	-0.23545809
145	0xbe207eae	-0.15673324
146	0xbc20a553	-0.009805041
147	0x3d4a1869	0.049339686
148	0xbddc468a	-0.10755642
149	0xbc67780f	-0.014127745
150	0xbe5608cf	-0.20901798
151	0x3d02d7c0	0.031944036
152	0xbe6bf16e	-0.23041317
153	0x3d84996c	0.064745754
154	0xbdc1e794	-0.09467998
155	0xbe4a8773	-0.19778232
156	0x3dc769fa	0.0973701
157	0x3db4781d	0.08811972
158	0xbe18ce74	-0.14922506
159	0xbe7477e6	-0.23873863
160	0x3e81f3c7	0.253813
161	0x3de7d9cd	0.11320839
162	0x3b0cee6b	0.0021504413
163	0x3e05e775	0.13076575
164	0x3ece1a50	0.4025445
165	0xbe91f1c4	-0.28504765
166	0x3dc8ad68	0.097986996
167	0x3e5aea9c	0.21378559
168	0xbbde617f	-0.006786525
169	0x3ae4cde5	0.0017456381
170	0xbddc18b9	-0.10746903
171	0x3e581ae7	0.21104012
172	0xbca613bc	-0.020273082
173	0x3dedfaa6	0.11620073
174	0xbc3aecbb	-0.01140898
175	0x3e38174a	0.17977634
176	0x3af5838e	0.0018731223
177	0xbecf507c	-0.40491092
178	0x3f30c285	0.69046813
179	0x3c217948	0.009855576
180	0xbc2600db	-0.01013204
181	0xbcf7b6e0	-0.030238569
182	0xbe9b6aa5	-0.303548
183	0xbe137bb7	-0.14402662
184	0xbdb046a4	-0.08607224
185	0x3c2663f5	0.010155668
186	0x3bc9f86e	0.0061636483
187	0xbe30c955	-0.17264302
188	0xbd418b2d	-0.04725187
189	0x3dc92187	0.09820848
190	0xbd6465f5	-0.055761296
191	0x3d4d4259	0.050112102
192	0x3d26ce69	0.04072419
193	0x3e34a3df	0.17640637
194	0xbb9e59a1	-0.004832462
195	0x3dda3a2c	0.10655627
196	0x3e39a813	0.18130521
197	0x3e3117be	0.17294213
198	0x3e440ad3	0.19144754
199	0x3da7c5a5	0.081919946
200	0x3e66eee2	0.22552064
201	0x3cf5cc4f	0.030004648
202	0xbdcf4a46	-0.101215884
203	0xbd8c5970	-0.06852996
204	0x3e02a51e	0.127583
205	0xbe180bd8	-0.14848268
206	0x3eb40773	0.35161933
207	0x3e2b8664	0.16750485
208	0x3eca0a76	0.39461106
209	0xba8aec48	-0.0010598982
210	0x3c49f774	0.012327064
211	0x3d1942e2	0.0374173
212	0xbee7e079	-0.45288447
213	0x3bf45516	0.007456432
214	0xbd5e3151	-0.05424625
215	0x3c789179	0.015171402
216	0xbdcaaef0	-0.09896648
217	0xbc8b7d0a	-0.017027397
218	0x3e7cae35	0.2467583
219	0x3d35c51f	0.044377442
220	0xbe0304a1	-0.12794735
221	0x3be1d9bf	0.0068924124
222	0xbc1deda4	-0.0096391775
223	0x3cb2dae4	0.02183289
224	0x3cb0db4c	0.021588944
225	0xbe6838f7	-0.2267798
226	0xbdc993cc	-0.09842643
227	0x3ecc04bf	0.3984737
228	0x3e5b4d55	0.21416219
229	0x3ea142d7	0.31496307
230	0xbeb39309	-0.35073116
231	0xbe2b5298	-0.16730726
232	0xbed0a090	-0.407475
233	0xbc6ba96b	-0.014383654
234	0xbea5c050	-0.32373285
235	0xbdd38929	-0.103288956
236	0x3e9b7ec3	0.3037015
237	0x3d3d0cde	0.04615485
238	0xbe41d1ca	-0.18927684
239	0x3efbbc03	0.4916688
240	0xbdcc0a77	-0.099629335
241	0x3e40ffb2	0.1884754
242	0xbd8023e9	-0.06256849
243	0x3e52e524	0.20595223
244	0xbe6619b4	-0.22470742
245	0x3ea3018a	0.31837112
246	0x3e130397	0.14356838
247	0x3e1afbc3	0.15135102
248	0x3e00286f	0.12515424
249	0x3cbd5d23	0.0231157
250	0x3d96d4ce	0.07364808
251	0x3d9cd6fa	0.07658191
252	0x3d5477b0	0.051871955
253	0x3e0db69f	0.13839196
254	0x3ea2d3c3	0.31802186
255	0x3e80d1db	0.25160107

model.decoder_gnn.gnn.0.0.nn.0.bias f4 [16]
0	0xbf0a5934	-0.54042363
1	0xbfaa74da	-1.331691
2	0x3c1a52ce	0.009419156
3	0x3e9b09db	0.30280957
4	0xbe1dfb9f	-0.15428017
5	0x3d51d55d	0.05122887
6	0x3e8888df	0.26666924
7	0xbeafd439	-0.343416
8	0x3e15ab47	0.14616118
9	0xbe417d87	-0.18895541
10	0xbf080690	-0.53135014
11	0xbc31a996	-0.010843655
12	0xbea0d2ff	-0.31410977
13	0x3e0ee5d9	0.13954867
14	0x3ed932ca	0.4242156
15	0x3d8e97e6	0.06962566
