_models_trained/causal_nf/trianglesens_linear/epoch=991-step=4960.ckpt (torch, 6987 bytes, 6 tensors)

model.flow.transforms.0.hyper.0.weight f4 [32, 4]
-0.18106538 0.5329511 -0.058223307 -0.24196243 -0.39387575 0.1261195 -0.059000254 -0.13471979
-0.15159017 0.15740821 -0.56528234 -0.019314945 -0.07833624 -0.5942793 0.18178344 -0.44285804
0.08781649 -0.45271707 -0.014374912 -0.47396952 -0.4002765 0.4284219 -0.22935028 -0.39744735
-0.108542204 -0.3882393 0.15767086 -0.07389969 -0.304924 0.18181527 0.31301296 -0.27136827
0.07804697 0.38997224 0.2745155 0.49271882 -0.12727952 0.562865 -0.14967555 0.09192717
-0.24361265 -0.4966117 -0.10096377 0.47922164 0.6957479 0.025255442 0.8301656 -0.4646104
0.14052773 0.08731586 0.4871093 0.2824872 0.36468306 0.23950791 -0.24310261 -0.3425207
-0.4398727 0.08594111 0.77435577 0.37873334 0.083792746 -0.46727973 -0.025409997 -0.47714233
0.06757256 0.05530727 -0.41347617 -0.07416427 0.14050575 0.21212648 -0.5244839 -0.05597526
0.16882604 0.40829322 0.44044966 0.3110438 -0.35047176 0.12116563 -0.16207713 0.14750737
0.3156613 -0.32784 -0.18532161 0.30813164 -0.4919076 -0.38234544 -0.25919235 0.3466798
0.2247653 -0.028583825 -0.31771606 -0.48958552 -0.6210666 -0.16800322 -0.25234765 -0.48933107
0.13467348 0.29425946 -0.225339 0.47934294 -0.52272266 0.42945486 -0.08188057 0.23867184
-0.012015521 0.036586557 -0.27238786 -0.114216805 -0.48130023 -0.39668813 0.39313942 0.06353837
0.55442274 0.30188864 -0.28562462 0.11790365 0.27607912 0.3658725 -0.09228279 -0.087801814
0.007956088 -0.5359669 0.37510252 -0.45345908 -0.5763016 -0.056515336 0.3886171 -0.15266669
00000000: 3469 39be 7c6f 083f 907b 6ebd 00c5 77be
00000010: 15aa c9be 7825 013e 40aa 71bd fcf3 09be
00000020: 743a 1bbe 9e2f 213e 58b6 10bf 603a 9ebc
00000030: c06e a0bd b022 18bf 7025 3a3e 4abe e2be
00000040: 22d9 b33d 88ca e7be c084 6bbc 22ac f2be
00000050: 0bf1 ccbe 1e5a db3e cdda 6abe 387e cbbe
00000060: 604b debd 4dc7 c6be 7874 213e b858 97bd
00000070: 001f 9cbe c82d 3a3e 3c43 a03e c8f0 8abe
00000080: 17d7 9f3d 71aa c73e 4c8d 8c3e a445 fc3e
00000090: 9055 02be ec17 103f 8c44 19be 5044 bc3d
000000a0: 9875 79be e443 febe 18c6 cebd 8a5c f53e
000000b0: 891c 323f 80e4 ce3c bc85 543f 6ae1 edbe
000000c0: 80e6 0f3e a8d2 b23d 6466 f93e 2aa2 903e
000000d0: bdb7 ba3e 9041 753e e4ef 78be e05e afbe
000000e0: ff36 e1be e501 b03d 2e3c 463f 56e9 c13e
000000f0: 889b ab3d 4a3f efbe a028 d0bc 004c f4be
00000100: 7b63 8a3d e089 623d 26b3 d3be 70e3 97bd
00000110: bde0 0f3e af37 593e 9444 06bf 5046 65bd
00000120: bce0 2c3e cf0b d13e 9e82 e13e 2241 9f3e
00000130: 0971 b3be b025 f83d 8cf7 25be 2c0c 173e
00000140: 5c9e a13e a5da a7be f3c4 3dbe 6ec3 9d3e
00000150: 50db fbbe c8c2 c3be dcb4 84be 0480 b13e
00000160: e028 663e a028 eabc aeab a2be f4aa fabe
00000170: 38fe 1ebf 0909 2cbe b633 81be 9a89 fabe
00000180: d8e7 093e 2da9 963e 44bf 66be 706c f53e
00000190: 27d1 05bf 82e1 db3e 00b1 a7bd 6466 743e
000001a0: bfdc 44bc c9db 153d 6c76 8bbe 80ea e9bd
000001b0: fc6c f6be b51a cbbe 9249 c93e 6820 823d
000001c0: a6ee 0d3f 2691 9a3e 643d 92be 7877 f13d
000001d0: 3e5a 8d3e a453 bb3e c2fe bcbd 70d1 b3bd
000001e0: 405a 023c 2035 09bf 700d c03e ca2b e8be
000001f0: 8088 13bf a07c 67bd d2f8 c63e a854 1cbe

model.flow.transforms.0.hyper.0.bias f4 [32]
0.039492004 -0.14832802 0.28730735 0.11567432 -0.42852816 0.1742336 0.1849847 -0.32484064
0.3202846 0.090562314 -0.044397686 0.43720266 0.715592 -0.48147488 0.771624 0.31989083
0.22865888 0.628033 0.6814521 -0.25719544 -0.17568907 0.1262404 -0.029141659 0.16734177
-0.04552358 -0.25422522 0.4071744 0.44211036 0.0026108818 0.60621697 0.5851699 -0.38491705
00000000: 5ec2 213d 4de3 17be f319 933e a8e6 ec3d
00000010: 0b68 dbbe 4b6a 323e a16c 3d3e 8351 a6be
00000020: 58fc a33e bc78 b93d 59da 35bd 07d9 df3e
00000030: 0a31 373f e083 f6be 2789 453f bbc8 a33e
00000040: 8e25 6a3e c5c6 203f a573 2e3f 1faf 83be
00000050: d6e7 33be 2a45 013e 7dba eebc a45b 2b3e
00000060: ef76 3abd cf29 82be 2a79 d03e 4a5c e23e
00000070: 541b 2b3b 0931 1b3f b2cd 153f d913 c5be

model.flow.transforms.0.hyper.2.weight f4 [8, 32]
-0.1409396 -0.13175365 -0.027546734 -0.16803882 0.16638611 0.07640721 -0.14504533 0.027228177
0.14477877 0.016139016 0.08306302 0.1433791 -0.14333951 0.017419338 0.036425307 -0.07261379
0.05565262 -0.11078417 0.08555721 -0.049998567 -0.07273467 0.12863125 0.16006975 -0.1042119
-0.1385024 0.069551796 0.017648533 -0.07840332 0.10990827 -0.07693808 0.04369642 0.16405581
-0.060228102 -0.05798068 0.09375961 0.1413009 0.13189037 0.123941764 0.014973506 -0.11148787
-0.12612188 0.030162364 0.1529902 -0.09445749 0.07049644 -0.07993647 0.1523257 0.07406069
0.019754961 -0.0296271 -0.066644706 -0.087964475 -0.07871242 0.016459182 -0.08220222 0.09914063
-0.09953181 0.033640116 0.071844324 -0.0043454915 0.038345218 -0.11615372 0.014718622 0.017428562
0.16909365 0.11903559 -0.11157986 -0.015108764 0.058608986 -0.08243026 -0.09405137 0.07527457
0.12808262 0.023558691 0.21381885 -0.06797239 -0.07840357 -0.07198363 -0.16957593 -0.1263971
-0.09540386 -0.029785752 0.06899552 -0.059808668 -0.174968 -0.17069326 0.043228183 0.14428414
0.04491265 -0.055471156 -0.16264366 -0.061871722 -0.13084698 0.012663335 -0.048064053 0.24894871
0.050750643 0.056017525 0.1354359 0.12806202 -0.12065631 0.08701639 -0.06650625 -0.17562282
0.14234932 -0.16199204 0.11557232 -0.17408614 0.06379451 -0.14264588 0.15040879 -0.09364699
0.14245605 0.17666389 -0.030297458 0.042934373 -0.0186221 0.137641 0.14032297 0.14620371
-0.06797035 -0.13600825 0.021019727 -0.0015958548 -0.0009161197 0.13341607 0.17418937 0.09552667
-0.4991873 0.06621382 -0.15471461 0.34049603 0.15316404 -0.042659104 0.5970267 0.058437854
0.17228164 -0.61356026 -0.046759844 -0.040487006 -0.15032737 0.0408832 -0.09458779 0.3514324
-0.1503096 0.06974009 -0.64321333 -0.093459666 -0.07260949 0.3637183 -0.05517547 -0.14139009
-0.21030632 -0.0035934597 -0.040518105 0.5863579 -0.15274562 0.12027846 0.5623969 -0.056341358
-0.07933955 -0.10880639 -0.021759048 -0.11633093 -0.0034322292 -0.15230708 -0.32804468 0.05389349
-0.029675454 -0.11107067 -0.08843861 0.16406418 0.47406203 -0.0011780262 -0.0878397 -0.14024036
-0.0932235 0.023867399 0.1918214 0.074554875 -0.08338235 -0.17077155 0.09401958 -0.083549954
0.06062865 -0.08987588 -0.058723457 0.4266811 0.077321425 0.055085883 0.34373772 -0.13914135
-0.21362282 0.16592227 0.5376022 0.18932295 0.07905321 0.07369799 0.10183917 0.21354635
-0.026138216 -0.1364421 0.22882053 -0.22784162 0.019691586 -0.022795789 -0.44148883 0.23446965
0.0046991785 0.35400024 -0.124799386 -0.010452728 0.35693437 -0.09654091 0.06335032 0.29637936
0.058372084 0.12414933 0.3215818 0.09321118 -0.31324515 -0.121360235 0.06635624 0.083092414
-0.15774943 -0.057406254 -0.32826233 0.08970526 -0.3288529 0.12745927 -0.062593035 -0.22254969
0.039493024 0.027053406 -0.02207936 -0.02770099 0.05556786 -0.11210623 -0.030632872 -0.05601812
0.023296295 0.12831806 0.21604414 -0.21184745 -0.14318618 -0.036587518 -0.032274008 0.083351195
-0.20138729 -0.02013032 0.13031827 0.09338926 -0.107273005 0.049341563 0.11239287 -0.057666272
00000000: 7852 10be 6eea 06be b0a9 e1bc 5e12 2cbe
00000010: 1f61 2a3e 627b 9c3d c386 14be a00d df3c
00000020: e340 143e f835 843c f21c aa3d f9d1 123e
00000030: 98c7 12be 00b3 8e3c b432 153d 8ab6 94bd
00000040: 00f4 633d d0e2 e2bd 9e38 af3d 4ccb 4cbd
00000050: eaf5 94bd e9b7 033e 53e9 233e 0c6d d5bd
00000060: 93d3 0dbe 2c71 8e3d a893 903c eb91 a0bd
00000070: 9617 e13d b691 9dbd 04fb 323d 3ffe 273e
00000080: beb1 76bd 267d 6dbd 0a05 c03d 2fb1 103e
00000090: 450e 073e 2ed5 fd3d 7053 753c c153 e4bd
000000a0: 1826 01be 1017 f73c 77a9 1c3e ee72 c1bd
000000b0: 7060 903d bbb5 a3bd 45fb 1b3e 22ad 973d
000000c0: 28d5 a13c 88b4 f2bc 057d 88bd b826 b4bd
000000d0: fa33 a1bd 68d5 863c a359 a8bd 3e0a cb3d
000000e0: 55d7 cbbd 38ca 093d 1e23 933d a064 8ebb
000000f0: e00f 1d3d 00e2 edbd 6026 713c 58c6 8e3c
00000100: e326 2d3e eec8 f33d fb83 e4bd c08a 77bc
00000110: fa0f 703d 32d1 a8bd 019e c0bd 8e29 9a3d
00000120: 1728 033e 28fe c03c 54f3 5a3e 1c35 8bbd
00000130: 0d92 a0bd 276c 93bd 50a5 2dbe 3e6e 01be
00000140: 1963 c3bd 4001 f4bc 864d 8d3d eff9 74bd
00000150: d02a 33be 37ca 2ebe 0910 313d 39bf 133e
00000160: 54f6 373d b935 63bd 0f8c 26be 346d 7dbd
00000170: c0fc 05be e079 4f3c d0de 44bd 69ec 7e3e
00000180: e8df 4f3d a272 653d b5af 0a3e b122 033e
00000190: a81a f7bd a635 b23d 6e34 88bd 78d6 33be
000001a0: 05c4 113e 3ee1 25be 2eb1 ec3d a343 32be
000001b0: b2a6 823d c311 12be c304 1a3e fec9 bfbd
000001c0: 00e0 113e 61e7 343e 6032 f8bc f4db 2f3d
000001d0: 608d 98bc c3f1 0c3e d3b0 0f3e 6db6 153e
000001e0: 0a34 8bbd bf45 0bbe 9031 ac3c 002c d1ba
000001f0: c127 70ba 399e 083e b35e 323e 7da3 c33d
00000200: 7a95 ffbe 1c9b 873d 826d 1ebe 7f55 ae3e
00000210: 09d7 1c3e 50bb 2ebd bed6 183f 885c 6f3d
00000220: 996a 303e 4912 1dbf 4087 3fbd b4d5 25bd
00000230: 6bef 19be 2475 273d 3eb7 c1bd f3ee b33e
00000240: c3ea 19be e4d3 8e3d a1a9 24bf c867 bfbd
00000250: 49b4 94bd 4939 ba3e acff 61bd 90c8 10be
00000260: 8a5a 57be 4080 6bbb 50f6 25bd 8d1b 163f
00000270: 5969 1cbe 8e54 f63d 3ef9 0f3f 32c6 66bd
00000280: c67c a2bd e2d5 debd 0840 b2bc e93e eebd
00000290: 40ef 60bb 63f6 1bbe 79f5 a7be 6cbf 5c3d
000002a0: f019 f3bc 0579 e3bd 4d1f b5bd 7100 283e
000002b0: 42b8 f23e 0068 9aba 4de5 b3bd 2b9b 0fbe
000002c0: f6eb bebd 9085 c33c d46c 443e 3ab0 983d
000002d0: 5ec4 aabd bdde 2ebe 568d c03d 3d1c abbd
000002e0: bf55 783d d810 b8bd 0288 70bd f275 da3e
000002f0: b25a 9e3d bca1 613d 64fe af3e 127b 0ebe
00000300: f1bf 5abe 87e7 293e 4ca0 093f e0dd 413e
00000310: a6e6 a13d f9ee 963d 0e91 d03d e5ab 5a3e
00000320: d01f d6bc 7ab7 0bbe ee4f 6a3e 504f 69be
00000330: 4050 a13c 3cbe babc d30a e2be d018 703e
00000340: 91fb 993b 853f b53e d296 ffbd eb41 2bbc
00000350: 1ac0 b63e 3eb7 c5bd d0bd 813d 09bf 973e
00000360: 9117 6f3d 0142 fe3d 5fa6 a43e 81e5 be3d
00000370: ab61 a0be b78b f8bd c8e5 873d 5b2c aa3d
00000380: 1189 21be d222 6bbd 0012 a8be 64b7 b73d
00000390: 685f a8be af84 023e c730 80bd 11e4 63be
000003a0: 70c3 213d 1b9f dd3c c6df b4bc 30ed e2bc
000003b0: 209b 633d f397 e5bd caf1 fabc 4273 65bd
000003c0: dfd7 be3c cf65 033e ad3a 5d3e 8aee 58be
000003d0: 669f 12be cbdc 15bd c031 04bd 08b4 aa3d
000003e0: 7838 4ebe 57e8 a4bc 2772 053e de42 bf3d
000003f0: f3b1 dbbd 611a 4a3d 3c2e e63d 7833 6cbd

model.flow.transforms.0.hyper.2.bias f4 [8]
9.061181e-05 1.6369268e-06 0.09633193 -0.11800724 -0.26369393 0.28646678 0.04414495 0.20229942
00000000: d806 be38 60b4 db35 ad49 c53d c8ad f1bd
00000010: e402 87be c6ab 923e 56d1 343d 9427 4f3e

model.flow.base._0 f4 [4]
0.0 0.0 0.0 0.0
00000000: 0000 0000 0000 0000 0000 0000 0000 0000

model.flow.base._1 f4 [4]
1.0 1.0 1.0 1.0
00000000: 0000 803f 0000 803f 0000 803f 0000 803f
