_models_trained/causal_nf/trianglesens_linear/last.ckpt (torch, 6987 bytes, 6 tensors)

model.flow.transforms.0.hyper.0.weight f4 [32, 4]
0	0xbe396934	-0.18106538
1	0x3f087037	0.53296226
2	0xbd6e7b90	-0.058223307
3	0xbe77c500	-0.24196243
4	0xbec9a177	-0.39381
5	0x3e012578	0.1261195
6	0xbd71aa40	-0.059000254
7	0xbe09f3fc	-0.13471979
8	0xbe1b2aa0	-0.15152979
9	0x3e2157fa	0.15756217
10	0xbf10ac01	-0.5651246
11	0xbc9e3a60	-0.019314945
12	0xbda06ec0	-0.07833624
13	0xbf180136	-0.5937685
14	0x3e3a2570	0.18178344
15	0xbee2be4a	-0.44285804
16	0x3db3f87c	0.08787629
17	0xbee7ca88	-0.45271707
18	0xbc6b84c0	-0.014374912
19	0xbef2ac22	-0.47396952
20	0xbecd16ed	-0.40056553
21	0x3edb7760	0.42864513
22	0xbe6a8121	-0.22900821
23	0xbecb7e38	-0.39744735
24	0xbdde4b60	-0.108542204
25	0xbec6b3f4	-0.38809168
26	0x3e217478	0.15767086
27	0xbd9758b8	-0.07389969
28	0xbe9c09a4	-0.30476105
29	0x3e3a2dc8	0.18181527
30	0x3ea0433c	0.31301296
31	0xbe8af0c8	-0.27136827
32	0x3d9f4a73	0.07777872
33	0x3ec7b0b4	0.39002
34	0x3e8c942b	0.27456793
35	0x3efc45a4	0.49271882
36	0xbe025590	-0.12727952
37	0x3f101a90	0.5629053
38	0xbe19448c	-0.14967555
39	0x3dbc4450	0.09192717
40	0xbe796dc2	-0.24358276
41	0xbefe43e4	-0.4966117
42	0xbdcec618	-0.10096377
43	0x3ef55c8a	0.47922164
44	0x3f32430f	0.69633573
45	0x3ccb8f74	0.024848677
46	0x3f545621	0.8294392
47	0xbeede16a	-0.4646104
48	0x3e0fe680	0.14052773
49	0x3db2d300	0.08731651
50	0x3ef96664	0.4871093
51	0x3e90a22a	0.2824872
52	0x3ebababa	0.36470586
53	0x3e754190	0.23950791
54	0xbe78efe4	-0.24310261
55	0xbeaf5ee0	-0.3425207
56	0xbee1b283	-0.44081506
57	0x3daf0b1d	0.085470416
58	0x3f461a46	0.7738384
59	0x3ec1e956	0.37873334
60	0x3dab9b88	0.083792746
61	0xbeef1ca8	-0.4670155
62	0xbcd028a0	-0.025409997
63	0xbef44c00	-0.47714233
64	0x3d89df25	0.067320146
65	0x3d6289e0	0.05530727
66	0xbed3b326	-0.41347617
67	0xbd97e370	-0.07416427
68	0x3e0fe811	0.1405337
69	0x3e5939e1	0.21213485
70	0xbf0640a7	-0.524424
71	0xbd654650	-0.05597526
72	0x3e2ce0bc	0.16882604
73	0x3ed0cff2	0.4078365
74	0x3ee1829e	0.44044966
75	0x3e9f4122	0.3110438
76	0xbeb36e26	-0.35044974
77	0x3df825b0	0.12116563
78	0xbe25f78c	-0.16207713
79	0x3e170c2c	0.14750737
80	0x3ea1da3b	0.3161181
81	0xbea7a0cc	-0.32739866
82	0xbe3d72e8	-0.18500865
83	0x3e9dc36e	0.30813164
84	0xbefbdb50	-0.4919076
85	0xbec3b7a7	-0.38226053
86	0xbe84b4dc	-0.25919235
87	0x3eb18004	0.3466798
88	0x3e660879	0.2246417
89	0xbcea28a0	-0.028583825
90	0xbea2abae	-0.31771606
91	0xbefaaaf4	-0.48958552
92	0xbf1f0bfd	-0.6212767
93	0xbe2b99d9	-0.16757907
94	0xbe8162d9	-0.25270727
95	0xbefa899a	-0.48933107
96	0x3e09e7d8	0.13467348
97	0x3e96a101	0.2941971
98	0xbe66bf44	-0.225339
99	0x3ef56c70	0.47934294
100	0xbf05c4e9	-0.52253586
101	0x3edbe182	0.42945486
102	0xbda7b100	-0.08188057
103	0x3e746664	0.23867184
104	0xbc431789	-0.011907467
105	0x3d16080a	0.03662876
106	0xbe8b692b	-0.27228674
107	0xbde9ea80	-0.114216805
108	0xbef66cfc	-0.48130023
109	0xbecb172e	-0.39666122
110	0x3ec94992	0.39313942
111	0x3d822068	0.06353837
112	0x3f0deead	0.55442315
113	0x3e9a9126	0.30188864
114	0xbe923d64	-0.28562462
115	0x3df17778	0.11790365
116	0x3e8d3c16	0.27584904
117	0x3ebb3d7d	0.3657035
118	0xbdbd1022	-0.09231593
119	0xbdb3d170	-0.087801814
120	0x3c025a40	0.007956088
121	0xbf092eaa	-0.5358683
122	0x3ec00d70	0.37510252
123	0xbee82bca	-0.45345908
124	0xbf138303	-0.57621783
125	0xbd677ca0	-0.056515336
126	0x3ec6f8d2	0.3886171
127	0xbe1c54a8	-0.15266669

model.flow.transforms.0.hyper.0.bias f4 [32]
0	0x3d2284c1	0.039677385
1	0xbe180ca5	-0.14848574
2	0x3e932dac	0.28745782
3	0x3ded95b2	0.11600818
4	0xbedb8074	-0.4287144
5	0x3e323d72	0.17406252
6	0x3e3dadd5	0.18523343
7	0xbea67241	-0.32509044
8	0x3ea3d1b5	0.3199593
9	0x3db9acc5	0.09066156
10	0xbd363738	-0.044486254
11	0x3edff48b	0.4374126
12	0x3f3730a7	0.7155861
13	0xbef69642	-0.48161513
14	0x3f45993a	0.7718693
15	0x3ea3f533	0.3202301
16	0x3e6a3ce7	0.22874795
17	0x3f20cd50	0.6281328
18	0x3f2e94c2	0.68195736
19	0xbe83c09a	-0.2573288
20	0xbe33da3a	-0.17563716
21	0x3e017d75	0.12645514
22	0xbcef08a9	-0.029178934
23	0x3e2b0f42	0.16705039
24	0xbd3ab539	-0.045582984
25	0xbe824feb	-0.25451598
26	0x3ed0844e	0.4072594
27	0x3ee26308	0.4421618
28	0x3b2ebf4a	0.002666431
29	0x3f1b557f	0.6067733
30	0x3f15d325	0.58525306
31	0xbec51b49	-0.3849738

model.flow.transforms.0.hyper.2.weight f4 [8, 32]
0	0xbe105278	-0.1409396
1	0xbe06ea6e	-0.13175365
2	0xbce1a9b0	-0.027546734
3	0xbe2c125e	-0.16803882
4	0x3e2a611f	0.16638611
5	0x3d9c7b62	0.07640721
6	0xbe1486c3	-0.14504533
7	0x3cdf0da0	0.027228177
8	0x3e1440e3	0.14477877
9	0x3c8435f8	0.016139016
10	0x3daa1cf2	0.08306302
11	0x3e12d1f9	0.1433791
12	0xbe12c798	-0.14333951
13	0x3c8eb300	0.017419338
14	0x3d1532b4	0.036425307
15	0xbd94b68a	-0.07261379
16	0x3d63f400	0.05565262
17	0xbde2e2d0	-0.11078417
18	0x3daf389e	0.08555721
19	0xbd4ccb4c	-0.049998567
20	0xbd94f5ea	-0.07273467
21	0x3e03b7e9	0.12863125
22	0x3e23e953	0.16006975
23	0xbdd56d0c	-0.1042119
24	0xbe0dd393	-0.1385024
25	0x3d8e712c	0.069551796
26	0x3c9093a8	0.017648533
27	0xbda091eb	-0.07840332
28	0x3de11796	0.10990827
29	0xbd9d91b6	-0.07693808
30	0x3d32fb04	0.04369642
31	0x3e27fe3f	0.16405581
32	0xbd76b1be	-0.060228102
33	0xbd6d7d26	-0.05798068
34	0x3dc0050a	0.09375961
35	0x3e10b12f	0.1413009
36	0x3e070e45	0.13189037
37	0x3dfdd52e	0.123941764
38	0x3c755370	0.014973506
39	0xbde453c1	-0.11148787
40	0xbe012618	-0.12612188
41	0x3cf71710	0.030162364
42	0x3e1ca977	0.1529902
43	0xbdc172ee	-0.09445749
44	0x3d906070	0.07049644
45	0xbda3b5bb	-0.07993647
46	0x3e1bfb45	0.1523257
47	0x3d97ad22	0.07406069
48	0x3ca1d528	0.019754961
49	0xbcf2b488	-0.0296271
50	0xbd887d05	-0.066644706
51	0xbdb426b8	-0.087964475
52	0xbda133fa	-0.07871242
53	0x3c86d568	0.016459182
54	0xbda859a3	-0.08220222
55	0x3dcb0a3e	0.09914063
56	0xbdcbd755	-0.09953181
57	0x3d09ca38	0.033640116
58	0x3d93231e	0.071844324
59	0xbb8e64a0	-0.0043454915
60	0x3d1d0fe0	0.038345218
61	0xbdede200	-0.11615372
62	0x3c712660	0.014718622
63	0x3c8ec658	0.017428562
64	0x3e2d26e3	0.16909365
65	0x3df36baa	0.1188577
66	0xbde483fb	-0.11157986
67	0xbc778ac0	-0.015108764
68	0x3d6fec0c	0.05857472
69	0xbda8d132	-0.08243026
70	0xbdc09e01	-0.09405137
71	0x3d99d458	0.075112045
72	0x3e032817	0.12808262
73	0x3cc0fe28	0.023558691
74	0x3e5ac530	0.21364284
75	0xbd8b351c	-0.06797239
76	0xbda0920d	-0.07840357
77	0xbd93560e	-0.07194148
78	0xbe2da550	-0.16957593
79	0xbe016e3e	-0.1263971
80	0xbdc32a63	-0.09529569
81	0xbcf40140	-0.029785752
82	0x3d8d4d86	0.06899552
83	0xbd75ac4d	-0.059978772
84	0xbe332ad0	-0.174968
85	0xbe2eca37	-0.17069326
86	0x3d31aeac	0.04337947
87	0x3e13bf39	0.14428414
88	0x3d37f654	0.04491265
89	0xbd63ef3d	-0.055648077
90	0xbe268c0f	-0.16264366
91	0xbd7d6d34	-0.061871722
92	0xbe05cf7c	-0.1306743
93	0x3c4f79e0	0.012663335
94	0xbd44ded0	-0.048064053
95	0x3e7ebe07	0.24877177
96	0x3d4fdfe8	0.050750643
97	0x3d6631b1	0.056199733
98	0x3e0aafb5	0.1354359
99	0x3e0322b1	0.12806202
100	0xbdf76cbb	-0.120812856
101	0x3db235a6	0.08701639
102	0xbd88346e	-0.06650625
103	0xbe33c6d7	-0.1755632
104	0x3e11c405	0.14234932
105	0xbe25e13e	-0.16199204
106	0x3ded1be1	0.11577583
107	0xbe3243a3	-0.17408614
108	0x3d82a6b2	0.06379451
109	0xbe124a37	-0.14286123
110	0x3e1a04c3	0.15040879
111	0xbdbfc9fe	-0.09364699
112	0x3e11ee7d	0.14251132
113	0x3e34e761	0.17666389
114	0xbcf83260	-0.030297458
115	0x3d30567d	0.04305123
116	0xbc988d60	-0.0186221
117	0x3e0cf1c3	0.137641
118	0x3e0f76cc	0.14010161
119	0x3e15b66d	0.14620371
120	0xbd8b340a	-0.06797035
121	0xbe0b18d7	-0.13583694
122	0x3cac3190	0.021019727
123	0xbad12c00	-0.0015958548
124	0xba924828	-0.001116042
125	0x3e089e39	0.13341607
126	0x3e325eb3	0.17418937
127	0x3dc3ec1d	0.095665194
128	0xbeffa6e8	-0.49932027
129	0x3d879b1c	0.06621382
130	0xbe1e6d82	-0.15471461
131	0x3eae533f	0.34047887
132	0x3e1cd709	0.15316404
133	0xbd2ebb50	-0.042659104
134	0x3f18dcbe	0.59711826
135	0x3d6f5c88	0.058437854
136	0x3e306a99	0.17228164
137	0xbf1d1a5b	-0.6136834
138	0xbd3f8740	-0.046759844
139	0xbd25d5b4	-0.040487006
140	0xbe1a0ef9	-0.15044774
141	0x3d277524	0.0408832
142	0xbdc1b73e	-0.09458779
143	0x3eb3f85e	0.35150427
144	0xbe19eac3	-0.1503096
145	0x3d8ed3e4	0.06974009
146	0xbf24b691	-0.64341074
147	0xbdbf67c8	-0.093459666
148	0xbd94b449	-0.07260949
149	0x3eba44e0	0.36380672
150	0xbd61ffac	-0.05517547
151	0xbe10c890	-0.14139009
152	0xbe5785ab	-0.21047084
153	0xbb6b8040	-0.0035934597
154	0xbd25f650	-0.040518105
155	0x3f162378	0.5864787
156	0xbe1c6959	-0.15274562
157	0x3df6548e	0.12027846
158	0x3f0fff63	0.56249064
159	0xbd66c632	-0.056341358
160	0xbda28e8f	-0.07937347
161	0xbdded5e2	-0.10880639
162	0xbcb24008	-0.021759048
163	0xbdee119e	-0.11624454
164	0xbb60ef40	-0.0034322292
165	0xbe1bf663	-0.15230708
166	0xbea7f1cd	-0.32801667
167	0x3d5cbf6c	0.05389349
168	0xbcf319f0	-0.029675454
169	0xbde398b1	-0.11113108
170	0xbdb51f4d	-0.08843861
171	0x3e280071	0.16406418
172	0x3ef2b2f3	0.47402152
173	0xba9a6800	-0.0011780262
174	0xbdb3e54d	-0.0878397
175	0xbe0f9a2a	-0.14023653
176	0xbdbeebf6	-0.0932235
177	0x3cc38590	0.023867399
178	0x3e444615	0.19167359
179	0x3d98b03a	0.074554875
180	0xbdaac45e	-0.08338235
181	0xbe2ed2b4	-0.17072564
182	0x3dc08d56	0.09401958
183	0xbdab1c3d	-0.083549954
184	0x3d783755	0.060599644
185	0xbdb810d8	-0.08987588
186	0xbd708802	-0.058723457
187	0x3eda74c9	0.42667225
188	0x3d9e5ab2	0.077321425
189	0x3d61a1bc	0.055085883
190	0x3eaffc3e	0.34372133
191	0xbe0e7b12	-0.13914135
192	0xbe5b149f	-0.21394585
193	0x3e29fc42	0.16600135
194	0x3f09a49a	0.5376679
195	0x3e41a2f7	0.18909822
196	0x3da250a2	0.07925536
197	0x3d965ec4	0.07342294
198	0x3dd08784	0.101820976
199	0x3e5ad7a6	0.21371326
200	0xbcd6c2ca	-0.02621593
201	0xbe0c0766	-0.13674697
202	0x3e6a5e9f	0.22887658
203	0xbe695cc4	-0.22789294
204	0x3c9f29ff	0.019429205
205	0xbcb977d1	-0.02264014
206	0xbee22aa7	-0.44173166
207	0x3e7018a5	0.23446901
208	0x3b948cbf	0.00453338
209	0x3eb54b03	0.35408792
210	0xbe0028c4	-0.12515551
211	0xbc295293	-0.010334629
212	0x3eb6d2c1	0.35707667
213	0xbdc5d355	-0.09659449
214	0x3d81b6ba	0.063336805
215	0x3e97ce1e	0.29649442
216	0x3d6dfe88	0.058104068
217	0x3dfe6eda	0.12423487
218	0x3ea4b26e	0.3216738
219	0x3dbf1081	0.0932932
220	0xbea068ef	-0.31330058
221	0xbdf914cb	-0.12162169
222	0x3d880634	0.06641808
223	0x3daa660a	0.08320244
224	0xbe217a03	-0.157692
225	0xbd6b312e	-0.05741995
226	0xbea81b77	-0.32833454
227	0x3db7be4c	0.08971843
228	0xbea87411	-0.32901052
229	0x3e02d063	0.12774806
230	0xbd803bfc	-0.06261441
231	0xbe63fd35	-0.2226456
232	0x3d21a8f6	0.039467774
233	0x3cdde0ee	0.027084794
234	0xbcb4cd71	-0.022070618
235	0xbce22f57	-0.027610464
236	0x3d644a6c	0.055735037
237	0xbde5e3a2	-0.11225058
238	0xbcf99f96	-0.030471604
239	0xbd658172	-0.05603165
240	0x3cbff8d6	0.023434084
241	0x3e0360de	0.1282992
242	0x3e5d5924	0.21616036
243	0xbe58fef4	-0.21191007
244	0xbe128852	-0.14309815
245	0xbd15f42d	-0.036609817
246	0xbd0456ed	-0.03230946
247	0x3daaca49	0.08339364
248	0xbe4e29a2	-0.20133069
249	0xbca51c29	-0.02015503
250	0x3e0567ad	0.1302783
251	0x3dbf4a54	0.09340349
252	0xbddbb426	-0.1072772
253	0x3d4a5097	0.049393263
254	0x3de630f9	0.112398095
255	0xbd6c6689	-0.057714973

model.flow.transforms.0.hyper.2.bias f4 [8]
0	0xb887011a	-6.437507e-05
1	0x37d5d1cf	2.5489278e-05
2	0x3dc56aa6	0.09639482
3	0xbdf16cb7	-0.11788314
4	0xbe870ce7	-0.2637703
5	0x3e92a7b2	0.28643566
6	0x3d33fc21	0.04394162
7	0x3e4f500c	0.20245379

model.flow.base._0 f4 [4]
0	0x00000000	0.0
1	0x00000000	0.0
2	0x00000000	0.0
3	0x00000000	0.0

model.flow.base._1 f4 [4]
0	0x3f800000	1.0
1	0x3f800000	1.0
2	0x3f800000	1.0
3	0x3f800000	1.0
